第二章-回归模型/model_weight/LinearRegression_Norm.pth (torch, 20268 bytes, 2 tensors)

linear.weight f4 [48, 96]
00000000: 7056 7bbd a2cb fd3d e884 913c 13e0 c13c
00000010: 0b96 233d a63e 6d3d 1bd8 aa3d cb41 ba3d
00000020: 0508 ca3c 9234 be3d 7471 c9bd 5bf5 35bd
00000030: 12b0 a2bd 00ea 6bbc 0f84 953d 5697 ef3c
00000040: ba98 bfbc dca3 1c3c c551 75bd 02e7 50bc
00000050: f50b 743d 5eb0 13bd 5cd4 503b 7258 6d3c
00000060: 0aae 843d 9828 22bd 631a 39bd f3f3 35bd
00000070: a597 88bc b9a0 45bd 818e 8bbd 41df 3d3a
00000080: b3a0 213c 6dca 643d 2911 e73c bd96 43bd
00000090: e5c8 d8bd 1d40 9ebd fd84 a1bc 75bf 7e3c
000000a0: 7943 593d 4a37 d63d d6a4 a23d c758 b93d
000000b0: 1dbe 733d dd5e a13b 2ebf 023d ef26 0f3b
000000c0: 2358 b1bd c336 1e3d 7a33 a03d 2e02 08bd
000000d0: 0296 8b3d 26d1 57bd bb8f 91bd 4c76 a33d
000000e0: 256e afbd 626c 203d bbf8 6e3d 20eb 993d
000000f0: a6d6 02bd 21c7 9bbd c8c9 cc3d 650d 05bb
00000100: 6e01 503d a796 663c d0a5 58bd 652b a9bd
00000110: c0b5 d43d 19e5 9ebd db5a 33bd 546e b43d
00000120: cde2 1f3d d457 fb3b 688c 32bd ba30 bcbd
00000130: 7763 093a 5c77 723d 8b5a 653d c99d 443d
00000140: 8eac b43d b336 653c 3580 273c c461 9dbd
00000150: 48be 1c3d 43ef 203d cf54 873d 8df4 9a3d
00000160: ef5f f73d 0a78 3e3d 38ca 2ebd b3cc 3fbd
00000170: c5fe f13d 2486 973d 0a20 be3d e713 91bd
00000180: 6829 163c cf02 273d 205d 88bd d4f2 093e
00000190: 886a c2bc 77a8 133e 37b6 45bd 8077 db3d
000001a0: 5096 34bc 2da3 37b8 18ac 8a3d 61f6 48bd
000001b0: 040a 53bc 55a2 6d3d ffcf 73bc 5fad b2bc
000001c0: 7485 c3bc a4d8 cd3d 265c a0bb 65e8 dabb
000001d0: fa2e 03bd 1483 2cbd c59c 943d b507 81bd
000001e0: f4ea 01bd b982 423d ee00 d93d f54b 56bd
000001f0: 35b8 fd3c fff0 29bd 3220 bc3d 056a d73d
00000200: 5efe ae3d 5abe 9ebc 0fcc 52bd 2a17 07bd
00000210: 0584 dbbb 2782 8f3d 2a10 783c 3f2e e03d
00000220: eaf9 80bd a28e cc3c 6f63 4bbd 9ff7 9bbd
00000230: 5c25 13bd c78c 003d 7df7 60bd a8c6 fb3b
00000240: 9db8 9bbb bc3d 11bd f25a 033e d144 9dbc
00000250: 6517 67bd 0f7d b13d 029d 76bd 80b6 2b3c
00000260: 8bf3 20bd 8bc5 863d bcfe 9a3d 8e70 09b9
00000270: 9314 4e3c cb9d 71bd 16dc e7bc 8d87 4c3d
00000280: 73d2 f5bc 49b9 debc cbb9 003e 861a aabd
00000290: 95ae 403d a396 b2bc 6bb3 c53d ed91 cabc
000002a0: 94b0 003e e727 043d 9a38 3dbc 2726 ae3c
000002b0: be1c 363d c008 96bb 2dcb dfbb 6376 433d
000002c0: e647 863d 617e 2cbc 3ba4 b9ba a4e2 ae3d
000002d0: d88e 0dbd ab90 eb3c 27c2 19bd b201 bcbd
000002e0: 2f7d ba3d 77a3 313c ac12 233d 7a79 a03c
000002f0: 37ea 4f3d f458 013c b41c c9bc 979a a13c
00000300: 68e3 1fbc 75c4 b63d 1005 93bd 4675 3d3d
00000310: 5727 85bc c75b b13d 871d 75bd b4b6 23bd
00000320: 8802 173d c84f ff3c 3f55 8fbd 06c9 25bd
00000330: 944b 96bd 51d9 513d 6a96 3f3d a493 adbc
00000340: d4f7 923d 47a8 b83d ef3f 9c3c e94d 0ebd
00000350: 10ad 8dbd 7507 24bc c809 63bd d64c 503d
00000360: 3590 8b3d 7494 f33d 9841 4dbd d33a b4bc
00000370: 5659 803c 54f5 ad3a 2273 863d 5bdd 8ebd
00000380: 6774 493d 3b67 d33c 2179 ac3d 5bd4 06bc
00000390: f2f8 063d bda4 433d b04f 8abd e691 58bd
000003a0: 0644 553d b934 f4bc 7f22 8a3d 5b55 003d
000003b0: d46b bb3b 93e5 a03d a151 12bd 7ef3 45bc
000003c0: 89bb 143d b37b 243d 3a71 543d 97c7 a63d
000003d0: 95c2 c03d 386d 933d fe93 1b3b 4075 91bd
000003e0: ba52 e8bc a31c d73b 133a a33c 9e14 3cbd
000003f0: 0423 bebc c7c3 b03d 91b1 28bd b624 7d3c
-0.06136173 0.123923555 0.01776357 0.023666417 0.039938014 0.057921074 0.08342 0.0909458
0.024662027 0.09287371 -0.098360926 -0.044423442 -0.07943739 -0.014399052 0.07300579 0.029246967
-0.023388255 0.0095605515 -0.059892435 -0.012750389 0.059581716 -0.03605687 0.0031864857 0.014486419
0.06478508 -0.039589494 -0.04519118 -0.0444221 -0.016673872 -0.04824898 -0.0681429 0.0007243045
0.009864974 0.05585711 0.028206425 -0.047751177 -0.105851926 -0.077270724 -0.019716734 0.015548577
0.053042863 0.10459764 0.07941596 0.09050136 0.059507478 0.0049246387 0.031920604 0.0021843275
-0.08659389 0.038626444 0.078223184 -0.033205204 0.06815721 -0.052689694 -0.071074925 0.07981548
-0.0856593 0.039165862 0.058342677 0.0751555 -0.031942986 -0.0760634 0.09999424 -0.0020302173
0.050782613 0.014074004 -0.052892506 -0.0826023 0.103862286 -0.07758541 -0.04378782 0.08810106
0.039034653 0.007670382 -0.043590933 -0.09188981 0.00052409567 0.05919586 0.05599455 0.04800204
0.08821975 0.013990092 0.010223438 -0.07684663 0.038267404 0.039290678 0.06607973 0.075661756
0.12078845 0.046501197 -0.04267332 -0.046826076 0.118161716 0.07398632 0.09283455 -0.07083874
0.009165145 0.040774163 -0.06658387 0.13471538 -0.023732439 0.14419733 -0.048269477 0.10716152
-0.011022165 -4.378257e-05 0.067711055 -0.04906309 -0.012880806 0.05801614 -0.014881133 -0.021811185
-0.023867346 0.100510865 -0.0048937974 -0.0066805356 -0.032027222 -0.042117193 0.07256464 -0.06300298
-0.03171821 0.047487948 0.105958804 -0.052318532 0.030971626 -0.041489597 0.09185828 0.105182685
0.085446104 -0.019377876 -0.051464137 -0.032981075 -0.0066990876 0.070072465 0.015140573 0.10946321
-0.06297667 0.024970356 -0.049655374 -0.07615589 -0.0359243 0.031384256 -0.054923523 0.007683594
-0.004752232 -0.035459265 0.12827662 -0.019197853 -0.056418795 0.08666431 -0.060208328 0.010480523
-0.03929476 0.06580647 0.07568118 -0.00013107268 0.012578147 -0.058988374 -0.028303187 0.04993396
-0.030007577 -0.02718796 0.12570874 -0.0830584 0.047041494 -0.021800345 0.09653362 -0.024727786
0.12567359 0.032264616 -0.011549139 0.021258427 0.044461004 -0.00457868 -0.0068296404 0.047720324
0.06556682 -0.010528178 -0.0014163324 0.08539322 -0.034560055 0.028755507 -0.037538674 -0.09180011
0.09105908 0.010842196 0.03981273 0.019589175 0.050760474 0.007894743 -0.02454982 0.019727034
-0.009758808 0.0892419 -0.071787 0.04625442 -0.01625411 0.08660083 -0.059842613 -0.03996916
0.03686765 0.031165972 -0.06998681 -0.040474914 -0.07338634 0.05123264 0.046774305 -0.021188565
0.07176176 0.09016471 0.019073455 -0.03474227 -0.06917775 -0.0100115435 -0.05542925 0.050854526
0.06814615 0.118935496 -0.050111383 -0.022000706 0.015667599 0.0013271966 0.065649286 -0.06975814
0.049183276 0.02580606 0.08421541 -0.00822934 0.032952257 0.04776453 -0.067534804 -0.052873515
0.052066825 -0.029810296 0.06744861 0.0313314 0.005719641 0.07856288 -0.03572238 -0.012081979
0.03631166 0.04015703 0.051865794 0.081435375 0.094121136 0.07198566 0.0023739333 -0.07102442
-0.02835976 0.006564693 0.019925153 -0.0459181 -0.023210056 0.086310916 -0.041184966 0.015450647

linear.bias f4 [48]
00000000: 49cb 673b 46f0 12bb 2999 663c c1b4 223c
00000010: 690f 2c3c 952c 0e3c 0c3c 5b3c 9a0b 70ba
00000020: 61f9 433c f84b 303c 67fa 473c cc4a 8fbb
00000030: 4b37 ef3b a1a0 4b3c bd1a 0b3c 8307 973a
00000040: 03ae 113c 9b75 023c 0557 3b3c b3cf 383c
00000050: 5631 683c 1732 803c b255 033b 0d1b 313c
00000060: 713e 6d3c 948a 3b3c 7d4c 8b3c f0c1 353c
00000070: e451 913c 926f 283c b519 fc3b fee1 253b
00000080: 7c6f af3b 63f0 853b e0bc 073b c9d3 553b
00000090: d1c7 c63b 18ec d83b 8b37 9c3b 5894 d93b
000000a0: 3b08 583c 5e67 b53c 69f2 d23c 934a b53c
000000b0: dcc7 113d e36d 253d 0f0d 3e3d 68d9 773d
0.003536897 -0.0022421046 0.014074602 0.00993079 0.010501721 0.008677621 0.0133810155 -0.0009157002
0.011961312 0.0107603 0.012205697 -0.00437293 0.0073002926 0.012428434 0.008490262 0.0011522624
0.008891585 0.00796261 0.011434321 0.011279988 0.014171919 0.015648885 0.0020040092 0.010809672
0.014480219 0.011446614 0.017004246 0.011093602 0.017739244 0.010280507 0.007693494 0.0025311704
0.005353866 0.004087494 0.0020711944 0.0032627454 0.0060663004 0.0066199414 0.0047673634 0.0066399984
0.013185556 0.022144016 0.025750356 0.022130286 0.03559099 0.040388 0.046399172 0.06051007
