第二章-回归模型/model_weight/LinearRegression_Norm.pth (torch, 20268 bytes, 2 tensors)

linear.weight f4 [48, 96]
00000000: 8b3b 32bd 3c33 633d 9a43 98bd ac44 ac3d
00000010: 143c 813d 9a42 5fbd 6f54 7a3d 45b2 0f3d
00000020: 281b 5c3d 00b2 fe3c 5381 e03c 2bcd ab3b
00000030: ce2d 663d 8502 ff3c a30a 83bd b206 2d3d
00000040: d341 73bd 620a c33b 10b4 57bd fc4b b33d
00000050: 47c4 c1bd c066 d4bc da37 2bbd c0d8 35bd
00000060: 4d4b 08bc ebda a9bd 8d01 933d 050b 8cbd
00000070: 6b3a 883d cdf2 0d3d 1b39 4bbd 9c00 a33d
00000080: 46db 783b b4d4 ca3d d0ac 863a c045 7cbc
00000090: feac 2c3c 04f1 12bc c034 ea3c 964e db3d
000000a0: 20fe 2a3d 3e19 d4bc c1f9 4c3d 6589 193d
000000b0: 9175 353d c261 2cbd b61f d3bd 8df8 94bc
000000c0: d390 99bd 4936 d43d ead2 c13c 7268 833d
000000d0: 843d c43c 643e a73c 9a2f 933d adf6 47bd
000000e0: e05c a6bb 5464 39bd b9b0 e13c 6581 3bbc
000000f0: e6db e23c 70b2 a13b 9fae ac3d e7f9 0dbd
00000100: 98a4 76bd e03e 0dbd ef8d bd3d 3097 7b3d
00000110: 91b0 d83d eae7 60bd c113 b6bd 207a 4ebd
00000120: fa46 5ebd 455d 8c3d c41f 653d 730d e43d
00000130: a3bf 10bd 2d0e 29bd d0d4 8e3d bc32 5cbc
00000140: fa08 983d 08a1 4d3b ec02 aa3d 2584 5fbd
00000150: 8401 8bbc 4e93 6a3d a836 5d3d be19 2f3b
00000160: 528c b43d 699a ce3d a4c4 1abd f4b3 cfbc
00000170: e82f 113e 247a aabb c640 cc3c 4054 8cbd
00000180: 275f 49bd 3a30 873d 9d20 89bb 6151 d8bc
00000190: d367 293c 9f71 c2bc 9815 a1bd 2e63 54bc
000001a0: 0ad3 b4bd 6adc bdbc 80d9 cb3d e604 7e3d
000001b0: b69b f53c 703e 59bd 380b 88bd 1874 1f3c
000001c0: 46eb a23c 4327 43bd 1576 1abd e9e3 9bbc
000001d0: 33f0 d83b bd04 7b3b b737 1b3a 222d ecbc
000001e0: f565 83bd dfe9 9bbc c2db f8bc 66c0 21bd
000001f0: 269d b63d 79a4 aa3c d9d4 b53d 1da7 943d
00000200: f11d acbd 9587 df3d b221 b7bc 3bfd ca3a
00000210: 27ab a9bd a4f9 71bd cb71 e13c b72e 903c
00000220: 3f34 0c3d f2ea 35bd 3e29 943d d9a6 18bd
00000230: 6e62 b2bc 627f 6f3d 8bcc 493d a8b5 f43d
00000240: 18eb b83d 5a8e 32bd 9316 af3c 7367 dbbb
00000250: 3da3 1abc e771 25bd bced bc3d 9a13 23bd
00000260: 9ed5 583d 0f0f 8d3d b311 093d fca2 c9bc
00000270: d68d c53d 227f 5c3d 09e9 8b3c a032 76bd
00000280: 1e52 453d f99e 533c c05f 18bd 4949 eb3d
00000290: be05 1f3d b377 eabc 0d8e 11bd b9f2 b83c
000002a0: 398d 933d f7da 12bb f4aa 26bd b5d9 3fbc
000002b0: fd01 64bd e456 6e3d 09d8 cd3d 42d3 98bd
000002c0: 5e07 3d3d 5224 933d f789 383d c392 acbc
000002d0: 6be7 a43d ca77 883d a9bf 893d 9cb9 a6bb
000002e0: 1a44 9a3b 2130 b93c c14d 843c e381 c3bc
000002f0: b89e d53d 35ad b93d acfc 083d bf14 bbbc
00000300: 312f 89ba fabb 4d3c 4bd4 c73c 294a 613d
00000310: 613f bdbd 0298 a9bb 4b29 ae3d 12b7 8a3d
00000320: 57cb eebb 2453 13bd 5769 71bd 9d11 87bd
00000330: 22fa e3bc 2a95 6e3d 5e00 913d 5865 8c3d
00000340: 9c90 a2bd e0fb 23bd 644f 94bb 24fe f73d
00000350: c71b d33c 3501 adbb e81f 5e3d 9114 88bc
00000360: be96 5cbd b8eb c53d 0194 08bd ab6f 3c3b
00000370: e68b a8bd 91d1 b53d d508 bf3d f0e7 713d
00000380: c020 5fbd 0acc 9ebd dc3f 86bd bec5 c93d
00000390: 277b 813d 2837 df3d 9580 8d3d 32b6 453d
000003a0: c0b5 4c3c f212 5cbd 5ff4 91bd dd3b 8ebd
000003b0: 9f41 6d3d 9d62 b9bc f08b dcbb 27e8 f8bc
000003c0: 9574 abba 76e6 2fbd b796 3abd 67ee 743d
000003d0: 29a5 2abc 5194 b43d 84a8 82bc 1627 40bd
000003e0: f3ed 6fbb bb73 a5bc b980 8cbc 0ddc 8bbd
000003f0: 381a 8f3d f15a 29bd 5e35 803d f31c 9b3d
-0.043513816 0.055468783 -0.07434769 0.084115356 0.06310287 -0.054506876 0.06111568 0.03508212
0.053736836 0.031090736 0.027405417 0.005242964 0.056196027 0.031129131 -0.06398513 0.042242713
-0.059388947 0.0059521655 -0.052661955 0.08754727 -0.09461265 -0.025927901 -0.04180131 -0.044396162
-0.008318734 -0.082937084 0.0717803 -0.06838039 0.06651767 0.03465538 -0.049615007 0.079591006
0.0037972494 0.09903851 0.0010274891 -0.015397489 0.010539291 -0.008968595 0.028589606 0.107083485
0.04174626 -0.025890943 0.05004287 0.037484545 0.044301573 -0.042085417 -0.10308783 -0.018184924
-0.07498326 0.103619166 0.023660142 0.06416406 0.023955114 0.020415492 0.07186814 -0.048819233
-0.0050769895 -0.045261696 0.027550088 -0.011444424 0.027692746 0.0049346015 0.08431744 -0.034662154
-0.060215563 -0.03448379 0.09255587 0.06142348 0.10580552 -0.05490867 -0.088904865 -0.050409436
-0.054266907 0.06853727 0.055938497 0.11135378 -0.03533901 -0.041273285 0.069741845 -0.01343983
0.07423587 0.00313765 0.083013386 -0.054569382 -0.016968496 0.057269387 0.054007202 0.0026718224
0.088158265 0.10088045 -0.037785187 -0.025354363 0.14178431 -0.0052025486 0.02493323 -0.06852007
-0.04916301 0.06600995 -0.004184796 -0.026405992 0.010339695 -0.02373582 -0.07865447 -0.012963099
-0.08829315 -0.02317639 0.09953594 0.06201639 0.029981475 -0.05303806 -0.06642765 0.009732269
0.019887578 -0.047644865 -0.037710268 -0.019029574 0.006620431 0.0038302385 0.0005921083 -0.028830115
-0.06415931 -0.019032417 -0.030378226 -0.039490126 0.089166924 0.02083038 0.08878488 0.07258437
-0.08404148 0.10914532 -0.022354934 0.0015486846 -0.08284598 -0.059075966 0.027520081 0.0176004
0.034229513 -0.044413514 0.07234429 -0.037268493 -0.02177545 0.05847109 0.049267333 0.11948711
0.090292156 -0.04359279 0.021373069 -0.0066956817 -0.009438333 -0.04039183 0.09225032 -0.039813615
0.052938096 0.06887638 0.033464145 -0.02461385 0.09646194 0.05383218 0.017078893 -0.060106874
0.048174016 0.01291632 -0.03720069 0.114885874 0.038823836 -0.02862153 -0.03553586 0.022576677
0.072046705 -0.0022408345 -0.040690377 -0.01170962 -0.05566596 0.058188334 0.10050971 -0.07462169
0.046149604 0.07184662 0.04505345 -0.021066075 0.08051952 0.06663473 0.067260094 -0.0050880443
0.0047078254 0.022605957 0.016150357 -0.023865646 0.10430664 0.0906624 0.03344409 -0.022837041
-0.0010466335 0.012557024 0.024393221 0.055002365 -0.09240604 -0.0051755914 0.0850397 0.06773199
-0.0072874236 -0.03596796 -0.05893835 -0.06595156 -0.027829234 0.058247723 0.07080148 0.06855267
-0.07937738 -0.04003513 -0.0045260657 0.1210902 0.025770081 -0.005279685 0.054229647 -0.01661137
-0.053854696 0.096641004 -0.033344273 0.0028753083 -0.082298085 0.08877862 0.093278565 0.059059083
-0.054474592 -0.07753761 -0.06555149 0.098521695 0.063223176 0.10899192 0.06909291 0.048269458
0.012494504 -0.053729005 -0.07126688 -0.06945012 0.05792391 -0.02263003 -0.006730549 -0.030384136
-0.0013081009 -0.042944394 -0.04555389 0.05979767 -0.010415354 0.088173516 -0.015949495 -0.046912275
-0.0036610335 -0.020196786 -0.017151223 -0.06829081 0.06987423 -0.041346494 0.06260179 0.07573881

linear.bias f4 [48]
00000000: 0b4f a83b bc3a 783c 6993 9e3c e339 413b
00000010: 6bbb f0bb 5ea6 9cb9 adc0 8fbb 937c a93b
00000020: 9802 2f3c 3641 9dbb 8bf3 833c 389a bf3b
00000030: bfdf 093c 000c 463c 93a2 6b3c 4363 0e3c
00000040: b4c3 0c3b 1144 d93b c2ad 0b3c 23fa 833c
00000050: 31cb 113c 09ef ad3b bcc5 b2bb 4e78 523d
00000060: 955a de3c 21ae 513c 09d8 f33b fea6 803c
00000070: 2001 2d3c e51f 753c f2a2 743c 5d70 a13a
00000080: a2e1 d33b d8a8 4b3c 0c86 e03b 3bbc 093d
00000090: a93a 0b3d adf2 c13b dfa7 713c 9108 fa3b
000000a0: f35b 513c 705b 983c 2426 e83c 2e4a 193d
000000b0: 74ac 043d 03d4 3e3d 1fed 913c 0dd5 983d
0.005136376 0.015150722 0.0193574 0.0029483966 -0.0073465607 -0.00029878592 -0.0043869824 0.005172321
0.010681771 -0.0047990335 0.016107341 0.0058472417 0.008415162 0.012087822 0.014382022 0.008690658
0.0021478953 0.0066304286 0.008525314 0.016110485 0.008898542 0.005308036 -0.0054557007 0.051384263
0.027142802 0.012797863 0.007441525 0.015704628 0.01055935 0.0149612175 0.014931427 0.0012316812
0.0064661065 0.012430392 0.006851917 0.033626776 0.03399149 0.005918822 0.014749496 0.0076304157
0.01277827 0.018598288 0.0283385 0.03742426 0.032391027 0.04658891 0.017813263 0.07462511
