第二章-回归模型/model_weight/LinearRegression_Lasso.pth (torch, 20338 bytes, 2 tensors)

linear.weight f4 [48, 96]
-0.00022008648 0.08885354 -0.00025895127 0.00018148648 -0.00028906422 9.848793e-05 -0.0013383492 0.05670568
-0.00010552348 0.00014827984 -0.00018509311 0.019688306 -0.00013824936 0.01469539 6.6631474e-06 0.00011930659
-0.004006198 0.07004655 -5.7670113e-06 0.000109117645 0.00010066424 0.00010259754 0.00019333395 0.032620076
0.00010875749 0.004100028 0.00022412084 5.9241233e-05 0.00023919424 0.004450248 0.018373113 4.5752735e-05
0.00023468144 1.5887577e-05 0.00027468527 0.021708656 0.00023665081 0.04283488 0.0001874295 6.062357e-05
0.00022045065 1.7074457e-05 0.00025343854 0.0049337153 0.0002456281 1.8834677e-05 0.0003193344 4.4910084e-06
0.00032856557 3.0824143e-05 0.03505987 5.242785e-05 0.054929905 7.678711e-06 0.00027622527 0.054553352
0.0002153159 -0.006964769 0.00014451906 1.4449043e-05 0.035612095 2.205133e-05 0.055501588 3.6800317e-05
0.0001488101 -0.0066899233 0.00014726474 0.03947801 0.00015853334 2.499724e-05 0.00010613988 1.6999645e-06
0.08294602 3.372728e-05 0.00073365134 0.03618273 0.06350146 1.2450753e-05 0.0746131 1.3351784e-05
0.03379949 3.0848336e-05 0.022554632 1.3150703e-05 0.011953681 0.031213328 0.029234124 -7.9320216e-08
0.030229127 -0.0012467287 0.010338591 -3.068577e-06 0.06226272 1.1799007e-05 0.02636502 5.8306e-07
-0.032013983 1.8440762e-05 -0.008647288 0.06111841 0.008178679 0.041937143 -0.004344397 0.078072555
0.010049682 3.386511e-05 4.9101833e-05 0.026561508 -0.017614987 -1.3641527e-05 -0.024594905 0.02825356
-1.8849847e-05 -0.010495119 -1.653041e-05 5.4870026e-05 0.025015453 -4.540153e-05 3.0659157e-07 1.2500069e-05
-1.7207107e-05 5.2217663e-05 2.229372e-05 -3.7799204e-05 2.8085306e-05 0.0040783915 -4.8515294e-06 7.012596e-05
0.025218064 0.0634187 5.1624147e-06 6.256913e-05 -0.03243123 2.2649863e-05 -1.1482083e-05 4.144141e-05
6.6738285e-06 3.0218054e-05 1.4431213e-05 0.00095596 0.072291076 0.065394625 -0.00030636493 4.51171e-05
3.1275005e-05 8.14241e-06 0.02048837 3.6232246e-05 2.5223128e-05 -0.013680726 2.9616564e-05 -0.013409053
0.01625322 1.49118705e-05 1.4289659e-05 2.9496952e-05 0.06217749 4.888237e-05 0.069679916 1.9663705e-06
0.06031114 1.649297e-05 -0.0056389514 0.05690045 -7.4089453e-06 3.0971467e-05 0.054418545 2.3831222e-05
-1.2239517e-05 0.067074165 -0.0022560046 1.1538279e-05 0.04545381 1.7960347e-06 0.007168035 1.4405157e-05
6.456351e-05 0.041110367 0.00014252382 2.5015746e-05 0.08952569 0.029396601 0.06292224 0.023509786
0.0010497826 3.086224e-05 0.002805086 -0.02289122 0.11699678 -0.024751306 0.00999033 1.2046781e-05
-0.040119696 -5.021043e-07 -0.0005716297 0.021752745 -0.037326586 0.00023162196 -0.010873216 -9.247615e-07
5.7255045e-05 0.0086509995 2.9598139e-05 0.09471573 8.851586e-05 4.7260175e-05 0.0016359282 0.0847797
0.0038986953 3.0244386e-05 0.0067161825 -0.012910557 -0.018412478 2.3098339e-05 -0.040074494 7.4377385e-07
-0.027520465 0.020840365 0.0085560875 1.9083216e-05 7.890086e-05 4.239494e-06 0.04078948 4.9993636e-05
0.051978257 0.026419804 4.9687173e-05 0.053750213 1.44697315e-05 2.9468824e-06 0.07143778 0.0037285676
0.05405995 -4.1516378e-06 -0.03893821 0.05170353 2.0422118e-05 0.017880311 2.0424882e-06 0.019301325
-0.026154138 4.9902046e-06 0.066894576 1.919895e-05 0.08080101 0.0037058098 0.04127559 0.06635083
3.594068e-05 1.7007951e-05 0.059881028 2.1354084e-05 -0.012776376 0.03170952 -0.024879346 3.2241137e-06
00000000: 04c7 66b9 d8f8 b53d dac3 87b9 684d 3e39
00000010: 8b8d 97b9 4e8b ce38 8c6b afba 3744 683d
00000020: 7d4c ddb8 917b 1b39 8e15 42b9 5f49 a13c
00000030: 08f7 10b9 efc4 703c 0094 df36 3d34 fa38
00000040: 6d46 83bb 9174 8f3d 4082 c1b6 17d6 e438
00000050: b41b d338 a329 d738 b0b9 4a39 a19c 053d
00000060: bc14 e438 8759 863b fb01 6b39 ca79 7838
00000070: 37d0 7a39 63d3 913b 3683 963c a0e6 3f38
00000080: d214 7639 5046 8537 a203 9039 5ad6 b13c
00000090: 7825 7839 a173 2f3d b988 4439 1046 7e38
000000a0: c528 6739 1e3b 8f37 f2df 8439 01ab a13b
000000b0: a5c7 8039 29ff 9d37 566c a739 78b1 9636
000000c0: 5343 ac39 2c49 0138 f09a 0f3d fae5 5b38
000000d0: 2efe 603d d0d3 0037 54d2 9039 5673 5f3d
000000e0: 6cc6 6139 b838 e4bb 0a8a 1739 2b6a 7237
000000f0: fddd 113d dffa b837 a255 633d 0a5a 1a38
00000100: e809 1c39 2537 dbbb 146b 1a39 b2b3 213d
00000110: f83b 2639 2ab1 d137 6a97 de38 562a e435
00000120: 9adf a93d 6476 0d38 8252 403a 5834 143d
00000130: 0e0d 823d 94e3 5037 c1ce 983d 7a01 6037
00000140: 5671 0a3d 2663 0138 7ec4 b83c d7a1 5c37
00000150: 5fd9 433c 18b3 ff3c 677c ef3c c056 aab3
00000160: 13a3 f73c 4669 a3ba 3263 293c c0ed 4db6
00000170: 3207 7f3d 59f4 4537 74fb d73c 9483 1c35
00000180: 1821 03bd 3cb1 9a37 5bad 0dbc 4c57 7a3d
00000190: deff 053c 48c6 2b3d 725b 8ebb 81e4 9f3d
000001a0: 6ca7 243c 630a 0e38 b1f2 4d38 8597 d93c
000001b0: 4e4d 90bc eadd 64b7 417b c9bc 0374 e73c
000001c0: bd1f 9eb7 b8f3 2bbc c9aa 8ab7 3e24 6638
000001d0: 35ed cc3c 866d 3eb8 a099 a434 63b7 5137
000001e0: fb57 90b7 4a04 5b38 6603 bb37 968a 1eb8
000001f0: bc98 eb37 07a4 853b 52ca a2b6 9710 9338
00000200: 1d96 ce3c aae1 813d ce38 ad36 8c37 8338
00000210: 9cd6 04bd 3600 be37 2ca3 40b7 60d1 2d38
00000220: c0ef df36 c77c fd37 961d 7237 6499 7a3a
00000230: 580d 943d 9eed 853d 9b9f a0b9 1e3c 3d38
00000240: 482d 0338 629b 0837 3ad7 a73c 14f8 1738
00000250: 4196 d337 2025 60bc 1671 f837 a5b1 5bbc
00000260: 7925 853c ff2d 7a37 9ebd 6f37 3970 f737
00000270: d3ad 7e3d 0c07 4d38 58b4 8e3d fdf5 0336
00000280: d008 773d 625a 8a37 f4c6 b8bb 7210 693d
00000290: 5b9a f8b6 5ce7 0138 fbe5 5e3d 29e9 c737
000002a0: 5358 4db7 2e5e 893d 7ad9 13bb 8894 4137
000002b0: c62d 3a3d 480f f135 d6e1 ea3b aead 7137
000002c0: 4566 8738 5863 283d 7272 1539 e8d8 d137
000002d0: 3f59 b73d 24d1 f03c 60dd 803d 9897 c03c
000002e0: dc98 893a 1472 0138 89d5 373b 5e86 bbbc
000002f0: 029c ef3d 40c3 cabc 7bae 233c 881c 4a37
00000300: 8d54 24bd 58c8 06b5 6bd9 15ba d032 b23c
00000310: c3e3 18bd 8cdf 7239 9325 32bc 203d 78b5
00000320: 2325 7038 ecbc 0d3c 8549 f837 52fa c13d
00000330: 97a1 b938 3a39 4638 a46c d63a fba0 ad3d
00000340: 4181 7f3b 53b5 fd37 6c13 dc3b cd86 53bc
00000350: c4d5 96bc 4ec3 c137 2725 24bd c0a7 4735
00000360: 9972 e1bc 6ab9 aa3c d52e 0c3c e514 a037
00000370: 9477 a538 fa40 8e36 df12 273d 42b0 5138
00000380: 27e7 543d 586e d83c 3267 5038 2f29 5c3d
00000390: 06c3 7237 0ec3 4536 f94d 923d fc5a 743b
000003a0: f76d 5d3d 4c4e 8bb6 ac7d 1fbd 15c7 533d
000003b0: 2a50 ab37 bb79 923c ae11 0936 d01d 9e3c
000003c0: 3441 d6bc 8871 a736 0600 893d 6e0d a137
000003d0: 007b a53d 2cdd 723b 9810 293d f2e2 873d
000003e0: 03bf 1638 4cac 8e37 cf45 753d 8c21 b337
000003f0: 0154 51bc d7e1 013d c5cf cbbc da5d 5836

linear.bias f4 [48]
3.6297322e-05 0.005390673 0.006282221 -0.0007039424 0.008055013 0.008007715 0.008925022 0.01145627
0.008180219 0.012098477 0.004365818 0.0064906375 0.011613842 0.008159552 0.002686521 0.006596831
0.009879962 0.00027268866 0.011231287 0.01043994 0.0091320565 0.011840704 0.016315259 0.009289063
0.012622045 0.008017094 0.013251834 0.01813782 0.011822447 0.007463333 0.008849229 0.008465496
0.016104102 0.0035314339 0.015086413 0.010618908 0.016618213 0.0071368665 0.0086309165 0.006889962
0.021786591 0.015572767 0.035755325 0.025215957 0.033148345 0.041256078 0.03937663 0.05780936
00000000: f43d 1838 3ea4 b03b 17db cd3b c688 38ba
00000010: 2cf9 033c cb32 033c 413a 123c 14b3 3b3c
00000020: 5306 063c b138 463c 230f 8f3b 6aaf d43b
00000030: fc47 3e3c a4af 053c 5810 303b 3b2a d83b
00000040: 90df 213c a7f7 8e39 6f03 383c 480c 2b3c
00000050: 9f9e 153c 83ff 413c 94a7 853c 2731 183c
00000060: b2cc 4e3c 215a 033c 381e 593c c495 943c
00000070: f0b2 413c fa8e f43b 5bfc 103c ddb2 0a3c
00000080: c0ec 833c a16f 673b 012d 773c eefa 2d3c
00000090: eb22 883c 60dc e93b b068 0d3c 31c5 e13b
000000a0: cb79 b23c eb24 7f3c 2d74 123d b291 ce3c
000000b0: 8fc6 073d 22fc 283d 6449 213d 82c9 6c3d
