第二章-回归模型/model_weight/LinearRegression_Ridge.pth (torch, 20765 bytes, 2 tensors)

linear.weight f4 [48, 96]
000000 24 6c 48 bb 39 80 8d 3c c9 78 20 bb 76 bc 83 3c
       -0.0030582035 0.017273055 -0.0024486056 0.016081076
000010 0f 93 b4 ba 98 b2 79 3c 47 98 9d b9 ce 17 74 3c
       -0.0013776737 0.015240334 -0.0003005883 0.014898254
000020 bd 87 08 39 d7 0f 7b 3c cf 26 3b 3a c3 dd 77 3c
       0.00013020537 0.015323601 0.0007139267 0.015128556
000030 58 e6 f2 3a 6f 6b 6e 3c 07 2b 02 3b 3e dd 69 3c
       0.0018531783 0.014551981 0.0019862072 0.01427394
000040 80 ed 3f 3b 15 8c 69 3c ab c3 82 3b 0f 16 68 3c
       0.0029285848 0.01425459 0.0039906106 0.014165415
000050 ce fb 7d 3b 0c 74 66 3c c2 9f ad 3b 46 24 58 3c
       0.0038754824 0.014065754 0.0052985856 0.013192242
000060 4c da b8 3b b5 40 56 3c 1a 91 da 3b 05 0e 53 3c
       0.0056412574 0.013076951 0.0066701295 0.0128817605
000070 28 32 03 3c 47 80 52 3c e3 3e 0b 3c 78 e9 4f 3c
       0.008007564 0.0128479665 0.00849888 0.012689941
000080 46 86 1a 3c 9a d8 4b 3c ba d7 26 3c 57 a4 25 3c
       0.009431427 0.012441779 0.010183269 0.010109982
000090 1f cc 1a 3c 8f 81 46 3c ba a1 37 3c 90 cb 3f 3c
       0.00944808 0.01211585 0.011207992 0.011706248
0000a0 98 18 3e 3c 60 72 3e 3c 63 8c 54 3c 34 6d 3a 3c
       0.011602543 0.011623949 0.012972924 0.011378575
0000b0 ac 46 5a 3c 79 41 1f 3c ce e1 66 3c ef b6 1a 3c
       0.013322514 0.0097202 0.014091922 0.009443029
0000c0 96 d4 7b 3c 99 15 30 3c 8e 3b 73 3c a7 e9 2d 3c
       0.015370509 0.010747337 0.014845742 0.010614789
0000d0 9f d9 80 3c 87 fc 26 3c 9b 05 83 3c f7 1a 21 3c
       0.01572877 0.010192043 0.015993884 0.009833089
0000e0 cf f9 88 3c ce 24 1e 3c 4f 4d 8d 3c 2f 23 18 3c
       0.01672068 0.00965233 0.017248778 0.009285732
0000f0 4f a3 95 3c c9 a5 16 3c 1b a8 95 3c 36 88 0c 3c
       0.018266348 0.0091948 0.018268635 0.008577397
000100 94 04 9b 3c 95 a6 07 3c 65 cb 9a 3c 25 ff 05 3c
       0.018923081 0.008279462 0.018895814 0.008178507
000110 5c 40 a0 3c c7 a4 06 3c f7 bf a4 3c 4d f8 00 3c
       0.019561939 0.008217997 0.020111067 0.0078716995
000120 7b 26 a6 3c 39 06 f2 3b 6a c9 a9 3c a5 79 d5 3b
       0.02028202 0.0073859957 0.020725925 0.0065147453
000130 74 93 aa 3c 45 34 e9 3b 1c d6 ab 3c 77 09 da 3b
       0.020822264 0.0071168267 0.020976119 0.0066539603
000140 df 9a 9f 3c 10 29 d0 3b 3c 65 b9 3c b5 32 b3 3b
       0.019483028 0.0063525513 0.02263128 0.0054686912
000150 12 5e be 3c f5 29 a8 3b 71 5d bc 3c b7 b5 96 3b
       0.023238216 0.005131955 0.022993775 0.004599299
000160 c9 ba b7 3c 24 5a 9e 3b 4e ff bd 3c ba 8c 84 3b
       0.022427933 0.004832523 0.023193028 0.004045096
000170 29 f9 c9 3c 9e 0e 52 3b 16 64 d6 3c b1 19 53 3b
       0.024654942 0.003205217 0.026170772 0.0032211358
000180 ac d5 89 bb 1a 5f 81 3c 42 e6 59 bb e3 56 87 3c
       -0.00420638 0.015792418 -0.0033248817 0.016520923
000190 7c ed 2f bb b2 fd 8b 3c a1 f3 ec ba 5e 03 87 3c
       -0.0026844433 0.017088745 -0.0018077978 0.016481098
0001a0 55 4a bb ba aa b5 85 3c 13 eb ee b9 d3 db 83 3c
       -0.001428912 0.016321976 -0.0004557004 0.016096031
0001b0 40 ff ad 39 42 14 81 3c 74 2a ae 3a d9 26 7e 3c
       0.00033187307 0.01575673 0.0013287799 0.015512192
0001c0 65 fe 18 3b f5 dd 7a 3c f3 02 45 3b 5e 0f 79 3c
       0.002334499 0.015311708 0.0030061572 0.015201418
0001d0 a1 58 81 3b 49 c6 76 3c 6c ee ae 3b f4 8a 04 3c
       0.003947333 0.015061923 0.0053384807 0.00808977
0001e0 db f3 bc 3b b5 8c 69 3c bf 90 95 3b d4 05 6f 3c
       0.0057663745 0.014254739 0.004564374 0.014588792
0001f0 96 64 04 3c 44 ed 6b 3c a4 a3 13 3c 50 4c 0d 3c
       0.008080622 0.01439983 0.009011183 0.008624151
000200 97 ac 19 3c 35 98 62 3c 1f a7 31 3c 2b ad 5e 3c
       0.0093795275 0.013830234 0.010843067 0.013591091
000210 cb 43 00 3c 3b e1 5a 3c 76 3e 3d 3c bb 4a 55 3c
       0.007828663 0.013359363 0.011550536 0.013018305
000220 3b 69 49 3c 6e 08 26 3c 07 4a 4d 3c 8b ae 4b 3c
       0.012293155 0.010133846 0.0125298565 0.012431751
000230 71 97 5f 3c 63 d3 2f 3c 0a 43 6e 3c 91 e8 4a 3c
       0.013646946 0.010731551 0.014542351 0.01238455
000240 f0 f2 49 3c 4d 50 49 3c 28 0a 74 3c 13 b8 3c 3c
       0.012325987 0.012287212 0.014895 0.011518496
000250 f7 b5 81 3c 6c a8 3c 3c a0 40 87 3c a4 f6 3b 3c
       0.015833838 0.011514764 0.016510308 0.011472378
000260 c4 52 82 3c 5a a6 38 3c d3 cf 8e 3c c2 95 24 3c
       0.015908606 0.01127013 0.017433083 0.010045471
000270 15 be 92 3c 3e 06 31 3c 1a 9b 58 3c 94 3f fc 3b
       0.017912904 0.010804711 0.013220573 0.007698009
000280 61 35 98 3c 2f d9 1e 3c d9 39 9b 3c 31 95 1b 3c
       0.01858014 0.009695335 0.018948482 0.009496019
000290 a6 eb a4 3c 8d 3d 1b 3c dd 42 a6 3c 9d 49 17 3c
       0.020131897 0.009475124 0.020295555 0.009233859
0002a0 86 54 a7 3c 36 ab 0c 3c 4c 8e a6 3c 66 b2 09 3c
       0.020426046 0.008585742 0.020331524 0.00840435
0002b0 d4 18 a4 3c 8d c5 c3 3b d7 d8 b2 3c 1e b3 be 3b
       0.02003137 0.0059744776 0.021831913 0.0058196923
0002c0 36 ec a0 3c b4 37 fd 3a 5a a6 95 3c a3 72 d9 3b
       0.019643884 0.0019318969 0.0182678 0.00663598
0002d0 64 e0 bb 3c 6b 47 55 3b cf 06 bf 3c cd f8 8e 3b
       0.022934146 0.003254379 0.023318676 0.0043631555
0002e0 68 f8 c1 3c b6 9a be 3b e9 71 bf 3c 61 86 a1 3b
       0.02367802 0.005816783 0.023369746 0.0049293493
0002f0 6b 69 cd 3c 86 3a 79 3b 5e 9a d3 3c a8 3a cd 3a
       0.025074681 0.0038029267 0.025830444 0.001565774
000300 99 f0 8a bb ac f5 7a 3c 90 c9 61 bb 73 8c 88 3c
       -0.0042401073 0.015317362 -0.0034452416 0.016668534
000310 c2 d7 21 bb 72 58 90 3c e2 f6 10 bb 3a f4 89 3c
       -0.0024695252 0.017620299 -0.002211981 0.01684009
000320 51 ad e3 ba 40 10 86 3c 64 ca 6e ba d0 29 84 3c
       -0.0017370378 0.01636517 -0.0009109138 0.016133219
000330 54 8a 2c 39 26 33 82 3c c0 85 a5 3a 3c 5a 7c 3c
       0.0001645473 0.01589353 0.0012628362 0.015402373
000340 96 98 c9 3a 41 2e 7a 3c 4d 33 3b 3b 16 73 7b 3c
       0.0015380557 0.015269817 0.0028564513 0.015347263
000350 0a 26 69 3b 3d 09 79 3c bd 78 a0 3b e3 6c 77 3c
       0.0035575652 0.0151999565 0.0048972056 0.015101644
000360 9b 77 ae 3b df ec 75 3c db c6 ca 3b 9e 2e 74 3c
       0.0053243167 0.015010088 0.006188256 0.0149036925
000370 51 a0 f9 3b d2 d1 6b 3c 11 d4 07 3c 0b bb 6a 3c
       0.007617988 0.014393287 0.008290307 0.014326821
000380 09 78 10 3c e6 1c 69 3c 43 20 1f 3c 37 08 69 3c
       0.008817681 0.014228081 0.009712282 0.01422315
000390 cd 32 22 3c ed 13 64 3c c0 17 33 3c 25 d7 11 3c
       0.009899807 0.013920766 0.010930955 0.008901392
0003a0 5a 9a 35 3c d0 87 55 3c e8 e3 47 3c 80 c1 06 3c
       0.011084164 0.0130328685 0.012200333 0.008224845
0003b0 57 41 50 3c bd 2a 51 3c bc b6 50 3c c5 3b 53 3c
       0.012710891 0.012766537 0.01273888 0.012892668
0003c0 9b e4 67 3c 7b 5a 12 3c 14 27 75 3c 58 2c 45 3c
       0.014153625 0.008932705 0.01496293 0.012034498
0003d0 32 03 83 3c bc 1d 15 3c 98 25 82 3c 92 a9 46 3c
       0.015992735 0.0091013275 0.015887067 0.01212539
0003e0 22 ae 83 3c 17 50 3c 3c 1d f3 63 3c a5 c3 39 3c
       0.016074244 0.011493704 0.013912943 0.011338149
0003f0 92 49 8e 3c 14 ea 3b 3c d7 37 6d 3c a0 8a 33 3c
       0.017369065 0.011469383 0.014478645 0.010958344

linear.bias f4 [48]
000000 28 1e c3 3b d9 b6 78 3c 51 98 28 3c eb 57 d4 3b
       0.0059545226 0.015180313 0.010290221 0.006480207
000010 7f 83 82 3c be 13 42 3c 59 19 0a 3c ed 10 b8 3c
       0.015931843 0.011845527 0.008428895 0.022469008
000020 a0 01 b9 3c 8e d5 82 3c 52 79 df 3c de a6 bf 3c
       0.022583783 0.015970971 0.02727953 0.023394998
000030 7e d8 fc 3c 3b 04 fa 3c 75 60 de 3c c5 78 f5 3c
       0.03086495 0.030519595 0.027145604 0.029964814
000040 e8 ae b3 3c 2d 3a af 3c dc 87 07 3d 28 32 03 3d
       0.021933988 0.021390045 0.03308855 0.032030255
000050 94 35 8d 3c 21 6e 49 3d 08 a2 2c 3d e4 10 3e 3d
       0.017237462 0.049177293 0.042146713 0.046402827
000060 36 7f 0c 3d 78 fc 38 3d 4c c5 ab 3c 40 8d 16 3d
       0.034301005 0.045162648 0.020968102 0.0367558
000070 57 f7 8b 3d 70 8b 4f 3d e2 4c 73 3d ad d0 9c 3c
       0.06834286 0.050670087 0.059399493 0.019142473
000080 2d 1f 6e 3d b0 24 65 3d 4f 7e 4c 3d 3c 0e 88 3d
       0.0581352 0.05594319 0.049925145 0.0664334
000090 ce f9 75 3d 35 d5 cd 3c 6b 36 18 3d 3e 94 7e 3d
       0.060052685 0.02512608 0.037161272 0.062153094
0000a0 23 6f ec 3c 68 22 5b 3d 04 bf a5 3d 78 4e 8a 3d
       0.028861588 0.05349961 0.08093074 0.06753248
0000b0 d6 c4 ac 3d f2 7b 71 3d 84 53 da 3d 90 7b f0 3d
       0.08435981 0.058956094 0.106604606 0.11742318
