第二章-回归模型/model_weight/LinearRegression_Ridge.pth (torch, 20338 bytes, 2 tensors)

linear.weight f4 [48, 96]
0	0xbb4ed85e	-0.003156207
1	0x3c96e354	0.018418945
2	0xbb220d5f	-0.0024727208
3	0x3c8e7f56	0.017394703
4	0xbac6a534	-0.0015155436
5	0x3c898e46	0.016791474
6	0xba1cfcf9	-0.00059886236
7	0x3c855b4d	0.016278887
8	0x39a1d1e5	0.00030864697
9	0x3c84748f	0.01616886
10	0x3a7a1937	0.00095405005
11	0x3c846c80	0.016165018
12	0x3ae0d676	0.0017153758
13	0x3c778a39	0.015108638
14	0xb94a835b	-0.00019313155
15	0x3c7b859d	0.01535168
16	0x3b6af0cf	0.00358491
17	0x3c7c0e32	0.015384244
18	0x3b80d3fe	0.0039315214
19	0x3c71b75d	0.01475319
20	0x3b8c18f7	0.004275437
21	0x3c77bd94	0.015120883
22	0x3bc6655a	0.0060545625
23	0x3c69136c	0.014225822
24	0x3bd9c87b	0.0066462136
25	0x3c66cb1c	0.014086511
26	0x3bf15340	0.0073646605
27	0x3c0c8cd2	0.008578496
28	0x3c1464a4	0.009057198
29	0x3c625651	0.013814525
30	0x3c008cbd	0.007846055
31	0x3c5e48be	0.013567148
32	0x3c2a253d	0.010384855
33	0x3c3bab15	0.011454363
34	0x3c3b9cb8	0.011450939
35	0x3c2fc9e9	0.0107292915
36	0x3c32afd3	0.010906178
37	0x3c2740e5	0.010208343
38	0x3c48de63	0.012260052
39	0x3c24964b	0.010045598
40	0x3c4d6c4b	0.012538026
41	0x3c4c50c5	0.012470429
42	0x3c6abdd8	0.014327489
43	0x3c46a176	0.012123456
44	0x3c54faef	0.01299928
45	0x3c40ded6	0.011771878
46	0x3c7f8a1a	0.015596891
47	0x3c343419	0.010998749
48	0x3c83aeeb	0.016074618
49	0x3c3bb834	0.011457492
50	0x3c7d6c0a	0.015467653
51	0x3c380254	0.011231024
52	0x3c853d8f	0.016264705
53	0x3c300f15	0.010745783
54	0x3c92a25c	0.017899685
55	0x3c27636c	0.010216575
56	0x3c936582	0.017992739
57	0x3c282122	0.010261806
58	0x3c9cb411	0.019128831
59	0x3c1bbc97	0.009505413
60	0x3c7cd32b	0.015431206
61	0x3ba07e8b	0.0048978976
62	0x3c5d8cb6	0.013522318
63	0x3c154640	0.009110987
64	0x3ca36325	0.019944737
65	0x3bd6c0f1	0.006553762
66	0x3caeb3a1	0.021325888
67	0x3c0c62aa	0.008568445
68	0x3cb415cf	0.021983055
69	0x3c0dc78d	0.008653534
70	0x3c66f6d0	0.014096931
71	0x3bfc54f6	0.007700558
72	0x3c9eebf4	0.01939962
73	0x3b9c388d	0.0047674836
74	0x3c6c4d1b	0.01442268
75	0x3bf561c5	0.0074884617
76	0x3cbd1fba	0.023086417
77	0x3beebacd	0.007285452
78	0x3c967711	0.018367322
79	0x3bdb8ef8	0.006700393
80	0x3c641644	0.013921324
81	0x3bd273f1	0.0064225127
82	0x3c9b8e63	0.018988794
83	0x3baf4c9a	0.005349708
84	0x3cc50605	0.024050722
85	0x3b76da73	0.0037666827
86	0x3ccf70b5	0.025322298
87	0x3b9590d8	0.004564386
88	0x3ccd0709	0.025027769
89	0x3b93e0aa	0.004512866
90	0x3cbde91b	0.023182442
91	0x3b8884a0	0.0041662008
92	0x3cd2b058	0.025718853
93	0x3b48515f	0.003056608
94	0x3ce6bf0c	0.02816727
95	0x3b546889	0.003241094
96	0xbb57e6ba	-0.003294392
97	0x3c8b62e6	0.017014932
98	0xbb23b787	-0.0024981217
99	0x3c79c095	0.015243669
100	0xbae80ed9	-0.001770462
101	0x3c8cc700	0.017184734
102	0xba6dc748	-0.0009070528
103	0x3c8bbd7c	0.017058127
104	0xba31110c	-0.00067545543
105	0x3c89e821	0.01683432
106	0x3a2939f4	0.0006455474
107	0x3c8374d6	0.016046923
108	0x3ab491ff	0.001377642
109	0x3c850826	0.016239237
110	0x3b2fd073	0.0026827126
111	0x3c54c7d8	0.0129871
112	0x3b4834e3	0.00305491
113	0x3c80d414	0.015726127
114	0x3b0f0048	0.0021820236
115	0x3c563b6e	0.013075693
116	0x3ab1e6c5	0.0013572803
117	0x3c74bb0d	0.0149371745
118	0x3bd1e723	0.0064057275
119	0x3c732767	0.014840937
120	0x3be7df88	0.0070762075
121	0x3c1dbc71	0.009627447
122	0x3bfe8606	0.0077674417
123	0x3c774540	0.015092194
124	0x3c100b8f	0.008791818
125	0x3c6e29dc	0.014536347
126	0x3b914556	0.0044333143
127	0x3c6df486	0.014523631
128	0x3c2d56f1	0.0105798105
129	0x3c64feab	0.013976733
130	0x3c2c9c2e	0.010535283
131	0x3c63e162	0.013908716
132	0x3bb84b43	0.0056242063
133	0x3c5e5171	0.013569222
134	0x3c4dded7	0.012565336
135	0x3c1cb104	0.009563688
136	0x3c561cdf	0.013068407
137	0x3c4fb0a5	0.012676393
138	0x3c6c4132	0.014419841
139	0x3c4c9260	0.01248607
140	0x3c722073	0.014778244
141	0x3c494998	0.0122856125
142	0x3c7b2572	0.015328752
143	0x3c3d8590	0.011567488
144	0x3c844fa4	0.016151257
145	0x3c4a1b6e	0.012335641
146	0x3c72ab2a	0.0148113165
147	0x3c44a4b0	0.012002155
148	0x3c92aa5e	0.017903503
149	0x3c3ff0c1	0.011715115
150	0x3c964b09	0.018346326
151	0x3c3bd768	0.011464931
152	0x3c856b2f	0.01628646
153	0x3c3530e4	0.01105902
154	0x3c97224f	0.018448977
155	0x3c2c426c	0.010513883
156	0x3c482e1e	0.012218026
157	0x3c03e63f	0.0080505
158	0x3ca0d45b	0.019632509
159	0x3c0aad7b	0.0084642125
160	0x3caa6574	0.02080033
161	0x3c1bc40a	0.009507189
162	0x3ca8226e	0.02052423
163	0x3c1add4a	0.0094521735
164	0x3cb21494	0.021738328
165	0x3c17d3c4	0.009266797
166	0x3cb32bbe	0.021871444
167	0x3c14bc87	0.009078152
168	0x3cb41a4d	0.021985197
169	0x3c09d308	0.00841213
170	0x3c7590bb	0.01498812
171	0x3bb6a1c1	0.005573482
172	0x3c24a6bb	0.010049517
173	0x3c04bfce	0.00810237
174	0x3cbea4d4	0.023271956
175	0x3bf956aa	0.007609208
176	0x3c5e9a99	0.013586664
177	0x3bf06415	0.0073361495
178	0x3cc4c17d	0.024018044
179	0x3bd13a80	0.0063851476
180	0x3cac73f2	0.02105138
181	0x3bc0c562	0.005882905
182	0x3cb9daba	0.022687305
183	0x3ba47fe9	0.005020131
184	0x3cb56c0b	0.022146245
185	0x3bbb6435	0.0057187327
186	0x3c794e66	0.015216446
187	0x3ba08068	0.0048981197
188	0x3cdabef5	0.026702384
189	0x3b949a13	0.0045349686
190	0x3cbf5efa	0.023360718
191	0x3b82f70e	0.0039967364
192	0xbb8c3fe1	-0.004280076
193	0x3c75f286	0.015011435
194	0xbb66ce38	-0.003521813
195	0x3c8600ff	0.016357897
196	0xbb41c7fb	-0.002956866
197	0x3c8dbb4c	0.017301224
198	0xbb0de5bf	-0.0021651832
199	0x3c86844a	0.016420502
200	0xbaf78cb1	-0.0018886534
201	0x3c594ac1	0.013262452
202	0xbadce107	-0.0016851731
203	0x3c816a7a	0.015797842
204	0x3912fab0	0.00014017033
205	0x3c7eb055	0.0155449705
206	0x3a7c361e	0.0009621101
207	0x3c778d39	0.015109354
208	0x3af9a1f2	0.0019045456
209	0x3c74da67	0.014944649
210	0x3b1dec31	0.002409708
211	0x3c75f7c2	0.015012683
212	0x3b6afb5c	0.0035855388
213	0x3c71e80d	0.014764798
214	0x3b9a7b04	0.0047143716
215	0x3c475812	0.012166994
216	0x3ba733d0	0.005102612
217	0x3c6e5b8d	0.014548195
218	0x3bc22099	0.005924296
219	0x3c6eee1b	0.014583136
220	0x3bf0c44a	0.007347618
221	0x3c65811c	0.014007833
222	0x3c037661	0.008023829
223	0x3c664709	0.014055022
224	0x3c0c7895	0.008573671
225	0x3c62afd6	0.013835868
226	0x3c1a2462	0.009408088
227	0x3c614204	0.0137486495
228	0x3c1d16fb	0.0095879985
229	0x3c5fed2a	0.013667384
230	0x3c2f8624	0.010713134
231	0x3c54e2fe	0.012993572
232	0x3c305b27	0.01076392
233	0x3c4fcff8	0.012683861
234	0x3c42570c	0.011861574
235	0x3c5000dc	0.012695517
236	0x3c496924	0.012293134
237	0x3c45af23	0.012065682
238	0x3c4d9283	0.012547138
239	0x3c309f36	0.010780146
240	0x3c620eb7	0.013797454
241	0x3c4b6e67	0.012416459
242	0x3c6f4c0e	0.014605535
243	0x3c42fdf0	0.011901364
244	0x3c7f3718	0.0155771
245	0x3c3fbae1	0.01170227
246	0x3c7a72b7	0.015286139
247	0x3c3f6fac	0.0116843395
248	0x3c7eeecc	0.015559863
249	0x3c3dbb7b	0.011580343
250	0x3c846331	0.01616058
251	0x3c34b115	0.011028548
252	0x3c89f132	0.016838644
253	0x3c379979	0.011206024
254	0x3c8b9792	0.017040048
255	0x3c2b8660	0.010469049

linear.bias f4 [48]
0	0x3c2c7121	0.010525019
1	0x3c132311	0.008980528
2	0x3c2ef62b	0.010678808
3	0x3c801718	0.015636012
4	0x3c61b893	0.013776916
5	0x3c85f85f	0.016353784
6	0x3c8dcd6a	0.017309863
7	0x3c8d0221	0.01721293
8	0x3c8db8cc	0.017300032
9	0xba8aed68	-0.0010599317
10	0x3ccbd9a5	0.024884054
11	0x3cc09eb4	0.023513176
12	0x3cca7cf7	0.024717791
13	0x3cc43278	0.023949847
14	0x3cf1f267	0.029534532
15	0x3cf19ba5	0.029493162
16	0xbbd26b9a	-0.0064215185
17	0x3d0ae990	0.03391415
18	0x3ca1d1ab	0.019753298
19	0x3d10eee9	0.035384092
20	0x3d14e6a0	0.036352754
21	0x3d270151	0.04077274
22	0x3d080adc	0.03321348
23	0x3d2b758d	0.041860152
24	0x3d3a2423	0.04544462
25	0x3c16d3a5	0.009205733
26	0x3d70a021	0.05874646
27	0x3d1beeaf	0.038069423
28	0x3d488137	0.048951354
29	0x3d4d7862	0.050163634
30	0x3d84de01	0.064876564
31	0x3d201c18	0.039089292
32	0x3d677a37	0.056513038
33	0x3d56f5e5	0.052480597
34	0x3d6e778a	0.05821947
35	0x3d1d8a52	0.03846199
36	0x3d2a8f68	0.04164067
37	0x3d6708a6	0.056404732
38	0x3d5fac6e	0.0546078
39	0x3d8c4d91	0.06850732
40	0x3d6f8e26	0.058485173
41	0x3d82cfa7	0.06387263
42	0x3d947466	0.07248764
43	0x3dc4e639	0.09614224
44	0x3d197358	0.037463516
45	0x3d010b53	0.03150494
46	0x3d82efe8	0.06393415
47	0x3d591617	0.052999582
