第二章-回归模型/model_weight/LinearRegression_Lasso.pth (torch, 20765 bytes, 2 tensors)

linear.weight f4 [48, 96]
00000000: 40f7 a0b9 e6fa b53d 4fde b3b9 6c54 4239
00000010: c322 10b9 581b 8238 920a b0ba b748 683d
00000020: a11d e7b8 971c d338 5dee f1b8 f252 a13c
00000030: 0e6e 90b8 41d8 703c fb44 4c36 97c0 fe38
00000040: d262 83bb 2077 8f3d d1c0 6a38 ca7b ee38
00000050: d56b 2239 abaf aa38 74e2 5039 b4a1 053d
00000060: 0301 0238 df82 863b 35a8 7139 5d3f 8638
00000070: 2805 7b39 ecfe 913b b181 963c a6a2 3838
00000080: 3a9a 8539 8f94 b037 3bc0 8f39 cae1 b13c
00000090: 459d 5539 6179 2f3d bf06 6539 f983 6638
000000a0: 0897 6739 66bc dc37 ad40 8539 04dc a13b
000000b0: 943c 8139 36f7 ca37 bd7d b039 02b6 1238
000000c0: 49c0 ac39 c5cd c036 209c 0f3d aa2e 1f38
000000d0: 82ff 603d ec1a ab35 0177 9139 9079 5f3d
000000e0: bfe3 6239 a709 e4bb e28b 3739 8893 2237
000000f0: 35e0 113d 621b 8b36 fb57 633d 0a25 56b6
00000100: 090f 1e39 ce07 dbbb 2bb7 1c39 42ba 213d
00000110: 0ccf 2839 1ae9 9535 d88c aa38 744f 3335
00000120: fbe0 a93d 7af2 1738 5d09 413a fc3a 143d
00000130: 8c0e 823d 00c2 4038 69d0 983d f906 b037
00000140: 7f74 0a3d 3091 fc36 1ecb b83c 67fd 8537
00000150: 17e7 433c 8dbf ff3c 9a83 ef3c c508 f236
00000160: 9faa f73c eea5 a2ba 6873 293c cf84 b236
00000170: af0b 7f3d 8343 0537 7503 d83c 8199 ec34
00000180: 1921 03bd 23b0 9a37 57ad 0dbc 4c57 7a3d
00000190: e9ff 053c 49c6 2b3d 905b 8ebb 81e4 9f3d
000001a0: 76a7 243c db09 0e38 3af6 4d38 8997 d93c
000001b0: 534d 90bc f7f3 64b7 497b c9bc 0674 e73c
000001c0: 3a4a 9eb7 b8f3 2bbc 9ba7 8ab7 2125 6638
000001d0: 3ded cc3c 2875 3eb8 f241 a634 dda1 5137
000001e0: 0652 90b7 ac02 5b38 8f08 bb37 f789 1eb8
000001f0: 59a1 eb37 0aa4 853b 10ad a2b6 e011 9338
00000200: 1c96 ce3c abe1 813d 214c ad36 1637 8338
00000210: 9cd6 04bd 8e13 be37 5ba5 40b7 66d0 2d38
00000220: 98e2 df36 947b fd37 7220 7237 e599 7a3a
00000230: 570d 943d 9ced 853d bf9e a0b9 9239 3d38
00000240: a52d 0338 00a0 0837 39d7 a73c bdf8 1738
00000250: b295 d337 2725 60bc 0470 f837 adb1 5bbc
00000260: 7e25 853c 6915 7a37 77cc 6f37 8b74 f737
00000270: d3ad 7e3d e507 4d38 5bb4 8e3d 2c0f 0436
00000280: d208 773d 9057 8a37 e7c6 b8bb 7610 693d
00000290: f382 f8b6 38e8 0138 f1e5 5e3d 32e6 c737
000002a0: 5457 4db7 2f5e 893d bad9 13bb 0598 4137
000002b0: c42d 3a3d a5cf f035 e6e1 ea3b bab2 7137
000002c0: 9966 8738 5663 283d 5872 1539 a1fe d137
000002d0: 3f59 b73d 26d1 f03c 63dd 803d 9897 c03c
000002e0: ca98 893a 2d6d 0138 76d5 373b 6686 bbbc
000002f0: ff9b ef3d 43c3 cabc 7bae 233c 9119 4a37
00000300: 8d55 24bd e8ca 25b4 391a 16ba ca33 b23c
00000310: bae4 18bd d664 7339 5629 32bc f947 edb4
00000320: ec5e 6c38 94bf 0d3c 3e17 f137 aafa c13d
00000330: abe8 b738 2a36 8e37 2e52 d63a 62a1 ad3d
00000340: 4774 7f3b 5693 0138 410d dc3b de83 53bc
00000350: 3dd7 96bc ca69 bc37 ce25 24bd 3746 2036
00000360: e673 e1bc 8fbb aa3c 422c 0c3c f9d7 e336
00000370: fc3d a438 f1c1 9e37 3c12 273d 2810 1b38
00000380: 94e6 543d c270 d83c fd46 4e38 892a 5c3d
00000390: d0ad 6937 9208 48b6 bc4d 923d a172 743b
000003a0: 836d 5d3d 7103 4837 287e 1fbd a9c8 533d
000003b0: 5ad9 8db6 167d 923c b54c e135 5421 9e3c
000003c0: ed41 d6bc 3f7f 1937 d2ff 883d b588 7837
000003d0: d67a a53d 31fd 723b 4010 293d eee3 873d
000003e0: ceae 1538 6250 ccb7 7045 753d c93b 2833
000003f0: ed54 51bc 15e4 013d 2dd0 cbbc 545a cdb7
-0.00030701794 0.08885746 -0.00034307173 0.00018532731 -0.0001374586 6.203976e-05 -0.0013430885 0.05670997
-0.00011020457 0.00010066589 -0.00011536174 0.019692872 -6.886954e-05 0.014699996 3.043852e-06 0.000121475365
-0.004009583 0.07005143 5.596952e-05 0.00011371782 0.00015489694 8.1389524e-05 0.00019920786 0.032624915
3.0995358e-05 0.0041049565 0.00023046213 6.40142e-05 0.00023939146 0.004455438 0.018372389 4.4020497e-05
0.00025482645 2.1050013e-05 0.00027418308 0.02171411 0.0002037185 0.042840365 0.00021841655 5.4959182e-05
0.0002208614 2.6313774e-05 0.00025415924 0.004939558 0.00024649932 2.4195393e-05 0.00033663018 3.497862e-05
0.0003294966 5.7460006e-06 0.035061 3.7952013e-05 0.05493117 1.2748328e-06 0.0002774522 0.05455929
0.00021637882 -0.0069591585 0.0001750435 9.690302e-06 0.03561421 4.1457106e-06 0.055503827 -3.1910045e-06
0.00015073655 -0.00668428 0.00014945555 0.03948427 0.0001609886 1.1169207e-06 8.132466e-05 6.6798316e-07
0.08294865 3.622703e-05 0.0007363761 0.036189064 0.06350431 4.5957044e-05 0.07461626 2.0984082e-05
0.033802506 7.5270873e-06 0.022557791 1.5972835e-05 0.011956952 0.031219268 0.029237557 7.213183e-06
0.030232726 -0.001240907 0.010342456 5.3202743e-06 0.062267 7.943137e-06 0.026368836 4.4070114e-07
-0.032013986 1.844025e-05 -0.0086472845 0.06111841 0.0081786895 0.041937146 -0.004344411 0.078072555
0.010049691 3.3864617e-05 4.9105125e-05 0.026561515 -0.017614996 -1.36466615e-05 -0.02459492 0.028253566
-1.8869632e-05 -0.010495119 -1.652893e-05 5.4870852e-05 0.025015468 -4.540864e-05 3.096789e-07 1.24950575e-05
-1.7204333e-05 5.2216157e-05 2.2296123e-05 -3.7798625e-05 2.8089316e-05 0.004078393 -4.8481234e-06 7.012836e-05
0.025218062 0.06341871 5.1646643e-06 6.256827e-05 -0.03243123 2.265887e-05 -1.1482592e-05 4.14405e-05
6.672297e-06 3.0217496e-05 1.4431878e-05 0.0009559675 0.07229107 0.06539461 -0.00030635853 4.5114728e-05
3.1275344e-05 8.143485e-06 0.020488368 3.623286e-05 2.5222867e-05 -0.013680733 2.9616065e-05 -0.01340906
0.01625323 1.4906146e-05 1.4293116e-05 2.9498964e-05 0.06217749 4.888316e-05 0.06967994 1.9678364e-06
0.060311146 1.6491656e-05 -0.0056389454 0.056900464 -7.4062204e-06 3.0972267e-05 0.054418508 2.3829842e-05
-1.2239285e-05 0.06707417 -0.0022560195 1.1539091e-05 0.0454538 1.7941826e-06 0.0071680425 1.4406332e-05
6.456412e-05 0.04111036 0.00014252344 2.5033312e-05 0.08952569 0.029396605 0.06292226 0.023509786
0.0010497805 3.0857675e-05 0.0028050817 -0.022891235 0.11699676 -0.024751311 0.00999033 1.2046091e-05
-0.04012065 -1.544064e-07 -0.00057259534 0.02175321 -0.037327506 0.0002321185 -0.010874113 -4.4197057e-07
5.6355188e-05 0.008651633 2.8740262e-05 0.094716385 8.769458e-05 1.6952941e-05 0.0016351396 0.08478047
0.0038979219 3.0893214e-05 0.006715447 -0.012909858 -0.01841318 2.2460608e-05 -0.040075116 2.3882728e-06
-0.027521085 0.020841388 0.008555474 6.7902697e-06 7.831675e-05 1.8925379e-05 0.040788874 3.6969926e-05
0.05197771 0.026420955 4.918034e-05 0.053751502 1.3928351e-05 -2.980731e-06 0.07143733 0.003729977
0.054059517 1.192173e-05 -0.03893867 0.051705036 -4.2274305e-06 0.017881911 1.6786131e-06 0.019303001
-0.026154483 9.149137e-06 0.06689419 1.48137815e-05 0.0808007 0.0037077183 0.041275263 0.06635271
3.5687168e-05 -2.4356126e-05 0.059880674 3.9169922e-08 -0.012776596 0.031711657 -0.02487954 -2.4479967e-05

linear.bias f4 [48]
00000000: 68b5 1f38 3fa4 b03b 6be1 cd3b c488 38ba
00000010: a3e8 033c fb31 033c d43b 123c cb94 3b3c
00000020: 5406 063c 6739 463c 260f 8f3b 43a7 d43b
00000030: 144b 3e3c a2af 053c ed1c 303b 3a2a d83b
00000040: 11e3 213c b1a6 8e39 6e03 383c 480c 2b3c
00000050: 9f9e 153c 8921 423c f7a5 853c 2631 183c
00000060: 4bc4 4e3c 215a 033c 381e 593c 5d93 943c
00000070: 75ab 413c 938a f43b 34f4 103c 94cd 0a3c
00000080: c1ec 833c 686f 673b 012d 773c f2fa 2d3c
00000090: eb22 883c d8c8 e93b b268 0d3c 5312 e23b
000000a0: da7b b23c c01a 7f3c a573 123d 1870 ce3c
000000b0: 8fc6 073d 21fc 283d 6449 213d 4ec8 6c3d
3.80775e-05 0.0053906734 0.0062829754 -0.00070394226 0.00805107 0.008007522 0.008925397 0.011449049
0.00818022 0.012098647 0.0043658195 0.0064896657 0.01161458 0.00815955 0.002687271 0.0065968307
0.009880797 0.00027208545 0.011231286 0.01043994 0.0091320565 0.011848816 0.01631449 0.009289062
0.012620042 0.008017094 0.013251834 0.018136675 0.011820664 0.0074628084 0.008847285 0.008471865
0.016104104 0.0035314206 0.015086413 0.010618912 0.016618213 0.007134538 0.008630918 0.006899157
0.021787573 0.015570343 0.03575482 0.025199935 0.033148345 0.041256074 0.03937663 0.057808213
