第二章-回归模型/model_weight/LinearRegression_Norm.pth (torch, 20693 bytes, 2 tensors)

linear.weight f4 [48, 96]
000000 a1 a8 a2 bd c3 b6 c8 3d 61 7c 67 3d 56 4e 3e bd
       -0.0794232 0.09800484 0.0565151 -0.046461426
000010 48 4d 5e 3d ca 67 2f 3d eb fa 2c 3d 3f f2 06 3d
       0.05427292 0.04282359 0.04223148 0.032945868
000020 7b f1 a4 3c d9 a6 af 3b 5b 6c 54 3d 4d a2 14 3d
       0.020134678 0.005360466 0.05186115 0.036287595
000030 64 51 96 bd aa fe 35 3d 2c 6a 8c bd 8c e6 fa 3b
       -0.07339743 0.04443232 -0.06856188 0.007656878
000040 3c a9 70 bd c8 0d b4 3d e3 03 c8 bd 12 d0 c1 bc
       -0.058755144 0.08791691 -0.09766366 -0.023658786
000050 14 f5 45 bd 18 32 19 bd 6e 47 30 bc c2 c9 a3 bd
       -0.048329428 -0.03740129 -0.010759218 -0.079974666
000060 ef bb 88 3d d1 97 87 bd 05 ac 67 3d f2 d6 0f 3d
       0.066764705 -0.066207536 0.056560535 0.035117097
000070 43 ff 34 bd 4d 81 a7 3d 05 bd ed ba 7b 35 cf 3d
       -0.04418875 0.08178959 -0.0018137997 0.101176225
000080 23 f6 c6 38 46 e1 53 bc 5e 59 a1 3c 81 40 15 bc
       9.487222e-05 -0.012932127 0.019695934 -0.009109617
000090 f9 70 eb 3c 61 5f e3 3d ff 20 3d 3d 68 50 d1 bc
       0.028740393 0.111021765 0.046174046 -0.025551036
0000a0 9a cb 3c 3d 26 91 22 3d cf 27 4a 3d f3 8e 24 bd
       0.046092607 0.039689206 0.04935437 -0.04017539
0000b0 25 70 cd bd a9 7b 91 bc 53 5f 9a bd 4c 7a d8 3d
       -0.100311555 -0.017759161 -0.07537713 0.10570201
0000c0 ec 1c 03 3d 73 f8 81 3d 6c 87 df 3c 19 3c b3 3c
       0.032010004 0.06346216 0.027286254 0.021879243
0000d0 45 2e 92 3d 1b e3 47 bd db 89 30 3b 65 38 38 bd
       0.071377315 -0.04880057 0.0026937637 -0.044975657
0000e0 38 72 c4 3c 10 59 2d bc 81 e7 ff 3c 04 8f 22 3b
       0.023980245 -0.010580316 0.03123832 0.0024804482
0000f0 4e 57 ae 3d 6b 8f 0b bd 99 13 66 bd 91 c2 11 bd
       0.08512746 -0.03407232 -0.056171034 -0.035585944
000100 a6 9a bf 3d a8 b1 73 3d f4 37 d4 3d 84 35 6a bd
       0.09355669 0.059495598 0.10362235 -0.057179943
000110 8b 6d ae bd 56 ca 51 bd 51 3b 5a bd 30 69 8d 3d
       -0.085169874 -0.051218353 -0.053279225 0.069048285
000120 b2 f0 52 3d 7a dd e2 3d 57 4f 02 bd 07 a9 33 bd
       0.051499076 0.110773996 -0.031813946 -0.04386237
000130 21 00 95 3d d7 cd 66 bc 94 28 a5 3d 10 65 fb 3a
       0.07275415 -0.014087162 0.0806438 0.0019179899
000140 64 ac 9a 3d e6 ec 5d bd f1 78 bf bc 61 54 55 3d
       0.07552412 -0.054181002 -0.023373099 0.052082423
000150 51 09 6c 3d 67 7f 8e bb 67 e8 c1 3d ee b0 bd 3d
       0.057626072 -0.0043486836 0.09468155 0.09262262
000160 16 c3 32 bd 12 70 e3 bc 88 a7 05 3e de 95 3e bc
       -0.04364308 -0.0277634 0.1305219 -0.011632411
000170 97 a2 6a 3c 83 eb 9f bd 58 fc 84 3b fd c1 35 3d
       0.014320991 -0.07808592 0.004058402 0.044374455
000180 a4 2c 5e bc e7 bd 0b bd 51 8b 57 3b 38 c3 ce bc
       -0.013560448 -0.034116652 0.0032889436 -0.025239572
000190 44 b1 ae bd 4d 64 59 bc 1b c7 b6 bd e3 eb c7 bc
       -0.085299045 -0.0132685425 -0.08924695 -0.024404472
0001a0 55 98 c4 3d a4 0f 71 3d 0b 9f d1 3c 21 ce 5e bd
       0.095993675 0.058852807 0.025588533 -0.0543958
0001b0 73 11 8f bd 58 96 c1 3b 79 9a 58 3c ae 6a 4a bd
       -0.0698575 0.005907815 0.013220423 -0.049418144
0001c0 21 14 31 bd 72 cc b0 bc 16 e1 db 3a 33 e6 e3 3a
       -0.043232087 -0.021581862 0.0016775455 0.001738733
0001d0 07 1f b4 bb d6 a5 f2 bc ee d9 86 bd 73 49 b1 bc
       -0.005496863 -0.029620092 -0.065845355 -0.021641469
0001e0 72 21 07 bd ef aa 2d bd 84 67 b1 3d e4 3b 91 3c
       -0.03299088 -0.042399343 0.08662322 0.017728753
0001f0 04 a5 b9 3d 01 e9 8e 3d 29 9e ab bd 0a 16 df 3d
       0.09064677 0.06978036 -0.08379776 0.108928755
000200 48 73 d1 bc 8d bc 9c ba 82 9e a3 bd f0 63 7e bd
       -0.025567666 -0.0011958048 -0.07989217 -0.062107027
000210 da d5 f4 3c 23 04 91 3c 52 9e 21 3d 4e 90 39 bd
       0.029887129 0.017702168 0.039457627 -0.045303635
000220 7d 5f 96 3d 1f 17 18 bd f8 13 8e bc c2 2a 6c 3d
       0.07342432 -0.037131425 -0.017343506 0.057657965
000230 1b 25 54 3d 02 70 f2 3d cb 8f be 3d 39 21 34 bd
       0.0517932 0.1183777 0.0930477 -0.043976996
000240 cf ed e4 3c 2b 2b fe bb 04 8b 21 bc b3 40 26 bd
       0.027945427 -0.007756611 -0.009859804 -0.040589046
000250 5d e5 c6 3d de bc 27 bd 59 11 70 3d 62 8e 8e 3d
       0.09711716 -0.040951602 0.058610294 0.06960751
000260 a3 6a 1b 3d 02 49 b7 bc 3b 35 cb 3d 59 d6 59 3d
       0.037943494 -0.02237368 0.09922262 0.053182933
000270 a1 eb bb 3c 16 fb 6f bd 39 60 55 3d ec 68 66 3c
       0.022939505 -0.058589064 0.05209372 0.014063101
000280 5b 3e 13 bd 9e 28 ec 3d 87 83 17 3d 18 49 ea bc
       -0.03594814 0.115311846 0.03699067 -0.028599307
000290 1b 9c 05 bd 4f 38 c0 3c 8f c6 9a 3d 56 b7 ca 3a
       -0.032619577 0.02346435 0.07557403 0.0015466015
0002a0 7e 64 1e bd 92 53 1d bc fd cb 66 bd a3 4b 79 3d
       -0.038670056 -0.009602444 -0.056346882 0.06086315
0002b0 4c c1 cd 3d 26 32 93 bd aa c4 40 3d 04 8f 9b 3d
       0.10046634 -0.071872994 0.047062553 0.075956374
0002c0 e9 74 30 3d ce 0c 68 bc cb 03 a5 3d b0 63 94 3d
       0.043080244 -0.014163209 0.08057364 0.072455764
0002d0 aa 56 88 3d d6 6b c4 b9 02 c5 4d 3b d9 47 ea 3c
       0.06657155 -0.00037464377 0.0031397943 0.028598713
0002e0 28 a9 5a 3c 62 cf 57 bc c3 1c c9 3d 8a 5c d1 3d
       0.013345994 -0.0131720025 0.09819939 0.102227286
0002f0 1b cd dc 3c b4 26 1b bc d6 51 2d 3d fc 8a a5 3b
       0.02695327 -0.009469677 0.042314373 0.0050519686
000300 ca 07 0f 3d c4 26 4c 3d 01 46 a6 bd 06 8d 41 bc
       0.034919538 0.049841657 -0.08118821 -0.011813408
000310 58 ab c3 3d c4 ce 8c 3d e4 2f b3 3b 38 d5 0b bd
       0.095541656 0.06875375 0.0054683555 -0.034138888
000320 e5 1f 56 bd 08 c5 85 bd 5a 88 bb bc 0b e7 75 3d
       -0.05227651 -0.06531721 -0.022892166 0.060034793
000330 c1 fc 9b 3d 30 3b 94 3d de 45 9d bd bb 53 14 bd
       0.07616568 0.072378516 -0.07679342 -0.036212664
000340 a3 40 02 bb ee 97 fc 3d 16 c7 eb 3c aa 6b 1b ba
       -0.0019874952 0.12333666 0.028781455 -0.0005928824
000350 d3 09 69 3d 04 5b 60 bc 6b 1a 4c bd 2a 63 cd 3d
       0.056894135 -0.013693575 -0.04982988 0.1002868
000360 8a b3 f7 bc 3f 41 ba 3b c8 d8 af bd e3 15 c2 3d
       -0.030236978 0.0056840475 -0.085862696 0.09476831
000370 a6 cd c0 3d cd 67 80 3d 59 76 62 bd 27 31 97 bd
       0.09414224 0.062697984 -0.055288646 -0.07382422
000380 de 76 8a bd cc a4 d2 3d 24 38 84 3d 53 d7 e7 3d
       -0.06760953 0.10285339 0.064560205 0.11320367
000390 64 f2 89 3d fc eb 5d 3d 19 ec 6d 3c ac 8a 49 bd
       0.067356855 0.05418013 0.014521622 -0.049204513
0003a0 62 be 95 bd 64 55 88 bd f0 87 68 3d 21 88 a4 bc
       -0.07311703 -0.06656912 0.056770265 -0.020084443
0003b0 fd 33 b5 bb 0a 37 e8 bc 21 50 92 bb 3e 6e 27 bd
       -0.005529879 -0.028346557 -0.0044651185 -0.04087662
0003c0 d6 bd 4d bd d4 df 85 3d 89 f3 58 bc 8f a9 c0 3d
       -0.05022987 0.065368325 -0.013241657 0.09407341
0003d0 fe 39 7b bc d9 cb 30 bd ff bc 20 bb 8b d7 8b bc
       -0.015333651 -0.043163154 -0.0024526713 -0.017070552
0003e0 b7 2a 8e bc 6f f4 82 bd 67 76 91 3d 6c 3d 1d bd
       -0.017354352 -0.06394278 0.071026616 -0.038388655
0003f0 3c a0 86 3d 33 c0 a3 3d af ec b1 3d 25 af 37 bd
       0.06573531 0.079956435 0.08687722 -0.044844765

linear.bias f4 [48]
000000 8e 28 30 3c c8 dd 4e 3b dd 0f 6c bc 09 90 be bc
       0.0107518565 0.0031565297 -0.014408079 -0.02326204
000010 17 e7 7f 3a bc 01 a0 3b d1 45 85 3c 83 32 4e bb
       0.0009761913 0.0048830193 0.016268643 -0.0031463213
000020 21 0f 43 3c 96 13 d8 3b 03 52 af 38 3d 9a cc 3b
       0.0119054625 0.0065941317 8.359926e-05 0.0062439726
000030 54 37 4c 3c d3 78 3a 3c 73 35 45 bc 1d c6 82 3b
       0.012464363 0.011381346 -0.012036669 0.003990902
000040 39 84 52 3c 4f 60 3e 3c ea 2b 34 3b 76 33 08 3c
       0.012848907 0.011619641 0.0027491995 0.0083130505
000050 f1 06 a7 bc 4f b2 e5 3b 3e 80 08 3c 08 12 65 3d
       -0.020389052 0.0070097814 0.008331357 0.0559254
000060 46 c6 bf 3a 55 f5 9a 3c d0 ad 14 3c ba 9a c4 3c
       0.0014631234 0.018915812 0.009074643 0.02399956
000070 ad 18 5a 3c 7c d4 a0 bb bd db 48 3c 7d cb 78 3c
       0.013311547 -0.0049081426 0.012259421 0.015185234
000080 dd 9a ba 38 2e d9 35 3c d2 63 18 3d 9c 03 2b 3d
       8.898017e-05 0.011099143 0.03720457 0.04175149
000090 c5 df dd 3c 2f d4 b9 3a 6a f4 51 3b 3b b4 81 3c
       0.02708424 0.0014177616 0.0032036551 0.01583301
0000a0 64 71 a1 3c ba a3 a5 3c 72 13 f4 3c 98 76 2d 3d
       0.01970739 0.020219672 0.029794428 0.042349428
0000b0 af 00 64 3c d3 4b 78 3d 7a f9 c6 3d 1c e5 63 3d
       0.013916179 0.060619187 0.09715553 0.055638418
