第二章-回归模型/model_weight/LSTM.pth (torch, 811768 bytes, 11 tensors)

lstm.weight_ih_l0 f4 [512, 2]
00000000: e7fc 8f3d c722 e33d 5eb4 34bd 46ba a73d
00000010: c397 a53d 762e 3ebd 987e 083e 9714 043e
00000020: b88a e43d b181 be3d 77eb 3a3d b79c e03c
00000030: f86f aa3d 515f 813d 0f15 85bc 3eec 97bd
00000040: e311 443d 65a6 b23c 761f d4bc 1e5e df3d
00000050: fc84 9f3d cf84 25be b0de 17bb ed1f 35bc
00000060: 65a4 713c 56eb 26be 6c74 b73d 2918 7abd
00000070: 3bf9 593d e071 5a3d 04c7 d1bc 6981 ba3d
00000080: d425 4f3d 2d63 a63d 9ca7 403d ea3c 0a3d
00000090: 4ca5 6c3d 1042 6bbd 2bf7 4d3d cc1c 013e
000000a0: c9cd 853d be4b f93b 1ab7 9c3d 4e34 f0bb
000000b0: b370 9a3d c9ae c3bb 2c37 243c 2437 233d
000000c0: d2de b4bd 323e c63d dd37 f93d 6d43 733e
000000d0: cc60 193d 21e7 473d 8927 843d 3126 02bd
000000e0: 2e5e bc3d 385e 433d fc2d 3b3d cd92 bf3b
000000f0: 8c0c 6c3d ab7a 743c b323 c93d 9ce7 dabb
00000100: 0cab b53c d956 1e3d 4880 333e 1da8 253e
00000110: d940 f73d ae64 abbb aed0 afbd 9efa 12bd
00000120: 127e 88bd 1e6a 9d3d 3163 5e3d a681 183e
00000130: 826f ebbc bfda f0bc 6e20 c63d 2aa0 a8bd
00000140: 0c28 e23d de16 a83d 02ef da3d 6f63 be3c
00000150: ee19 06bb df7f 263d 25b2 213d b02d b43c
00000160: 3f9a ad3d 9331 e93d d5bd 13bd cacb 39bd
00000170: aaf6 bf3d c655 d6ba 0245 453d 76c0 43bc
00000180: fb8b 333c e560 803d 6e42 83bb 8786 07be
00000190: 3424 3a3d fdbf 433c f5d3 48bd bf1b 983b
000001a0: 61f9 cd3d c806 34bd 62f3 cf3d 3bbd 9b3d
000001b0: 98c9 343d bf46 4ebd cbf0 9fbc d73c 093d
000001c0: 7b31 203d 7e95 b3bd 0803 493c 81c0 7bbd
000001d0: 1873 733c 257a a43b c3b8 943c e7c1 80bb
000001e0: 80d3 63bd 6d77 153a 542e 00bd b732 99bd
000001f0: 8e37 bf3d 80ff b03c dda1 df3d 46a5 ef3d
00000200: 82b6 84bd 7c16 c63d 7c26 31bb f81e af3c
00000210: f078 32bd 4527 0cbe 2525 1e3d 3359 e83c
00000220: beb6 343d a619 fdbc 3262 913d 784b 4ebd
00000230: e958 9c3c 87bd bd3c 2849 a13d 0910 5d3d
00000240: b11e b03d cc4b b8bc 5254 553d b7d1 43bd
00000250: c8c0 883d b071 7d3d 3730 223e dcd7 b13c
00000260: 201d 903d 279b 9c3d 0400 fc3d 963e b23d
00000270: 5517 773d 48b4 6a3d 61c3 2e3d ee98 18bd
00000280: 07c5 a13d 1274 fa3b 4e98 7c3b 396b 303e
00000290: f55e 023d d920 a4bc 14e9 343c 5c6f 7e3d
000002a0: d069 983d ccd1 25bd 1bb1 423d c784 c63d
000002b0: 3da2 29bc 1d63 653e 9734 373e b055 ac3d
000002c0: 32be 7c3d e0e2 093e 1dd5 503d 1ea1 a53d
000002d0: 3f4c ec3d 79ef 393e 58ea 6d3d f2e1 d4bb
000002e0: ff76 50bb 4db3 703d 0fb7 f03c 9faf c1bd
000002f0: c77b 983d 4b2b c63d 4c15 bfbc 0d6c d33c
00000300: fd0d 363d 0f85 793d 91fc 363d d226 57bd
00000310: a2f0 01bd 852a 433c 5394 c03d fd0a ce3d
00000320: 145a 673b 69b0 0bbd bfe0 0e3c 2363 cfbd
00000330: a584 95bb abca 7d3d 867e 9b3d 3288 a53d
00000340: a2f6 7abd 3878 eabc a69a 933d 2f53 113e
00000350: d9e1 0b3d cf1a 503d 07c5 9c3d da6f 793c
00000360: 9705 cfbb abb3 de3d 9ed3 ae3b 2a25 93bd
00000370: b5df acbd 7af7 a43d 3826 e83d 3cb0 083e
00000380: de6b 0fbd 558b ddbc e07e 28bd 0d72 d93d
00000390: 9b6b df3d fb52 803e 0e08 c53d af70 673d
000003a0: 6b14 053d 4d89 3ebb ccdc f0bc da7c a53c
000003b0: da9b 8d3d f28a 383d 3904 a53d 2713 293c
000003c0: 1e47 1dbc 2ca3 8ebd 9784 4e3a 0108 a93d
000003d0: 512a 28bd 0d92 883d 8df8 efbc acf0 14be
000003e0: a3c4 fcbb 8fc8 babb 10f1 7f3b 835d b0bd
000003f0: d63a 053e 72f5 903d 0531 d63d ee03 9dbd
0.07030659 0.110906176 -0.044117324 0.08189826 0.08085587 -0.046431027 0.13329542 0.1289848
0.11159271 0.093020804 0.045634713 0.027418477 0.083221376 0.06317008 -0.016245393 -0.074181065
0.04786862 0.021807859 -0.025893908 0.10906623 0.07789037 -0.16163944 -0.0023173504 -0.011054975
0.014748667 -0.16300711 0.089577526 -0.061058197 0.0532162 0.053331256 -0.025607593 0.09106714
0.050573185 0.08124385 0.047034845 0.0337495 0.057774827 -0.05743605 0.050284546 0.12608641
0.06533391 0.007607906 0.07652111 -0.007330454 0.07541027 -0.0059717637 0.01002292 0.039847508
-0.08831562 0.096798316 0.12168858 0.2375619 0.03744583 0.048804406 0.06452853 -0.031774703
0.09197651 0.047697276 0.04569815 0.0058463574 0.057629153 0.014921824 0.09821262 -0.006680442
0.022176288 0.038657043 0.17529404 0.16177411 0.120729156 -0.005230508 -0.08584724 -0.03588354
-0.06664671 0.07686256 0.054293815 0.14893207 -0.028739695 -0.029401181 0.09674154 -0.08233674
0.110427946 0.082074866 0.10690118 0.023240773 -0.0020462233 0.04064929 0.039476532 0.021994442
0.08476686 0.11386409 -0.03606971 -0.045360364 0.09373219 -0.0016352467 0.048161514 -0.011947742
0.010958667 0.06268481 -0.004005722 -0.13234912 0.045444682 0.011947629 -0.049030263 0.0046419795
0.10057331 -0.04395178 0.101538435 0.07604452 0.044137567 -0.050360437 -0.019523999 0.033505287
0.03910969 -0.08768748 0.012268789 -0.061462883 0.014858983 0.0050194436 0.018154508 -0.003929365
-0.055621624 0.0005701695 -0.031294182 -0.07480376 0.09336768 0.021606207 0.10919545 0.11701445
-0.06480123 0.09672257 -0.0027030995 0.021377072 -0.043572366 -0.13686855 0.038609643 0.028362846
0.04411959 -0.03089602 0.070988074 -0.05036494 0.019085364 0.023161663 0.078752816 0.05397037
0.08599604 -0.02249708 0.052082367 -0.04780742 0.06677395 0.061876 0.15838705 0.021709375
0.07036805 0.076467805 0.123046905 0.087033436 0.060324986 0.057300836 0.042666797 -0.03725522
0.07898908 0.007643231 0.003854293 0.17228402 0.03182884 -0.020035194 0.011041898 0.06211792
0.07442057 -0.04048328 0.047532182 0.09693294 -0.010353622 0.2240109 0.17891155 0.08414781
0.061704822 0.13465452 0.05098449 0.08087371 0.1153798 0.18157758 0.058084816 -0.0064966613
-0.0031809208 0.058764745 0.029384164 -0.09457325 0.07445484 0.09676226 -0.023325585 0.025808359
0.044446934 0.06091791 0.04467446 -0.052527256 -0.031723626 0.011911993 0.094032906 0.100606896
0.0035301493 -0.034103785 0.008720576 -0.10126331 -0.0045629316 0.061960857 0.07592492 0.08082618
-0.061270364 -0.028621778 0.07207231 0.14191888 0.034150932 0.050806817 0.076547675 0.015224421
-0.006317805 0.10874113 0.0053352853 -0.07184823 -0.08441106 0.08055015 0.11335415 0.13348478
-0.03501498 -0.027043978 -0.041136622 0.106174566 0.10909196 0.2506331 0.09620677 0.056503948
0.032490175 -0.0029073537 -0.02940216 0.020201135 0.06914492 0.045054384 0.08057446 0.010319508
-0.009599475 -0.06964716 0.0007878034 0.0825348 -0.04105598 0.06668482 -0.029293323 -0.14544934
-0.0077138706 -0.005700178 0.0039053597 -0.08611586 0.13010725 0.07078065 0.104585685 -0.07666765

lstm.weight_hh_l0 f4 [512, 128]
00000000: 4386 b0ba 6301 1fbd 97b5 1c3d 8c0e 9abc
00000010: fa89 15bd 833a 6cbd ed93 823c 4062 bd3d
00000020: 08de 383d c362 f4bc e133 383c 1656 b5bc
00000030: 4c52 7ebd 2793 a73d 56dc d53a d463 353c
00000040: 698f ecba 78c4 d0bc d617 263c ce92 653c
00000050: e3d9 1d3d 0540 52bd cae1 d43d 5bef 4cbc
00000060: 69ce 51bd 74ae 8fbd 92cb 883d c8f8 e5bc
00000070: a70b 26bd 7df2 a6bc e616 39bc ad73 b4bd
00000080: 6c7c bebd 782f 253d 59ff b63d 821e 893d
00000090: 3d93 98bd 7a2a 873d 581e 3cbd 7ab5 553d
000000a0: b06c 353d c34e b63d 48a7 243d c9ca 0f3d
000000b0: afad 93bc 1603 dfbb 9554 f2bb 6357 7d3d
000000c0: b786 dcbc dbdb 54bc c6f6 cebd acae bcbb
000000d0: ccc0 1ebd 1edc 55bd 1441 9abd d91a 8ebd
000000e0: 56ab cabc 80f8 6f3d 65d3 cc3d 9feb cb3c
000000f0: 1b0b 85bd 6665 9bbd 6884 343d 92e2 8c3d
00000100: 1a6c c1bd d1ce 893c 860a b93d 8c97 17bc
00000110: d8d8 15bd 0676 b83d 0693 0f3d 2a25 5f3d
00000120: a7da 89bd 46da 1f3d 7358 50bd ce69 dc3d
00000130: c84c 63bd 2f80 963d 9828 463c edfe 173d
00000140: cd91 61bc 2280 4b3d 29df 45bd d0a1 cebd
00000150: 518a 3fbd e9c7 283d c887 8bbd f7f8 3c3d
00000160: 1770 77bc 1123 c23d 4107 9a3d e036 9f3c
00000170: 8f3b 7dbd bf74 8ebd daed 423c cb2f 75bd
00000180: 0be8 233d 32ad c5bd fed9 ea3c 209b e03d
00000190: 8285 583d 0e37 493d 4fa4 d1bd f4f9 d23d
000001a0: 6ffd 86bb 0aac c5bd c17a 833d b131 42bd
000001b0: ba68 913a 3a0b 9a3d 2c82 afbd 197a 0cbd
000001c0: 9348 343b d8f8 163c dbdb 013b d263 a8bd
000001d0: 972d 8d3c 8b1f 80bc 09e3 78bd 428f b6bd
000001e0: c83c 263d 7a88 25bc 8385 9ebd 7991 973d
000001f0: ba2a 573c 7b9c 953c f699 5fbd 814d c2bb
00000200: c2ea 993d 0b1c 783d fae6 89bd ec5e a93d
00000210: 4ac2 fe3a 5a22 2c3d 1b28 933d fd0e a83d
00000220: e8ac 85bd 2a3b 9f3d 353a b6bc 59e1 413c
00000230: 7d3a 6abd 68f5 53bc aad3 60bc eeb9 23bc
00000240: efc1 13bd 41e5 3d3c 1cfb c23d 5fb8 443d
00000250: 8e59 523d 20b6 233d fbce 913d 21a6 8dbb
00000260: ea10 e93b f28e d53c bc81 a2bd b1ea 94bd
00000270: 2d3d 113d 9228 1abd 88a5 623b 7368 b5bc
00000280: c505 99bb 5f31 553d 5756 ddbc 4c05 8f3d
00000290: 8918 8a3d 958b 86bd a82c 83bd 6a9a 92bd
000002a0: 0cea 4dbd b709 19bd 1f57 03b9 c085 b9bc
000002b0: e786 46bd d332 9ebc 2226 f0bc 7e4a ae3d
000002c0: 477b cbbc eb44 8cbd 1053 083d 5ed1 b438
000002d0: 7b72 ca3d db15 5f3d 34ad 9e3d 5df2 7bbd
000002e0: 5f40 843d ff30 9d3d 73d9 25bd a226 a83d
000002f0: 24af 873d 1ad1 163c ae08 1b3d 6f7a f9bc
00000300: 77e5 a0bd 68ef 993c a8a9 ba3c 1a2b 7fbd
00000310: d25b 313d a0a8 93bd 31fe 903d b299 bb3d
00000320: 45c2 e13c f7c6 36bd c0fc 273d 3688 173c
00000330: eeee 943c 3449 f73c 900e 863d 1bb0 05bd
00000340: 75b7 c8bc 5ea7 c73c df26 b23b 9e97 993d
00000350: 8fca 2cbd 969b ae3a 1275 df3c a293 b7bc
00000360: 719f 813d 4393 2e3c 0a49 a5bd 86f6 87bb
00000370: 4288 3ebd f1a4 223c f4f4 6ebc f732 b8bd
00000380: 8edc d0bb 052f 36bc df15 05bd d930 a83d
00000390: b489 cfbc 254b 803d e426 c53c 7d6f 91bd
000003a0: b0cb d73c 76cc 853d 5c82 70bd c519 80bd
000003b0: a770 c03d 16cf 8a3d 268e 4fbd 705d 5d3d
000003c0: 4ba5 6ebc 8026 afbd 6377 c13c 0010 b73c
000003d0: 5c72 b3bc a78f f63c e17e 95bd f144 523d
000003e0: c215 a23d aac4 7b3d 171d a03c 91f8 143d
000003f0: 4763 65bd 714c fcbc 454c d93a 95c3 49bd
-0.0013467747 -0.03881968 0.038259115 -0.018805765 -0.036508538 -0.05767299 0.015939677 0.09247255
0.04513362 -0.02983225 0.011242838 -0.022135776 -0.062090203 0.08182364 0.0016316276 0.011071164
-0.0018048111 -0.025484309 0.010137519 0.014012052 0.03853787 -0.051330585 0.10394628 -0.012508239
-0.05122224 -0.07015696 0.06679453 -0.02807273 -0.040538456 -0.0203793 -0.011296963 -0.08811126
-0.09301075 0.040328473 0.089354225 0.06695272 -0.074499585 0.06599899 -0.045927376 0.052175023
0.044293106 0.08901741 0.040198594 0.0351055 -0.018027155 -0.006805788 -0.007395337 0.061850917
-0.026919706 -0.012991871 -0.10105662 -0.005758127 -0.038758084 -0.052211873 -0.07531944 -0.069387145
-0.024739902 0.058586597 0.10001258 0.024892626 -0.06496259 -0.075876996 0.044071585 0.06879152
-0.09444447 0.01682225 0.0903521 -0.00925244 -0.03658375 0.09006886 0.03505232 0.0544788
-0.06731158 0.03902652 -0.0508656 0.10762368 -0.055493146 0.07348668 0.012094639 0.03710835
-0.013767672 0.049682744 -0.048308525 -0.10089457 -0.04676277 0.041206274 -0.068130076 0.04613587
-0.015102408 0.09479345 0.07520915 0.019435346 -0.061824378 -0.06955861 0.011897529 -0.059860032
0.040016215 -0.09652175 0.0286684 0.10967088 0.052861698 0.04912477 -0.102364175 0.10301581
-0.004119567 -0.096519545 0.06419898 -0.04741067 0.0011093833 0.075216725 -0.0856975 -0.03429613
0.0027509078 0.009214602 0.0019814882 -0.08222164 0.017233653 -0.01564004 -0.060763393 -0.08914043
0.04058531 -0.010103339 -0.07740309 0.074007936 0.013132745 0.018263092 -0.054590188 -0.0059296493
0.075154796 0.06057362 -0.067335084 0.08270058 0.0019436565 0.042024948 0.07185384 0.08205984
-0.0652712 0.077749565 -0.022244552 0.011833512 -0.057184685 -0.012936927 -0.01372234 -0.00999306
-0.03607362 0.011590303 0.095205516 0.048027392 0.051354937 0.03996861 0.071195565 -0.0043227826
0.007112612 0.026069138 -0.07934901 -0.07271326 0.035458732 -0.037636347 0.0034583528 -0.022144532
-0.0046698772 0.052049037 -0.02701871 0.06983432 0.06742961 -0.06569592 -0.06405002 -0.071583584
-0.050272033 -0.03736278 -0.00012525589 -0.022646785 -0.048468497 -0.019311344 -0.029315058 0.08510302
-0.024839057 -0.068490826 0.03328234 8.6220665e-05 0.09885117 0.054464202 0.077478796 -0.061510433
0.0645759 0.07675361 -0.04049058 0.082104936 0.06625202 0.009205127 0.037850074 -0.030453889
-0.07856267 0.018790916 0.022785977 -0.062296964 0.043300457 -0.07209897 0.07079733 0.091601744
0.027558455 -0.04462334 0.041012526 0.009248784 0.018180337 0.030186273 0.06545746 -0.03263865
-0.024501542 0.0243718 0.0054367627 0.07499622 -0.042185362 0.0013321515 0.027277503 -0.022409264
0.06329239 0.010655227 -0.08070572 -0.004149261 -0.046516664 0.00992702 -0.014584769 -0.08994096
-0.0063739484 -0.011119609 -0.03249156 0.08212442 -0.025334217 0.06264333 0.024066396 -0.07101343
0.026342243 0.065331385 -0.05871807 -0.06254915 0.09396487 0.0677778 -0.050672673 0.054044187
-0.014565776 -0.08552265 0.023616498 0.022346497 -0.021905117 0.030097796 -0.07299591 0.05133528
0.07914306 0.06146685 0.019545121 0.036369864 -0.05600288 -0.030798169 0.0016578516 -0.049258787

lstm.bias_ih_l0 f4 [512]
00000000: d028 0f3d c560 713c efac 993d f658 9f3d
00000010: 4bf0 013e 65c2 63bd eb30 30bd 8aec 10bd
00000020: 1efa 0e3e 4eec 9f3d ee17 1e3e f1ae 5d3d
00000030: 462c 053d 711d 823d f239 e93c a9be d8bc
00000040: df92 153c 384d 0f3d 71e6 04bd 0125 883d
00000050: 09e1 04bb 8d0c 4b3d 9e8b 5abb 9652 6b3d
00000060: 49f9 6c3d 1eb1 f73d 4ef0 df3c 4511 0c3d
00000070: d3a8 a23c fad0 623b 3127 923d 9d8a ecbc
00000080: abc2 913c 0c0e 6b3e d89e f73c 26a1 83bd
00000090: 1d84 c83d c8c5 e63d 1233 4dbd c81f 9b3d
000000a0: c39a 13bb 14de c43d bae2 473d 4d61 ea3d
000000b0: 7050 c33d 0303 9b3c 68bc f73d fdf8 913d
000000c0: ee18 393c 4a82 2c3d 87d2 103c bac8 ab3d
000000d0: ef6a 2b3e 268c 5b3d 49fe b53d a0f2 a93d
000000e0: 0060 61bd cd65 943c 9004 11bd ef08 ca3d
000000f0: 3205 0f3d 80e7 9dbd 2f6c 5abd 33bf df3d
00000100: 5e79 3bbd 0f61 243d 0ad1 233d db45 07bc
00000110: 0761 31bd a04c 27bc 72de f63b 9250 523d
00000120: a8c0 bd3d f001 6bbc fca6 853d 39bd 0f3e
00000130: 4f62 bbbc f77c a03d 145c fa3c 0eed e23d
00000140: a1c4 623d 8c1a 9c3b c681 fa3c 3d2a eb3c
00000150: 5081 dcba c7ae 083d 24c2 aa3d 7ab8 c23d
00000160: 81f6 373d 95ed f73d 79ac af3b c03a 923d
00000170: db9b 81bd 87c8 113e 837f 603c b890 81bd
00000180: 9b05 653c aee0 24bc 207d d4bc 75a2 88bc
00000190: 7150 38bd d967 163e 65b2 75bb 428e 5fbc
000001a0: a07d fe3c ca5f 1d3d acab ef3d 178f c33d
000001b0: 3d9b cc3d 7f93 a23d c345 493d 532c d23d
000001c0: a974 aa3d f64d ad3d 8f93 1f3e abcf cf3d
000001d0: 0188 aa3d 97d4 583b 4ab0 a1bb 87ce 8c3d
000001e0: ee34 f03b b8f6 c23d d0f1 aa3b ff5c 5abd
000001f0: 1efd 06bd 4e7f 44bd 8222 2c3e fdbc cd3d
00000200: c161 3ebd 20f0 76bd 1776 3b3d d227 ac3b
00000210: 4995 57bd 67dc 693c 3620 8cbb dcb9 d83c
00000220: 545e ff3c f857 7e3b 8505 afbd a8bb b5bc
00000230: 868d 963b 9bef 913d e656 bd3d 995f 913d
00000240: 1080 a8bd 55ef 8ebc 62fe db3a 2b6a 43bd
00000250: 1ac5 1cbd c217 de3b 46d9 95ba 9e11 843d
00000260: 8249 99bd f408 f6bc a263 47bd 98d4 14bd
00000270: 4513 9d3c fcba 3e3d 9fb0 93bd d91b 97bd
00000280: 220a 59bd 6b4f 8fbd 0fe5 8d3d 5ad9 90bd
00000290: 5f2e ad3d dd45 cab9 4a00 1abd 6456 10bd
000002a0: fa08 9f3d 58be 883c ca62 8f3d 394b cebc
000002b0: 050d bf3d 95d1 d7bc 0db8 b53c 9d8a f03c
000002c0: 3217 31bd 8f0a 403d 8afb 25bc c6f4 9dbd
000002d0: 8dd5 ac3c b47f 99bd 5c24 a7bd 663e 4f3d
000002e0: cbdb b2bd 17f6 69bd 46e7 5a3d aa26 bb3d
000002f0: e08c 86bd 94f4 37bc b3a4 dab8 4774 973c
00000300: e37b b93d 24a3 bbbd 060d bebc d139 f33c
00000310: 519f 88bc d39a ee3c 9bab 57bc 9d95 a4bb
00000320: e5fa 8dbc ac03 893d 52f8 a93b d7e1 f4bd
00000330: e2d9 4fbd 223e 9b3d e381 0fbd 10fd a23d
00000340: 0b56 32bd 3ced 94bd b61f 85bb a61a 13bc
00000350: 1d5e 893d aca6 25b9 129e 073d 3723 b8bd
00000360: cbf4 6d3d b762 a63c 69b2 1ebd fee7 8fba
00000370: 3b72 71bd 7ce5 6f3a c388 85bc 3f13 02bd
00000380: c3ad c83c 03bf a43d 814e 5fbd 6899 84bd
00000390: d272 a03d 28a2 863d 6b69 823a 3d6d e93c
000003a0: 416e 993d 5d7d f3bc 3774 86bd 32f6 69bd
000003b0: 593e c73b f0be d5bc a899 91bc 2713 d43c
000003c0: 7350 653d c939 aa3d 4ffd dabc 4410 8ebd
000003d0: ff12 8d3d bac9 bdbc a942 b9bd 91ab 653d
000003e0: 98fe 5fbd 5db5 9f3d 107f 263d 7d36 e6bb
000003f0: fedd 113d 0a87 953d 5e61 59bd e712 d0bd
0.03495103 0.014732544 0.075036876 0.0778064 0.1268932 -0.05560531 -0.0430154 -0.03538183
0.139626 0.078087434 0.15438816 0.054121915 0.032512926 0.06353272 0.028470013 -0.026458101
0.009129255 0.03498575 -0.03244633 0.06647683 -0.0020275733 0.049572516 -0.0033347378 0.057451807
0.057854924 0.12094329 0.027336266 0.034196157 0.019855892 0.0034609423 0.071363814 -0.02887469
0.01779302 0.22954577 0.03022711 -0.06427221 0.097908236 0.112681925 -0.050097533 0.07574421
-0.0022522665 0.096126705 0.048800208 0.1144434 0.095368266 0.018922335 0.120964825 0.07127569
0.011297448 0.04211644 0.008839256 0.08387895 0.1674001 0.053600453 0.08886392 0.0829823
-0.055023193 0.018114949 -0.03540474 0.09864985 0.034917064 -0.07710171 -0.05332583 0.1092514
-0.04577004 0.040131625 0.039994277 -0.008256401 -0.043305423 -0.01021114 0.0075338418 0.05134637
0.09265262 -0.014343724 0.0652599 0.14037026 -0.022874026 0.07836335 0.030561484 0.11080371
0.0553633 0.004763907 0.030579459 0.028706664 -0.0016823206 0.033369806 0.08337811 0.09507842
0.04491282 0.12105862 0.0053611365 0.07140112 -0.06328555 0.14236651 0.013702276 -0.06326431
0.013978387 -0.010063333 -0.02593857 -0.016679028 -0.04499859 0.14688052 -0.0037490365 -0.013644757
0.031065762 0.03842143 0.11702666 0.095487766 0.09990547 0.07938289 0.049138796 0.102623604
0.083230324 0.084621355 0.15583633 0.101470314 0.08326722 0.0033085698 -0.0049343454 0.068753295
0.0073305285 0.09519714 0.0052168146 -0.053311344 -0.032956235 -0.04797297 0.16810039 0.10045812
-0.046479944 -0.060287595 0.045766916 0.0052537704 -0.052632604 0.014273739 -0.004276301 0.026455812
0.031172909 0.0038809758 -0.08545975 -0.022184208 0.0045945076 0.07125779 0.0924509 0.07098312
-0.08227551 -0.017448107 0.0016784186 -0.04770867 -0.03827391 0.0067777345 -0.001143255 0.06448673
-0.07484724 -0.030033566 -0.048679 -0.036335558 0.019174227 0.04656504 -0.07211422 -0.073783584
-0.05298818 -0.0699757 0.06928455 -0.070727065 0.0845611 -0.00038580495 -0.037597932 -0.03523864
0.07765384 0.016692325 0.070012644 -0.025182353 0.09328655 -0.026345054 0.022182489 0.029362971
-0.04323501 0.04688507 -0.010130772 -0.077127025 0.021097923 -0.074950606 -0.08161232 0.050596617
-0.087333284 -0.057119455 0.053443216 0.09138234 -0.065698385 -0.011227746 -0.00010425728 0.018488063
0.09056833 -0.09161976 -0.02319957 0.029690655 -0.01667753 0.02912656 -0.0131634725 -0.005022718
-0.01733155 0.066901535 0.005187073 -0.11957138 -0.0507449 0.0758021 -0.03503598 0.07958424
-0.04353909 -0.07271811 -0.004062618 -0.008978521 0.06707404 -0.00015797716 0.033109732 -0.08991092
0.05809478 0.020310743 -0.038744364 -0.0010979173 -0.05894683 0.00091513223 -0.016300565 -0.031756636
0.024496919 0.08044245 -0.054518227 -0.064745724 0.078344 0.065738976 0.000994963 0.028494472
0.074917324 -0.029722864 -0.06565135 -0.057119556 0.0060804305 -0.026092023 -0.017773464 0.025888039
0.055984925 0.08311803 -0.026732115 -0.06936696 0.06888389 -0.02316748 -0.090459175 0.05607182
-0.05468616 0.07798264 0.04064852 -0.0070255385 0.0356121 0.07301147 -0.053071372 -0.10159855

lstm.bias_hh_l0 f4 [512]
00000000: 8e32 773d 5db3 9dbc 2944 843d d6aa bc3d
00000010: 677f 4e3a e06f b0bc a998 5dbc 4786 b0bc
00000020: 935e 2a3d cba8 913d 2666 003e e4f2 51bd
00000030: e121 e1bc ec9e cd3d eb3c b23d 1763 c53c
00000040: f9c6 d73d 6c88 0e3e 9ae8 273d 8d22 993d
00000050: 7027 bb3d bb69 e63d d9db b13d b11c 833d
00000060: 9d44 823b 7d87 3d3d 596f 963d ce86 563d
00000070: 6670 963c e3da be3d 90fc 393d b671 8a3d
00000080: 9089 223b 5c8d e83d 0f44 a83d 340c 5dbc
00000090: bb09 853d d81a 733d 58f7 5e3d a4f0 1e3e
000000a0: da57 903d e265 433d 64b8 ff3c 2e8a a93d
000000b0: 0b85 813d d059 db3c a37a 0e3d 6229 033e
000000c0: dd0d 303d 6eb2 32bd 1c59 e13d c37b d7bc
000000d0: 70b3 413e 2400 993d 999d 5cbd 11a7 283d
000000e0: b3e2 523d 787c 873d 8a94 c03d 8f2b 193e
000000f0: b3bc 293d addb 6ebd 64ad 64bd 094c ea3d
00000100: 23f9 30bb 74f4 c33d ae25 783d ab89 91bb
00000110: 5bd2 143d 4bbb 083d bbfd db3d 91fc 013e
00000120: 68fd a23d e7c0 bc3d 2829 e03d 3c06 5d3d
00000130: c873 aabb 4bf0 113e 6edf 913d 3cfc 35bd
00000140: 5bde 143e 44d2 d23c b733 463d 3239 183e
00000150: 5c0a d13d 0bf0 0b3e 4a8d 053e 5d6a a53d
00000160: f39f 0b3e d455 443d 6ac3 053e 2042 e0bc
00000170: a153 70bd 5250 8c3d cef6 59bd 467b 303d
00000180: 2d60 2e3d a029 47bd cdc1 073e 61d3 8a3d
00000190: 129b 30bd 2621 993d 58e3 603d 1e49 a13d
000001a0: 43b1 073d d254 963d 3d8b 8d3d cde3 f33d
000001b0: d016 44bd 132c 86bb 6b6b e43c 7a08 453e
000001c0: df19 b03d 4e98 b13c f4c0 e73d 290c d33c
000001d0: 54d1 9d3b 9eb1 9c3d 454d c33c f4aa f23c
000001e0: 2f0c 93bd ae4a ac3c e3a9 453d 5236 c2bc
000001f0: b829 d93a a986 c03d c9e0 003e 44d1 183e
00000200: b60e e13c e0dd 993d d7b0 2f3c e88e 81bd
00000210: 291c 74bd 5f5b 8ebd c569 973d 3215 b53d
00000220: 75a1 063d 892a 703d e447 153d 65af 203d
00000230: 63ed bbbc 827b bb3b 4986 713d 7762 a03c
00000240: 08f5 323d 47db ce3c 57a5 90bd 7a8d 4cbd
00000250: 100f 1abd 5779 8f3d d043 163d 6ed8 9bbd
00000260: 4e5a 893c 0330 edbb 19c7 053d 08ea 87bd
00000270: a99f d9bc a486 5d3d a361 b43d 5345 e53b
00000280: 855f b33c 7217 8fbd ade6 cbbc f8ef 893c
00000290: ef7a 613d c702 933d 2af4 963c 296f dc3c
000002a0: 24dd 353d 99e0 e83b 1eaa ac3d e0ef e63c
000002b0: 96ad 32bd 321c 0a3c d0ad 82bd 3cdd e23c
000002c0: 209b 88bb 07e7 b1bd 0341 9cbd 3362 843d
000002d0: 14f8 c93c ea2b aebd f5a5 28bc e0e5 943d
000002e0: b8a5 e1bb 532d fdba 2296 743d c815 c53c
000002f0: 1127 843d 62f5 a03d dbf0 cdb7 583a 9d3d
00000300: 8c98 86bd c9b7 94bd 4666 bcbd 4f02 653d
00000310: 710c 863d 5950 03bd f165 db3c ee72 0a3b
00000320: 7284 9fbc 9f4e 85bd d631 d7bd 85a9 b7bc
00000330: c33d 193d 8b89 4bbb 6be2 2abd a00e 31bd
00000340: c8ad 82bd 9bf3 a3bd 427f 853d 1c10 aabd
00000350: 6ba6 073d a5f6 2abd 3722 a3bd 91e1 3e3d
00000360: 56c1 423d 09ec 2d3d a988 3a3d c0be a53d
00000370: 2051 613d 2b34 82bd 232c 06bd 1234 913d
00000380: 6c58 493d b30f 99bd 3632 903d 7e3e 17bd
00000390: 9cfb 9b3d 0d55 29bd a1ea f03c b4c8 6b3d
000003a0: 6dc5 be3d 2650 973c 6a03 cd3c b7c8 ad3b
000003b0: be50 a5bd 5950 253d b208 723c e7d7 74bd
000003c0: e3af a0bd fcea 4cbd 13a1 1f3d 2a30 8e3d
000003d0: dccc a43d b8fa bcbd 3a7f d2bc eeb5 9d3d
000003e0: 7c0d aebd c0fa 3e3c 0fc3 a0bd dc68 67bd
000003f0: 6929 98bd d2fa 063c bd49 22bd 6b29 a8ba
0.060350947 -0.019250566 0.06458313 0.09212272 0.0007877261 -0.021537721 -0.013525167 -0.021548403
0.0415941 0.07112273 0.12538967 -0.05125703 -0.027481975 0.100400776 0.087030254 0.024095101
0.10535998 0.13919228 0.04099331 0.07477293 0.091383815 0.11250635 0.08684511 0.06401957
0.0039754645 0.04627179 0.07345457 0.052374654 0.018364143 0.09319093 0.045406878 0.0675997
0.0024801232 0.11355087 0.08216106 -0.013491679 0.064959966 0.059351772 0.054435104 0.15521485
0.07048006 0.047704585 0.031215854 0.08278309 0.06324204 0.026776224 0.034784924 0.12808755
0.04298197 -0.043627195 0.110033244 -0.026304131 0.18916106 0.0747073 -0.053861234 0.041174952
0.05148573 0.066155374 0.094033316 0.14958023 0.041439723 -0.058314968 -0.05582942 0.11440284
-0.0027003966 0.0956811 0.06058281 -0.00444146 0.036333423 0.03338174 0.107417546 0.12694003
0.0795849 0.09216481 0.1094535 0.053961024 -0.0052017905 0.1425182 0.07122694 -0.044430003
0.14537947 0.025735028 0.048389163 0.14865568 0.10207054 0.13665788 0.13042179 0.08076928
0.13635235 0.047933415 0.13062826 -0.02737528 -0.058673505 0.068512574 -0.053213887 0.043086313
0.04257219 -0.04862368 0.13257523 0.067785986 -0.043116637 0.07477026 0.054904312 0.07875274
0.033128034 0.07340397 0.06911323 0.11908684 -0.04787332 -0.0040946095 0.027883252 0.19241515
0.085986845 0.02167907 0.113161 0.025762634 0.0048162136 0.07651065 0.023840556 0.029622532
-0.07180058 0.021031704 0.04825772 -0.023707543 0.0016568219 0.094006844 0.12585749 0.14923579
0.027472835 0.075130224 0.010723314 -0.06326085 -0.059597168 -0.069510214 0.07393221 0.08841933
0.03286882 0.058634315 0.036445513 0.03922977 -0.022940343 0.0057215104 0.058965955 0.019578202
0.04369071 0.025251044 -0.07062786 -0.04993961 -0.03761202 0.070055656 0.036685765 -0.0760964
0.016766693 -0.0072383895 0.032660577 -0.06636435 -0.02656539 0.05408348 0.08807685 0.0069967895
0.021896133 -0.06986894 -0.024890268 0.016838059 0.05504888 0.07178264 0.018426973 0.026908474
0.04440035 0.0071068523 0.08430885 0.028190553 -0.043622576 0.008429574 -0.06380808 0.027693383
-0.004168883 -0.08686643 -0.076295875 0.064640425 0.024654426 -0.0850447 -0.0102934735 0.07270408
-0.0068862103 -0.0019315876 0.05971349 0.024058238 0.06452764 0.07859303 -2.4550061e-05 0.07677144
-0.06572065 -0.07261617 -0.091991946 0.055910405 0.06545342 -0.032059047 0.026782008 0.0021125632
-0.019472335 -0.065091364 -0.10507552 -0.0224197 0.037412416 -0.0031057324 -0.041719835 -0.043226838
-0.063808024 -0.080054484 0.06518413 -0.08303854 0.033117693 -0.041739125 -0.0796551 0.046601836
0.04754766 0.04246143 0.045540486 0.08093023 0.055009007 -0.063576065 -0.032756936 0.0709001
0.04915659 -0.074736975 0.07040827 -0.03692483 0.0761635 -0.041340876 0.029408755 0.057564452
0.09315 0.018470835 0.025026042 0.005303468 -0.08072041 0.04035983 0.014772581 -0.059776213
-0.07846048 -0.050028786 0.03897197 0.0694278 0.08046886 -0.09227508 -0.025695432 0.07700716
-0.08498666 0.011656463 -0.078497045 -0.056496486 -0.07429773 0.008238511 -0.039621104 -0.0012829726

lstm.weight_ih_l1 f4 [512, 128]
00000000: aea8 463d 50d0 bb3b 45e8 383b 73fd 9b3d
00000010: 44c7 6b3d abe9 8bbd 3513 983c 6aab abb9
00000020: 8cd1 00bd e784 94bd 7704 613c f08b 99bd
00000030: bb5f b63c b8ef 5abd 3d6f 52bd 219e 4e3d
00000040: f89d 693d 0adc 3abd aa94 a33d e6ee b8bd
00000050: 3e96 013d 1020 88bc f7cc 1cbd eeb6 5bbd
00000060: 0155 bebc fab4 95bd d6ea 19bd 66f9 c7bc
00000070: 6cfd 24bd 7024 c4bb 4088 393b 840c 7bbd
00000080: ab21 aebd 78e5 9d3d dd82 8a3d 9d56 103c
00000090: 04fe debc df76 91bd 6312 8e3c f8d0 c5bc
000000a0: 7f50 9abd 55df a33d c875 7cbd 5a39 843d
000000b0: dc1d abbc fb67 01bd 5f6f bc3d c300 1f3d
000000c0: 26f4 c63d c9f8 913c 11df 8bbd 04b2 bb3d
000000d0: 1200 293d e245 113c d5e5 c1bd 7aed 263c
000000e0: fa3c dfbc 376f fc3c 4c4a b43d 7dc4 abbd
000000f0: c68a 893d 3b17 8c3b 224d 93bd 821b d63b
00000100: 552f febc 14d4 2fbd 1758 3f3b 3135 323d
00000110: f69b b1bc d9d5 8cbc 2f42 733d 4b70 9cbc
00000120: ccdd cfbd b7fd 123d 0e37 d33d 24d1 ac3d
00000130: 230c 9dbd dbf3 b63b c3eb 73bd 4f64 183d
00000140: f529 b8bb dd34 33bd 1438 863d 284c 303d
00000150: 33b7 10bc 8a5f 46bd 34de b1bd b803 49bd
00000160: 6255 493d 5cd2 4d3d 2da7 44bd f95e 3dbd
00000170: 5134 a7ba 1ed2 56bd a6db 053d cb5d acba
00000180: a164 fabc c881 a13d 9b32 873d f6b6 5b3d
00000190: 0f9d b4bc 2002 10bd 83e7 163d e665 033d
000001a0: 7265 273d d4a3 e5bd 07ff 8abd fc3e 81bd
000001b0: 6d99 c43d f8e2 d0bc 591c 013c 5d73 083e
000001c0: 293f c43b 7557 7a3c 72cc 0abe c557 cdbd
000001d0: 1474 11bd 5f81 61bd 5df4 503d 890f cb39
000001e0: 8fc4 e0bb 406f d73d b4bf 76bd bd1c a43d
000001f0: 7fc7 833d 031f 293c 63d6 12bd 4784 76bd
00000200: bcae 8cbd 191b 3dbd 0acf 813d 132a 213d
00000210: 1b5d 68bd de9c 4dbd 65f1 0f3d 4d03 813d
00000220: c744 9a3d 4698 4abd 7bd3 9c3c 7afa 813d
00000230: 739a a63d 382d 2a3d 75c5 853d d90b 23bd
00000240: 6df7 443d a5a9 62bc af4b 8c3d 7fba bfbd
00000250: e93a 973d 7696 1e3d b474 c6bc 3c60 80bd
00000260: b01a 82bd 741c 343d f0da 9ebd fe80 8bbd
00000270: 89fe f63b 1ce9 4dbd ce21 983a 4f3c 493d
00000280: b0af dfbd 88af 663d 6896 5b3d d586 f7bc
00000290: e8c9 7d3b 75ff ac3d cb69 40bd 50d5 ebbd
000002a0: 00e3 bf3c 9cdc 0a3d c035 c13d 1084 4abd
000002b0: cc10 dabd f4b8 35bd c2d6 57bd 2dd6 74bd
000002c0: 281b ee3d 1e05 243d 5757 a63c 3a4b 913b
000002d0: 79c4 ba39 21a6 4ebd 0ae5 9bbd 79d3 833d
000002e0: c09a 913d fc59 25bd 73c4 a7bc 8709 adbd
000002f0: 8b9d 0cbd 2157 53bd b706 863d 919f be3d
00000300: e4f9 0b3d 0e58 c5bc 8037 0ebd 0f66 8fbd
00000310: 9bcb 033c d340 053d 0573 88bd 01f5 a93d
00000320: ef66 9235 1782 b23c 3db9 6d3d 4dea 6d3d
00000330: 52da 133c 9dab d23d e713 a63d 66e0 973d
00000340: 7809 82bd bb6e 5f3d 062d 78bd b7f1 7d3a
00000350: cf18 8fbd 8b46 223c 468c 16be 441a a2bc
00000360: 9ba5 c63d 9a34 d03d 2287 41bd 8c7c ecbc
00000370: be17 113d e7fe b1bd d4fc 86bb 01ff 84bd
00000380: 8302 903d fc1d f5bb f3cf efbc e4f8 a1bc
00000390: 5484 43bd e7ab 943c 00c1 803d 561a 15bd
000003a0: 6d07 12bb 46c2 57bd d159 7f3d 4b45 b1bd
000003b0: b7f4 f8bc 8665 a43d e0a3 f2bc 39c0 bf3d
000003c0: f643 b8bd 99cb 10bd ca61 acbd bdf4 e7bc
000003d0: 8c06 093d 6cb2 b83b c12b 23bd fe37 053d
000003e0: f629 9f3c 87ce 8b3d a7c3 abbd 2a79 543c
000003f0: a2c6 cbbc 7782 273d 7cc6 0d3e e3a1 44bd
0.04850071 0.00573162 0.0028214615 0.07616701 0.05756308 -0.06831678 0.018563846 -0.00032743375
-0.03144984 -0.072519116 0.013733975 -0.07497394 0.022262445 -0.05345127 -0.051375616 0.050443772
0.057035416 -0.04562 0.0798734 -0.09029941 0.031637423 -0.016616851 -0.038281407 -0.053641252
-0.023233892 -0.07309909 -0.037577473 -0.024410915 -0.040280744 -0.005985789 0.002830997 -0.061291233
-0.085025154 0.07709783 0.067632414 0.008809713 -0.027220733 -0.07102751 0.017342752 -0.024147496
-0.07534885 0.080015816 -0.061635762 0.064562514 -0.020888261 -0.031593304 0.0920093 0.038819086
0.09714536 0.017818825 -0.06829656 0.09164813 0.041259833 0.008866759 -0.09467665 0.010188455
-0.027250756 0.03081475 0.088032335 -0.083870865 0.06715922 0.00427523 -0.07192446 0.006534041
-0.031028429 -0.042926863 0.0029196793 0.04350776 -0.021680813 -0.017191814 0.05938929 -0.019096514
-0.10149726 0.035886493 0.10313235 0.08438328 -0.076683305 0.005583269 -0.05955101 0.037205037
-0.005620236 -0.043751586 0.06553665 0.04304138 -0.008832741 -0.048430957 -0.0868496 -0.049075812
0.049153693 0.050249442 -0.048010994 -0.04623315 -0.001275668 -0.052446477 0.032680176 -0.0013150511
-0.030565562 0.07886082 0.06601449 0.053641282 -0.022047548 -0.035158277 0.03684188 0.0320796
0.04086823 -0.11212888 -0.06786924 -0.063108414 0.09599576 -0.025498852 0.007880294 0.13325258
0.0059889746 0.01527964 -0.13554552 -0.10026506 -0.03551109 -0.05505502 0.051014293 0.00038730752
-0.006859369 0.10519266 -0.060241416 0.08013294 0.06434535 0.010322335 -0.035848986 -0.060184743
-0.068692654 -0.04616842 0.06338318 0.039346766 -0.056729417 -0.05019843 0.03514232 0.06299458
0.075326495 -0.049461626 0.01914381 0.06346603 0.081349276 0.04154703 0.065318026 -0.03980622
0.048087526 -0.013834392 0.06850373 -0.09361743 0.07384283 0.03871771 -0.02422557 -0.06268355
-0.063527465 0.043972448 -0.07756603 -0.06811713 0.007537667 -0.05027114 0.0011606754 0.04912978
-0.109221816 0.056319743 0.053610235 -0.03021566 0.0038725082 0.08447162 -0.046975892 -0.115152955
0.023423672 0.033901796 0.0943408 -0.04944235 -0.10647735 -0.04436584 -0.052695043 -0.059774566
0.116262734 0.040043943 0.020305319 0.0044340165 0.00035623068 -0.0504514 -0.07612045 0.064368196
0.07109594 -0.04036902 -0.020479416 -0.08449083 -0.034329932 -0.051596764 0.065442495 0.093077786
0.03417386 -0.02408984 -0.034720898 -0.07001888 0.008044149 0.032532524 -0.06662563 0.08298684
1.0907805e-06 0.021790547 0.058037985 0.058084775 0.00902422 0.10286639 0.08109265 0.074158475
-0.06349462 0.05454896 -0.060589813 0.00096872024 -0.06987154 0.009904514 -0.14701948 -0.019787915
0.096995555 0.10166283 -0.047248013 -0.028867982 0.035423033 -0.08691197 -0.004119495 -0.06493951
0.07031729 -0.007480381 -0.029273963 -0.019772 -0.04773362 0.018148376 0.06286812 -0.03640207
-0.0022282258 -0.052675508 0.062341515 -0.08655795 -0.030390127 0.080271766 -0.029619157 0.093628354
-0.089973375 -0.035350416 -0.08417089 -0.028314942 0.03345351 0.005636504 -0.03983665 0.0325241
0.019429188 0.06826501 -0.08386927 0.012968341 -0.024874989 0.040895905 0.13845247 -0.04800595

lstm.weight_hh_l1 f4 [512, 128]
00000000: c230 973d 5e0e 823d e0dd 84bd e460 e8bc
00000010: 845c 5d3d 665b 853b b337 8ebd 1658 8f3d
00000020: 5ab4 003d 5225 9e3c 39f1 223d 344c ca3c
00000030: d0d1 0d3d 1cc6 193d 1a2f b23c 74a2 213d
00000040: 92ec 5d3d 9d71 8f3d 508e b43d 04a5 843d
00000050: 9f63 6c3d 755e 133c dc43 613d 7108 ce3c
00000060: a5a9 9ebd 364d 143d aac4 a2bd 0c59 8cbb
00000070: 65cf 47bd 31c4 be3d 6529 9a3d 7a4a 75bc
00000080: e08e a73d f4e1 1f3d e8d3 16bc 11fe 3ebd
00000090: da28 ebbc b9e1 873c b971 5fb9 cccf b9bd
000000a0: c6d2 8ebc ddd3 ee3d d760 45bd b50b f5bc
000000b0: ef81 ffbc 1912 173d 5680 7b3d 7972 4dbd
000000c0: ac66 a03d bba2 88bd 9f2c e03c 9186 793d
000000d0: 7e22 57bd d903 7bbd 23b2 0bbd 65ea 5fbd
000000e0: 5379 a1bd 12b5 0f3d a52d 30bd 19ba 8fbb
000000f0: 1ad6 a73d 2ea8 863d f396 6d3d 55df 7b3c
00000100: 2743 68bd 0ee0 eabd 963b c63c d56c 88bd
00000110: fa80 a33d 31ae ca3c d678 9ebd 8238 95bd
00000120: a8a6 063d 0b97 75bd 2c7c 22bb aa3d 8ebb
00000130: 9523 f2bc 9af8 acbd d12f 44bd 408d 9f3d
00000140: 7fb6 50bc 5e75 08bd c95e 093d 7aba d53d
00000150: c39a d1bc 7a41 cd3c 7b4a 1a3d ef34 fbbc
00000160: 83d7 a33d 2798 b7bd 9040 c7ba 6a88 8bbc
00000170: 35f2 62bd de92 f73d d645 ff3c d6e5 aebb
00000180: 370c cbbc 85dc e13b 88a8 d3bb 365f aebc
00000190: 56d0 cb3a 2be7 4c3c 0c8c 833d b062 ab3d
000001a0: d491 063d cf03 d23c 8619 613d 789e 6e3d
000001b0: 8efe 1abc a6e9 1d3d ffc0 76bc 94fd 5ebd
000001c0: b7a4 cdbd 127f e73c 0d86 2cbd 0ef9 d7bb
000001d0: 1d99 ebbc a3cb 81ba f6ad 0d3d e2df cb3c
000001e0: e94e 0dbc 3c7d 673d 089a 103c 8dc5 a83d
000001f0: 7986 26bc 77ff db3c 0a0b bb3d 3889 523b
00000200: c6b3 cabc a2ef 51bd b27c 983d 2b62 913d
00000210: 0318 943d 61ee 01bd 074e f53c 44ee 12bc
00000220: af0f 6a3c 21ca 8d3a 20d4 483d b57d 713d
00000230: 4b0b 263d a160 34bd 740c cb3b 486c 34bd
00000240: a17b 39bd 1f99 6bbd 1a34 893d 17ed 7f3d
00000250: c7e6 db3d 11a9 643d 3f7a 26bd bc5c 8e3d
00000260: dc6b 10bd ec33 9fbc 2642 8f3c 92af 86bc
00000270: 65f9 9cbd 7f7a e0bc 27eb d5bc 9386 18bc
00000280: 4a2d 77bc 698d 3d3c eb1e 9f3c 75e9 b23c
00000290: 5de7 66bd 0633 9cbc a557 b3bd b520 633d
000002a0: d8ee 673d f189 2d3d 3393 b238 2bc8 2abd
000002b0: 685c b9bd 1ee4 66bd 2c63 2e3c a1f8 953d
000002c0: c1eb 35bd cee9 153d e634 47bd 9819 9fbd
000002d0: 4c38 d0bc 1b99 973c 6d01 a43d 16fb ddbc
000002e0: 1f60 43bd 467d 823c 6723 30bd 9cc7 12bd
000002f0: 68a4 96bd 2bbd 893c bbaa a2bd f613 813c
00000300: b521 9cbc d857 123d 920d 363c a2f9 0a3d
00000310: d6f4 8c3d 257e afbd 7de0 9cbd eebb 9abb
00000320: 3042 283d c2f0 91bd 7519 97bc 5218 bbbd
00000330: a608 92bd b03d 84bd 3769 123d a31f d6bc
00000340: 736a 42bd 427b 823d 9f27 9f3d afef 973d
00000350: fc3d 5ebb 98ae 97bd 184e b73d d4c1 113d
00000360: 97d4 373d 7149 c83c 8033 a1bd 98f2 7d3d
00000370: 7744 9f3d 4590 13bd 183b 463d 9591 afbd
00000380: 02cf ccbc 69a2 2dbc cff7 1dbd b0ad 6ebd
00000390: b850 a3bd d1f0 ab3a 5fe2 863d f2fc 2dbd
000003a0: 652c cdbc f0e2 f8bc 06ae aa3b 60f6 c6bd
000003b0: 3d97 8c3d 5028 403d 3420 2b3d 7609 933c
000003c0: 559a 9f3d 8a58 94bd 7a43 73bc 767b da3c
000003d0: 72c0 a83c da0b 593d 6164 6d3d 6076 aabd
000003e0: 3127 8b3d 675b bfbd ae59 2dbd 26d2 cf3c
000003f0: 7088 26bc b046 1b3c 6ea4 30bc 7fe0 ab3c
0.07382347 0.063503966 -0.06487632 -0.028366514 0.054043308 0.0040697334 -0.069442175 0.06999223
0.031421997 0.019304905 0.03978083 0.02469454 0.03462392 0.037542447 0.021750975 0.039461568
0.05418069 0.07004092 0.088162065 0.06476787 0.057712194 0.008994688 0.054996356 0.02515051
-0.07747201 0.036206447 -0.07947667 -0.004283076 -0.04878177 0.09314764 0.07527427 -0.01497137
0.08181548 0.039033845 -0.009205796 -0.046629015 -0.028706003 0.016587125 -0.00021309302 -0.09072837
-0.017434489 0.116615035 -0.048188057 -0.029912809 -0.031189887 0.036882494 0.061401688 -0.050157998
0.07832083 -0.066716634 0.027365027 0.06091935 -0.05252313 -0.061282966 -0.03410543 -0.054666895
-0.07884469 0.03508479 -0.04301228 -0.0043861982 0.081951335 0.065750465 0.058005285 0.015373071
-0.056704666 -0.11468516 0.024198335 -0.06661383 0.07983585 0.024741264 -0.077378914 -0.07286169
0.03287378 -0.0599585 -0.002479325 -0.004340847 -0.029557982 -0.084458545 -0.047897164 0.07790613
-0.012738823 -0.033315055 0.03353766 0.10435958 -0.025586491 0.025055636 0.037668686 -0.03066489
0.0800009 -0.08964568 -0.0015201736 -0.01703282 -0.055406768 0.120885596 0.03116123 -0.005337457
-0.024786098 0.006892743 -0.0064592995 -0.021285634 0.001554976 0.012506287 0.06423196 0.083684325
0.032853916 0.025636582 0.05495598 0.058256596 -0.009460105 0.038552903 -0.015060662 -0.05444105
-0.100411825 0.028258834 -0.04212003 -0.006590969 -0.028759534 -0.0009902607 0.03458973 0.02488703
-0.008624771 0.056515917 0.008825786 0.08240805 -0.010163897 0.026855214 0.09132965 0.0032125246
-0.024743926 -0.051253922 0.07445659 0.07098802 0.07231142 -0.031721476 0.029944433 -0.00896794
0.014285966 0.0010817685 0.049030423 0.058957774 0.040538114 -0.044037465 0.006196553 -0.044048578
-0.045283917 -0.057519075 0.06699391 0.062481966 0.10737377 0.055825297 -0.040643927 0.069512814
-0.035259113 -0.019433938 0.017487597 -0.01644114 -0.07664756 -0.02740216 -0.026113106 -0.009309429
-0.015086481 0.011569359 0.019423923 0.021839837 -0.05637299 -0.019067299 -0.08756951 0.055451114
0.056624264 0.04236788 8.5151194e-05 -0.0416948 -0.09050828 -0.056369893 0.010643762 0.07322813
-0.044414286 0.036599927 -0.048634432 -0.077685535 -0.02541747 0.018505624 0.080080844 -0.027097266
-0.04769909 0.015928876 -0.043002512 -0.035834894 -0.07355577 0.016813835 -0.079427205 0.015756588
-0.019059042 0.035728306 0.011111634 0.033929475 0.06882636 -0.08568982 -0.07660005 -0.00472211
0.041078746 -0.07125999 -0.018444756 -0.09135498 -0.07130556 -0.064570785 0.035744872 -0.026138132
-0.0474648 0.06371166 0.07771229 0.07418763 -0.0033911457 -0.07406348 0.08950442 0.03558524
0.044880476 0.024449082 -0.07871151 0.061998934 0.077767305 -0.036026258 0.0483962 -0.085726894
-0.025001053 -0.010597804 -0.038566407 -0.05827111 -0.0797438 0.0013118034 0.065861456 -0.042477556
-0.025045583 -0.03038165 0.0052087335 -0.09714961 0.06864784 0.046913445 0.04177876 0.017948847
0.077931084 -0.0724345 -0.014847631 0.026670199 0.020599578 0.05298982 0.057957057 -0.083233595
0.067945845 -0.093436055 -0.042321853 0.025368761 -0.010164365 0.009477302 -0.010781391 0.020981072

lstm.bias_ih_l1 f4 [512]
00000000: d50d 58bd 452f 453d 5354 9a3d 408b 4ebc
00000010: 11e1 873c 6e94 333d aa90 933d a3d0 39bc
00000020: f2c5 42bd 8913 c33d 95bf 5f3e 6045 443d
00000030: 98a1 28bd 54bc 8d3d bae3 aa3d 0007 84bd
00000040: 2e63 543e cce7 b53c 463d ad3d d57a 1ebd
00000050: 6ab7 9cbc b1dd ff3a 3a4b 0a3e edad 8f3d
00000060: d15b bcbc e8b1 66bd 874c e33d 0597 f43c
00000070: bf4a 41bc 30d9 013d 1f84 b73d 7f14 2f3d
00000080: 145f 4c3d bea8 1b3b aad6 d63d 4363 1a3e
00000090: 8ca3 4b3d 16e3 93bd 0d88 b43d 6ec9 193d
000000a0: 4fdc 8f3d 6e88 5fbc 7ebb 08bc b718 9f3c
000000b0: 4ce2 153d d5eb fb3c 9e32 393d ad31 f53b
000000c0: 0585 d6bc f7e1 073e 7896 c33d 2b8a 953d
000000d0: f1bc 583d e5a8 143b e247 523d a727 9c3d
000000e0: b530 773d 8f69 f23d 6b2c 443d 20fb 513e
000000f0: 1a21 b13d 9b08 ed3d 80aa 3f3d 45ab 8a3d
00000100: fb96 3b3d fe26 593e 6a10 be3d c653 ec3c
00000110: 89d3 7abd e47f 0b3c 2432 c6bc fb77 e53c
00000120: 0c85 ce3a fd2c 913d 7e5e 4f3c 7b37 f1ba
00000130: 75ad c23d 4898 92bb 6cfd f63d a20d 753d
00000140: d876 2a3e d356 f73d 5b6c 62bd eaae ae3d
00000150: e64a d83d c681 c3ba cb0a 49bc 28b2 003e
00000160: 420d 1f3d 3733 1e3d 9afd 3abb a5d2 c3bc
00000170: 6240 213d f8c0 253d 63a4 27bc 2b89 9c3d
00000180: 5109 c33d ba1e c0bc a2c2 b03d 5bdd 2c3e
00000190: 8537 213e 5a43 753d 1764 623d 3fdd 81bb
000001a0: be93 0ebd 943f 05bd 7d24 143b d378 233d
000001b0: 0127 15bd 86f8 ccbb 301b 21bd a4cd 123c
000001c0: 6e21 c5bc 4ee4 9f3b adab 073e da43 c7bc
000001d0: e7ab 10bd 2c1b 033d a6be de3c 49bd b83d
000001e0: cba5 cd3e 5aed 483d 7832 78bd baf9 55bd
000001f0: b4a7 d43c 367a 96bd f4a1 863d 7eba f03d
00000200: 3287 3c3d e0c8 713c 9e47 a5bc 65bb 50bc
00000210: 63ab 8e3d c2a1 933d 498a a8bd 0325 29bd
00000220: 5cf3 243d 686b 9abd 10e9 abbc 5466 05bd
00000230: a957 8d3c e44f cabc b82b f5bc 5084 593c
00000240: dcbc eebd 5d4e dcbc 10fb a6bc a84b 21bd
00000250: 811a 83bd 7b7d 21bd 6b58 5cbd 5767 3d3d
00000260: de72 11bd 747c 68bd 433d 143d d1fa 1dbd
00000270: 77c9 673d 1ecb e53b b40e 60ba 0fc9 3e3d
00000280: 4214 bcbc df11 b2bd 85e7 64bd f56c 5b3d
00000290: 044b 753c 058a eabc 9100 b63c 2c74 5fbc
000002a0: 4b82 abbd 5856 533d 018b 21bb 1731 ea3a
000002b0: 94d9 393d 9211 ffbc f473 a73d dd80 d53b
000002c0: 6075 adbd a40b 05bc e387 cfba 8470 75bd
000002d0: cb81 7cbd a98d ed3c 2d74 6ebd 3145 15bd
000002e0: f6fb 483d 31c2 bbbd 52f0 a03d 6e8c 3e3d
000002f0: bad1 51bd 122a 533d c7ee 8ebd b121 033d
00000300: 13f4 48bc 276a e0bd 99ba 4c3b a970 31bd
00000310: 8892 90bd 1a57 99bd 26c4 a7bd f416 843d
00000320: 4815 7ebd 6587 6c3d 0dd4 8dbd fda7 ac3c
00000330: 2787 373d 580f ad3d 2d6e fe3c b684 163d
00000340: 8622 aebd 4aa4 fabc a87c 84bd 6775 b2bd
00000350: eb72 543d facc b13d 7e7d 54bb 3601 9bbd
00000360: b1dd 073d 5441 873c eb82 4cbd 6f83 93bd
00000370: 337f 7d3d c408 94bd 679c 963d 97f6 5b3d
00000380: eecf eebc 3518 5fbd 49de 2cbc 1836 1cbd
00000390: 9239 783d a91f af3c e30b a33b b001 6c3d
000003a0: 7f9a d03b 5796 0bbd 4877 563c 7967 063c
000003b0: bc10 35bd 4064 f53c e81d f73d 4c57 b9bd
000003c0: 1dab 613d c196 e4bb c862 92bd 3750 3a3c
000003d0: ce35 57bd b699 a7bc 310b bebd 047b 5dbd
000003e0: 5782 33be 3dba 11bd db4a 08bc f68c 6ebd
000003f0: adda a7bd e795 90bd 230a fcbc 4c11 3d3d
-0.052747566 0.048140783 0.07535615 -0.012606442 0.016586812 0.043842725 0.07205327 -0.011341247
-0.047552057 0.095252104 0.21850426 0.047917724 -0.041169733 0.06920686 0.08344217 -0.06446648
0.20740959 0.022205256 0.084589526 -0.03869136 -0.019130427 0.0019521025 0.13505259 0.070155956
-0.022993 -0.05632201 0.11098581 0.029857168 -0.011797606 0.031701267 0.08960747 0.042744156
0.04989536 0.0023751701 0.10490163 0.15076928 0.049716517 -0.072210476 0.08815012 0.037545614
0.070244424 -0.013643367 -0.008345483 0.019420965 0.036592767 0.030752102 0.045214288 0.0074827285
-0.026186476 0.13269792 0.09550184 0.07301744 0.052914564 0.0022683677 0.051338084 0.076247506
0.060349185 0.1183654 0.047893923 0.20505953 0.08648892 0.11573907 0.04679346 0.06770948
0.045798283 0.2120628 0.092804745 0.02884854 -0.061236892 0.008514378 -0.02419383 0.028011313
0.0015756204 0.07088659 0.012656806 -0.0018403375 0.095057406 -0.0044737197 0.12060055 0.059827454
0.16646898 0.12077107 -0.055279117 0.08529456 0.10561161 -0.0014915995 -0.01227064 0.12567961
0.038831003 0.03862306 -0.0028532506 -0.023904154 0.03936804 0.040467232 -0.010232064 0.0764335
0.09523261 -0.023452152 0.08630873 0.16881315 0.15743835 0.059878685 0.055271234 -0.003963142
-0.034808867 -0.032531336 0.0022604757 0.03991015 -0.03641415 -0.0062552122 -0.03933257 0.008960161
-0.024063792 0.004879511 0.13249083 -0.024324346 -0.03532019 0.032008335 0.027190518 0.09020478
0.40165552 0.04905448 -0.060595006 -0.05224011 0.025958873 -0.07347529 0.06573859 0.117543206
0.04602737 0.014757365 -0.020175751 -0.012739991 0.06966283 0.07208587 -0.08229501 -0.041295063
0.040271148 -0.07540017 -0.020985156 -0.03256829 0.017253714 -0.024696298 -0.029928073 0.013276175
-0.11657116 -0.026892835 -0.020383388 -0.039378792 -0.064015396 -0.039426308 -0.05379526 0.04624113
-0.035509937 -0.056759313 0.036191236 -0.038569275 0.056588616 0.007012739 -0.0008547113 0.046578463
-0.022958878 -0.08694815 -0.055884857 0.053570706 0.014971498 -0.028630266 0.022217067 -0.013638537
-0.08374461 0.051596016 -0.0024649503 0.0017867413 0.045373514 -0.031136308 0.08176413 0.006515606
-0.08469653 -0.008120451 -0.0015833344 -0.059921756 -0.061647218 0.028998213 -0.058216263 -0.03644294
0.049068414 -0.091678984 0.078583375 0.046520643 -0.0512254 0.051553793 -0.06979137 0.032014553
-0.012265223 -0.10957747 0.003123915 -0.04332033 -0.070591986 -0.074873164 -0.08191709 0.064496905
-0.062032014 0.05774631 -0.06925211 0.021076197 0.044806626 0.08450192 0.031058395 0.036747657
-0.085026786 -0.030595917 -0.06469089 -0.08713799 0.051867407 0.08681674 -0.0032423432 -0.0756859
0.033170406 0.016510643 -0.04992954 -0.07202803 0.061888885 -0.072282344 0.0735405 0.053701963
-0.029151883 -0.054466445 -0.010551044 -0.038137525 0.06060178 0.021377401 0.0049757822 0.057618797
0.0063660736 -0.034078922 0.013089962 0.008203381 -0.044205412 0.02995503 0.12066251 -0.09049854
0.055094827 -0.006975979 -0.07147747 0.011371664 -0.052541547 -0.020459037 -0.09279478 -0.054072395
-0.1753019 -0.035578 -0.008318628 -0.0582399 -0.08196006 -0.070598416 -0.030766552 0.046159074
