第二章-回归模型/model_weight/LSTM.pth (torch, 811768 bytes, 11 tensors)

lstm.weight_ih_l0 f4 [512, 2]
0.052034292 0.13147 0.06931504 0.010097596 0.016852181 0.050469086 -0.0026122213 -0.017258665
0.01111965 -0.053334866 0.007692186 0.12565887 0.06902668 0.12186445 0.033659995 0.06350508
-0.0035493674 -0.037569936 0.07386229 0.05004873 0.08381783 -0.014938943 0.024611227 -0.020681908
0.09100568 0.015372982 0.017608095 0.17633732 0.058885954 -0.014355699 -0.06992177 -0.042843744
-0.013689764 -0.104548365 0.053989027 0.05734092 0.07697876 0.123618424 -0.06986022 -0.026385149
-0.040164974 0.0021333846 -0.052815538 0.03964199 0.039789192 0.1254646 0.012447048 0.07123856
0.06823649 -0.06730877 0.076789275 0.0021427674 0.013203527 -0.010207599 0.08330771 -0.021814026
0.21211904 0.09490935 0.09756532 -0.09381276 0.072622366 0.04827884 -0.007863857 0.042001214
0.12552045 -0.03119483 0.07283489 0.10925146 0.012911249 -0.0009591931 0.064679936 0.0755732
0.17083561 0.14768484 0.13193296 0.009656289 -0.07110403 0.10093113 -0.024856336 0.053220123
0.0149737075 0.10481775 -0.010070317 0.13995479 0.09286985 0.006993737 0.0015923487 0.13425651
0.06056605 0.07391489 0.0017728694 0.13219963 -0.08194342 0.054413628 0.07201881 -0.08630571
0.061221406 0.06240088 -0.069913566 0.015089478 0.032162648 -0.09296221 0.020462202 0.028683051
0.013907651 -0.034534484 -0.004182663 -0.022461629 0.07171779 0.122177415 -0.06235584 0.02240535
-0.052484903 0.032731052 0.087214515 0.09637403 -0.00697226 -0.029736413 0.19887127 0.13759914
-0.017215947 0.05041114 0.02173819 -0.057844557 0.048476603 -0.10811238 0.01761823 -0.020644229
0.07856178 0.016668145 -0.0016534645 0.03969592 0.09742815 0.029768266 -0.02588032 0.052917015
0.043909084 0.11699059 -0.034063864 0.009134209 -0.029220577 -0.016311774 0.06597053 0.08397219
0.10433546 -0.011919162 0.06294079 0.10136196 0.07725668 -0.029303214 -0.07012575 0.0006179074
-0.061181054 0.08672285 0.0049716057 -0.0025125998 0.011550685 -0.041595202 -0.07106493 0.016722435
0.026819158 -0.1342742 0.059507843 -0.015514496 0.047454406 0.075616784 0.06713183 0.112335056
0.088737026 -0.070856236 0.039711878 0.030840509 0.045606945 -0.021538246 0.011362612 0.0035027904
0.043589536 -0.07253769 0.1922651 0.19072954 0.06410769 0.017585281 -0.06092857 -0.009644486
0.11543968 0.04229682 -0.02294481 0.09657321 -0.012257966 0.052639112 -0.015190292 -0.0029647178
0.005844704 -0.010236766 0.02531148 0.029030548 0.028751543 -0.0031345114 -0.014514396 -0.01964743
-0.05163685 0.05947026 -0.057116944 0.10144193 0.04090538 0.012543923 0.118949555 0.016183767
0.0047592157 0.091640264 0.10075599 0.11626246 0.038075514 -0.02876358 0.021512406 0.11660875
0.06576683 0.11659034 -0.027930709 -0.0018072318 0.050763372 0.13932608 0.075397454 0.012246276
-0.01514256 0.0003350016 0.02867363 0.1944696 0.1043468 0.051943857 -0.07532019 0.017601041
0.03626742 0.03818575 0.056560803 0.09806823 0.03375817 -0.1801162 0.0010205131 -0.07225034
0.04855404 -0.095279336 -0.011543391 0.059613485 0.08738639 0.09302492 0.035008054 0.19653
-0.01721101 0.12504435 0.02965548 0.18857016 0.026946375 0.034657843 0.041615237 0.07853152
00000000: e921 553d 12a0 063e 0bf5 8d3d 6370 253c
00000010: 960d 8a3c acb8 4e3d cd31 2bbb 0b62 8dbc
00000020: 312f 363c a975 5abd bc0e fc3b b8ac 003e
00000030: dc5d 8d3d 1294 f93d 10df 093d f40e 823d
00000040: 819c 68bb efe2 19bd 1d45 973d e6ff 4c3d
00000050: afa8 ab3d 78c2 74bc 7c9d c93c 1b6d a9bc
00000060: 3061 ba3d f6de 7b3c da3e 903c c591 343e
00000070: 6632 713d 2a34 6bbc 2533 8fbd ec7c 2fbd
00000080: 084b 60bc 741d d6bd 9923 5d3d 50de 6a3d
00000090: 0aa7 9d3d a82b fd3d e012 8fbd ab25 d8bc
000000a0: 0784 24bd 41d0 0b3b 1b55 58bd a45f 223d
000000b0: fef9 223d cb79 003e b4ee 4b3c 86e5 913d
000000c0: 93bf 8b3d 2ed9 89bd b243 9d3d ac6d 0c3b
000000d0: 9b53 583c c63d 27bc 3c9d aa3d 54b3 b2bc
000000e0: bc35 593e d55f c23d 54d0 c73d e820 c0bd
000000f0: 09bb 943d 08c0 453d 68d7 00bc 7709 2c3d
00000100: 6f88 003e 4d8c ffbc 752a 953d 3bbf df3d
00000110: b489 533c 5c72 7bba ea76 843d 1fc6 9a3d
00000120: 88ef 2e3e b23a 173e 6f19 073e 6935 1e3c
00000130: fd9e 91bd fbb4 ce3d 849f cbbc 58fd 593d
00000140: 4854 753c b0aa d63d f9fd 24bc 4f50 0f3e
00000150: 8c32 be3d b82b e53b 5bb6 d03a 8a7a 093e
00000160: 1b14 783d b160 973d a05f e83a 575f 073e
00000170: f4d1 a7bd d3e0 5e3d 997e 933d 0cc1 b0bd
00000180: 4cc3 7a3d 1198 7f3d d82e 8fbd dc39 773c
00000190: fbbc 033d f962 bebd 59a0 a73c b8f8 ea3c
000001a0: ebdc 633c 0874 0dbd b80e 89bb 7301 b8bc
000001b0: c7e0 923d 2738 fa3d d668 7fbd 6d8b b73c
000001c0: 69fa 56bd ff10 063d 869d b23d bf5f c53d
000001d0: 8e77 e4bb c799 f3bc e9a4 4b3e cae6 0c3e
000001e0: 7508 8dbc e97b 4e3d 4a14 b23c 6aee 6cbd
000001f0: 678f 463d 066a ddbd 1b54 903c 161e a9bc
00000200: 00e5 a03d a28b 883c 10b9 d8ba 3098 223d
00000210: 6988 c73d 94dc f33c f702 d4bc 83bf 583d
00000220: 03da 333d c398 ef3d 8d86 0bbd a6a7 153c
00000230: fe5f efbc 45a0 85bc 8f1b 873d 9df9 ab3d
00000240: d4ad d53d 9748 43bc 1ae7 803d dc96 cf3d
00000250: c038 9e3d 4b0d f0bc 179e 8fbd 10fb 213a
00000260: fc98 7abd c09b b13d dae8 a23b 6eaa 24bb
00000270: 163f 3d3c bb5f 2abd 7d8a 91bd 7dfd 883c
00000280: dab3 db3c 2d7f 09be 7fbe 733d 8330 7ebc
00000290: 8d5f 423d f9dc 9a3d 6a7c 893d ec0f e63d
000002a0: c2bb b53d 131d 91bd eca8 223d 3ca5 fc3c
000002b0: 59ce 3a3d fa70 b0bc 402a 3a3c 128f 653b
000002c0: f18a 323d a48e 94bd 24e1 443e 9b4e 433e
000002d0: e44a 833d 020f 903c 3c90 79bd e803 1ebc
000002e0: a46b ec3d 6e3f 2d3d c1f6 bbbc 2dc8 c53d
000002f0: a3d5 48bc 1c9c 573d b4e0 78bc b64b 42bb
00000300: ee84 bf3b 1cb8 27bc 055a cf3c 79d1 ed3c
00000310: 5b88 eb3c 606c 4dbb cacd 6dbc a6f3 a0bc
00000320: 2981 53bd 1697 733d 75f3 69bd c9c0 cf3d
00000330: 668c 273d 0785 4d3c d39b f33d d293 843c
00000340: 32f3 9b3b e4ad bb3d 2859 ce3d 031b ee3d
00000350: 12f5 1b3d 99a1 ebbc c93a b03c 91d0 ee3d
00000360: c3b0 863d ebc6 ee3d f1ce e4bc a3e0 ecba
00000370: 41ed 4f3d 7fab 0e3e fb69 9a3d 9ba4 483c
00000380: 8018 78bc 27a3 af39 f6e4 ea3c 0a23 473e
00000390: c6b3 d53d 15c3 543d 7941 9abd 0f30 903c
000003a0: 258d 143d a968 1c3d 4dac 673d ffd7 c83d
000003b0: 0246 0a3d 6270 38be bdc2 853a fcf7 93bd
000003c0: 9ae0 463d d021 c3bd 7e20 3dbc 452d 743d
000003d0: a3f7 b23d d983 be3d 9b64 0f3d 293f 493e
000003e0: 1bfe 8cbc a00b 003e 0df0 f23c 8918 413e
000003f0: a5be dc3c 62f5 0d3d bd74 2a3d 22d5 a03d

lstm.weight_hh_l0 f4 [512, 128]
-0.026596354 -0.07651842 -0.034369852 0.08195851 -0.024444543 -0.056560244 0.075823866 -0.09120017
0.033626188 -0.016636623 0.03503902 -0.00395378 0.027793711 -0.036421705 -0.06798904 0.048475113
0.041198082 -0.04804438 -0.02115425 -0.048266493 -0.008913397 -0.044807114 -0.058119033 0.008158978
0.018062422 -0.049756244 0.03866812 -0.10038874 -0.10297506 -0.09071314 0.03616735 0.053731613
-0.018434998 0.030046312 0.047828387 -0.009563982 -0.084487095 0.05909169 0.06660084 -0.0054330905
0.03730136 0.025681471 0.06830972 0.032493606 0.026278123 -0.067029566 0.05873242 -0.011003774
-0.08314874 0.0734886 0.0019766989 -0.09532228 -0.07021815 -0.024402274 0.0505913 0.07662715
0.09019218 -0.011959398 -0.06677893 0.04564451 -0.0024130377 0.08705574 -0.032912854 0.07123236
-0.0655541 0.08675018 -0.01673694 -0.07549467 0.009424678 0.023776667 -0.02306773 0.04682161
-0.023965627 -0.072369955 -0.008009786 -0.022119552 0.069387384 0.08630944 0.053522974 0.10912163
0.021675222 0.08667926 0.03748328 -0.0046701687 0.008527532 -0.07388831 0.0997269 -0.090519935
-0.028600523 -0.015755069 0.03443534 -0.027176568 -0.06780268 -0.03308708 0.08222885 -0.06465729
0.076034375 0.02911602 -0.09219363 -0.06778899 0.055706885 0.06033956 0.06489478 -0.017431084
-0.07833978 -0.022579744 0.049248956 -0.06220723 0.020773912 0.014628889 0.099675655 -0.017090667
0.048377592 0.0060476866 0.03861048 -0.08790603 -0.057550233 -0.030937092 -0.037054744 -0.0023498887
0.057955306 -0.031030634 0.08860458 0.005111216 0.037588734 0.074946895 0.0041473387 0.07193001
-0.0052651954 -0.04079344 0.04290742 -0.019222707 -0.04532302 -0.053085335 0.013498825 -0.050633665
0.052664053 -0.0109158 -0.11595277 -0.027343344 0.02801028 -0.043211214 -0.058323268 0.029294724
0.06594114 0.001297734 0.10232086 0.08696843 -0.028368914 -0.0023717124 0.06986612 -0.063106894
-0.09124022 0.13837299 -0.06725681 -0.10925351 0.02566836 -0.085924864 0.11712392 0.07916983
0.080700554 0.10094242 0.039437994 0.030763278 -0.019469094 -0.106843926 -0.01915702 -0.071486294
0.1848884 -0.002772981 0.03373979 -0.07922266 0.14730038 0.08789013 -0.016424559 0.09597328
-0.07437045 0.109467424 -0.004835027 -0.14646031 -0.0063886438 -0.05955848 -0.016896978 -0.008970479
0.0348235 -0.014640659 -0.02065112 -0.06965894 -0.039017443 0.007604187 0.10867683 -0.1747184
-0.019529415 0.13062124 -0.00062489405 0.08129634 0.028516628 0.08589854 0.023915645 0.089216
-0.08169544 -0.10556747 -0.13553803 0.0045629013 0.0050511044 0.0025411686 -0.075143754 -0.028303681
-0.113175444 0.03885758 0.087003715 -0.022684375 -0.030036638 0.0064059133 -0.02474682 -0.031988017
0.01928143 -0.156682 -0.011932701 0.034471188 -0.023565691 -0.055952523 0.04553925 0.0675384
0.030872375 0.046866827 -0.12223264 -0.020914119 -0.13874182 -0.019589027 0.037672285 -0.0805375
0.017822176 -0.021928502 0.038021583 -0.015945783 0.006295867 -0.008948188 0.045416158 -0.056635395
0.075509496 -0.07531187 -0.06923278 0.0010040567 0.015407788 0.060897846 -0.03363562 -0.06528767
0.0396447 -0.086901866 0.06771776 -0.022897463 0.12289927 -0.04784313 0.08364817 -0.032038294
00000000: 99e0 d9bc b0b5 9cbd 67c7 0cbd ddd9 a73d
00000010: ec3f c8bc b7ab 67bd 8b49 9b3d 28c7 babd
00000020: 9dbb 093d 8749 88bc 1385 0f3d b68e 81bb
00000030: a3af e33c ed2e 15bd d63d 8bbd d78d 463d
00000040: 52bf 283d 2fca 44bd ad4b adbc 16b3 45bd
00000050: 7f09 12bc aa87 37bd 390e 6ebd 3cad 053c
00000060: a5f7 933c 34cd 4bbd 7662 1e3d 9d98 cdbd
00000070: 97e4 d2bd d0c7 b9bd 3724 143d ae15 5c3d
00000080: fe04 97bc af23 f63c b3e7 433d 3fb2 1cbc
00000090: 9207 adbd 210a 723d 0566 883d 1108 b2bb
000000a0: 50c9 183d f361 d23c f7e5 8b3d 0418 053d
000000b0: 3845 d73c cc46 89bd 6891 703d 2c49 34bc
000000c0: e349 aabd 3181 963d 818b 013b 5438 c3bd
000000d0: 89ce 8fbd 47e7 c7bc d338 4f3d b2ee 9c3d
000000e0: adb6 b83d 5af1 43bc 64c3 88bd bdf5 3a3d
000000f0: 0e24 1ebb 484a b23d a1cf 06bd 46e2 913d
00000100: 3a41 86bd 14aa b13d e81b 89bc f39c 9abd
00000110: f769 1a3c 49c7 c23c 89f8 bcbc 04c8 3f3d
00000120: 9053 c4bc b336 94bd 7a3b 03bc 1034 b5bc
00000130: f91a 8e3d 01c3 b03d e83a 5b3d 297b df3d
00000140: 3c90 b13c e584 b13d 1188 193d 3708 99bb
00000150: 10b7 0b3c c152 97bd 9e3d cc3d 8462 b9bd
00000160: a54b eabc c610 81bc 120c 0d3d 65a1 debc
00000170: 22dc 8abd 5186 07bd 9967 a83d 0b6b 84bd
00000180: e9b7 9b3d b884 ee3c 04d0 bcbd f4d4 8abd
00000190: e72c 643d 9d26 773d 8ee7 843d a2cb 8ebc
000001a0: 9b70 a0bd 28f9 b8bc 46b9 493d 02cd 7ebd
000001b0: 0d2e aa3c 02ae 6f3c c022 cc3d ba01 8cbc
000001c0: 9527 463d ac2b c63b 0626 1e3d 1408 b4bd
000001d0: cbb9 6bbd c96f fdbc b7c6 17bd 9700 1abb
000001e0: 8b62 6d3d f533 febc 5176 b53d fd7b a73b
000001f0: a5f6 193d c27d 993d 66e6 873b 0b50 933d
00000200: a987 acbb 0617 27bd b1bf 2f3d f078 9dbc
00000210: a2a4 39bd 0270 59bd 2d2a 5d3c 3f65 4fbd
00000220: 43b6 573d 2fd8 32bc a578 edbd 26ff dfbc
00000230: d175 e53c 3efe 30bd 61e4 6ebd 7dfb ef3c
00000240: 260c 873d ba18 aa3a 998d d13d 811c b23d
00000250: ed65 e8bc bb6e 1bbb f815 8f3d 303e 81bd
00000260: 27dc babd a6b1 0d3e f0bd 89bd 4ec0 dfbd
00000270: 7446 d23c 60f9 afbd aade ef3d cb23 a23d
00000280: 5546 a53d e6ba ce3d bc89 213d 4503 fc3c
00000290: a67d 9fbc fdd0 dabd 2fef 9cbc 6867 92bd
000002a0: 6253 3d3e e7ba 35bb bc32 0a3d 7d3f a2bd
000002b0: e9d5 163e beff b33d cc8c 86bc a48d c43d
000002c0: 894f 98bd 7530 e03d 256f 9ebb b1f9 15be
000002d0: d457 d1bb 98f3 73bd 886b 8abc eaf8 12bc
000002e0: 16a3 0e3d 60df 6fbc 8a2c a9bc 59a9 8ebd
000002f0: c1d0 1fbd 8b2c f93b f591 de3d 61e9 32be
00000300: 27fc 9fbc 93c1 053e eecf 23ba b27e a63d
00000310: b49b e93c 93eb af3d beea c33c e1b6 b63d
00000320: f04f a7bd c233 d8bd 7bca 0abe 6484 953b
00000330: bc83 a53b bc89 263b f8e4 99bd 1fdd e7bc
00000340: 87c8 e7bd 2029 1f3d 012f b23d 95d4 b9bc
00000350: 650f f6bc b2e8 d13b d8b9 cabc de05 03bd
00000360: 17f4 9d3c 3f71 20be 6081 43bc a931 0d3d
00000370: d60c c1bc 792e 65bd 5d87 3a3d 9351 8a3d
00000380: 10e8 fc3c 6ef7 3f3d 1b55 fabd 1654 abbc
00000390: 5612 0ebe 2b79 a0bc 414e 1a3d d8f0 a4bd
000003a0: d0ff 913c 67a3 b3bc 85bc 1b3d bba0 82bc
000003b0: 8f4d ce3b 6c9b 12bc 4b06 3a3d 84fa 67bd
000003c0: b9a4 9a3d 1c3d 9abd eac9 8dbd 8d9a 833a
000003d0: f270 7c3c 0570 793d 81c5 09bd 8bb5 85bd
000003e0: 7b62 223d 9bf9 b1bd 9caf 8a3d 7693 bbbc
000003f0: 9db2 fb3d 28f7 43bd bb4f ab3d 963a 03bd

lstm.bias_ih_l0 f4 [512]
-0.03565063 0.07819724 0.07350297 0.008685027 0.038439814 0.001835795 -0.05219695 0.087521344
-0.024409734 0.03105572 -0.0063377297 0.09391251 0.008815596 0.0031573111 0.10841247 -0.017170906
0.08030641 0.17072105 0.061091896 0.04852566 0.05341938 -0.040193938 0.06017978 0.10593891
0.023492852 -0.02473427 0.06124747 0.044845793 0.12057957 0.11264108 -0.0706952 0.025416715
0.09990808 -0.041317705 0.17410251 -0.076124996 0.0696276 -0.051582523 0.09985065 -0.0010606892
-0.007934673 0.05804635 0.1312413 0.067902 -0.021285823 -0.038448792 -0.007047735 -0.0290389
0.07421464 -0.018246138 0.06724185 0.075062804 0.012615783 -0.06962305 0.08938554 0.05921235
0.086899124 -0.021525098 0.010286917 0.23543362 0.060423337 0.05466211 -0.013321819 0.12738244
0.017457755 0.068030044 0.08233701 0.100258276 -0.05480777 0.12175337 0.04711719 -0.050603367
0.055453356 -0.020259019 0.0006353837 0.013044408 0.03747234 -0.001396473 0.093739 0.03444394
0.121230125 -0.0075915726 0.007191572 0.060864303 -0.052119646 0.15774661 0.015253835 0.009206277
0.024818128 0.21625419 0.03580953 0.12553439 0.002084642 -0.042104892 0.019059619 0.073698156
0.08703925 0.04668473 0.0008199966 0.072068125 -0.04802641 0.09881348 0.10919207 -0.0012185136
-0.066623345 -0.05389525 -0.0111456355 0.05093994 0.0020814126 0.0121818 0.053330533 0.07345661
0.074471235 0.0546054 -0.027898323 -0.040872242 0.015137399 0.14019981 -0.03256419 -0.014648729
0.078315206 -0.0042186393 -0.057116963 0.023588642 0.15491867 0.09783828 0.13644996 -0.066801645
-0.07096898 -0.033395376 0.08267603 -0.06310223 -0.021957064 0.074751675 -0.034119878 0.046038788
-0.06569232 0.022789182 0.049549658 -0.016682124 -0.056761317 0.03610362 0.07843962 0.029071435
-0.06477902 -0.07721343 -0.016139422 -0.018752923 0.008423226 -0.0036746534 -0.04011575 0.090431675
-0.06746916 -0.07263004 -0.00081951317 0.052154746 0.046754844 0.02504474 -0.028316196 0.081496604
0.013729496 -0.07118604 -0.06895858 -0.04427168 -0.078535125 -0.09712763 0.0013102 -0.020357804
-0.06614355 0.060751356 -0.0119718 -0.0895275 0.027677698 -0.018575722 0.060916316 -0.018490793
0.052231725 -0.07366965 -0.06116383 0.07267056 -0.03371874 -0.06883255 0.04140985 -0.049495447
-0.0403493 0.06791497 0.040235113 -0.16163987 -0.012593651 -0.014030971 0.07224693 0.039258853
0.05821835 -0.0786564 0.07315252 0.09121559 -0.082161605 -0.024921756 -0.048009247 -0.040291067
0.070431724 0.0375985 0.05924367 0.069186635 0.03364733 0.013001855 0.06653502 0.08703236
0.020569174 0.019313183 -0.015220447 -0.02776477 0.07859869 0.0739245 -0.0011036315 -0.06385792
-0.011857166 -0.13681886 -0.041875694 -0.024896706 -0.02856885 -0.037151016 0.058729246 -0.055219486
0.014470191 -0.036088556 0.0066405404 0.07173671 -0.0075330823 0.041131902 0.020916684 -0.028303275
-0.076717265 0.003939068 -0.005972712 0.074770264 0.086324036 0.08151838 -0.032225344 0.0603046
-0.044262953 -0.11802472 0.019908316 0.06537903 0.081893414 -0.046696626 -0.04905441 0.0455395
-0.07642254 -0.057334922 0.025225377 -0.038845345 0.014519311 -0.026119929 0.028432993 -0.00731595
00000000: 6506 12bd e025 a03d ba88 963d a54b 0e3c
00000010: 1173 1d3d 0f9f f03a 78cc 55bd 643e b33d
00000020: ecf6 c7bc 9168 fe3c bbac cfbb 3455 c03d
00000030: 4a6f 103c e4ea 4e3b 5b07 de3d 00aa 8cbc
00000040: b077 a43d 80d1 2e3e 7f3b 7a3d d8c2 463d
00000050: 48ce 5a3d 66a2 24bd 137f 763d 80f6 d83d
00000060: 1574 c03c 869f cabc a1de 7a3d 39b0 373d
00000070: 6cf2 f63d 5eb0 e63d a5c8 90bd b736 d03c
00000080: 9c9c cc3d c13c 29bd ee47 323e 6ce7 9bbd
00000090: ea98 8e3d 3248 53bd 7f7e cc3d d306 8bba
000000a0: 6e00 02bc 02c2 6d3d 1f64 063e 3410 8b3d
000000b0: 9b5f aebc 7b7c 1dbd b0f0 e6bb fde2 edbc
000000c0: d8fd 973d ed78 95bc 18b6 893d 87ba 993d
000000d0: 6eb2 4e3c 8896 8ebd c40f b73d a688 723d
000000e0: 2bf8 b13d 6755 b0bc 758a 283c 8315 713e
000000f0: 767e 773d 60e5 5f3d c243 5abc 8b70 023e
00000100: 9103 8f3c 5653 8b3d 4ea0 a83d 3654 cd3d
00000110: 1d7e 60bd d559 f93d f4fd 403d 7a45 4fbd
00000120: 0f23 633d 3ef6 a5bc e18f 263a 36b8 553c
00000130: 997c 193d dc09 b7ba 3cfa bf3d 1715 0d3d
00000140: 8047 f83d bac2 f8bb 47a7 eb3b d94c 793d
00000150: 697b 55bd 5488 213e 39eb 793c edd5 163c
00000160: 634f cb3c bd71 5d3e 04ad 123d 168c 003e
00000170: 7d9e 083b 2e76 2cbd eb22 9c3c 0fef 963d
00000180: a241 b23d 7d38 3f3d 0af5 563a 7498 933d
00000190: 57b7 44bd b95e ca3d 18a0 df3d 88b6 9fba
000001a0: d271 88bd 44c1 5cbd 2f9c 36bc 66a6 503d
000001b0: 4f68 083b 2c96 473c 1e71 5a3d 6b70 963d
000001c0: 6084 983d e9a9 5f3d 068b e4bc a769 27bd
000001d0: da02 783c 8a90 0f3e 0762 05bd 3901 70bc
000001e0: b963 a03d 833c 8abb 7af3 69bd f83c c13c
000001f0: 00a3 1e3e 705f c83d 8ab9 0b3e 4dcf 88bd
00000200: 2f58 91bd 97c9 08bd 0d52 a93d be3b 81bd
00000210: 4ddf b3bc 6817 993d 49c1 0bbd 2b93 3c3d
00000220: b289 86bd 61b0 ba3c 95f4 4a3d f3a8 88bc
00000230: 8e7e 68bd 64e1 133d f4a4 a03d 3827 ee3c
00000240: ddaa 84bd 1322 9ebd d236 84bc bb9f 99bc
00000250: 9201 0a3c 74d2 70bb 6a50 24bd 3e34 b93d
00000260: 452d 8abd 0fbf 94bd 99d4 56ba 37a0 553d
00000270: 0282 3f3d a02a cd3c 5ef7 e7bc b1e7 a63d
00000280: aef1 603c fdc9 91bd 283a 8dbd 3956 35bd
00000290: 06d7 a0bd daea c6bd 04bb ab3a 69c5 a6bc
000002a0: 4576 87bd 6ad6 783d 5e25 44bc 325a b7bd
000002b0: 57bc e23c 1d2c 98bc 6383 793d 017a 97bc
000002c0: eff0 553d 1de0 96bd ed86 7abd 4dd4 943d
000002d0: a91c 0abd 14f8 8cbd 609d 293d bdbb 4abd
000002e0: 4f45 25bd 0117 8b3d 93cd 243d ec84 25be
000002f0: 9a55 4ebc 28e2 65bc 33f6 933d e4cd 203d
00000300: 5d76 6e3d 9b16 a1bd fdd0 953d 3dcf ba3d
00000310: 5844 a8bd b628 ccbc 58a5 44bd 3f08 25bd
00000320: 823e 903d e200 1a3d 7ea9 723d b9b1 8d3d
00000330: c8d1 093d bc05 553c 8343 883d 063e b23d
00000340: af80 a83c ae36 9e3c 2f5f 79bc f172 e3bc
00000350: 5af8 a03d ba65 973d baa7 90ba f1c7 82bd
00000360: 8f44 42bc 3e1a 0cbe d985 2bbd 2df4 cbbc
00000370: 3909 eabc aa2b 18bd 148e 703d d42d 62bd
00000380: 6114 6d3c 98d1 13bd e498 d93b b2ea 923d
00000390: 13d8 f6bb ed79 283d 7759 ab3c 45dc e7bc
000003a0: f11d 9dbd 4c13 813b bdb6 c3bb 2721 993d
000003b0: a8ca b03d 1cf3 a63d b9fe 03bd f501 773d
000003c0: 124d 35bd f2b6 f1bd c416 a33c 71e5 853d
000003d0: bcb7 a73d f644 3fbd 47ed 48bd a087 3a3d
000003e0: 6c83 9cbd 06d8 6abd 73a5 ce3c 4c1c 1fbd
000003f0: 67e2 6d3c 76f9 d5bc 4fec e83c a3ba efbb

lstm.bias_hh_l0 f4 [512]
-0.039565213 0.11531543 0.10709534 0.117020115 0.0050191195 0.12730008 0.034791827 0.04108338
0.08547646 -0.0046018297 0.11563612 -0.0052894345 0.10891365 0.069822535 0.118042536 -0.024857515
0.082885936 0.061568066 0.015093356 -0.02664698 0.128951 -0.05749444 0.14221911 0.11100801
-0.015250717 0.10551885 0.029782722 -0.0293973 0.18230705 0.013796298 -0.038939063 0.07413948
-0.0083823865 0.049899165 0.11485071 0.047861047 0.11073569 -0.043112773 0.0627948 0.10824398
0.09103217 0.061702836 0.06634914 -0.024500195 0.046890706 0.08596117 0.110862054 -0.040568
0.026532752 -0.023862878 0.0123907495 -0.042091157 -0.02350837 0.05162354 0.023813464 -0.031345963
0.036122855 0.04662552 0.037243035 0.2009435 0.057099096 -0.05056446 -0.06625256 -0.029049193
0.029456843 0.004801603 0.07193567 0.105474815 -0.030431617 0.065324046 0.03447933 -0.055814285
-0.010537274 0.0484203 -0.010776636 -0.0063940333 0.045566972 0.16204362 -0.04677379 -0.02847064
0.019720878 0.07957639 -0.042107992 0.018484984 0.014378349 0.13562687 -0.016951544 0.020919051
0.12564856 0.26459438 0.06199637 0.009089532 0.009984725 -0.013821286 0.025593465 0.05815438
-0.019678542 0.019151285 0.10738621 0.083641574 -0.07021532 -0.021831322 0.026840119 -0.024732787
0.10488542 0.09759689 -0.018540485 0.07999685 0.031338416 -0.007225534 0.10867928 0.028461816
0.033449404 0.16616945 0.072634086 -0.05809454 -0.0014453914 0.0637534 0.08284309 0.0798614
0.056067657 0.03957067 0.08831411 0.10602037 0.14263915 0.18200332 -0.014438289 -0.036744796
-0.075571306 -0.022883547 0.034446638 -0.07968811 -0.004300033 -0.015422126 -0.056228846 0.03384177
0.05213021 -0.056606475 0.088453904 -0.07162689 0.0024351857 -0.04247389 0.08286273 -0.023407247
0.034498755 0.002819284 0.05436186 -0.04888874 -0.0014424677 0.0791964 0.026289968 -0.042142436
0.0151558295 0.055482965 0.043766655 -0.055904344 -0.03571483 -0.07278246 0.07729681 -0.045025326
0.017073225 0.01054308 -0.093676664 -0.060446598 0.034074288 -0.061542545 0.052378055 0.0028800347
0.015161834 0.07084423 -0.024314376 -0.08228082 -0.037210245 -0.057315078 0.0477433 0.04093332
-0.030893296 -0.092763074 0.02494633 0.017575331 0.06671277 0.009163399 0.057867803 0.022039928
0.038457546 0.07387947 -0.022890665 -0.14179008 0.03124234 0.08039597 -0.08297555 -0.03667247
-0.0028321715 0.07586363 0.05203665 0.0017183776 0.077661656 0.03649292 0.064099036 -0.06255666
-0.01130654 -0.0039007303 0.0058836713 -0.01818448 -0.022651324 0.03015143 -0.005002186 0.06656354
0.09029418 -0.011894596 0.091010585 0.04779144 0.023686506 0.08784847 -0.040960837 -0.034004074
-0.056673795 -0.051416636 -0.0151030235 0.081627056 -0.058454037 0.013052685 -0.07447645 -0.06468065
-0.035344686 -0.052582685 -0.07540789 0.04760812 -0.061331578 0.05776124 -0.062515095 0.06776731
-0.040758446 -0.017934931 0.038217653 0.015081666 0.0323257 -0.0653162 -0.002687973 0.045314565
-0.015598072 -0.07405247 0.051545665 0.054606095 -0.0871153 -0.019705418 -0.007600431 0.058932655
-0.013800155 0.067132495 0.063637145 0.011666369 0.047316596 0.0025969478 -0.016520534 -0.057326183
00000000: 220f 22bd 7f2a ec3d cd54 db3d 3ea8 ef3d
00000010: 6d77 a43b f45a 023e e081 0e3d 0c47 283d
00000020: 480e af3d f2ca 96bb a1d2 ec3d fe52 adbb
00000030: 1f0e df3d 1eff 8e3d 49c0 f13d fda1 cbbc
00000040: 1ac0 a93d cc2e 7c3d 204a 773c c44a dabc
00000050: bb0b 043e 4a7f 6bbd e3a1 113e 2b58 e33d
00000060: 25de 79bc 441a d83d e5fa f33c 9bd2 f0bc
00000070: b3ae 3a3e de09 623c 917e 1fbd 71d6 973d
00000080: 4756 09bc 1163 4c3d d936 eb3d f209 443d
00000090: 65c9 e23d 0597 30bd 8f9a 803d 05af dd3d
000000a0: 136f ba3d 1dbc 7c3d 0fe2 873d a2b4 c8bc
000000b0: 7810 403d 690c b03d a50b e33d a22a 26bd
000000c0: 375b d93c 157c c3bc 9202 4b3c c767 2cbd
000000d0: a094 c0bc 3573 533d 7414 c33c a064 00bd
000000e0: 8ff5 133d 67fa 3e3d 278c 183d 22c4 4d3e
000000f0: bee0 693d ae1c 4fbd 6caf 87bd 93f8 edbc
00000100: 7a4f f13c c456 9d3b 0253 933d 2e03 d83d
00000110: ba4b f9bc 9dc8 853d 333a 0d3d 859d 64bd
00000120: 88a4 2cbc 5d54 463d 7d90 30bc 0a85 d1bb
00000130: 6fa4 3a3d c3ee 253e e095 3fbd 423b e9bc
00000140: ae8d a13c f2f8 a23d 6e79 2cbd d26d 973c
00000150: 2b93 6b3c c5e1 0a3e f7dd 8abc 6e5e ab3c
00000160: 04aa 003e ea78 873e e8ef 7d3d 43ec 143c
00000170: f996 233c ad72 62bc 63a9 d13c 4a33 6e3d
00000180: e534 a1bc 28e3 9c3c 4ded db3d 464c ab3d
00000190: 0dcd 8fbd 9ad7 b2bc cfdf db3c 6a9c cabc
000001a0: 2bce d63d e1e0 c73d 37e2 97bc 63d5 a33d
000001b0: b65c 003d 2cc4 ecbb 3e93 de3d c128 e93c
000001c0: 3e02 093d 5328 2a3e 2ec1 943d 8af4 6dbd
000001d0: 4a73 bdba 2591 823d a3a9 a93d 608e a33d
000001e0: 33a7 653d db14 223d 07de b43d 3521 d93d
000001f0: ff0f 123e 145f 3a3e 938e 6cbc b681 16bd
00000200: 21c5 9abd 4776 bbbc eb17 0d3d 8533 a3bd
00000210: 4be7 8cbb 16ad 7cbc 3850 66bd ab9d 0a3d
00000220: 7d86 553d 31dc 67bd 5227 b53d 1eb1 92bd
00000230: a397 1f3b 1af9 2dbd efb3 a93d 8ec0 bfbc
00000240: 914e 0d3d bdc3 383b 8baa 5e3d 8f3f 48bd
00000250: 2f11 bdba b931 a23d 0f5e d73c 8c9d 2cbd
00000260: 2850 783c 1b42 633d aa44 333d f4fb 64bd
00000270: b749 12bd f80e 95bd ca4d 9e3d 7a6c 38bd
00000280: 26dd 8b3c e2bc 2c3c 8dd9 bfbd da96 77bd
00000290: 7b91 0b3d 0914 7cbd 5f8a 563d f7be 3c3b
000002a0: 5769 783c c816 913d f12e c7bc d982 a8bd
000002b0: c569 18bd 37c3 6abd 7b8e 433d b2a9 273d
000002c0: f013 fdbc 91fa bdbd 3f5c cc3c 24fa 8f3c
000002d0: b4a0 883d 1522 163c ca06 6d3d 148d b43c
000002e0: a985 1d3d 1f4e 973d 3485 bbbc 6b31 11be
000002f0: f0ef ff3c a4a6 a43d 16ef a9bd df35 16bd
00000300: f49b 39bb 645e 9b3d 6224 553d 2f3b e13a
00000310: 130d 9f3d 9a79 153d 5b46 833d b51d 80bd
00000320: 113f 39bc 65a3 7fbb d0cb c03b 9ef7 94bc
00000330: 458f b9bc 2200 f73c 61e9 a3bb 7752 883d
00000340: 28ec b83d 8de1 42bc c263 ba3d f5c0 433d
00000350: 340a c23c e6e9 b33d 8dc6 27bd db47 0bbd
00000360: c822 68bd 409a 52bd ac72 77bc 162c a73d
00000370: 806d 6fbd eeda 553c 1c87 98bd 4a77 84bd
00000380: 97c5 10bd f160 57bd 746f 9abd bb00 433d
00000390: d236 7bbd 0d97 6c3d ea07 80bd 96c9 8a3d
000003a0: 54f2 26bd 47ec 92bc 1d8a 1c3d 1819 773c
000003b0: f467 043d 80c4 85bd b428 30bb c49b 393d
000003c0: 0e8f 7fbc d2a8 97bd 8c21 533d a4aa 5f3d
000003d0: 8269 b2bd 426d a1bc 090d f9bb 5e63 713d
000003e0: 0c1a 62bc c37c 893d 3154 823d 4c24 3f3c
000003f0: 0ccf 413d 8e31 2a3b 1256 87bc dcce 6abd

lstm.weight_ih_l1 f4 [512, 128]
0.13760382 0.11093083 0.043913994 -0.15161394 -0.025000177 0.12813476 0.10845379 -0.1231145
0.018671129 0.12141922 -0.002473826 -0.0045193755 0.13132326 -0.10694394 -0.09372896 -0.08628618
-0.0451686 0.0099193 -0.016914425 0.061412 -0.14294803 -0.02186669 0.086168244 0.014352266
0.023662534 0.1382626 -0.12566258 -0.11460953 -0.13246648 -0.0056077195 0.045573015 -0.0060181255
-0.13077463 -0.008620934 -0.0945451 -0.13722536 -0.17339468 -0.13479446 -0.12105402 -0.023982253
0.11881248 -0.0847901 0.08409755 -0.045334063 0.0529543 0.036806785 0.08146147 0.09339838
0.022486305 0.057900496 0.008006829 -0.022204412 0.00349325 -0.008555928 -0.14391336 -0.03145503
-0.0118326945 -0.019070668 -0.021552864 -0.02714876 -0.1444843 0.08598762 0.06346401 -0.11878495
0.030329853 0.11488724 -0.14127913 0.04925864 -0.026820993 0.085767016 -0.013312971 0.10812328
-0.08490316 -0.091336004 -0.099705644 -0.07712165 0.058554124 0.12654309 0.00061288686 -0.042921245
0.02043921 -0.054831788 -0.026747625 0.13142985 0.0069227647 -0.12299659 0.039784398 -0.08816251
-0.015098249 -0.105349645 0.030459011 -0.07691737 -0.048824597 -0.0005226874 -0.001754773 0.13531162
-0.017931225 0.07796738 -0.116249174 -0.09078134 -0.026479194 0.029167466 0.111539334 -0.098319344
-0.09688997 0.003399344 0.03791427 -0.08812713 -0.055022277 0.1308633 0.027907116 0.0080867065
0.038860954 -0.117999256 0.012095108 -0.14040951 0.0019839085 -0.0017853662 -0.011794045 0.0061218524
0.010534958 -0.117323965 0.065994814 0.06960372 0.15742582 0.05236786 0.14660783 0.00916977
0.19750743 0.25527868 -0.08072803 0.08049182 0.06793287 0.029238896 0.12303376 -0.06538572
-0.14082618 0.072955646 -0.06886484 -0.0082492735 0.059979904 -0.04270529 -0.024094902 -0.066414446
0.043683738 0.007035656 0.063084446 0.05968353 -0.12137188 -0.05306429 0.0983256 0.043923467
0.1710331 -0.046895675 -0.06264854 -0.14292507 -0.21358776 0.0012392878 0.02700909 -0.13902128
0.086457565 -0.024372911 -0.122233965 -0.0013382048 0.035316702 -0.05266346 -0.06261807 0.014911449
-0.002166136 -0.15242037 0.02771946 -0.03177277 0.09533313 0.055841688 0.08868106 -0.06601482
-0.029839512 -0.049507122 0.02856956 0.0045311023 -0.13535789 -0.07095247 -0.16850455 -0.069247305
0.099269345 -0.00674482 0.055246495 -0.053222615 0.025759147 -0.004062011 0.04014444 0.0046278476
-0.054428436 0.017069757 -0.12962788 0.14191051 0.1181503 -0.03169865 -0.055857543 0.04310176
-0.14724454 -0.04069094 0.013393468 -0.116899066 -0.018371549 0.029027302 -0.012674815 0.0003284265
0.100208946 -0.069422744 0.037381608 0.10569013 -0.027115058 -0.09758779 0.051064502 -0.07219772
-0.086902626 -0.06147776 0.15463686 -0.0194299 -0.03044079 -0.01328585 0.027122678 0.0013195372
0.02012899 0.051316302 -0.03645268 0.053981323 -0.0009653375 0.11303911 0.038857408 -0.070785396
0.027097372 0.1547174 0.0845879 -0.11915773 0.039011806 0.12313733 0.03694155 -0.035739902
-0.015955469 -0.06528532 -0.06699385 -0.06504658 -0.0009088277 -0.027632661 0.0071886415 0.09989887
0.040289808 -0.09153345 0.09895078 -0.048161298 0.05366835 0.07070279 0.15506257 0.01070213
00000000: 04e8 0c3e b42f e33d 29df 333d af40 1bbe
00000010: 2ccd ccbc c235 033e 051d de3d 7423 fcbd
00000020: 32f4 983c a4aa f83d ea1f 22bb 4517 94bb
00000030: 9b79 063e 6d05 dbbd f8f4 bfbd cfb6 b0bd
00000040: b602 39bd 8f84 223c 1f90 8abc 268b 7b3d
00000050: f860 12be c621 b3bc fa78 b03d c425 6b3c
00000060: eed7 c13c b694 0d3e b1ad 00be 67b8 eabd
00000070: 4ba5 07be f6c0 b7bb c5aa 3a3d b233 c5bb
00000080: c9e9 05be d13e 0dbc dda0 c1bd ce84 0cbe
00000090: 608e 31be 8f07 0abe 2ceb f7bd 6e76 c4bc
000000a0: f553 f33d 6fa6 adbd 563b ac3d 36b0 39bd
000000b0: 9ce6 583d b6c2 163d 45d5 a63d a647 bf3d
000000c0: 3335 b83c 1229 6d3d 132f 033c 07e6 b5bc
000000d0: 03ef 643b 2a2e 0cbc 065e 13be fdd6 00bd
000000e0: ebdd 41bc 173a 9cbc a28f b0bc 1467 debc
000000f0: b1f3 13be 471a b03d 6bf9 813d 8645 f3bd
00000100: 5076 f83c 004a eb3d 7aab 10be 6dc3 493d
00000110: b3b7 dbbc 9ea6 af3d a61e 5abc bd6f dd3d
00000120: b5e1 adbd 5f0e bbbd 7932 ccbd f5f1 9dbd
00000130: 73d6 6f3d 8394 013e 24aa 203a 30ce 2fbd
00000140: 2170 a73c 4c97 60bd d61d dbbc 8c95 063e
00000150: 5cd8 e23b a3e5 fbbd f7f4 223d 8c8e b4bd
00000160: a55e 77bc 8ec1 d7bd 2d85 f93c db86 9dbd
00000170: 4dfc 47bd f504 09ba 6900 e6ba 218f 0a3e
00000180: 81e4 92bc 5dad 9f3d 0c14 eebd 91eb b9bd
00000190: e5ea d8bc 9cf0 ee3c bc6e e43d a75b c9bd
000001a0: 406e c6bd 87c7 5e3b fe4b 1b3d ff7b b4bd
000001b0: 0a5f 61bd 0701 063e 779d e43c 1b7e 043c
000001c0: aa2c 1f3d 98a9 f1bd 8f2a 463c 83c7 0fbe
000001d0: 7604 023b f302 eaba cf3b 41bc d299 c83b
000001e0: d19a 2c3c 8c47 f0bd 4a28 873d 658c 8e3d
000001f0: 3c34 213e ae7f 563d 5d20 163e ce3c 163c
00000200: 633f 4a3e e3b3 823e bd54 a5bd e5d8 a43d
00000210: 6320 8b3d 6986 ef3c 20f9 fb3d f3e8 85bd
00000220: bd34 10be c569 953d 0209 8dbd f627 07bc
00000230: 7dad 753d beeb 2ebd ac62 c5bc 4c04 88bd
00000240: b8ed 323d 5c8b e63b 6b32 813d b876 743d
00000250: d291 f8bd f159 59bd ef5e c93d 18e9 333d
00000260: 4d23 2f3e ae15 40bd e14d 80bd f35a 12be
00000270: c0b6 5abe 996f a23a 2b42 dd3c 985b 0ebe
00000280: aa10 b13d b3a9 c7bc cd55 fabd b466 afba
00000290: 3fa8 103d a4b5 57bd e73d 80bd 264f 743c
000002a0: bbf5 0dbb 1614 1cbe ec13 e33c 2a24 02bd
000002b0: 043e c33d 41ba 643d 6a9e b53d c732 87bd
000002c0: fe71 f4bc fbc7 4abd b60a ea3c a479 943b
000002d0: 429b 0abe 874f 91bd 758c 2cbe 88d1 8dbd
000002e0: ba4d cb3d a703 ddbb 264a 623d f5ff 59bd
000002f0: d904 d33c 9e1a 85bb 7f6e 243d 33a5 973b
00000300: 5af0 5ebd e0d5 8b3c 2cbd 04be fd50 113e
00000310: c9f8 f13d 72d6 01bd e1ca 64bd 798b 303d
00000320: 46c7 16be 8bab 26bd 4770 5b3c c768 efbd
00000330: ee7f 96bc aaca ed3c 07aa 4fbc a930 ac39
00000340: 593a cd3d 832d 8ebd 751d 193d 1174 d83d
00000350: 6620 debc 1bdc c7bd 0329 513d 66dc 93bd
00000360: 01fa b1bd 1bd0 7bbd 2059 1e3e 742b 9fbc
00000370: f75e f9bc e5ac 59bc 6130 de3c 52f4 ac3a
00000380: 8de5 a43c 0b31 523d 684f 15bd 851b 5d3d
00000390: b40e 7dba 0d81 e73d f228 1f3d eff7 90bd
000003a0: 4ffb dd3c 3d6e 1e3e 6c3c ad3d f808 f4bd
000003b0: d8ca 1f3d 6d2f fc3d 0650 173d 0164 12bd
000003c0: 0bb5 82bc 4fb4 85bd 1234 89bd 2437 85bd
000003d0: 653e 6eba e45d e2bc b28e eb3b c797 cc3d
000003e0: ed06 253d e475 bbbd b5a6 ca3d c844 45bd
000003f0: 58d3 5b3d a0cc 903d b9c8 1e3e fd57 2f3c

lstm.weight_hh_l1 f4 [512, 128]
0.038756218 -0.005671826 0.049316935 0.08515382 -0.08140441 -0.04034887 -0.043539695 0.082343884
-0.097720325 0.0425877 -0.10828788 0.0685726 0.07634841 -0.0714792 -0.06490573 0.0728043
-0.09178565 0.07127846 0.056248534 -0.09175535 -0.008511301 -0.028558308 -0.0057363394 0.076313965
0.032623213 -0.07333768 0.112149805 -0.02385758 -0.018736633 -0.080602825 -0.08546422 0.02568556
0.058781836 -0.09090328 0.0037756125 -0.044830333 -0.027267486 0.05198791 -0.026089447 -0.035876136
0.00030661584 0.023336623 -0.023004776 -0.111453734 -0.041171044 0.105547845 0.046559226 -0.09633912
-0.06327804 0.041114368 -0.110020585 -0.056889422 -0.013936921 -0.011492002 -0.006879358 -0.07688146
-0.08110249 0.0007541315 0.056307565 -0.049115088 0.08064734 0.12033692 -0.027507901 -0.0052429126
-0.090735205 -0.06529426 -0.06458363 0.011938574 0.11113083 -0.00993785 -0.04941467 0.016042665
0.09327995 -0.09727167 -0.014256213 0.044722747 0.05388441 -0.06456487 0.04350714 -0.058903024
0.035837784 -0.049027868 0.025377806 -0.028437853 0.0027660178 -0.01103345 -0.0073106377 0.033697717
-0.0692536 0.08468525 0.01632781 0.100420386 0.044993952 -0.028873015 -0.114131965 0.05450045
-0.0029879373 -0.038698953 -0.084660634 0.08801 -0.09056687 -0.044748317 -0.0588329 -0.1104271
0.003079484 -0.063617654 0.072539195 0.021804038 -0.00047139282 -0.039398022 -0.026363513 -0.021284034
-0.11413404 -0.02297072 -0.06390488 -0.017425656 0.033485204 -0.025335232 -0.04167172 -0.082057364
-0.079043075 -0.040378816 0.018466158 0.060472522 0.10484114 -0.0084411865 0.049915362 -0.0683476
-0.13618208 0.045924403 -0.028856134 0.011642206 -0.04317991 0.10980358 0.059478976 0.0021092815
-0.11611133 -0.0518874 -0.022206852 -0.018554194 -0.0035180126 0.010287587 0.09070135 0.048359077
0.025791371 -0.0041498933 -0.052749902 -0.115049265 0.08672658 -0.018245062 -0.04059896 0.06652967
0.05382797 0.06613086 0.0054610153 -0.014957564 -0.022428043 -0.01799622 0.022216879 0.014396423
-0.14524205 -0.048925936 0.09547087 0.06579185 0.088533714 0.04142119 0.13388965 -0.03633697
-0.045855958 -0.062189583 0.08104022 -0.07484175 0.0026022927 0.027976336 -0.088176124 0.0007987633
0.04759388 -0.017615002 -0.0054055313 -0.004815466 0.099926464 -0.039421745 0.015211899 -0.11074182
-0.1225517 -0.068715595 0.019352067 -0.006848223 0.02956002 -0.0018002766 -0.07624293 0.027158838
-0.11065035 -0.07974567 -0.007053839 -0.09384948 0.0067545474 -0.12310377 0.02560235 -0.049360197
0.010445504 -0.0027589372 0.018129012 -0.06299921 0.010101046 0.0425098 0.071751 -0.013021351
0.014419334 0.024253113 0.11360539 0.041938152 -0.019699015 0.0040635574 -0.023666117 0.039172497
0.05658859 0.11678453 0.08693053 0.05659863 0.03792022 0.084405184 0.0062818294 -0.07170747
-0.046425335 0.013409164 -0.009550033 0.044940744 -0.19994858 0.06693933 0.040756036 -0.022956774
-0.013214487 -0.023574255 0.11670464 0.05866088 0.15002061 -0.016604232 0.08243156 0.13221654
-0.020654462 0.012142535 0.003222285 -0.107884035 -0.023583177 -0.13659273 -0.065639265 -0.040041007
-0.10139409 0.11837116 -0.07840264 -0.07331958 -0.056037284 -0.08364248 0.091133706 0.066065
00000000: d7be 1e3d bada b9bb 8e00 4a3d 2065 ae3d
00000010: 5bb7 a6bd db44 25bd ae56 32bd e9a3 a83d
00000020: 9821 c8bd 7170 2e3d 09c6 ddbd cb6f 8c3d
00000030: 8e5c 9c3d b063 92bd 4ced 84bd 6c1a 953d
00000040: 1dfa bbbd 71fa 913d dd64 663d 3bea bbbd
00000050: fc72 0bbc 1df3 e9bc e7f7 bbbb 7f4a 9c3d
00000060: eb9f 053d 1132 96bd ccae e53d f970 c3bc
00000070: 917d 99bc 1813 a5bd dd07 afbd 866a d23c
00000080: 39c5 703d 802b babd 4470 773b 03a0 37bd
00000090: 1060 dfbc 46f1 543d 89b9 d5bc dbf2 12bd
000000a0: 48c1 a039 722c bf3c 8374 bcbc db41 e4bd
000000b0: f8a2 28bd 7829 d83d e3b4 3e3d 724d c5bd
000000c0: eb97 81bd 8a67 283d 7952 e1bd e204 69bd
000000d0: af57 64bc f348 3cbc 3d6c e1bb 0774 9dbd
000000e0: 1019 a6bd e9b0 453a c3a2 663d e72c 49bd
000000f0: 6f2a a53d 3473 f63d 4058 e1bc bdcc abbb
00000100: 61d3 b9bd ffb8 85bd 6c44 84bd 029a 433c
00000110: 9098 e33d 5dd2 22bc 0967 4abd e86b 833c
00000120: 8f09 bf3d 5f36 c7bd e492 69bc 332f 373d
00000130: e6b5 5c3d 963a 84bd 8b34 323d 4c44 71bd
00000140: a4ca 123d 72d1 48bd 1ee5 cf3c 80f6 e8bc
00000150: 1446 353b a5c5 34bc 138e efbb 9e06 0a3d
00000160: d5d4 8dbd 766f ad3d e6c1 853c 34a9 cd3d
00000170: 944b 383d 1a87 ecbc 05be e9bd dd3b 5f3d
00000180: 45d1 43bb cb82 1ebd 8e62 adbd 963e b43d
00000190: 207b b9bd 034a 37bd c4fa 70bd 9a27 e2bd
000001a0: 2bd1 493b f949 82bd 6e8f 943d 629e b23c
000001b0: 4625 f7b9 d25f 21bd 4bf8 d7bc db5b aebc
000001c0: 1cbf e9bd 172d bcbc 90e0 82bd 40c0 8ebc
000001d0: c827 093d d58b cfbc f7af 2abd b10d a8bd
000001e0: 56e1 a1bd 4264 25bd 5746 973c 09b2 773d
000001f0: f4b6 d63d e74c 0abc 0d74 4c3d d4f9 8bbd
00000200: 5173 0bbe 3a1b 3c3d b363 ecbc f4be 3e3c
00000210: 6bdd 30bd b3e0 e03d 3aa0 733d df3b 0a3b
00000220: c7cb edbd e287 54bd 25eb b5bc f7fe 97bc
00000230: 758e 66bb 448d 283c a1c1 b93d 2b14 463d
00000240: 6d48 d33c d4fb 87bb 4810 58bd f39e ebbd
00000250: b59d b13d ab76 95bc 184b 26bd b540 883d
00000260: b87a 5c3d 9e6f 873d 51f2 b23b 9210 75bc
00000270: 04bb b7bc cf6c 93bc 2c00 b63c f9de 6b3c
00000280: 55ba 14be 9066 48bd 3b86 c33d e1bd 863d
00000290: 2a51 b53d 44a9 293d 5e1a 093e 13d6 14bd
000002a0: 75d3 3bbd 81ba 7ebd 6af8 a53d a246 99bd
000002b0: 3a8b 2a3b a12e e53c af95 b4bd 1964 513a
000002c0: cdf1 423d 564d 90bc e220 b1bb 0ecb 9dbb
000002d0: 3fa6 cc3d b278 21bd 543b 793c 9bcc e2bd
000002e0: 63fc fabd c3ba 8cbd 3a88 9e3c 0f67 e0bb
000002f0: db27 f23c 42f7 ebba 4125 9cbd 367c de3c
00000300: a79c e2bd b351 a3bd e423 e7bb 2834 c0bd
00000310: 4055 dd3b d41d fcbd 05bc d13c eb2d 4abd
00000320: 9f23 2b3c 49cf 34bb 4b83 943c bb05 81bd
00000330: dc7e 253c c21e 2e3d 30f2 923d 8157 55bc
00000340: 123f 6c3c 77ae c63c f1a9 e83d 57c7 2b3d
00000350: d45f a1bc 9727 853b 72df c1bc 5773 203d
00000360: 70c9 673d ba2c ef3d a208 b23d f7d3 673d
00000370: 3c52 1b3d a0dc ac3d ced7 cd3b 5edb 92bd
00000380: 7e28 3ebd 1cb2 5b3c be77 1cbc c913 383d
00000390: 52bf 4cbe 7d17 893d cdef 263d d80f bcbc
000003a0: 9381 58bc cc1e c1bc d802 ef3d 6446 703d
000003b0: 019f 193e 9905 88bc e1d1 a83d c663 073e
000003c0: 8c33 a9bc 7cf1 463c f92c 533b 4ef2 dcbd
000003d0: 8231 c1bc f7de 0bbe e16d 86bd 0a02 24bd
000003e0: b4a7 cfbd 946c f23d 9091 a0bd 9328 96bd
000003f0: 5a87 65bd c04c abbd 4fa4 ba3d 164d 873d

lstm.bias_ih_l1 f4 [512]
0.09229885 0.048311837 -0.052866958 -0.03998288 -0.0091978 0.080317385 0.120662354 0.048668504
0.11355515 0.08737741 0.01604797 0.18007305 0.0006891209 0.010370932 0.06105705 -0.028623287
0.052331198 0.03006808 0.11106737 -0.01662173 0.10445653 -0.04319278 0.031549092 -0.001307032
-0.05291324 0.04499325 0.12985224 0.107799426 0.06524839 0.10591536 -0.025530394 0.0683979
0.13333006 0.09067663 0.07594082 0.110225394 0.020268578 0.04105517 0.033582613 0.083481036
-0.03793595 -0.050594494 0.12704118 -0.021019462 0.17349483 -0.026024353 -0.009704935 0.008318927
0.16295494 0.042320393 -0.053445175 0.05149909 0.002021047 0.07586888 -0.03114274 -0.0027535062
0.0379186 -0.05901817 -0.06831625 0.21963271 0.11098181 -0.022119958 0.0058374107 0.13050552
0.059930347 0.105897665 0.19565842 0.086877994 0.06746886 -0.0028259626 0.05324028 -0.00064978213
0.013347209 0.12136509 0.096576855 0.044772126 0.08954042 -0.02184081 0.035031136 0.020891787
0.07967447 0.067092575 0.070189185 -0.056992482 0.24242917 0.09267907 -0.023402166 0.092798345
-0.016593467 -0.06650306 -0.06455908 -0.009001416 0.08986737 0.17558406 -0.001443068 -0.040592264
0.0640888 0.099107966 0.07712378 -0.009939411 0.04748314 0.050511025 -0.05667303 0.17927285
0.05574404 -0.039773792 0.19115388 0.14751942 0.1113981 0.05266055 0.04179119 0.113907844
0.1389467 -0.022967173 0.1136957 0.08024429 0.11612006 0.015194638 0.0062808576 -0.02445332
-0.051480412 0.039658982 0.10499516 0.19907966 0.12601253 0.080324106 0.010386085 0.09506293
0.072424494 0.09872872 -0.032182254 -0.08178198 -0.039729767 -0.072609104 -0.035651293 0.018150307
-0.0719718 0.05271366 -0.08461386 0.012924692 0.072482295 -0.019966092 0.037692744 0.07648958
-0.02180857 -0.044692043 -0.0798802 0.034163944 0.07598811 0.06736202 -0.032168075 0.041736383
0.028233768 -0.030563608 -0.03557544 -0.06738686 0.030852966 0.028883789 0.08400692 -0.037148193
-0.020519422 0.009340775 -0.0052641444 -0.03668276 -0.0453298 -0.0041556517 -0.053827517 -0.060712777
0.05685432 -0.055243723 -0.037208073 -0.060748283 0.041792303 -0.020763513 -0.030301625 -0.0013355885
-0.01936388 -0.07314741 -0.007296976 0.0021842762 -0.00509735 0.056909386 -0.043260414 -0.088297
0.009392008 0.062309936 0.04336671 -0.019495755 -0.061981373 0.06536529 -0.0013167288 -0.07464139
-0.06953811 -0.0066995258 -0.016668439 -0.013492046 0.021872068 -0.0763318 0.002067274 -0.028875519
0.08180312 0.047385894 0.021102406 0.08293003 0.014161263 0.05941749 -0.037535254 -0.035383116
-0.017991157 -0.10046235 0.054567523 0.002725159 0.07668955 -0.011324682 0.057299916 -0.051902976
0.062412724 0.06373314 0.057225227 -0.05464565 -0.063997604 -0.023298083 -0.065009266 -0.0043604616
-0.056805532 -0.046481688 0.08131565 0.04814509 -0.05101874 -0.047196396 0.001322594 0.016519915
-0.05466143 0.045472924 -0.07018279 -0.024749367 -0.068744265 -0.08688328 -0.038274523 -0.017792365
-0.061708186 0.08234488 -0.067604996 -0.011766515 0.05154344 -0.054247234 0.07424038 0.01878882
-0.043545917 -0.06900878 0.06922341 0.012521552 0.017599028 -0.065398976 0.061620235 -0.013945669
00000000: 2e07 bd3d a2e2 453d 068b 58bd 17c5 23bd
00000010: 5fb2 16bc 717d a43d d31d f73d a058 473d
00000020: 9a8f e83d edf2 b23d 0877 833c 1265 383e
00000030: 1fa6 343a d7ea 293c f516 7a3d 627b eabc
00000040: 3d59 563d 5651 f63c 4a77 e33d 4b2a 88bc
00000050: 4eed d53d eaea 30bd 9f39 013d b750 abba
00000060: 8ebb 58bd d84a 383d fcf7 043e f2c5 dc3d
00000070: f3a0 853d 27ea d83d 1e25 d1bc 3314 8c3d
00000080: ad87 083e abb4 b93d dc86 9b3d dabd e13d
00000090: 4a0a a63c 7729 283d ec8d 093d 1bf8 aa3d
000000a0: ba62 1bbd 2c3c 4fbd 1517 023e 0231 acbc
000000b0: a1a8 313e 0631 d5bc 7301 1fbc 1c4c 083c
000000c0: a9dd 263e 2658 2d3d 54e9 5abd b6f0 523d
000000d0: 8b73 043b 2561 9b3d 0f1f ffbc 2b74 34bb
000000e0: 8950 1b3d 09bd 71bd 64e9 8bbd 66e7 603e
000000f0: 6e4a e33d ea34 b5bc c047 bf3b 3da3 053e
00000100: 8679 753d e0e0 d83d ae5a 483e 17ed b13d
00000110: 1d2d 8a3d c933 39bb 7b12 5a3d 2456 2aba
00000120: 41ae 5a3c 438e f83d 16ca c53d fa62 373d
00000130: f860 b73d 80eb b2bc cf7c 0f3d 4125 ab3c
00000140: 5e2c a33d d567 893d 59bf 8f3d f370 69bd
00000150: 5a3f 783e 86ce bd3d e6b5 bfbc 0f0d be3d
00000160: 06ef 87bc c232 88bd 8d37 84bd ad7a 13bc
00000170: 620c b83d 4fcc 333e 5425 bdba 1344 26bd
00000180: fd40 833d 1ef9 ca3d 13f3 9d3d e9d8 22bc
00000190: ae7d 423d a6e4 4e3d fb21 68bd 4d93 373e
000001a0: dd53 643d d8e9 22bd d8bd 433e 550f 173e
000001b0: b024 e43d 97b2 573d 3d2d 2b3d 8448 e93d
000001c0: 0b48 0e3e a725 bcbc 4bd9 e83d 1e57 a43d
000001d0: 5bd0 ed3d eef2 783c a7cf cd3b 5452 c8bc
000001e0: 20dd 52bd 7571 223d b407 d73d 8adb 4b3e
000001f0: 6e09 013e f780 a43d 662a 2a3c 5ab0 c23d
00000200: 4b53 943d 4832 ca3d 8ad1 03bd 507d a7bd
00000210: aebb 22bd 15b4 94bd 1707 12bd f4af 943c
00000220: f365 93bd 47ea 573d 084a adbd 16c2 533c
00000230: 9971 943d ee8f a3bc b563 1a3d 92a6 9c3d
00000240: e3a7 b2bc 010f 37bd 3b98 a3bd 7eef 0b3d
00000250: a79f 9b3d 19f5 893d acc2 03bd c5f3 2a3d
00000260: 814a e73c 8860 fabc 8db7 11bd 1f02 8abd
00000270: 5cbf fc3c b29d ec3c d20b ac3d b428 18bd
00000280: 5918 a8bc 0d0a 193c d87e acbb a940 16bd
00000290: beab 39bd 222c 88bb 3e7a 5cbd f6ad 78bd
000002a0: 13e0 683d 3e47 62bd 7e67 18bd 31d3 78bd
000002b0: 682e 2b3d 3e18 aabc 1d3b f8bc ea0e afba
000002c0: 00a1 9ebc 4fce 95bd 791b efbb 1326 0f3b
000002d0: ac07 a7bb d119 693d d531 31bd 0fd5 b4bd
000002e0: f0e0 193c b438 7f3d 4ba1 313d 90b5 9fbc
000002f0: 2ee0 7dbd 3dde 853d 1696 acba 96dd 98bd
00000300: ff69 8ebd b287 dbbb 408c 88bc be0d 5dbc
00000310: 0d2d b33c d953 9cbd 1a7b 073b 5a8c ecbc
00000320: 6588 a73d b617 423d f4de ac3c 38d7 a93d
00000330: a404 683c c15f 733d 91be 19bd e3ed 10bd
00000340: 3162 93bc 34bf cdbd 3282 5f3d 9598 323b
00000350: 690f 9d3d 298b 39bc 51b3 6a3d 3798 54bd
00000360: 7ca4 7f3d 8586 823d 0065 6a3d 1ed4 5fbd
00000370: 2d11 83bd 9fdb bebc 9423 85bd 34e2 8ebb
00000380: ebac 68bd 9563 3ebd d288 a63d c933 453d
00000390: 07f9 50bd 0251 41bd e45a ad3a c654 873c
000003a0: aae4 5fbd d141 3a3d ffbb 8fbd 2fbf cabc
000003b0: cbc9 8cbd dcef b1bd bfc5 1cbd 4bc1 91bc
000003c0: b9c1 7cbd 6fa4 a83d 7d74 8abd 57c8 40bc
000003d0: 371f 533d 5932 5ebd 570b 983d 03eb 993c
000003e0: 345d 32bd 7a54 8dbd 01c5 8d3d 3227 4d3c
000003f0: d62b 903c e6ef 85bd 8065 7c3d 607c 64bc
