第二章-回归模型/model_weight/mlp_leakyrelu_norm.pth (torch, 146933 bytes, 10 tensors)

linear1.weight f4 [128, 96]
000000 57 ea b8 bd 2b 25 83 bd e5 36 a4 3d 15 86 9a 3c
       -0.09029072 -0.064035736 0.08018283 0.018862763
000010 26 4c d0 bc e3 97 b2 3d ed 9d d0 bc 42 04 af 3d
       -0.025426935 0.08720376 -0.02546593 0.08545734
000020 36 ed 05 3d a5 a4 04 bd 76 dd 23 bd 7a 0f 2f bd
       0.032696925 -0.03238358 -0.040006123 -0.04273937
000030 81 8d bc bd c6 d6 0a bd dd 35 95 bd 67 11 c4 3a
       -0.09206677 -0.03389623 -0.07285664 0.00149588
000040 03 9e 97 3d 8d 0e ed bb 5a 0e 9d 3d dc 59 b2 3d
       0.07403185 -0.0072344006 0.07668753 0.087085456
000050 a8 dc 6f bd e9 1e 91 bc ff 92 c4 bd 15 c5 0e 3d
       -0.058560044 -0.017714934 -0.0959835 0.03485592
000060 9b 84 2d 3c 9c c2 76 3c cd 44 1a bd 46 8d 03 bc
       0.010590698 0.015061047 -0.03766327 -0.008029288
000070 21 e1 83 bc c8 d3 29 3d bd 23 a6 bd 27 37 32 3d
       -0.01609856 0.041461736 -0.08112285 0.04350963
000080 ca b3 a9 3d ba 83 dd bc 60 92 88 bd 20 80 2d bd
       0.08286245 -0.027040351 -0.06668544 -0.042358518
000090 62 c8 84 3c f4 e2 f0 bc 74 4f ce bd 3b 7b c8 3b
       0.016208831 -0.029405095 -0.10073748 0.006118206
0000a0 c3 8c dc bd 4a 71 59 3d 87 33 b2 3d d6 d7 51 bd
       -0.10769036 0.053086556 0.08701234 -0.051231228
0000b0 2c 84 d3 bd ce 5b 1b 3c 97 58 24 3d 00 eb d1 bc
       -0.10327944 0.009482337 0.04012355 -0.025624752
0000c0 e2 c2 98 3d 36 5f 70 3d ae d1 66 bc 4e a8 4c 3a
       0.07459046 0.05868455 -0.0140880775 0.0007807062
0000d0 dc 9f 45 3b 15 7f 90 3d 1a 1a f4 3b f5 8d 76 3d
       0.0030155098 0.07055489 0.0074494006 0.060193975
0000e0 66 70 96 3c a1 17 c4 bc 40 4b 99 3c 49 6b 81 bd
       0.018364143 -0.023937048 0.01871264 -0.06319291
0000f0 a3 93 ab 3d 32 32 a0 bd 88 17 ad bd 60 ff 79 3d
       0.08377769 -0.07822074 -0.08451754 0.06103456
000100 80 4c b3 bd 5e 2a 95 bd 7d 70 2d bd c2 a6 75 bb
       -0.087548256 -0.072834715 -0.042343605 -0.0037483429
000110 84 b3 b2 3c 3f da 11 bd 91 34 93 3d 86 c5 f6 bc
       0.021814115 -0.035608526 0.071877606 -0.030123483
000120 6e 9c 76 3d 7d b8 0b bd 48 b0 cb bd a8 fd 1e bb
       0.060207777 -0.03411149 -0.09945732 -0.0024260078
000130 1e 4e ac 3d 83 0a 11 bc d0 fc ad 3d 40 cb e4 3d
       0.08413337 -0.008852604 0.08495486 0.11171579
000140 78 72 c1 3d 12 ce 03 3d 0f c6 ce 3b 48 e6 ab 3d
       0.09445661 0.032178946 0.0063102315 0.08393532
000150 e0 8c 9f 3d bc 5c ca 3b 17 97 1d bd 55 26 00 bc
       0.07790542 0.0061756056 -0.03847417 -0.007821639
000160 52 18 80 bd a2 42 2a 3d 8e b8 b3 bd cc fe 1d bd
       -0.06254639 0.041567452 -0.087754354 -0.03857307
000170 1a e1 b4 3d 2b 2a 68 3d ed 77 bb 3d a8 3b e6 3d
       0.08831997 0.05668084 0.091537334 0.11241847
000180 9a 4c a4 bd 7a 3f b9 3d 1d 14 5b 3d 40 d0 3b 3d
       -0.08022423 0.0904531 0.05348598 0.0458529
000190 31 5b 72 bd 0c c3 86 3c d2 48 23 3c a1 40 a1 bd
       -0.059169 0.016450427 0.009966092 -0.07873655
0001a0 cf 6f b3 3d 4b 05 2c bd cb 1d 4e bc 8b 82 a3 3c
       0.0876156 -0.041997235 -0.012580345 0.019959709
0001b0 02 bd a0 bd ac f4 98 3d 30 4b 9b bd 83 fc 8b bc
       -0.078485504 0.074685425 -0.075827 -0.01708818
0001c0 61 93 88 3d b6 a2 2f 3b db ed b3 bd 50 10 b3 bc
       0.06668735 0.0026799864 -0.08785602 -0.021858364
0001d0 21 d2 7f 3d d1 31 a8 3d be 13 65 3d af 7a 96 bd
       0.062456254 0.08212627 0.05592703 -0.07347619
0001e0 71 c6 4a bd 16 47 49 3d 7d 6b a6 3d e6 74 94 bd
       -0.049505655 0.04914006 0.081259705 -0.07248859
0001f0 a5 a6 de bc 27 18 c4 bd 4a 9f 1c bd f1 91 7d bd
       -0.027179072 -0.09574919 -0.038237847 -0.06190676
000200 6a 1a 95 bd 6d e8 ae bd ae 04 d9 bd fa 72 f8 3c
       -0.07280429 -0.085404254 -0.10596596 0.030328263
000210 c2 be ab 3d 19 27 7a bd cf f2 00 3d e7 a4 3a 3d
       0.083859935 -0.061072443 0.03148156 0.04556742
000220 e3 07 3a bc ff 7e 9c bd 65 12 a6 3d ff d6 bb 3d
       -0.011354419 -0.0764141 0.08108977 0.091718666
000230 22 0a 53 bd e9 55 36 3d 65 fd 8c bd 79 f8 cb bb
       -0.051523335 0.044515524 -0.06884269 -0.0062246886
000240 dd 79 4f 3d f6 53 a8 bd 0a d1 4a 3d 0e 1f e2 3c
       0.050653327 -0.08219139 0.04951576 0.027602699
000250 71 25 cd bc f9 95 85 3c 27 cd e2 bd 76 42 20 bd
       -0.025042268 0.016306864 -0.11074286 -0.039125882
000260 fe b7 97 3d 24 c1 4e 3d c3 e7 9f 3d 11 4a a6 3d
       0.074081406 0.050477162 0.07807877 0.08119596
000270 9f 3d 8a 3c 36 43 49 3d d6 d9 47 bd c4 2f 84 bd
       0.016875086 0.049136363 -0.04879173 -0.06454423
000280 70 5d 77 ba 3f fc 84 bd c4 ea 8a bd d3 59 18 3d
       -0.00094362255 -0.064934246 -0.06783059 0.037195038
000290 17 96 f2 bc be 9f 04 3b fe f8 a3 3d bb 14 f5 3b
       -0.029612584 0.0020236815 0.08006476 0.007479278
0002a0 b5 c2 c8 3a b7 2e be 3d 06 ab 68 bd 2d d0 aa 3c
       0.0015316816 0.09286254 -0.056803726 0.02085122
0002b0 19 ed 1d bd 31 31 bd bc 9d 08 87 3d b0 89 b6 bd
       -0.038556192 -0.023094745 0.0659344 -0.089129806
0002c0 cb e1 be 3c f5 7d 8f bd 7f 54 0f 3d 38 06 92 3d
       0.023301026 -0.07006446 0.03499269 0.071300924
0002d0 f0 5f 0c 3d 6c f7 b2 3d 61 20 84 bd ba b4 df bc
       0.03427118 0.08738598 -0.06451488 -0.027307857
0002e0 49 98 4a 3d 65 90 c1 3d 3e c2 3b 3d 27 53 7c 3d
       0.049461637 0.09451369 0.04583954 0.061602738
0002f0 23 2e 50 bc 58 fc 9a bd ed 6f a4 3d c8 68 e4 3c
       -0.012706312 -0.07567662 0.08029161 0.027881995
000300 f9 eb 94 bc 3c e9 63 bd 09 67 1b bd de 0a 6d bd
       -0.018178927 -0.05564235 -0.03794006 -0.057871692
000310 ac 7a d6 3d 32 d3 c4 3b 05 26 a6 3d 78 84 9e bc
       0.104726166 0.0060066218 0.081127204 -0.019350275
000320 0a 6a b9 bb 0f 35 23 bd 21 4b 92 bd 34 f7 7e 3d
       -0.005658393 -0.039845522 -0.07143236 0.06224747
000330 fb 14 bd 3d 72 45 89 3d 11 fc 27 bd 97 dc 1f bc
       0.09232517 0.06702699 -0.041011874 -0.009757183
000340 67 30 6a 3b 49 35 14 bd 90 09 46 bd 3a 82 bc 3d
       0.0035734416 -0.03618363 -0.048348963 0.09204526
000350 59 31 84 3d 19 ef ce b9 38 46 ef 3c 3b 4f b9 bd
       0.06454725 -0.00039469523 0.029208288 -0.09048315
000360 c9 ec c3 bd 6c 71 13 3c 65 70 a2 bc 76 2a 1e bd
       -0.095666476 0.00899921 -0.019828985 -0.038614713
000370 cb e5 9a 3b 41 88 a7 bd d5 b0 30 3d 60 9f 90 3c
       0.0047271005 -0.08180285 0.04313739 0.01765412
000380 4a 6d 2a 3d 83 5d 99 3d 44 a9 11 3d dc bc 7d bd
       0.041608132 0.07488539 0.035561815 -0.06194769
000390 5a 91 02 bc c2 ed 43 3d c8 dc a0 3d a4 65 7e 3d
       -0.007969225 0.047834165 0.07854611 0.06210865
0003a0 de dd 94 bd df b3 99 bd 80 c2 1f bd 7c 07 91 bd
       -0.0726888 -0.07505011 -0.03900385 -0.07081506
0003b0 82 2d d0 3d 7c 4a 1f bd 85 91 b1 3d f3 63 63 3d
       0.1016493 -0.038889393 0.08670334 0.05551524
0003c0 1f 6f 9a bd 45 6c 44 3d 93 4c 04 3d 9d 70 40 bc
       -0.07540726 0.047954816 0.03229959 -0.011745599
0003d0 68 1b e1 bc f0 07 80 3b 63 62 ae bc 56 76 b8 bd
       -0.027478889 0.003907196 -0.021287149 -0.09006946
0003e0 88 14 49 bd 20 70 ff bc 62 6d 20 3d ac 75 95 bd
       -0.049091846 -0.031181395 0.039166816 -0.07297835
0003f0 2f e2 9a 3c d0 28 36 3d 21 b4 c7 3d 86 42 f5 3c
       0.01890668 0.044472516 0.09751154 0.029938947

linear1.bias f4 [128]
000000 c2 a1 f9 3c eb 2f 3b 3d 6c 7d c8 3d fd db 75 bd
       0.03047264 0.045699995 0.09789547 -0.06002425
000010 8e 94 32 3c 5f 86 17 bd 7f 38 87 bd e9 7a 10 bd
       0.010899676 -0.03699338 -0.06602573 -0.035273466
000020 65 8a 5e bd 8a e0 db 3d 91 72 a6 bd 2f 89 69 3d
       -0.054331202 0.10736187 -0.081273206 0.057015594
000030 3b ad b6 3a c8 3d 9c 3d ae f5 2b 3c cd a3 c4 3d
       0.0013937125 0.07628971 0.010495586 0.09601555
000040 e5 c9 d0 bd ef 17 cb bd 37 88 85 bc fa a6 9e 3d
       -0.10194758 -0.09916674 -0.016300304 0.07746692
000050 48 69 ca bd 10 b1 bc 3b 52 6c 96 bd e7 eb e7 3c
       -0.09883362 0.005758412 -0.07344879 0.02831073
000060 f5 71 0d 3d 94 59 82 bd 2b 00 e5 3d 73 48 61 bd
       0.034532506 -0.06364742 0.11181673 -0.055000734
000070 69 b8 ce 3d b0 66 c7 3c a9 6e 9b bd 30 a3 ca 3a
       0.10093767 0.024340957 -0.07589466 0.0015460011
000080 d1 1b 0e 3d 96 c6 ba bd 6d 0d 10 bd dd 72 16 bc
       0.034694497 -0.091199085 -0.035169054 -0.009182659
000090 29 4d 9c bd 78 b9 39 bd 2b 7e 7c 3b f2 e6 ad 3d
       -0.07631905 -0.045342892 0.003852735 0.08491315
0000a0 c0 c9 db bd 61 0f 9d bd 5c 85 11 bd 07 95 44 bd
       -0.1073184 -0.07668949 -0.035527572 -0.047993686
0000b0 56 e1 c4 bd 4d 14 db bd 1c b5 35 bd d4 94 2c bd
       -0.09613292 -0.106972314 -0.044362172 -0.04213412
0000c0 b3 19 c0 3c f5 78 f3 bd 54 a2 4b bd 9a 27 84 3d
       0.023449754 -0.11888305 -0.049715355 0.06452866
0000d0 09 9e ab 3b b3 5c b2 bd dc 5d 01 3c 23 59 fe 3c
       0.005237345 -0.08709087 0.007895913 0.031048363
0000e0 47 87 92 3d b6 a0 c8 bd 10 7c 5b bc 24 b1 3a 3d
       0.07154708 -0.09796278 -0.013396278 0.04557909
0000f0 8f 52 04 3c bd eb a7 bd c8 3e ae 3d 99 34 91 3d
       0.008076324 -0.081992604 0.08508068 0.0709011
000100 86 0d ec bd 55 97 dd 3d cf 73 18 3d 65 46 12 3c
       -0.11526017 0.1081988 0.03721982 0.008927916
000110 a4 41 da 3b 12 36 2d bb 4a 18 60 bd e9 e1 df 3b
       0.006660657 -0.0026429933 -0.054710664 0.0068323505
000120 57 4d 24 3a bf 71 6f bd 8e 52 be bc 5e d4 0f 3d
       0.0006267628 -0.058458086 -0.023232725 0.03511464
000130 03 92 5f bc fc c0 6f 3b 19 55 7b 3d 85 d9 99 3d
       -0.013645652 0.0036583534 0.061360452 0.07512192
000140 de 05 23 bd 82 c1 1c bd 91 d6 99 3d 60 04 ad bd
       -0.039800517 -0.03827048 0.075116284 -0.084481
000150 22 a4 11 bd 28 f8 c8 bc de bc d5 3d d7 98 61 bd
       -0.03555692 -0.024532393 0.10436414 -0.0550774
000160 a4 4f ce bd 01 4c 5c 3d 82 e7 e7 3c 73 3c d4 3d
       -0.10073784 0.05378342 0.028308634 0.10363092
000170 2e 81 bd 3d c7 0d 7a bd 16 60 94 bd 14 62 ab bd
       0.09253155 -0.061048295 -0.072448894 -0.08368316
000180 62 be 4c 3b 2a f6 34 bd 05 55 79 3d 8c b1 2f bd
       0.0031241407 -0.044180073 0.060872097 -0.04289393
000190 8b a1 13 3c d7 41 c9 bc e0 80 97 ba 45 0e 08 3d
       0.009010683 -0.024567528 -0.0011558793 0.033216733
0001a0 4c 5e a7 bc 52 51 ab bd c2 59 3a 3a e8 7f 53 bd
       -0.020430706 -0.0836512 0.0007108712 -0.051635653
0001b0 cb 5e d5 3c c7 19 18 bc 6e 33 45 3d 8e 5f cd 3d
       0.026046177 -0.00928349 0.04814475 0.10027991
0001c0 4b 52 ce 3d f1 39 2e 3c 1a 4a de 3c 13 60 52 bd
       0.1007429 0.0106339315 0.027134944 -0.051361155
0001d0 08 36 51 bd 67 52 a4 bd 0f f6 41 bd 87 b7 dd bd
       -0.05107692 -0.080235295 -0.0473538 -0.10826021
0001e0 12 85 d1 bd 7c 58 fb bd 0f 57 8f 3d ab f6 dc bd
       -0.10230459 -0.122727364 0.06999027 -0.10789236
0001f0 12 27 b7 3d ec 71 41 3d 90 c5 39 bd ce 70 f7 bc
       0.08942999 0.047227785 -0.045354426 -0.030205157

norm1.weight f4 [128]
000000 a1 4e 80 3f e3 f7 7d 3f e3 f6 80 3f 0a 4a 80 3f
       1.0023996 0.9920637 1.0075344 1.0022595
000010 e2 4f 7d 3f 79 59 81 3f 5e 85 84 3f d0 c5 7d 3f
       0.98950016 1.010543 1.03532 0.9912996
000020 34 dc 7e 3f 43 b2 7f 3f 13 13 7e 3f 6d c2 7c 3f
       0.99554753 0.9988138 0.99247855 0.9873417
000030 f6 3e 80 3f b1 df 7f 3f 4c 7e 7e 3f a0 29 7e 3f
       1.0019214 0.999507 0.99411464 0.99282265
000040 67 68 7d 3f ce c1 80 3f 7f 78 7f 3f d2 4a 80 3f
       0.9898743 1.0059144 0.9979324 1.0022833
000050 d3 58 7e 3f 30 f6 80 3f b2 95 7f 3f dd 5b 81 3f
       0.99354285 1.007513 0.9983779 1.010616
000060 93 50 80 3f d5 fe 80 3f 0c 91 82 3f 10 9b 7e 3f
       1.0024589 1.0077769 1.0200515 0.99455357
000070 bd ef 7f 3f c4 bf 7e 3f 4c 51 7e 3f a5 1a 80 3f
       0.99975187 0.9951136 0.993428 1.0008131
000080 7c ee 7f 3f 05 fb 80 3f 15 4a 80 3f 45 a4 81 3f
       0.99973273 1.0076605 1.0022608 1.0128256
000090 c6 e8 80 3f 21 e9 7e 3f 6a 41 80 3f 8b fc 7e 3f
       1.0071037 0.99574476 1.0019963 0.996041
0000a0 56 6b 81 3f b4 87 7d 3f cd f4 80 3f a9 e1 80 3f
       1.0110881 0.9903519 1.0074707 1.0068866
0000b0 f1 88 81 3f cb 27 80 3f 3a 71 80 3f ef 0b 81 3f
       1.0119916 1.0012144 1.0034554 1.0081767
0000c0 eb c0 80 3f 58 f8 80 3f 8a 8d 80 3f 03 e9 82 3f
       1.0058874 1.0075788 1.0043194 1.022736
0000d0 5a ea 7d 3f b1 42 80 3f f8 d1 7e 3f 5f 80 80 3f
       0.9918572 1.0020353 0.99539137 1.0039176
0000e0 22 10 80 3f ac dc 80 3f fe 32 80 3f 08 8c 7f 3f
       1.0004923 1.0067344 1.0015562 0.99823046
0000f0 44 4c 81 3f 9c 7a 7f 3f e5 e6 7f 3f a9 8a 81 3f
       1.01014 0.9979646 0.9996169 1.0120441
000100 59 52 7e 3f 22 6c 81 3f a4 fe 81 3f ab 37 7e 3f
       0.993444 1.0111125 1.0155835 0.9930369
000110 49 21 7f 3f 66 83 7e 3f e7 a4 7f 3f d5 4e 7c 3f
       0.99660164 0.9941925 0.99860996 0.9855779
000120 ba a0 80 3f 02 e2 7f 3f 40 39 7f 3f 63 26 80 3f
       1.004905 0.99954236 0.9969673 1.0011715
000130 79 df 7e 3f 1f 91 80 3f ca d7 80 3f 0b d4 7e 3f
       0.9955974 1.0044287 1.0065854 0.995423
000140 dc 75 7f 3f d8 80 80 3f 45 ad 7f 3f c3 20 7f 3f
       0.99789214 1.003932 0.99873763 0.99659365
000150 35 df 80 3f 40 83 81 3f 84 ae 81 3f fb ce 80 3f
       1.0068117 1.0118179 1.0131383 1.0063165
000160 76 0d 7e 3f a9 08 7f 3f 86 7c 80 3f 11 69 81 3f
       0.9923929 0.9962259 1.0038002 1.0110189
000170 e2 61 7e 3f b5 96 80 3f f7 b7 80 3f b9 98 81 3f
       0.9936811 1.0045992 1.0056142 1.0124732
000180 76 47 7e 3f 38 69 80 3f de eb 81 3f 0c 5f 80 3f
       0.9932779 1.003211 1.0150106 1.0029006
000190 0f 40 80 3f cd 41 80 3f a1 5c 7b 3f 88 48 80 3f
       1.0019549 1.0020081 0.98188215 1.0022135
0001a0 20 42 80 3f e1 09 83 3f 47 ad 7f 3f 5a 0c 81 3f
       1.002018 1.023739 0.99873775 1.0081894
0001b0 92 4b 81 3f 29 7c 83 3f cb c5 7e 3f d6 fe 80 3f
       1.0101187 1.0272266 0.9952056 1.007777
0001c0 75 4b 80 3f 2a e7 7e 3f ec 70 82 3f 68 84 7e 3f
       1.0023028 0.9957148 1.0190711 0.99420786
0001d0 76 f5 81 3f 61 f8 7e 3f 92 96 80 3f 2c f9 7f 3f
       1.0153034 0.99597746 1.004595 0.9998958
0001e0 67 73 80 3f 31 24 7e 3f 91 47 81 3f ad 6e 7f 3f
       1.0035218 0.99273974 1.0099965 0.9977825
0001f0 31 c3 80 3f d6 8f 7e 3f e6 df 7e 3f d6 9f 80 3f
       1.0059568 0.99438226 0.9956039 1.0048778

norm1.bias f4 [128]
000000 a9 6f 81 3b 2f da ce bb e0 06 01 3c 5d d3 34 3b
       0.0039500785 -0.0063126306 0.007875174 0.0027591803
000010 c1 aa 0c bc d0 29 b1 bb cc e4 31 3c 64 c3 58 bb
       -0.008585633 -0.0054065958 0.010857772 -0.0033075446
000020 a9 47 ed b9 cf be cc b7 40 44 52 b9 46 4f 99 ba
       -0.00045257554 -2.4407547e-05 -0.00020052586 -0.0011696599
000030 58 ef 92 3b 6f 5c 96 3b 04 12 a7 bb 26 00 7e 3a
       0.0044840984 0.0045886557 -0.005098583 0.0009689353
000040 21 42 f0 bb 08 44 07 3b d1 82 48 bb b3 0d dd 39
       -0.007332102 0.0020639915 -0.003059555 0.00042162611
000050 05 7b 4c 3b f1 66 a8 3b f0 ae e6 39 df c6 91 3b
       0.0031201255 0.0051392247 0.00043999357 0.004448756
000060 00 aa 1a 3b 39 b8 f1 3b 80 b7 59 3c dc 26 0d bc
       0.0023599863 0.0073766974 0.013288379 -0.008615222
000070 fb 7a 1a 3b e6 e0 f7 3b 8e 79 b4 bb d0 cb 16 3c
       0.0023571837 0.007564652 -0.0055076545 0.009203866
000080 c0 c7 0a 3b fa d9 cc bb 2e 8d 74 3b 08 3e 8c ba
       0.002117619 -0.006251571 0.0037315595 -0.0010699639
000090 bb 15 da 3b 82 a0 84 bb 1e 4f b4 bb fb ef 1e bb
       0.0066554225 -0.0040474543 -0.0055025956 -0.0024251926
0000a0 85 8f b7 bb 4d 08 64 bb ec 8a 59 3b c0 fb bb 3a
       -0.0056018257 -0.0034794987 0.0033194376 0.0014341995
0000b0 22 b8 0b bc 0e 72 6b bb 6f 49 48 bb f1 90 94 3b
       -0.008527787 -0.0035926136 -0.0030561348 0.00453388
0000c0 1a af 8d 3b ba e8 ca bb ff 04 e7 3a f0 ad 96 3c
       0.0043238522 -0.006192294 0.001762539 0.018393487
0000d0 61 43 af bb 8f d0 13 3b 60 ac 88 bb 1e b6 e4 b8
       -0.0053486084 0.002255473 -0.0041709393 -0.00010905809
0000e0 b0 dd 8f 3b 97 63 66 bb 8d fa 76 3b c3 93 c7 ba
       0.004390441 -0.0035154575 0.003768596 -0.0015226532
0000f0 9a dc 1a bb df 1c 0f bb 86 5f 2e 3b 67 8e 3a 3c
       -0.0023630024 -0.0021837277 0.002660723 0.01138649
000100 12 96 0c bc 75 cf 16 3c 8f c2 2e 3c 77 b0 04 3b
       -0.008580701 0.009204735 0.010666504 0.0020246783
000110 49 ba b9 bb 63 96 e8 bb 53 54 8c bb cc 36 9b ba
       -0.005667959 -0.0070980056 -0.004282513 -0.0011841892
000120 bc 65 d1 3b 41 fd 9d ba 86 d7 98 bb cc f0 fe 3a
       0.0063903015 -0.0012053625 -0.0046643643 0.0019450425
000130 1c f7 75 bb 9d 12 f2 b7 26 48 eb 3b fb 7f 6c bb
       -0.0037531322 -2.8857316e-05 0.0071802316 -0.0036087024
000140 0f d4 80 bb 5b 00 92 3b 7f 9d 7c 3a 6f 19 9a 3b
       -0.0039315294 0.004455609 0.0009636506 0.004702739
000150 de 60 ee 3a d9 cc 72 3b e0 65 46 3c c0 03 b4 bb
       0.0018186828 0.0037048368 0.01210925 -0.005493611
000160 61 26 fb bb e7 4a 1e ba 25 eb ba 3b 60 da 34 3c
       -0.007664487 -0.0006038383 0.005704301 0.011038393
000170 ef e7 2f ba 9d 23 83 3a 07 9c eb 3b 32 6a 6f 3b
       -0.0006710281 0.001000512 0.007190231 0.0036531803
000180 23 65 d4 bb fd 27 07 ba eb e4 3b 3c 49 2e 88 3a
       -0.006481783 -0.00051558 0.0114681525 0.0010389771
000190 70 b3 70 3b 45 57 be 3b 7f ab 16 bc b5 27 51 3b
       0.0036728047 0.005808743 -0.009196161 0.0031914536
0001a0 ac b9 e4 3b 82 db a8 3b 1f d4 e0 3b fe ea 8d 3a
       0.0069801416 0.0051531205 0.0068612243 0.001082748
0001b0 1c 3d 00 3c 7a 33 5e 3c d3 98 a6 ba e6 b4 e5 3b
       0.00782707 0.013562078 -0.001271034 0.00701009
0001c0 63 4a 90 3b a9 ce 09 3c ff ec cc 39 36 52 f9 bb
       0.004403399 0.008411088 0.00039086488 -0.0076086773
0001d0 dc 20 87 3b 3b 22 f9 bb e3 c3 ac bb 17 62 97 bb
       0.00412379 -0.0076029575 -0.005272375 -0.0046198475
0001e0 df 38 87 ba 7f 79 9e 3b e8 32 da 3b 6e c7 0e 3b
       -0.0010316632 0.004836261 0.0066589005 0.002178635
0001f0 f0 f1 b0 3b 46 2f 87 bb 03 8b d9 bb db 9c 6a bb
       0.005399935 -0.0041255085 -0.006638886 -0.003579906

linear2.weight f4 [128, 128]
000000 23 68 5a bd 28 36 94 3d 0b e0 9f 3d eb ff 95 3c
       -0.05332197 0.07236892 0.07806405 0.018310508
000010 07 b4 69 bd 6f 23 8f bc 86 cb 25 3d 10 f8 d7 3c
       -0.057056453 -0.01747295 0.0404773 0.026363403
000020 2d be ab bd c2 2a 96 bd cf ef 0e bd 88 55 a5 3d
       -0.083858825 -0.07332374 -0.034896668 0.080729544
000030 d8 c2 95 bb fd 52 07 bd f8 a7 1d bd d1 9e 9a 3d
       -0.0045703463 -0.03303813 -0.038490266 0.07549823
000040 ae e1 63 3d 36 6a 3d bd 85 9e 7f bd 72 76 1a bd
       0.055635147 -0.04624387 -0.062407035 -0.037710615
000050 10 11 88 bd 40 22 a2 3c 75 0d 40 3c 65 6c ec 3c
       -0.066438794 0.019791722 0.011721958 0.02886028
000060 7a 9b ec bc e3 fe 47 3d ea 58 9a bd f1 ac b3 bc
       -0.02888273 0.048827063 -0.0753649 -0.02193305
000070 c2 94 93 3d 32 15 d7 bc 31 ac 86 bd 4e d7 a0 bd
       0.07206108 -0.026255224 -0.06575812 -0.07853566
000080 a5 2d 87 3d d6 ce ba bb 1f 6c d9 bb 3b f3 99 bb
       0.06600503 -0.0057009263 -0.0066352035 -0.004698185
000090 0d 4f 11 bc 76 72 b9 bd a2 1f 91 3d fb 6b 80 bd
       -0.008868945 -0.09055035 0.070861116 -0.06270596
0000a0 28 b0 06 3c ea 3f 11 3d 49 1b 04 bc 7a 06 51 3d
       0.00822071 0.035461344 -0.008063146 0.051031567
0000b0 11 4f 24 bd a5 e5 9e bc 4d 59 05 3b e5 77 41 3d
       -0.040114466 -0.019396612 0.0020347417 0.04723348
0000c0 7a 1c 2f 3d f9 c0 ba 3b 2c d2 b6 bc 29 4b 9e bd
       0.042751767 0.0056992737 -0.022317015 -0.077291794
0000d0 d6 c5 b8 3c d6 48 34 3d ef 95 f4 bc c2 df c6 3d
       0.022555273 0.044014774 -0.02985665 0.09710647
0000e0 79 75 13 bd 02 b9 38 bd 76 eb d3 bc 6b ad f5 3c
       -0.036000703 -0.045098312 -0.025869112 0.029989919
0000f0 8e f6 95 3d f2 6e 6d bd 7a f2 63 bd f0 37 4b bc
       0.07322417 -0.057967134 -0.055651166 -0.012403473
000100 2e 31 af bd d9 48 aa 3d 17 ac d5 bb 15 69 8c 3d
       -0.08554302 0.08314676 -0.006520759 0.0685598
000110 cd 01 7c 3d 0b 9f 76 3d 34 23 0e bd a5 00 96 3d
       0.061525155 0.06021027 -0.03470154 0.07324342
000120 1d 9a a5 bd 76 36 d5 3c a6 53 f0 bc 50 41 6b 3d
       -0.080860354 0.026026946 -0.029336762 0.057435334
000130 49 dd 20 3d aa 3e b9 bc da d5 89 bd e4 11 81 3c
       0.039273534 -0.022612888 -0.06730242 0.015755601
000140 62 fb 65 bd e5 2b b3 3d be a7 13 3d 72 65 77 3d
       -0.05614794 0.087486066 0.036048643 0.06039948
000150 8f a9 32 3c b7 e3 1d bc f6 d7 66 bc 8f 83 b5 3c
       0.010904684 -0.009636811 -0.014089575 0.022157459
000160 fe 08 81 3d ec 07 b2 bc 39 6f 8e 3c 3d 4d 82 bd
       0.06300543 -0.021732293 0.01738702 -0.06362388
000170 f8 47 ad bd b3 29 83 bc d9 27 9f 3c 09 bf a0 bd
       -0.084609926 -0.016011095 0.01942818 -0.07848937
000180 24 07 1f 3d 74 6c 0b bc 93 82 44 3c 08 3a ea 3c
       0.03882517 -0.008509744 0.011994022 0.028592125
000190 c8 0f 3d bd 0c fb 33 bc 29 55 83 bd f1 df 4a bc
       -0.04615763 -0.010985147 -0.064127274 -0.012382493
0001a0 43 47 ce bb 02 d3 75 3d 2a ac 83 3b 2a ef a5 bc
       -0.006295116 0.060015686 0.0040183263 -0.020255644
0001b0 95 6b 9b 3d 59 ee 92 3d cc 5a 7f bc 8e f7 d3 bc
       0.07588879 0.071743675 -0.0155856125 -0.02587488
0001c0 fd 21 45 3d 6f f9 b4 3d dc 2b 79 3d f1 ac 06 bd
       0.048128117 0.08836638 0.060832843 -0.032879774
0001d0 f7 2f 47 3c 69 df 19 bd 3a e0 64 3d be 09 2c bd
       0.012157432 -0.037566576 0.0558779 -0.04200148
0001e0 a0 2a 11 bd 4e c3 7a bd a4 9f 15 bd dd 88 62 bd
       -0.03544104 -0.061221413 -0.0365292 -0.055306304
0001f0 57 54 9a bd 8b 91 87 bd f4 a2 be bc 0f 4a 9b bd
       -0.07535618 -0.06619557 -0.023271061 -0.07582485
000200 14 bb 9a bb 49 6a f5 3c bb 33 89 bd e4 1a 04 3d
       -0.0047220085 0.029957907 -0.0669932 0.032252207
000210 5e 49 0d bd d4 8d 9a bc b0 62 b9 bd c1 64 36 bd
       -0.034493797 -0.018866457 -0.09052026 -0.04452968
000220 e1 a4 92 bd 68 a6 5d 3d c9 4a 08 39 32 87 4e 3d
       -0.071603544 0.054113775 0.0001299783 0.0504219
000230 36 3a 64 3c e1 40 12 3d c5 e1 85 bd 6d ba 30 bd
       0.013929894 0.035706405 -0.06537203 -0.04314654
000240 e7 d8 75 bd e6 62 41 3c 23 bb d7 bc 62 e5 ce 3b
       -0.060021307 0.011803364 -0.02633435 0.0063139657
000250 54 9a d0 bc 49 98 5d bc 24 5a 1d bd 4f 13 2f bd
       -0.025464214 -0.013525077 -0.038416043 -0.042743023
000260 b1 09 c4 bb 9f 66 ae 3d 8f 89 64 bd 3b 63 52 bb
       -0.0059826006 0.08515667 -0.05579525 -0.0032102603
000270 ce dd 54 3d 6e 5d b7 3c 7f 7f 24 3d b6 25 8d 3d
       0.051969342 0.022383418 0.040160652 0.068919584
000280 75 50 97 3d 48 0d b1 3d 18 47 95 3c 65 f5 03 3d
       0.07388393 0.08645111 0.018222377 0.03221645
000290 c8 a2 59 bd 63 34 b0 bd 9f 8f 84 3d be 46 94 3d
       -0.053133756 -0.08603742 0.06472706 0.072400555
0002a0 87 41 43 bd 89 28 b4 bc b1 60 c9 3a 89 06 88 bd
       -0.047669914 -0.021991985 0.0015363899 -0.066418715
0002b0 63 a9 ec ba 64 ca e0 bc f4 5b b4 ba 87 91 00 3d
       -0.0018055852 -0.027440257 -0.0013760314 0.031388786
0002c0 85 8b a2 3d 1c f7 87 3d 1e d4 2b 3c 9c 7a 25 3d
       0.079367675 0.06638929 0.010487584 0.040400133
0002d0 47 51 06 3d 6e c8 87 3d 04 6d 57 bd 7b 72 ed 3b
       0.032792356 0.06630026 -0.0525942 0.007246313
0002e0 bd c1 16 bc 00 d7 3b 3d 5c 9a 0e 3d a4 04 a9 3d
       -0.009201464 0.045859337 0.034815177 0.08252838
0002f0 e2 4b 29 3c 2b 44 18 3d 27 5f 84 3c f7 65 55 bc
       0.010333033 0.037174385 0.016158653 -0.013024799
000300 c6 8e 14 3b 97 47 9e bd cf 32 0d 39 4c 81 46 3d
       0.0022668107 -0.077284984 0.00013465736 0.04846315
000310 a2 e3 5a 3d f1 d2 16 3d 7e 4c 3a bd 3f 0b 5c bb
       0.053439744 0.036822263 -0.045483105 -0.003357604
000320 36 7e 88 3d 79 dc 27 bd f0 70 f8 bc cb d7 81 3d
       0.06664698 -0.040981743 -0.03032729 0.06339987
000330 e6 d1 8b bd e4 3b 70 3d 70 6b 4d bd bf d2 4a 3d
       -0.06827144 0.058650866 -0.05015129 0.04951739
000340 2e 89 f1 3c eb 7a 61 3d ba ff 70 bd 43 f8 03 3d
       0.029484358 0.055048864 -0.05883763 0.032219183
000350 09 13 4a 3c 7b 09 92 bd b6 24 9f 3c 28 cb 61 3c
       0.01233364 -0.071307145 0.019426685 0.013781346
000360 27 38 33 3d f4 48 12 bc df 8f 98 bb ae 3a 25 3d
       0.043754723 -0.008928526 -0.0046558226 0.040339164
000370 27 de a0 3d 04 26 76 bd 3e 61 85 3d 25 64 4a bd
       0.07854872 -0.06009485 0.06512688 -0.04941191
000380 db be cb 3c 63 38 05 3d 99 93 78 3c 97 7a 98 3d
       0.02487128 0.032524478 0.015171909 0.07445257
000390 02 ce 5e 3d a9 bb 0b bd c4 e5 2e bd 44 b2 44 3d
       0.054395683 -0.034114514 -0.04269959 0.04802157
0003a0 0e 24 f2 bc 91 56 be bd 05 10 f2 bc 5e ca 42 bc
       -0.029558208 -0.09293855 -0.029548654 -0.011889068
0003b0 aa 99 8f bd f8 fe 9e 3d 83 94 4b 3d f1 f6 86 3d
       -0.07011731 0.07763475 0.04970218 0.06590069
0003c0 aa 1d 77 3c 6b 6b 54 bd 70 e8 9d 3d 65 57 a8 bd
       0.015082756 -0.051860254 0.077103496 -0.08219794
0003d0 54 ea 1d bd 60 69 82 bd 29 f5 63 bd 98 9d 21 bd
       -0.03855355 -0.06367755 -0.055653725 -0.039456934
0003e0 39 f8 79 bd 1a 84 7a bd 8f 0c ab bb 64 ef b7 3c
       -0.06102774 -0.061161138 -0.005220003 0.022453018
0003f0 ec 96 67 bd df f3 06 3c 22 a9 9d 3d d8 cf a1 3d
       -0.056540415 0.008236854 0.07698275 0.07900971

linear2.bias f4 [128]
000000 f1 8a 25 bd 3c 51 73 bd 24 82 31 3d 3b 8d 18 3d
       -0.040415708 -0.059403643 0.043337002 0.037244063
000010 cb f9 b1 3d f1 24 ff bc 8f 3a 55 3d 82 1b 11 3d
       0.08690222 -0.031145545 0.0520578 0.035426624
000020 82 5b 71 bc 88 0e b4 3c 2c f1 c0 bb 61 62 32 bd
       -0.01473129 0.021979585 -0.005888125 -0.043550853
000030 b4 d8 91 3c 6d b3 37 bd 1b 39 17 3d 52 7a 20 3d
       0.017803527 -0.044848848 0.036919694 0.039179154
000040 0a ce aa 3d eb d8 0d bd 96 37 a7 bc 62 27 e1 3c
       0.0834008 -0.034630697 -0.020412248 0.0274846
000050 e8 9c a7 bc c8 40 2e bd 16 a2 25 3d 45 1b 88 bc
       -0.02046056 -0.04254225 0.04043778 -0.016614566
000060 39 2b 4f 3c d5 ad 4a 3d 9a 06 c7 3c 7d 38 29 3c
       0.012644582 0.049482185 0.02429514 0.010328409
000070 e8 c7 9a ba d2 9d 8d bd 09 34 31 3d 01 56 1c bd
       -0.0011808844 -0.069148675 0.043262515 -0.038167957
000080 f6 22 b2 3d 0a 13 ad 3d e2 f1 a8 bd b2 cf 02 3d
       0.086980745 0.08450897 -0.082492605 0.031936355
000090 26 2e 08 3d 52 a2 ff 3c 90 1d 96 3c 22 e4 a1 bd
       0.033247136 0.03120533 0.018324643 -0.07904841
0000a0 98 c4 a8 bd aa 3f 1b bd 55 87 12 bc 4b 23 f7 bb
       -0.08240622 -0.03790251 -0.0089433985 -0.007542049
0000b0 80 82 b8 3c 5a 54 94 bd 01 ff 2c 3d f0 d4 f5 3c
       0.022523165 -0.07242651 0.04223538 0.030008763
0000c0 2f 5e 11 3c 4c 16 37 3c 10 b4 52 bc fc a9 c5 3c
       0.008872553 0.01117475 -0.012860313 0.024128906
0000d0 6b ce 1a 3c c2 c2 86 bd ec a3 35 3d 9f 03 57 bc
       0.009448628 -0.06580116 0.04434578 -0.013123422
0000e0 ea 12 d7 bc de b0 d4 bb 7a 9d 29 bc e9 77 81 3d
       -0.026254136 -0.006490811 -0.010352487 0.06321699
0000f0 c0 05 c2 3d ec 1a 06 3d 85 df 8b bd 3d cd d3 3c
       0.09473753 0.03274052 -0.06829742 0.025854701
000100 9a 86 80 3d ec 04 13 bc 8d cc bb bd b7 11 f1 bc
       0.06275673 -0.008973341 -0.09169874 -0.029427392
000110 ac ed 5f bd f1 20 08 bd c2 30 c8 3c b1 10 aa ba
       -0.05467002 -0.03323454 0.024437312 -0.0012974945
000120 85 38 a0 3d bd 28 3f 3d c7 92 ac bc 08 9d a7 3d
       0.0782328 0.04666971 -0.021066083 0.08184248
000130 48 ed 67 3c de 37 61 3d d5 55 a2 bc 0b fd a0 bd
       0.014155693 0.05498492 -0.019816319 -0.07860764
000140 d5 09 64 3d 28 df c9 38 32 db 22 3c fc 70 6c 3c
       0.05567344 9.625993e-05 0.009939956 0.014431234
000150 92 96 26 bb 4f 0d 20 3d ea 2d 37 3c ad 4b 88 bd
       -0.0025419337 0.039075192 0.01118038 -0.06655059
000160 ef a6 97 3d 02 80 e1 bc b0 e9 b7 bd af 40 ab 3d
       0.07404887 -0.02752686 -0.08980119 0.08361947
000170 4f 21 5f 3d ac 2d 07 bc ab 14 6c 3c 8b 0d 27 3c
       0.054475125 -0.008250635 0.0144092245 0.0101961
000180 4f 5f 10 3d ee 45 a6 bc 8a ad e1 3c 1f 60 94 3d
       0.035247143 -0.020297017 0.02754857 0.07244896
000190 b9 60 23 38 88 7c ce bc 87 62 a0 3b 20 6a be 3c
       3.895231e-05 -0.025205866 0.004894558 0.023243964
0001a0 c9 3b 82 bd 32 d6 db 39 a1 03 c1 bc c6 ac 7d bd
       -0.06359059 0.00041930523 -0.0235613 -0.061932348
0001b0 6c 40 62 bd 09 34 1a bd 60 a8 3f 3c 93 90 d4 3c
       -0.05523722 -0.03764728 0.011697859 0.025947845
0001c0 1e cf 96 3c ea 41 77 3d 5d 09 62 3c f2 a6 61 bd
       0.018409308 0.060365595 0.013796178 -0.055090852
0001d0 35 ab 25 bd 49 7c a7 bc 2e 62 4f bd e0 e9 15 3d
       -0.04044648 -0.020445006 -0.05063074 0.036599994
0001e0 5b 69 96 3d 4e 39 5c bb 78 fb ad bd 4e d4 70 bd
       0.07344314 -0.0033603492 -0.084952295 -0.05879622
0001f0 78 8c cb bd 23 7f 15 3d 6c 6c 74 3d aa b3 34 3d
       -0.09938902 0.0364982 0.05967371 0.044116654

norm2.weight f4 [128]
000000 b6 6d 7c 3f f3 0f 7e 3f 95 58 7f 3f de 3f 7e 3f
       0.98604906 0.99243087 0.9974454 0.99316204
000010 ab a7 7f 3f 4a e2 7b 3f 00 ad 80 3f 3b de 81 3f
       0.99865216 0.98392165 1.0052795 1.0145944
000020 a1 7e 7f 3f 81 c0 80 3f 7d c0 7e 3f db 46 81 3f
       0.99802595 1.0058748 0.99512464 1.0099748
000030 5c d2 80 3f de 12 7f 3f 52 ae 7e 3f db 36 7f 3f
       1.0064197 0.99638164 0.9948474 0.9969308
000040 19 6e 7e 3f 7a cb 81 3f d3 da 7f 3f 36 64 81 3f
       0.99386746 1.0140221 0.99943274 1.0108707
000050 3c 79 82 3f 42 3d 7e 3f 66 eb 7e 3f 2d 94 80 3f
       1.0193248 0.9931222 0.9957794 1.004522
000060 cb 50 7d 3f 46 b3 81 3f c2 4a 81 3f 78 5a 7f 3f
       0.98951405 1.0132835 1.0100939 0.9974742
000070 6c 14 7a 3f 59 6a 80 3f 4b f1 7a 3f 3b 15 80 3f
       0.9768741 1.0032455 0.98024434 1.0006479
000080 f8 15 7c 3f e1 1e 81 3f d4 ad 80 3f 51 c8 82 3f
       0.9847102 1.0087548 1.0053048 1.0217382
000090 b7 32 83 3f c4 03 7f 3f 27 91 7f 3f fd f0 7c 3f
       1.0249852 0.9961512 0.9983086 0.9880522
0000a0 a8 cb 80 3f 33 64 82 3f ff 6b 81 3f 58 e5 80 3f
       1.0062151 1.0186828 1.0111083 1.006999
0000b0 2a 4b 80 3f 0c 10 7f 3f 69 cd 7e 3f 2d b0 7d 3f
       1.0022938 0.9963386 0.9953218 0.9909695
0000c0 e4 c9 7c 3f 3b 82 7e 3f 0a 0d 79 3f 49 6f 81 3f
       0.9874556 0.99417466 0.9728552 1.0112087
0000d0 9d dd 7e 3f 5f 1c 82 3f 64 9a 7e 3f 32 b1 7e 3f
       0.99556905 1.0164908 0.9945433 0.9948913
0000e0 5c d5 7e 3f a9 ae 81 3f ab 95 81 3f b7 9e 7e 3f
       0.9954431 1.0131427 1.01238 0.9946093
0000f0 60 29 81 3f 2a b0 81 3f 57 7d 7e 3f ea 57 80 3f
       1.0090752 1.0131886 0.99410003 1.0026829
000100 98 0c 82 3f 8e 5b 80 3f 41 f3 7e 3f bb 34 7f 3f
       1.0160093 1.002794 0.99589926 0.99689835
000110 e3 15 80 3f 12 04 7f 3f d7 2b 7d 3f 82 a4 81 3f
       1.0006679 0.99615586 0.9889502 1.0128329
000120 de d0 7e 3f 26 eb 7f 3f 46 58 7d 3f b0 d6 7f 3f
       0.99537456 0.99968183 0.9896282 0.9993696
000130 2d c6 7d 3f 9d cb 7f 3f a7 a7 7f 3f db c5 80 3f
       0.9913052 0.99920064 0.9986519 1.0060381
000140 a2 d1 7e 3f ef bd 7e 3f ce a7 7f 3f 40 f9 82 3f
       0.99538624 0.99508566 0.99865425 1.0232315
000150 4c 10 83 3f 22 a3 7e 3f 22 cf 7f 3f d3 fa 80 3f
       1.0239348 0.9946767 0.99925435 1.0076545
000160 f0 d2 7e 3f 39 54 7f 3f e9 29 81 3f 97 3f 80 3f
       0.99540615 0.9973789 1.0090915 1.0019406
000170 9b d8 7a 3f bb d5 80 3f 3f f8 7e 3f dc 89 81 3f
       0.97986764 1.0065225 0.99597543 1.0120196
000180 ad e1 7d 3f ea a6 7f 3f a3 70 80 3f e7 33 7d 3f
       0.9917248 0.99864066 1.0034374 0.9890732
000190 c1 2f 82 3f e8 47 7e 3f 32 1b 84 3f 59 bd 7e 3f
       1.0170823 0.9932847 1.0320799 0.9950767
0001a0 f5 07 7d 3f c9 5d 7e 3f 63 32 7b 3f 47 91 80 3f
       0.98840266 0.99361855 0.9812376 1.0044335
0001b0 41 67 81 3f 59 2d 7f 3f ff f9 7f 3f 66 1d 7f 3f
       1.0109636 0.9967857 0.9999084 0.99654233
0001c0 ec e8 7c 3f fd 1d 7d 3f 5e 4b 7f 3f ac bf 7e 3f
       0.9879291 0.98873883 0.99724376 0.9951122
0001d0 eb 12 80 3f 43 d6 80 3f bf 75 7d 3f 4e 26 7e 3f
       1.0005773 1.0065387 0.9900779 0.992772
0001e0 cd db 7d 3f 5a d4 7d 3f f8 cf 7e 3f ff 6e 81 3f
       0.99163514 0.9915215 0.99536085 1.0111998
0001f0 3d c5 7d 3f 31 33 7c 3f 03 cc 7b 3f ec cc 7e 3f
       0.99129087 0.9851561 0.9835817 0.99531436

norm2.bias f4 [128]
000000 d9 ac 26 bc 47 8b 6b bb 11 71 4b bb 30 59 ed 3b
       -0.010173046 -0.003594117 -0.0031042735 0.007243298
000010 df 9f 18 ba e2 1b 35 bc 97 5a 46 bc 54 a5 c6 3b
       -0.00058221625 -0.011054011 -0.012106559 0.006062189
000020 8e 22 44 bb 32 7b b3 3b 65 85 a4 bb b3 43 1b 3c
       -0.0029927823 0.0054773325 -0.0050207847 0.00947659
000030 fd c5 50 bb 59 44 7b bb 67 83 ba bb 94 3c 90 bb
       -0.0031856291 -0.00383403 -0.005691934 -0.0044017527
000040 92 78 fe ba b5 38 b4 3b 6d 19 78 bc 87 c4 0e 3c
       -0.0019414595 0.005499924 -0.015142781 0.008713848
000050 4b f2 f7 3b 00 28 05 3c af fd 95 bb ad 4d 9a 3a
       0.0075667254 0.0081272125 -0.0045773606 0.0011772417
000060 3b c5 d1 ba 65 35 33 3c 8e c8 c9 3b 79 42 23 3c
       -0.0016004214 0.010938023 0.006157941 0.009964579
000070 57 60 4e 3b 5a 6d 54 3b e4 33 2a bc 8b 05 88 bb
       0.0031490528 0.0032413811 -0.010388348 -0.0041510514
000080 73 7c bb bb bb e5 d0 3b 15 f4 bb bb ff 43 25 3c
       -0.0057216226 0.0063750423 -0.005735884 0.010087012
000090 d3 f7 86 3c 6f a8 a8 bb 4d 54 03 bb 65 92 bc bb
       0.016475594 -0.005147032 -0.002003926 -0.0057547563
0000a0 f0 90 6e 3b b6 d2 19 3c b0 a1 f0 ba 60 4a 27 3c
       0.0036402307 0.009388616 -0.0018358734 0.0102106035
0000b0 b2 fe 0a 3b e0 c4 8e 3b ad 06 b3 bb 29 53 60 3c
       0.002120894 0.0043569654 -0.0054634423 0.013691702
0000c0 b8 28 78 3b 9b 5f 9b bb f3 b6 fc bb f9 ad cd 3b
       0.0037866067 -0.0047416217 -0.007712239 0.0062768427
0000d0 4e 35 26 bb 91 7a 60 bb 0e 04 f1 bb 8c af dc ba
       -0.0025361362 -0.0034252743 -0.0073552197 -0.0016836985
0000e0 ca 2f b9 bb 71 0f 13 3c 5d 65 67 3c 56 7e a8 bb
       -0.005651449 0.0089758495 0.014123288 -0.0051420135
0000f0 d1 e0 c2 3a 75 b6 dd 3b 52 eb 8a bb 00 91 68 bb
       0.0014868026 0.0067661353 -0.004239478 -0.0035486817
000100 9b 30 21 3c ff cf 6b 3c 61 ea 88 bb 4e 81 82 bb
       0.009838249 0.014392852 -0.004178331 -0.0039826995
000110 9f bf ff 3b ac 1e c1 bb 4e 9d 3b 3b 54 35 28 3c
       0.0078048254 -0.005893549 0.0028627696 0.010266621
000120 06 4f 9c bb 3c 13 53 bc 7c d4 0b bc 9b 50 6d 39
       -0.0047701625 -0.012883004 -0.008534547 0.00022632109
000130 dc cf ba ba 12 a3 b0 3a 79 c4 a2 ba 34 79 17 3c
       -0.0014252621 0.0013476333 -0.0012418173 0.009245206
000140 f2 e9 a6 b9 84 1d df 3b 13 f1 71 ba ac 11 c1 3b
       -0.0003183629 0.0068089385 -0.0009229343 0.005891999
000150 c9 fe 12 3c 31 8c cc 39 b8 cc d8 bb d2 b0 8b bb
       0.008971878 0.00039014363 -0.0066162013 -0.004263022
000160 56 d5 2c bb 69 3d 64 bb 52 f9 8a bb 7d 1a ac b9
       -0.0026372275 -0.0034826642 -0.004241147 -0.00032826132
000170 ad f6 10 3c 68 ef dc 3a c7 1d 51 bb 66 b5 51 3c
       0.008847875 0.0016856017 -0.0031908618 0.012799596
000180 88 8a 16 bc e3 ae 1b 3a 71 db 0d 3c 8f 7a 79 3b
       -0.009188302 0.0005938841 0.008658276 0.0038067435
000190 6b 03 4e 3c 5a 2b e5 ba 55 ea ad 3c 3a a9 ac 3b
       0.012574057 -0.0017484233 0.021229902 0.005269197
0001a0 f3 b1 b1 bb 17 21 84 bb bd 46 48 bc ab 57 08 3c
       -0.0054228245 -0.004032265 -0.012223897 0.008321683
0001b0 f7 fe 86 3b 55 fb 9e bb c7 64 32 3b 1a 53 73 bb
       0.0041197496 -0.0048517385 0.0027220713 -0.003712839
0001c0 34 ce ba ba c7 33 52 ba da 46 b2 3b dd 4f 96 bb
       -0.0014252127 -0.00080185797 0.005440575 -0.004587157
0001d0 94 63 c9 3b 0b b7 a1 39 68 58 0d bb 6c cb bc ba
       0.006145904 0.0003084469 -0.0021567587 -0.0014403886
0001e0 40 4e 86 bb de 70 1f 3b 25 2b b0 bb 55 26 41 bc
       -0.0040986836 0.0024328749 -0.005376237 -0.011788924
0001f0 02 2e 31 3c d3 32 d5 b7 04 5c 2f bc 27 e7 b4 bb
       0.010814192 -2.5415246e-05 -0.010703091 -0.0055207196

linear3.weight f4 [48, 128]
000000 68 05 ac bc 75 68 4f bd ed 09 a4 3b 5c d9 e5 3c
       -0.020998672 -0.050636727 0.005006066 0.028057747
000010 cc 2c f9 3c de 1b 99 3d 21 e6 a1 bd 59 6f 33 bd
       0.030416869 0.07476018 -0.07905222 -0.04380736
000020 a1 d3 5a bd 2b d1 88 3d 2f ea 1c bd d8 6d ea ba
       -0.05342448 0.066805206 -0.038309272 -0.0017885519
000030 7b 4a a0 bd 0b 13 01 bd 97 3e a0 bd 67 04 c0 3c
       -0.07826706 -0.0315123 -0.07824438 0.0234396
000040 83 25 91 3b 6c c6 1b 3d b3 5e 41 3c b7 e3 b0 3c
       0.0044295206 0.038031027 0.011802363 0.021592958
000050 3d 6c 1d bd ac 4d 46 bd 7c aa 4d ba 1c a1 b5 3d
       -0.038433302 -0.048413917 -0.00078455335 0.0886862
000060 c2 f1 fa 3c 54 b5 70 3d 7c e5 df 3d e3 4f 76 bd
       0.030632857 0.058766678 0.109324425 -0.06013478
000070 96 47 7e bd e7 a3 d8 bb d0 1a 51 bd 6c 5d ac ba
       -0.06207999 -0.0066113356 -0.05105096 -0.00131504
000080 f7 30 97 3c ea 99 a1 3c b8 64 94 3c 27 16 d7 3d
       0.018455965 0.019726712 0.018114433 0.10502272
000090 83 f1 a8 3d 6f 21 92 bb 64 7a 79 bd f6 e1 fd 3c
       0.0824919 -0.004459552 -0.060907736 0.030991536
0000a0 5c 5c 7c bd f8 6f a3 bc e0 d6 06 bc ae 6f a0 3d
       -0.06161152 -0.019950852 -0.008229941 0.07833801
0000b0 ce 73 a7 bb 80 4d b9 3d 56 45 56 bc b3 ec 85 3c
       -0.0051102405 0.09047985 -0.013078054 0.016348219
0000c0 af 92 79 3c de cb 14 bc ef 71 13 3d 66 e6 96 bd
       0.015232726 -0.009081809 0.035997327 -0.07368164
0000d0 e8 0e 34 3c 06 39 54 bd 06 66 81 3c 06 01 a2 3d
       0.010989882 -0.051812194 0.015795719 0.079103515
0000e0 7c 2b 54 bd a2 6e 83 bd 24 9c 1d 3d 6d 2a f3 3c
       -0.051799282 -0.06417586 0.038478985 0.029683316
0000f0 6f ae b1 bc 3b 41 1e 3d db c6 79 3d f7 29 2d bd
       -0.021689622 0.038636427 0.06098066 -0.04227635
000100 e5 92 15 3c 67 42 69 3d 36 8f 9a bd e3 81 a7 bd
       0.009129261 0.05694809 -0.075468466 -0.08179071
000110 ea 6e 33 3c bf 0a 8d bd e4 2d 0e bd 26 c4 36 3d
       0.010951737 -0.06886815 -0.034711733 0.044620655
000120 23 35 62 3c f5 ce 28 3d 1f 5f 1b 3d 18 34 8e 3d
       0.013806614 0.041212995 0.03793251 0.0694353
000130 08 87 c1 3d 1d fa 12 bd 31 53 95 bc aa da 2d bc
       0.09449583 -0.035883058 -0.018228145 -0.010611216
000140 96 d5 3b bd c5 55 f8 3c e9 e7 22 bd 0f 6d fc bc
       -0.04585799 0.030314336 -0.039771948 -0.030813722
000150 d0 a5 3c bb 22 7b 36 bd 9b ea b1 bc 0a b0 55 3d
       -0.0028785355 -0.044551022 -0.021718314 0.052169837
000160 9b de 57 3a e8 46 67 3d 46 df 3c bd f5 8e 66 bb
       0.000823477 0.056464106 -0.046111368 -0.0035180424
000170 df 99 24 3c 12 fe 66 bd b6 25 0e bc 9e 8e 8a bc
       0.010046451 -0.056394644 -0.008675983 -0.016913708
000180 d5 17 20 3d 74 57 ab bd 6d 92 54 bd 03 e9 56 3d
       0.039085228 -0.0836629 -0.051897455 0.05246831
000190 ac 4f 71 3c 82 3b 23 bd 2a 73 bb 3c f5 c7 ab 3c
       0.014728468 -0.039851673 0.022882063 0.02096937
0001a0 49 4e 0f bd 49 08 5d bd e6 60 91 bd 4a bb 20 bd
       -0.034986768 -0.05396298 -0.0709856 -0.039241113
0001b0 85 d0 88 bc ba c0 cb 3a 37 77 56 3d dd 60 3c 3d
       -0.016700992 0.0015545108 0.052359786 0.045990814
0001c0 de 60 d9 3c 61 98 b0 3c 9a f1 5a bd d6 5c 4a bd
       0.026535448 0.021557035 -0.053453065 -0.04940494
0001d0 04 8d 92 bd 7d b1 a3 3d c0 0a be bd 26 6e 2e 3d
       -0.07155803 0.079928376 -0.09279394 0.042585514
0001e0 8a 2c d3 3c 33 37 c3 3d 8a b3 33 bb e6 56 06 3d
       0.025778074 0.09532013 -0.0027420246 0.032797717
0001f0 e4 d8 2f bd dd 74 2a bd b1 1d 82 3d 04 62 27 3d
       -0.042931452 -0.041615356 0.063533194 0.04086496
000200 17 84 65 bd 12 31 ad 3c 49 3b 08 bd 8d 9b a1 3d
       -0.056034174 0.021141563 -0.033259664 0.07890997
000210 a2 9e 90 bd d8 c1 0d bd ee 16 36 3c bb 2e 10 bd
       -0.07061507 -0.034608692 0.011113865 -0.035200816
000220 56 be 95 bd 48 16 7d 3d d7 a9 27 bd 78 9d 29 bd
       -0.07311694 0.061788827 -0.040933456 -0.04140994
000230 2e 93 f6 bc 3b ee 33 3d bd 2b 19 3d 19 eb a5 3d
       -0.030099478 0.043928366 0.037395228 0.08101482
000240 b6 8e c3 bc 79 7d 63 bd b1 59 81 3d ab b6 a3 3d
       -0.02387176 -0.055539582 0.063159354 0.079938255
000250 cc 9a 70 3d fc 70 ff bc 0d b6 7d bd a8 ba 70 3c
       0.058741376 -0.031181805 -0.061941195 0.01469294
000260 d6 c5 4c 3d aa fe 1d 3d 12 10 ac 3d db b9 59 bc
       0.04999336 0.038572945 0.08401503 -0.01328894
000270 ba 55 6b bd fd 88 84 bd 17 57 62 bd 95 08 f2 bc
       -0.057454802 -0.06471441 -0.055258837 -0.029545108
000280 3b 7e 0b bd a8 46 26 3c fe 6c 82 3c d1 4f 97 3d
       -0.03405593 0.010148682 0.015921112 0.07388271
000290 a1 8a 7e ba 17 23 f1 bb 30 62 8e 3d d6 cc 70 3d
       -0.00097099884 -0.0073589194 0.069523215 0.058789097
0002a0 a5 b4 38 bd 0a 32 19 bc 5e 28 b9 bd 6d 2d a0 bd
       -0.04509415 -0.009350309 -0.090409026 -0.07821164
0002b0 32 54 54 bc c4 43 56 3d b4 27 35 3d d7 18 6a 3d
       -0.012959527 0.05231072 0.044227317 0.057152595
0002c0 6c 45 7e bd 7d c5 1a 3d 75 f8 72 3c f7 17 a2 bd
       -0.062077925 0.037785996 0.014829745 -0.07914727
0002d0 ad 30 5e bd 3f 14 ce 3c 7f d3 55 3d 6c 19 45 bd
       -0.05424564 0.025156138 0.05220365 -0.048119947
0002e0 d0 3a 61 bd cf 64 19 bd 49 d8 0b bd b3 94 e5 3c
       -0.05498773 -0.037449654 -0.034141812 0.028025007
0002f0 09 a9 ba 3c eb 02 ae bc 04 db 5f bb a2 d1 7d 3d
       0.02278568 -0.021241626 -0.0034157643 0.0619675
000300 c2 bb 03 3d cd 8f 4e 3d fd 7f 17 3d 92 9f d1 bc
       0.03216148 0.050430108 0.036987294 -0.025588784
000310 df c6 28 3d e6 77 90 bd 59 08 8b bd 1b 40 9c 3d
       0.041205283 -0.07054119 -0.067887016 0.07629415
000320 92 67 0d ba 81 82 df 3b 45 03 93 bc 8d 4d 30 bd
       -0.00053941563 0.006820977 -0.017945895 -0.04304271
000330 7a 0d 8e 3d d5 42 42 3d 46 f7 8a 3d 5f 76 96 bd
       0.06936164 0.047427017 0.06785445 -0.07346796
000340 98 ba 85 bd bf 19 09 3d 97 67 a7 bc 8b 6a 24 bd
       -0.065297306 0.03347182 -0.020435138 -0.04014067
000350 b2 d8 c1 3d c7 60 30 3d e3 79 64 3d 8e 39 25 bd
       0.094651595 0.043061044 0.055780303 -0.04033809
000360 66 0b 31 3d 3a 58 bd bc f6 33 43 3d d3 59 b6 bd
       0.04322376 -0.023113359 0.047656976 -0.08903851
000370 b2 a9 bf 3d 4b ab 27 bd 76 62 01 3d f5 4b d1 3c
       0.09358539 -0.040934842 0.03158804 0.025548914
000380 b1 b3 f6 bc 64 9b 8a 3d 2f 07 ff 3c 9b 62 a0 3c
       -0.03011498 0.0676792 0.031131355 0.019578269
000390 23 76 ca bc 1a 30 11 3d aa aa 6c 3d a3 26 46 39
       -0.024714535 0.035446264 0.057779945 0.00018897145
0003a0 81 89 92 bd ba 70 26 3d 74 af ad 3c b4 56 8b bd
       -0.07155133 0.04063485 0.021201827 -0.06803647
0003b0 9b 43 9b bc 39 17 bf bd 40 45 7c bd 1f b2 80 bd
       -0.018953135 -0.09330601 -0.06158948 -0.06283974
0003c0 ca 41 9d 3d 29 9e 32 bd 98 84 b9 3c e0 3f aa bd
       0.07678564 -0.043607865 0.022646233 -0.083129644
0003d0 10 10 95 3d ad c1 9e 3d 83 a4 74 bc 87 38 11 3d
       0.07278454 0.077517845 -0.014931801 0.0354543
0003e0 b9 dd 81 bd fc 72 f9 3a a6 aa b5 bc 5d 79 ad bd
       -0.06341118 0.001903146 -0.022176098 -0.08470414
0003f0 92 b6 9e 3c a6 f1 a0 bd 6c 53 62 3d e3 f2 86 bd
       0.019374166 -0.07858591 0.05525534 -0.06589296

linear3.bias f4 [48]
000000 f7 bd a8 3d 19 44 a1 3d ce 3d b8 bc 82 de 4c bd
       0.08239358 0.07874317 -0.022490408 -0.050016887
000010 e2 52 b4 3d e0 c7 ad bc a2 a4 93 3d 82 5d cd 3c
       0.08804871 -0.021213472 0.072091356 0.025069002
000020 0b dd e4 3c 4e a7 a3 3c b9 18 b7 3d 59 d9 d1 bb
       0.027937433 0.019977238 0.08940262 -0.0064040837
000030 95 74 02 bc ae 60 60 3d b7 63 2c bc 48 77 68 bd
       -0.007962366 0.0547797 -0.010521821 -0.05675438
000040 89 7e 7b bd 1e ac 32 3d 61 ad 3a 3d 64 a3 ee bc
       -0.06139997 0.043621175 0.045575503 -0.029130645
000050 b9 a4 93 bc 3f 10 82 3a e9 b2 25 3d c2 51 05 3d
       -0.018022882 0.0009923055 0.040453825 0.032548673
000060 c1 af e0 3c 2e 96 52 bc 61 8d a8 3d 5a 31 a6 3d
       0.027427556 -0.012853188 0.08230091 0.08114882
000070 5b 16 b4 3d a8 28 59 3d 5c bf 3f bd 5b 37 23 bc
       0.087933265 0.05301729 -0.046813354 -0.009961928
000080 a4 17 11 3c a4 f3 b7 3c 44 e9 82 3d dd 44 33 3d
       0.008855734 0.022455044 0.06392148 0.043766845
000090 4c b0 71 3c 53 69 7e bd 79 14 fc bc 95 b9 47 bd
       0.014751505 -0.062112164 -0.03077148 -0.04876097
0000a0 2c 2b 26 3b 09 31 67 bd c8 cc 5a 3d 14 78 7f 3d
       0.0025355322 -0.056443248 0.05341795 0.062370375
0000b0 02 df bc bb 12 19 76 bd f9 cb 69 bc 58 30 95 bd
       -0.0057638893 -0.060082503 -0.014269822 -0.072846115
