第二章-回归模型/model_weight/mlp_tanh_norm.pth (torch, 146853 bytes, 10 tensors)

linear1.weight f4 [128, 96]
000000 cf 76 e8 3c fa 4a 38 bd 04 50 9b 3c 14 47 ad bd
       0.028376965 -0.04499338 0.018959053 -0.08460823
000010 ec 20 29 3d 16 97 22 3c bb 39 a5 bd 86 12 a5 3d
       0.041291162 0.009923717 -0.08067652 0.08060174
000020 cb fd 19 bd 38 dd ba bc 24 29 b5 bd e9 bb f1 3c
       -0.03759555 -0.022810563 -0.088457376 0.029508548
000030 77 88 07 3d 8b 6c 86 bd e8 2f 9b 3d 43 32 be 3c
       0.033089127 -0.06563672 0.07577497 0.023217326
000040 b3 18 1a bd fe 91 3a 3d 46 33 a6 bc 6f 97 67 3c
       -0.03762121 0.045549385 -0.020288121 0.014135226
000050 6e 69 70 3d 2b d5 cc bd 68 92 8d 3d 8a 3a b1 3d
       0.058694296 -0.10001596 0.069126904 0.086537436
000060 70 f1 43 3b a8 96 b0 bd 0a da e0 3c cd aa 50 3d
       0.0029898547 -0.086224854 0.02744772 0.05094414
000070 5b 5d a3 bd 35 76 c7 3d 85 8c 91 3c 7f 44 06 bd
       -0.079767905 0.09739343 0.0177672 -0.032780167
000080 0c 15 64 bd 73 b8 ca bd 94 be 83 bd f4 f5 6b 3d
       -0.055684134 -0.09898462 -0.06432834 0.057607606
000090 99 50 04 bd 22 cf 8a bd 11 73 21 bc 77 a9 7e 3d
       -0.032303426 -0.06777789 -0.009854094 0.062173333
0000a0 ab de b7 bd 86 e2 05 bd ce 32 e2 bb 68 47 0b 3c
       -0.089780174 -0.032686733 -0.006903029 0.008500911
0000b0 fe ac 6e bd 6b cd 66 bc de 80 b7 3d f9 6f ac bd
       -0.058270447 -0.014087061 0.08960126 -0.084197946
0000c0 c4 4d d1 3d 8c 3b 48 3d 50 4f 9c bd c1 0c 67 bc
       0.10219911 0.048884913 -0.07632315 -0.014102162
0000d0 8e f0 82 3d 65 15 46 bc aa 40 56 bd 63 8d 7e bd
       0.063935384 -0.012090062 -0.052307762 -0.062146556
0000e0 c7 57 53 bc 2f 93 95 bd c9 7f 8a b8 8c d5 03 3d
       -0.012899346 -0.07303464 -6.6041546e-05 0.032186076
0000f0 91 07 4f 3d 74 e1 f0 bc 17 dd 2d 3d 5f b4 3d bd
       0.050544325 -0.02940438 0.042447176 -0.046314593
000100 af 11 02 bd a5 80 88 bd a0 d0 4f bd a7 ef f4 3b
       -0.031755146 -0.06665162 -0.05073607 0.007474858
000110 ef bb 55 3d c4 69 9f 3d fd 0e 4a 3d c1 68 65 3d
       0.05218118 0.07783845 0.0493307 0.056008104
000120 1f 9c be 3c 32 8e 0a bd 10 32 75 3d bc ff 64 bd
       0.023267804 -0.033827014 0.059862196 -0.05590795
000130 61 cb 5e 3d 71 a0 32 bd e5 a7 12 3b 18 c5 0e 3d
       0.054393176 -0.04361004 0.0022377905 0.034855932
000140 7c 5a 7d 3d 09 2f 4c bb 7e d8 83 3d e7 fa bb 3d
       0.06185387 -0.0031155965 0.06437777 0.09178715
000150 77 f3 89 3d 36 57 3d 3d 33 2f 21 bd cb ba a6 3d
       0.0673589 0.04622575 -0.039351653 0.08141097
000160 32 24 4c bd f5 e3 dd 3a d9 58 40 3d 47 82 72 3b
       -0.049839206 0.0016928898 0.04695973 0.003700392
000170 5c 24 e0 3d b5 26 33 bb 4f 48 a7 3d be 99 c7 3d
       0.10944435 -0.0027336304 0.08168089 0.09746121
000180 32 1b 7f 3c da d5 50 bd d8 1d 01 3c 94 a4 c0 bd
       0.015570449 -0.050985195 0.00788065 -0.09406391
000190 8a 37 da 3c 40 f0 23 3d b1 ef 9d bc 8c 84 cb 3c
       0.026637811 0.040024042 -0.019279333 0.024843477
0001a0 8e eb be bd 5f 05 71 3d 33 6c 45 3c e1 0b a0 3c
       -0.09322272 0.058843013 0.0120497225 0.019536914
0001b0 83 17 11 bd ba d8 c4 3c 54 a7 0e bd c8 75 70 3c
       -0.035422813 0.024029125 -0.034827545 0.014676519
0001c0 60 05 00 bd 86 c8 91 3d 4b 50 8c 3d 15 3d be bc
       -0.031255126 0.07118325 0.06851252 -0.023222486
0001d0 99 94 b6 bc 60 ff 9e 3d 52 ca c3 3c f2 1c e1 3c
       -0.022287654 0.07763553 0.023900185 0.027479623
0001e0 36 1e bd 3d 45 cc bd bc 8a 1b fd bc f3 34 19 bd
       0.09234278 -0.023168692 -0.03089692 -0.037404012
0001f0 18 c1 bb 3d 9b bf 13 3b 08 85 8a 3d 6f ac ef bc
       0.09167689 0.0022544626 0.06763655 -0.029257027
000200 3b fa a3 bd aa ad f9 3c 75 af 55 bd a4 a7 57 3d
       -0.08006712 0.030478317 -0.052169282 0.05265011
000210 1c 5b 12 bd 81 f7 b2 3d 76 93 49 3d 9e 19 18 bd
       -0.03573142 0.08738614 0.049212895 -0.037133805
000220 91 11 ba bd 73 da af bd 9c 0b 78 bd 8a c2 c4 bc
       -0.09085382 -0.08586588 -0.060557947 -0.024018545
000230 fb d1 55 bd 07 bd 57 3d 98 8b 48 3d 92 47 07 3d
       -0.052202206 0.052670505 0.048961252 0.03302724
000240 7f 7c 05 3d 13 15 f2 bc 27 68 7a bd 09 d5 62 3d
       0.03258943 -0.029551065 -0.061134484 0.055378947
000250 fe fa 85 bd eb 51 5b bd c9 f1 76 3c 85 6d 78 3c
       -0.065420136 -0.05354492 0.0150722945 0.01516283
000260 82 cb af bd 08 c1 7a bb ad 2c ca 3c 52 35 94 3b
       -0.08583738 -0.0038262028 0.024679506 0.004522958
000270 97 8f f2 bc f1 74 47 bd d4 8e 6e 3d 68 ae 91 bd
       -0.029609485 -0.04869551 0.05824168 -0.071133435
000280 42 2e 25 bd cc ce 66 bd 30 26 89 3d 2f c6 1a 3c
       -0.040327318 -0.05634956 0.06696737 0.009446665
000290 85 e8 0f bd f4 71 89 3d 8c 01 6f 3d b4 f5 83 3d
       -0.035133857 0.06711188 0.058351085 0.064433485
0002a0 a2 e6 a9 bd 56 db a0 3c b7 fa 41 bd 9d 3e b2 bd
       -0.08295943 0.019635838 -0.04735824 -0.08703349
0002b0 81 ea c5 3d 39 79 41 3d 1f 70 11 3d e6 62 9e bd
       0.09663869 0.047234748 0.035507318 -0.07733707
0002c0 c9 9e 93 bc d5 94 77 bd b6 d0 9b bd ed 6d b7 bd
       -0.01802005 -0.06044467 -0.07608168 -0.089565136
0002d0 74 8d ab bc 09 7c 38 bc 9d 2e 7e 3d 01 00 50 3d
       -0.020941474 -0.011260041 0.062056173 0.050781254
0002e0 a3 0b 28 bd a5 c0 c5 3c 24 a1 de 3c c5 a8 b0 bd
       -0.041026723 0.024139712 0.027176447 -0.0862594
0002f0 98 d5 57 3d eb c2 76 3d 18 0b 1d bd 29 33 10 3c
       0.052693933 0.060244482 -0.038340658 0.00880126
000300 86 1a 6b 3d a6 73 a3 bd 40 1d b1 bd 84 7b b7 bd
       0.05739834 -0.079810426 -0.08648157 -0.089591056
000310 ee 05 0e 3d 51 b4 01 bd 9e 2f 4b 3d 7f 4c 29 3d
       0.034673624 -0.031666104 0.04960596 0.041332718
000320 8f 7f 7b bd 58 1c d9 bc e4 0d 70 3c e6 6e fe 3b
       -0.061400946 -0.026502773 0.014651749 0.007764685
000330 ca f7 a8 bb 71 0f d6 3c bd fc 51 3c 8e 44 4a 3d
       -0.005156492 0.02613041 0.012816605 0.049381785
000340 29 cf 9f 3c 6e d8 84 3d 71 ed 91 bb e9 75 90 3d
       0.019507961 0.06486593 -0.004453354 0.070537396
000350 67 80 31 3d 19 de a6 bd 39 e2 73 3d d7 33 3d bd
       0.043335345 -0.081478305 0.059541915 -0.046192016
000360 a6 83 77 3d 43 08 d1 3d bb 5b ac bd e5 b0 95 ba
       0.060428284 0.10206654 -0.08415934 -0.0011420517
000370 d9 b8 b9 bc bd 36 b5 3d 0e 6e 57 3c 37 1a db bb
       -0.02267115 0.08848331 0.013148798 -0.0066864747
000380 f0 fb c8 3d f4 ec 22 bb 68 59 68 ba a7 18 ea bd
       0.09813678 -0.0024860473 -0.000886342 -0.11430483
000390 dd 98 21 3d 1b 9b 78 3d 30 15 8f 3d c1 34 af 3d
       0.039452422 0.060694795 0.06986463 0.08554984
0003a0 72 c3 df bc 7e 8e 37 bd 28 43 97 3d 08 63 a2 3d
       -0.027314875 -0.044813626 0.07385856 0.07929045
0003b0 59 d3 65 3d ea 38 81 bd a9 88 c2 3d cc dc 24 3d
       0.05610976 -0.063096836 0.09498722 0.04024963
0003c0 42 7f ff 3c 90 46 94 3d f5 b0 6b bc 7a e3 60 3c
       0.031188611 0.07240021 -0.014385452 0.01372611
0003d0 01 34 ff bc 59 7b 3a bc fe 03 a6 bd 9e 1e 65 bd
       -0.031152727 -0.011381947 -0.0810623 -0.055937402
0003e0 94 63 8f bd 28 c9 ad 3d 94 8b dc bc d3 b1 2f bc
       -0.07001415 0.08485633 -0.026922025 -0.010723549
0003f0 46 c7 a2 3d 19 6e 5c 3d fa f1 85 bd aa e7 fa 3b
       0.07948165 0.053815935 -0.06540294 0.007657011

linear1.bias f4 [128]
000000 d4 13 88 bd f8 bd d9 bd e9 1f 79 3b e8 a2 d2 3c
       -0.06644407 -0.10631937 0.0038013405 0.025712445
000010 02 a5 ca 3d b1 39 ab bc b2 a6 ce 3d d2 71 22 3d
       0.09894754 -0.020901533 0.10090388 0.03965933
000020 8c bf 52 3d 2f 84 ff bd a7 9a d2 bc 46 35 e5 3d
       0.051452205 -0.12476384 -0.02570851 0.11191802
000030 89 8b c1 bd 36 d1 48 bd ed a4 cc 3d 50 9c c8 3d
       -0.09450442 -0.049027644 0.099923946 0.09795439
000040 2a 4f 72 3d a2 47 c1 3d 8d 9f ba 3d 5c 2b 2a 3d
       0.059157528 0.09437491 0.09112463 0.041545257
000050 e9 5b ac 3c dd c4 55 bc 82 82 91 bc dd 5f a9 bd
       0.02103992 -0.013047424 -0.017762426 -0.082702376
000060 3f 32 4d 3c 9c b4 59 b9 27 1b ee 3d 47 e5 70 bd
       0.012524187 -0.00020762015 0.11626273 -0.058812406
000070 e2 20 f7 3d 88 b8 2e bd 33 c8 70 bd 3e 50 5e bd
       0.12066819 -0.04265645 -0.058784675 -0.054275744
000080 ca a7 c2 3d 70 30 82 3d 9e 52 f9 bc 09 78 e7 bd
       0.095046595 0.06356895 -0.030434903 -0.11302192
000090 62 6a cf 3c 2f 78 5c 3d 50 15 e2 bd 67 ac 36 3d
       0.025319282 0.053825554 -0.11039221 0.04459801
0000a0 ab 5f 85 3d d8 d5 db bd 2f 6a bc 3d ac fa 02 bd
       0.06512388 -0.10734147 0.091999404 -0.03197734
0000b0 ac c0 b9 3d ec 4d 88 ba f6 ff 98 3a 64 98 e9 3c
       0.09069952 -0.0010399199 0.0011672962 0.028515048
0000c0 f0 ec 63 bd fd c5 ff 3c 64 3a e6 bd 03 cd 90 3c
       -0.055645883 0.031222338 -0.11241606 0.017675882
0000d0 12 d7 be bd 15 87 13 bc f1 db 5f b9 21 f0 8d 3d
       -0.09318365 -0.009004374 -0.00021348872 0.069305666
0000e0 3c 8b 29 bd 02 63 0d bd bb 7f 0a bd 6a d7 3c 3d
       -0.04139255 -0.03451825 -0.03381322 0.046103872
0000f0 8d 02 9c bd 4f d9 cf bd 76 7e 48 3d f8 3c 11 3d
       -0.07617674 -0.1014887 0.048948728 0.035458535
000100 19 1a 18 bd 8b 63 93 bd f9 97 43 bd 8f 25 13 3d
       -0.037134264 -0.07196721 -0.047752354 0.03592449
000110 3b f2 9b bd a4 f8 af bd ee 81 d5 bd e8 91 85 bc
       -0.07614561 -0.08592346 -0.10425173 -0.016304925
000120 7f 46 4d 3b 55 13 8f bd 6d dc 5f bd 2a a7 47 3d
       0.0031322537 -0.06986109 -0.054653574 0.048743404
000130 6e a1 a8 bd b1 58 d2 3d 11 94 86 bd 04 34 0c 3d
       -0.08233915 0.10270823 -0.0657121 0.034229293
000140 6b d5 88 bd 38 40 ee bd 3c 5e dc bb 6b f4 ab 3d
       -0.06681331 -0.116333425 -0.006725101 0.083962284
000150 c3 a0 29 bd 7b 14 aa bd 3b 37 99 bd 42 5b 85 bd
       -0.04141308 -0.083046876 -0.074812375 -0.06511547
000160 ac fb af bd f1 81 c8 bd a6 47 d9 3d 9c a4 95 bd
       -0.085929245 -0.09790409 0.10609369 -0.07306787
000170 72 59 ac 3d 11 f3 ad bd 1f bc e9 3c 6e 9d a4 3c
       0.08415498 -0.08493627 0.028532086 0.0200946
000180 54 11 95 bd 82 83 db bb 61 d4 86 bd 59 2b ca 3d
       -0.07278696 -0.0066990266 -0.06583477 0.09871549
000190 66 e7 d0 bd e3 b9 cc bb 38 18 99 bd e5 3c c6 3d
       -0.10200386 -0.0062477454 -0.074753225 0.096795835
0001a0 d3 8e 6f bd 50 6e 2f 3d cc 05 d2 bc e4 4b 7e bd
       -0.058485817 0.04282981 -0.02563753 -0.062084094
0001b0 4a bf ce bc c1 b6 c8 bd e7 43 d0 bd ed cb 41 3c
       -0.025237698 -0.098004825 -0.10169201 0.011828405
0001c0 99 e7 3b bc 80 ad 3c bd c1 a6 6b bd b0 f8 f5 3d
       -0.011468791 -0.0460639 -0.057532076 0.12010324
0001d0 40 43 50 bd c3 6b 62 3d c2 97 b0 3d 58 be 91 3d
       -0.050845385 0.05527855 0.086226955 0.07116383
0001e0 a0 b0 fe 3d 11 33 bf bc 9f 89 de bd 88 fe cd 3d
       0.12436032 -0.02333978 -0.10866093 0.100583136
0001f0 da d1 a3 bd 43 e7 79 bc 30 8e ba bd 98 95 9a 3d
       -0.079990104 -0.015252891 -0.09109151 0.07548064

norm1.weight f4 [128]
000000 aa b2 82 3f c3 79 80 3f 65 1f 80 3f d5 2e 81 3f
       1.0210774 1.0037159 1.0009581 1.0092417
000010 06 c8 7f 3f 9f 27 7d 3f bd a7 82 3f b7 57 7e 3f
       0.99914587 0.9888858 1.020744 0.9935259
000020 80 e5 80 3f dc 4c 84 3f 37 2f 81 3f f8 45 7f 3f
       1.0070038 1.0335956 1.0092534 0.9971614
000030 7f 69 79 3f 8c 43 81 3f 6d b3 7f 3f f7 97 7f 3f
       0.974266 1.0098739 0.99883157 0.99841255
000040 0c 38 81 3f 5b 9d 7f 3f 02 33 81 3f f7 aa 7d 3f
       1.0095229 0.9984948 1.0093691 0.99088997
000050 7d ba 7d 3f 9b 2b 81 3f 93 ce 80 3f 6f 2c 80 3f
       0.99112684 1.0091432 1.0063041 1.001356
000060 2a 2a 7c 3f 5f 57 7f 3f d7 4d 82 3f 3a a3 7a 3f
       0.9850184 0.9974269 1.0180005 0.97905314
000070 ec ad 82 3f df 05 81 3f 66 07 7f 3f 5c 91 7f 3f
       1.0209327 1.0079917 0.99620664 0.99831176
000080 1a 72 81 3f 58 7b 80 3f 38 d0 7c 3f cf 3f 84 3f
       1.0112946 1.0037642 0.98755217 1.0331973
000090 c0 23 7c 3f 7a 56 80 3f 04 f6 84 3f ef 76 80 3f
       0.9849205 1.002639 1.0387578 1.0036296
0000a0 05 33 7d 3f 71 5b 80 3f eb 61 7b 3f 77 64 7b 3f
       0.98905975 1.0027906 0.98196286 0.9820017
0000b0 e6 6e 80 3f 55 e3 7f 3f ac fd 7b 3f 63 0a 7e 3f
       1.0033844 0.99956256 0.9843395 0.992346
0000c0 8a 1a 7e 3f 33 83 80 3f 5b a9 81 3f 9a ad 7e 3f
       0.99259245 1.0040039 1.0129808 0.99483645
0000d0 36 f4 7e 3f 5c 55 7f 3f 76 01 82 3f 4c f7 80 3f
       0.99591386 0.99739623 1.0156696 1.0075469
0000e0 a8 6c 79 3f a1 1b 7c 3f 4b 55 7f 3f 77 bf 80 3f
       0.9743142 0.9847966 0.9973952 1.005843
0000f0 dc d4 80 3f a3 5e 7f 3f 3c a1 7f 3f fd d8 80 3f
       1.006496 0.9975378 0.998554 1.006622
000100 a1 99 80 3f ee 42 81 3f 19 5e 80 3f ce b1 7d 3f
       1.0046884 1.009855 1.0028716 0.99099433
000110 9a 30 81 3f b2 c8 80 3f 50 47 80 3f 0c a2 79 3f
       1.0092957 1.0061247 1.0021763 0.9751289
000120 01 51 7a 3f fb 30 7f 3f ac 48 80 3f a6 a3 80 3f
       0.9777985 0.99684113 1.0022178 1.0049942
000130 37 54 7e 3f 7e 66 80 3f 7d 8a 80 3f 38 b3 7d 3f
       0.9934725 1.0031278 1.0042263 0.9910159
000140 00 93 7f 3f df a8 83 3f 8d 78 7e 3f fc 13 7e 3f
       0.9983368 1.028591 0.99402696 0.99249244
000150 e8 3d 81 3f 22 89 81 3f 03 e8 7d 3f 9e 7e 80 3f
       1.0097017 1.0119975 0.99182147 1.003864
000160 3e f7 80 3f 88 a7 80 3f 70 d9 7b 3f 4a 2e 7c 3f
       1.0075452 1.0051126 0.9837866 0.9850813
000170 fd 42 7f 3f d8 2a 7b 3f 78 8c 7f 3f 3e 38 81 3f
       0.9971159 0.9811225 0.99823713 1.0095289
000180 ac 10 81 3f 38 05 7b 3f 2a 61 7e 3f 58 e0 81 3f
       1.0083213 0.9805484 0.9936701 1.0146589
000190 d1 66 80 3f 34 78 7d 3f 10 c4 7e 3f 63 ef 80 3f
       1.0031377 0.9901154 0.9951792 1.0073055
0001a0 19 63 7f 3f 18 95 7f 3f 94 ad 7b 3f af 3b 80 3f
       0.99760586 0.99836874 0.98311734 1.0018214
0001b0 b1 fa 7f 3f 95 78 7d 3f b2 88 80 3f 99 68 80 3f
       0.999919 0.9901212 1.0041716 1.0031921
0001c0 86 e1 7c 3f b0 6e 7d 3f 09 95 81 3f d4 78 81 3f
       0.9878162 0.9899702 1.0123607 1.0114999
0001d0 ba ff 7d 3f 17 50 80 3f b0 27 81 3f d5 ab 81 3f
       0.9921833 1.0024441 1.0090237 1.0130564
0001e0 8b a1 80 3f 9f 40 80 3f 9a 30 83 3f 65 2e 7f 3f
       1.0049299 1.0019721 1.0249207 0.9968017
0001f0 9c 31 81 3f 25 27 80 3f 54 17 81 3f 27 06 80 3f
       1.0093265 1.0011946 1.0085244 1.0001878

norm1.bias f4 [128]
000000 fc 3a 3c bc 79 33 90 bb 56 f2 19 3c 73 71 fd 3b
       -0.011488672 -0.0044006673 0.009396156 0.0077344715
000010 dd 99 09 bb 38 5f ab 3b 13 ab 10 bb 25 db ad bb
       -0.002099625 0.005229857 -0.0022074624 -0.005305665
000020 5e fd fe 38 07 8f 94 bb 52 b1 b4 3b c4 fa 95 3b
       0.00012158857 -0.0045336518 0.0055143023 0.0045770127
000030 a5 5a 32 3b ef 80 8b bb 1a 6e d9 3b bd b3 87 3b
       0.0027214673 -0.0042573134 0.0066354396 0.0041412995
000040 d1 3f 50 ba 82 19 34 3c 57 ab 24 3c f2 e2 53 3b
       -0.00079440797 0.01099241 0.010050616 0.0032331315
000050 0d c6 cc 3b aa eb fd bb aa 9d c3 3b 95 74 83 ba
       0.0062491954 -0.0077490406 0.0059697228 -0.0010029251
000060 ea 37 f4 3a 4e b0 19 b9 76 37 b2 39 e3 ec 2d bc
       0.0018632386 -0.00014656896 0.00033992127 -0.01061556
000070 c1 cb 96 3a 5f e1 32 bc b1 43 3f bc d0 ef a4 bb
       0.0011504815 -0.0109179905 -0.011673854 -0.0050334707
000080 c8 5a 4d 3b ab 87 6b ba 0c 93 18 bc c3 c8 8d bb
       0.0031334627 -0.00089847547 -0.009312402 -0.004326911
000090 24 1a 8f bb 7e 0b 13 3c a6 a7 0d bc a9 c6 ed ba
       -0.00436713 0.008974908 -0.0086459275 -0.001814087
0000a0 d3 79 99 3b 15 7f 94 bb f8 ea 09 3b bd 9d a7 3b
       0.004683712 -0.004531751 0.0021044593 0.0051152394
0000b0 d3 a3 89 3b 0c cb ac 3b 69 90 b4 3b 8d b3 5d 3a
       0.0042004376 0.0052732285 0.005510379 0.0008457236
0000c0 7d f3 4c bb f7 6e 10 3c 0a 7c 66 bc 3b ba 8a bb
       -0.003127306 0.008815519 -0.014067659 -0.004233626
0000d0 a7 f5 a7 bb 41 ac 17 3b 10 d3 39 3c 6e b9 18 3b
       -0.0051257196 0.0023143443 0.011341825 0.0023303884
0000e0 be c9 27 bb 61 58 0a 3c e9 f4 06 bc 5e ad 12 3c
       -0.0025602425 0.008443923 -0.008237102 0.008952467
0000f0 20 6b 02 bc 65 32 b4 bb c5 55 b6 3b 51 ca 52 3c
       -0.007960111 -0.0054991716 0.0055644237 0.012865619
000100 17 19 e1 bb 0d 4b 4f bc 67 4d 66 3a 99 d8 d3 bb
       -0.006869446 -0.012652171 0.00087853376 -0.0064650294
000110 51 53 22 bc c0 3f 76 bb f6 f8 2e bc 08 c7 d9 bb
       -0.0099075595 -0.003757462 -0.010679474 -0.006646041
000120 ca e4 ce bb 57 ce 3b bb a9 03 80 bc a0 0b 5f ba
       -0.006313895 -0.0028656924 -0.015626745 -0.0008508507
000130 0f 05 84 ba d8 64 f6 3b 55 9a 0e bc 97 0c 9e ba
       -0.0010072308 0.0075193457 -0.008703788 -0.0012058195
000140 f9 84 a5 39 bc c2 b0 bb 79 9a bd ba 4d 2f c1 3b
       0.00031570325 -0.005394308 -0.0014465592 0.0058955313
000150 9f b5 08 bb 4a f1 1b bb 5a 36 2d 3a 9e 3e 31 bb
       -0.0020860208 -0.0023794943 0.0006607525 -0.002704538
000160 a4 1e 0a bc 0e 83 f2 bb e5 e1 5a 3b dc 7f 20 3c
       -0.008430157 -0.007400877 0.0033398804 0.009796109
000170 54 de e4 3b f8 59 8c bb 50 ec 96 ba c3 42 28 3c
       0.0069845114 -0.004283186 -0.0011514518 0.0102698235
000180 57 c9 20 bc 8c a1 d7 3b c0 e6 f3 3a 26 35 73 3b
       -0.009813628 0.006580537 0.0018608198 0.0037110536
000190 f3 5a f5 bb 4c 9f 9d bb 89 73 96 bb 57 24 1e 3c
       -0.0074876486 -0.0048102494 -0.0045914096 0.009652219
0001a0 c1 dc 3f 3a d8 e7 24 3c 30 d6 9e 3a c3 4b 3b bc
       0.00073189667 0.0100650415 0.0012118276 -0.011431637
0001b0 53 bd 13 bc 9d 6b 07 bc c9 c9 b4 bb a7 0b c5 3b
       -0.009017306 -0.008265403 -0.0055172187 0.006013352
0001c0 96 13 3f bc 5d b6 fc 3b 3b 79 04 bc 7a 09 95 3b
       -0.0116623845 0.007712169 -0.008085544 0.004548249
0001d0 29 84 29 3b f1 12 75 3b 5d a2 01 3c a8 c1 a4 3a
       0.0025866127 0.0037395323 0.007912246 0.0012569921
0001e0 0a ae 21 3c f8 12 b0 bb 1a 3e f2 bb e5 62 4b 3b
       0.009868154 -0.005373355 -0.007392657 0.0031034288
0001f0 22 d9 38 bc 09 2d a4 bb a2 24 f8 bb 3d b7 0b ba
       -0.011282237 -0.0050102514 -0.0075727263 -0.0005329734

linear2.weight f4 [128, 128]
000000 cc b2 20 bc 91 c4 8a 3d ed be 8a bc 1e 1f 50 3d
       -0.0098082535 0.06775773 -0.016936744 0.050810926
000010 39 9c bc 3d f6 24 a9 bd cf ff 8c 3d ab ea 6b 3c
       0.092094846 -0.08259003 0.06884729 0.014399211
000020 35 20 4a bd d3 2b 6c 3c 43 96 18 3d 08 a8 8a 3d
       -0.04934712 0.014414745 0.037252676 0.06770331
000030 32 41 24 bc 18 bf 5d bd f5 c5 8e 3d ed 7f 0d bd
       -0.010025309 -0.05413732 0.06971351 -0.034545828
000040 9d ba 28 3d 31 81 59 3b ef 61 68 3d fc 30 bf 3c
       0.041193593 0.0033188576 0.05673402 0.023338787
000050 db 4d fe 3c d0 8a 91 bd 2f e3 8d bd 56 8d 20 3d
       0.031042984 -0.071065545 -0.069280975 0.03919729
000060 08 34 b7 bd 4b 1a f0 bc 7e 88 47 3d 1a 37 6b bb
       -0.08945471 -0.029309412 0.048714153 -0.0035890997
000070 c0 af 94 3d 46 53 6b bd c4 48 80 3c 0b eb 37 bb
       0.07260084 -0.057452463 0.015659697 -0.002806368
000080 2f b5 78 bd 39 24 9a 3c bd ea 66 3d 99 99 19 3d
       -0.060719665 0.0188161 0.056376208 0.037499998
000090 ec 8c 8b bc 43 99 84 3d ac 8c 47 3c e2 9b 86 3c
       -0.01703497 0.06474545 0.012179535 0.016431753
0000a0 62 7b 52 bd 74 06 1c 3d f6 87 9e 3d 7e 3b 3c bd
       -0.0513872 0.03809209 0.07740776 -0.045955174
0000b0 57 d2 af 3c f0 66 a5 bd 54 29 22 bd 53 c3 80 bb
       0.021462603 -0.080762744 -0.039590195 -0.0039295345
0000c0 ec e9 3e bd 9d bd 34 bd 4d 74 cf bb 88 6f 23 3c
       -0.046609804 -0.04412614 -0.006331003 0.009975322
0000d0 5b 9f 22 3a f3 72 89 3c 81 58 ba 3c 7f 83 aa bd
       0.00062035554 0.016778445 0.02274728 -0.08325862
0000e0 7b 4d e0 3c e2 11 81 3d 91 8a 88 bd 3b 26 fd ba
       0.027380696 0.06302239 -0.066670544 -0.0019313762
0000f0 6a d1 80 3d 9d df 04 3d dc 59 8f 3d bf f7 c4 bc
       0.062899426 0.032439817 0.06999561 -0.024043916
000100 a5 82 fd bc 50 95 95 bd cd 1a 02 bd 76 4c 4c 3d
       -0.030946085 -0.0730387 -0.03176384 0.049877606
000110 a2 a6 7f bd 3e 75 32 3d 29 2c 34 3d 0a 34 ac bd
       -0.062414773 0.043568842 0.043987427 -0.08408363
000120 34 b8 60 bc ac 29 98 bd 60 c9 20 bd 8c 8a 7f bd
       -0.013715792 -0.07429823 -0.039254546 -0.062387988
000130 90 03 bb bc 25 91 05 3d 1c 39 0a 3d 36 fb 0b bd
       -0.022828847 0.032609124 0.03374587 -0.03417512
000140 0a 88 b0 3d 65 17 9b 3d 5b f1 8e bd 29 c1 47 bd
       0.086196974 0.075728215 -0.06979629 -0.048768196
000150 4d 75 54 3d 7e e7 86 3d 4d ed 86 bd 9a 3b 7d bd
       0.05186968 0.065871224 -0.0658823 -0.06182442
000160 9b fb 39 bc 01 68 94 3d f2 be e7 bc 8d b8 91 bd
       -0.011351491 0.072464 -0.028289292 -0.071152784
000170 16 ec 0e 3d 51 f1 29 bd 70 59 8f 3d d0 d2 e2 bc
       0.034893118 -0.041489903 0.06999481 -0.027688414
000180 ce f7 b4 bc 8c 9b de 3c 1a c7 34 bd 5e c5 b4 3c
       -0.022090819 0.02717378 -0.04413519 0.022066768
000190 dc 33 87 3d 5a d1 0d 3d 0d 0e 44 bd f0 9b 0f bd
       0.06601688 0.03462348 -0.047864962 -0.035060823
0001a0 19 a9 5b bd 14 aa 35 bd 3a 1a 2d bd 44 01 88 bd
       -0.05362806 -0.044351652 -0.04226134 -0.066408664
0001b0 df 87 5a 3d c0 52 08 bd 8c b0 4d 3d 6b f7 f0 bc
       0.053352233 -0.03328204 0.050217196 -0.029414853
0001c0 88 83 1a bd 30 ab ed bb 14 3d 06 bd 28 2f 7f bd
       -0.037723094 -0.007253073 -0.032773092 -0.06230083
0001d0 ea b2 81 3c c1 1c 05 3d 7d 31 00 3d 26 06 4e 3d
       0.015832383 0.032498125 0.031297196 0.050298832
0001e0 c2 86 82 bc 46 3f c1 bb 59 58 43 bd af d9 f3 bc
       -0.015933398 -0.0058974354 -0.047691677 -0.029766886
0001f0 48 b4 a6 3d da ae 59 3d 7d 15 83 3d 4e 0b 1f 3d
       0.08139855 0.053145267 0.06400583 0.03882914
000200 a4 ce 1e bd 14 56 7a 3c 46 0a 30 bd 2b 7e cc 3c
       -0.038771287 0.015279312 -0.042978548 0.024962505
000210 6c 5d 38 bd b4 d1 40 3d 54 c9 d4 3a 6c 09 7d bd
       -0.04501097 0.04707499 0.0016234317 -0.061776564
000220 ab 90 15 bc 98 fb 26 bd 28 14 eb 3c 6d 76 f9 3c
       -0.00912873 -0.040767282 0.028696135 0.030451978
000230 ca 7c 4c bc e6 c1 18 bc 89 ca 26 3c ec 60 86 3d
       -0.012480924 -0.009323573 0.010180124 0.06561455
000240 08 a5 99 bd 57 f0 bc bb c1 4b 89 bd b4 86 9a bd
       -0.0750218 -0.0057659554 -0.06703902 -0.07545224
000250 b1 bf 38 bc 9e 65 81 3d ac 6a e6 bb af d4 88 bd
       -0.011276172 0.0631821 -0.0070317592 -0.06681191
000260 9d 6c 58 bd fd 21 47 3d 8c 02 51 3d c6 75 b5 3c
       -0.052837957 0.048616398 0.05102782 0.022150885
000270 7b 0b c8 3d e7 78 91 bd 63 e1 97 bb 90 a3 f7 bc
       0.09767815 -0.071031384 -0.0046350225 -0.03022936
000280 9e 9d 11 3d fd cb 8a 3c bb b0 6b 3b de f0 ab bd
       0.035550706 0.016942972 0.0035963494 -0.08395551
000290 e7 a3 a6 bd 59 cd 7a 3d 71 0b 99 3c c1 6b 26 bd
       -0.08136731 0.06123099 0.018682214 -0.040630106
0002a0 74 d5 d5 3c c6 80 10 3d 52 43 42 3c 11 9c b3 bc
       0.026102759 0.035279058 0.011856871 -0.021925004
0002b0 b0 2d 96 bd 5c b3 1d bd 67 6d 74 3d 0e 67 a7 bd
       -0.07332933 -0.03850113 0.059674647 -0.08173953
0002c0 b7 33 96 3d 43 4d ad bd e7 7d 91 3c d5 04 ec bb
       0.073340826 -0.08462002 0.01776023 -0.0072027245
0002d0 bc da 19 bd 8d cb 11 bc ec f1 c7 3c a4 86 88 3c
       -0.037562117 -0.008898628 0.02440735 0.016665764
0002e0 67 37 7c 3d 3a 31 fd 3c e7 fd dc 3b 72 a1 45 bd
       0.061576273 0.030907262 0.0067441347 -0.04824967
0002f0 43 76 de 3a 7f 8a 86 bd 66 cf d1 3c 64 0b 44 3c
       0.0016972501 -0.06569385 0.02561159 0.011965606
000300 ef 3a c2 b8 d7 90 ba bd 29 ae 40 bd 3d c1 80 bd
       -9.261618e-05 -0.09109657 -0.047041092 -0.06286857
000310 cf 84 43 bd a6 e1 05 bd 74 a0 a9 bc ef cc 5d 3c
       -0.047734078 -0.0326859 -0.020706393 0.0135376295
000320 72 f0 9d bd c6 14 87 3d 3a ed 95 bd 41 1b ae bc
       -0.07711877 0.06595759 -0.07320638 -0.02125323
000330 d6 06 8a 3d 87 a5 3b 3d 61 f7 0f bd f1 02 2c 3d
       0.06739585 0.045812156 -0.03514803 0.041994993
000340 82 31 0d 3b ca 37 18 bd 28 71 29 bc d2 86 3d bd
       0.0021544402 -0.03716258 -0.01034192 -0.046271153
000350 30 c2 44 bd 9f c8 02 bd de d7 54 3d 46 03 75 3c
       -0.048036754 -0.03192961 0.05196368 0.014954394
000360 79 1e a2 3d c5 30 5b bd bb a3 a0 3a 54 62 a1 3d
       0.079159684 -0.053513307 0.0012255827 0.07880083
000370 dd ee 63 bd 73 d0 91 bd e8 54 6a 3d 84 f9 ab bc
       -0.05564772 -0.07119837 0.05720988 -0.020993002
000380 5c f8 80 bc df 4e bf 3d 6b 98 96 39 79 ea ec 3c
       -0.015743427 0.09341215 0.0002872379 0.028920399
000390 bc 14 f2 3a d8 3d f8 bc 94 9a 38 bd c5 52 5f bd
       0.0018469314 -0.030302927 -0.045069292 -0.054522295
0003a0 7a 03 c7 3c 4e 33 2d 3d 7f 3e b4 bd 02 db 9c bd
       0.02429365 0.042285256 -0.08800983 -0.0765896
0003b0 41 ff 43 3c 3a 4f 07 3d 75 72 3e bd 9f cb 7d bd
       0.011962713 0.03303454 -0.046495873 -0.061961766
0003c0 14 2a 2b 3d 47 c2 5a bb 91 eb 4d bd 60 58 0e bb
       0.041788176 -0.0033379958 -0.05027348 -0.0021720156
0003d0 de 08 8e bd 58 be a5 3d d2 c9 a0 3d 06 fd 65 bd
       -0.06935285 0.08092946 0.07850994 -0.056149505
0003e0 bd 88 c2 3c ae 39 2c bc 63 a5 47 bd f0 de 8d bc
       0.023746843 -0.010511799 -0.04874171 -0.017318219
0003f0 45 f1 01 bd 66 63 9a 3c 85 c0 7a bd 50 a4 aa bd
       -0.031724233 0.018846225 -0.061218757 -0.08332121

linear2.bias f4 [128]
000000 20 f3 a4 3d e7 cd c9 3a 35 e2 fe bc 35 31 3e 3d
       0.08054185 0.0015396447 -0.031113723 0.046433646
000010 77 4d a6 3d ca 6e 96 bc d2 f0 b3 3b 2c 5f 81 bd
       0.08120244 -0.018363375 0.0054913545 -0.06316981
000020 68 bf 9a 3c 26 fd 70 bd 4a a0 d7 bc c8 23 52 bc
       0.018890098 -0.05883517 -0.026321549 -0.012825914
000030 ad b5 ab 3d 51 15 93 3d 50 9d e1 bc a0 93 25 3d
       0.08384261 0.071818 -0.027540833 0.04042399
000040 aa ee b0 3d 31 9a a7 3d 4f 41 b2 3d 4a 78 24 3d
       0.086392716 0.081837066 0.08703863 0.04015378
000050 30 d8 8e bd 9f e3 a6 3c 1c 40 e5 bc 5d 71 2f bd
       -0.06974828 0.02037221 -0.027984671 -0.04283272
000060 ff 52 90 3d 3f fb 41 3d c6 c4 7b bd 7f 5f 32 3c
       0.0704708 0.047358748 -0.061466955 0.010887026
000070 28 80 7d 3d ce ef 81 bd 3d 13 63 bd 60 57 6f 3d
       0.061889797 -0.06344567 -0.05543827 0.058432937
000080 ea 57 88 bd e1 7f 96 bd eb 8c a6 3d 8d 11 85 3d
       -0.06657393 -0.0734861 0.08132347 0.06497488
000090 26 68 40 3d 45 e3 97 bd f5 b4 71 3d 5d 2d ff bc
       0.046974324 -0.07416395 0.059010465 -0.03114956
0000a0 d6 e8 5a bc 71 71 63 bd 41 5c 25 3d e6 5e dc bc
       -0.0133611765 -0.055528108 0.040371183 -0.02690072
0000b0 ce 65 04 3d e3 5e 03 bd 56 02 c3 bb c7 15 a8 bd
       0.03232365 -0.032072913 -0.005951206 -0.08207279
0000c0 9b 23 11 bd a4 cc 3b 3d 50 95 13 bd 14 5a a1 3c
       -0.035434347 0.045849457 -0.036031067 0.019696273
0000d0 0a c9 af 3d 28 b8 86 bd 1a f7 8f 3d 16 af 11 3d
       0.08583267 -0.06578094 0.07029553 0.035567366
0000e0 9e 38 9d 3c a0 25 b3 bd ff cb 92 bd ec ee 01 3d
       0.019192036 -0.08747411 -0.071678154 0.031721994
0000f0 23 bb 87 bd 76 eb 67 bc 21 f6 34 3d c7 e0 04 3d
       -0.0662749 -0.014155259 0.04418004 0.032440927
000100 cd c1 27 3d a5 09 46 3d 26 79 84 3d 95 ff e3 bc
       0.040956307 0.04834904 0.0646842 -0.027831832
000110 46 ed 5f 3d 8a c6 d0 3c 9e 78 fd bc c7 53 a3 3d
       0.05466964 0.025485296 -0.030941304 0.07974964
000120 96 c5 c0 bc 01 91 47 bd 8b e7 7d 3d 46 d4 61 3d
       -0.023531716 -0.04872227 0.061988395 0.05513408
000130 c9 6c 4f 3d 31 f2 77 bd c5 fb a9 bd 2a 06 be 3b
       0.050640855 -0.060533706 -0.08299974 0.0057990747
000140 36 f1 57 bc 57 1f 00 3d 1d d5 94 3c 0a 7b dd 3c
       -0.013180068 0.031279888 0.018168027 0.027036209
000150 d6 12 ad 3c a9 03 a6 3d ef 15 14 bd cd a8 61 bd
       0.021127146 0.08106167 -0.03615373 -0.05509262
000160 cd 4a 7b bd d6 37 03 3d e9 4d 3f 3d 25 2c 45 bd
       -0.061350632 0.03203567 0.04670516 -0.048137803
000170 63 a2 9a 3d 63 e1 81 3b 55 8f 1a 3d e2 4a 05 bd
       0.07550504 0.003963636 0.03773435 -0.032542117
000180 aa 8a 03 3d 24 49 8b 3d 14 d4 2c 3c 17 4e 93 3c
       0.032114662 0.0680106 0.01054861 0.017981572
000190 fd de 2e 3c b5 36 db bb af 7f 67 3d f8 e3 9e 3d
       0.010673282 -0.006689871 0.056518253 0.07758325
0001a0 27 c2 8f 3d 8b 3c 52 bd ab 27 a1 3d 65 6e 39 3d
       0.070194535 -0.05132727 0.07868894 0.045271296
0001b0 d1 a9 54 3c 1f ee 10 ba 27 05 98 3d 02 cd 61 3d
       0.0129799405 -0.0005528647 0.07422858 0.05512715
0001c0 0a 37 37 3c c4 90 5c bd c8 2d 8c bd 6b 8b 36 3d
       0.011182556 -0.053848997 -0.068446696 0.044566553
0001d0 84 70 9b bd e6 ee 1b bd 29 0f 2b bd 1b 4d f2 3a
       -0.0758982 -0.03806963 -0.041762505 0.0018486114
0001e0 19 47 54 3c bb 75 9e bd 48 a1 09 bd b3 39 82 3d
       0.012956404 -0.07737299 -0.033601075 0.063586615
0001f0 32 53 83 bb 77 25 a1 ba 98 9a 3d 3d a0 89 9d 3d
       -0.0040077204 -0.0012294491 0.04629001 0.076922655

norm2.weight f4 [128]
000000 99 a0 7d 3f 1d 96 83 3f 29 9a 80 3f 66 f1 80 3f
       0.9907318 1.0280186 1.0047046 1.0073669
000010 8e ef 80 3f d9 4f 7c 3f ac 42 80 3f 0c cb 7f 3f
       1.0073106 0.9855934 1.0020347 0.999192
000020 79 60 81 3f 87 fc 7c 3f fe 10 82 3f 31 b9 80 3f
       1.0107566 0.98822826 1.0161436 1.0056516
000030 ea fd 7c 3f ed b4 7a 3f b2 05 7d 3f b8 30 7d 3f
       0.9882494 0.9793232 0.98836815 0.98902464
000040 36 c0 7e 3f 29 5e 7f 3f 01 c4 7c 3f c4 64 7c 3f
       0.9951204 0.9975305 0.9873658 0.98591256
000050 71 0f 7b 3f 77 4b 80 3f 84 28 7f 3f fb 75 81 3f
       0.98070437 1.002303 0.99671197 1.011413
000060 5f 68 7f 3f 29 59 81 3f 7d 15 80 3f 10 90 80 3f
       0.9976863 1.0105335 1.0006558 1.0043964
000070 40 04 80 3f f5 ee 7f 3f c5 c6 7c 3f 52 7a 7f 3f
       1.0001297 0.99973994 0.987408 0.9979602
000080 db 00 80 3f ad a0 7f 3f bc 1f 7e 3f b5 e8 7e 3f
       1.0000261 0.99854547 0.9926717 0.9957383
000090 a2 eb 7f 3f fd ad 80 3f 14 9a 80 3f 18 5d 81 3f
       0.9996892 1.0053097 1.0047021 1.0106535
0000a0 e5 89 7f 3f 4c ae 80 3f f3 91 7d 3f f8 1b 80 3f
       0.99819785 1.0053191 0.99050826 1.0008535
0000b0 7f e6 80 3f b3 89 7f 3f 0b 67 7b 3f a6 0b 81 3f
       1.0070342 0.9981949 0.98204106 1.008168
0000c0 02 21 79 3f 39 31 81 3f d2 71 81 3f 8b 53 81 3f
       0.9731599 1.0093147 1.011286 1.010362
0000d0 ed 8e 80 3f 89 04 7e 3f 0a 91 82 3f 68 a7 7e 3f
       1.0043617 0.9922567 1.0200512 0.9947419
0000e0 7b f9 80 3f 3d 7c 80 3f 9d 98 7d 3f 1a 57 80 3f
       1.0076135 1.0037915 0.99060994 1.0026581
0000f0 8c 17 81 3f 1a 55 7d 3f ef 1b 81 3f 71 03 80 3f
       1.0085311 0.9895798 1.008665 1.000105
000100 2c a6 7d 3f 3f 07 7b 3f 0a 0e 7e 3f cd ee 7d 3f
       0.99081683 0.9805793 0.9924017 0.99192506
000110 32 f2 7c 3f 6f f7 7d 3f 04 99 7f 3f f2 27 81 3f
       0.9880706 0.9920568 0.9984286 1.0090315
000120 fb 72 7e 3f d2 c4 83 3f a9 45 80 3f 36 95 81 3f
       0.99394196 1.029444 1.0021259 1.012366
000130 e5 fe 80 3f f7 17 83 3f 0f 4d 7f 3f 88 53 7e 3f
       1.0077788 1.0241688 0.9972696 0.9934621
000140 06 b5 80 3f a4 ab 7c 3f c3 27 7e 3f b8 fb 7a 3f
       1.0055244 0.986994 0.9927942 0.9804034
000150 62 8d 7e 3f 05 58 7d 3f 40 58 80 3f 80 f9 7c 3f
       0.99434483 0.9896243 1.0026932 0.98818207
000160 3c 47 80 3f 77 3e 80 3f 5c dc 80 3f f2 c2 7d 3f
       1.0021739 1.0019063 1.0067248 0.9912559
000170 c4 67 7d 3f 38 b1 7e 3f d0 d1 7f 3f bd 48 7f 3f
       0.9898646 0.99489164 0.99929523 0.99720365
000180 91 6c 81 3f 8c 77 7d 3f 10 d8 80 3f f9 16 80 3f
       1.0111257 0.9901054 1.0065937 1.0007011
000190 b2 2d 7e 3f b7 0b 7d 3f 4e 7b 80 3f 18 5d 80 3f
       0.99288476 0.98846 1.003763 1.002841
0001a0 90 91 7d 3f f5 4b 81 3f f5 02 7d 3f 16 ea 7b 3f
       0.99050236 1.0101305 0.9883264 0.9840406
0001b0 6e bf 7c 3f 73 4a 80 3f e7 3b 7d 3f 91 6a 7d 3f
       0.987296 1.002272 0.9891953 0.9899073
0001c0 62 0d 7d 3f ab 6b 7e 3f 50 d4 7e 3f cf b5 80 3f
       0.98848546 0.9938304 0.99542713 1.0055484
0001d0 cd 99 7e 3f 18 d4 7f 3f ae 59 7d 3f 7f 79 7c 3f
       0.9945343 0.99933004 0.98964965 0.9862289
0001e0 5f 70 7e 3f 98 d0 80 3f 3e 17 7e 3f a4 f2 80 3f
       0.99390215 1.0063658 0.99254215 1.0074048
0001f0 f4 38 7e 3f bc b9 80 3f 54 78 80 3f 29 e2 7e 3f
       0.99305654 1.0056682 1.0036721 0.99563843

norm2.bias f4 [128]
000000 b1 eb 24 b8 f4 8a 29 3b 02 26 4d 3a 6d 7d 61 3b
       -3.932015e-05 0.0025870176 0.0007825793 0.0034407035
000010 f9 ad c3 3b de 3a 40 bc 3b de 9f bb 30 a1 b6 bb
       0.005971667 -0.011732785 -0.004878787 -0.0055734143
000020 f5 95 d7 3b 42 fb b3 bb bd 32 ae 3b 0f 2a e8 bb
       0.0065791556 -0.0054925987 0.005316107 -0.007085092
000030 72 58 30 3b c0 ed f2 ba 00 0c f6 3b bc 30 18 bc
       0.0026908186 -0.001853399 0.0075087547 -0.009288963
000040 7c d6 c8 bb 1e 6c ee bb bb 6e 84 3b 02 a0 c9 bb
       -0.006129084 -0.007276072 0.0040415204 -0.0061531076
000050 86 f8 c9 3a 4c bb ac 3a 4e 39 9d bb 2e f6 4f 3c
       0.0015409149 0.0013178377 -0.004798091 0.012692971
000060 01 1b e6 3b 6b 25 b3 3b e9 82 68 bb d7 23 dd 3b
       0.007022262 0.005467107 -0.003547842 0.006748657
000070 e0 05 e9 bb 77 10 b0 3b a6 5c 1f 3b a6 0f d5 bb
       -0.007111296 0.0053730565 0.0024316697 -0.0065021096
000080 6d 34 84 3b b1 01 c8 ba e8 9a 06 bb 47 87 c1 3a
       0.00403457 -0.0015259293 -0.0020539109 0.0014765047
000090 15 d9 11 b9 f9 15 a4 3b cc 6c 28 bb 56 7e 78 3b
       -0.00013909147 0.005007502 -0.0025699614 0.00379171
0000a0 b5 37 4c 3b 06 ff 51 bb 34 ff 8a 3b 2f ff 97 38
       0.0031161134 -0.0032042875 0.0042418484 7.247773e-05
0000b0 6a 63 97 bb 81 10 07 bb a0 8c ac 3b 6c 41 11 bc
       -0.0046200054 -0.0020609202 0.0052657872 -0.008865695
0000c0 56 df d2 ba 8e 13 d3 ba 24 44 27 3a af 2a 44 bb
       -0.0016088288 -0.001610385 0.0006380698 -0.0029932668
0000d0 ef a2 93 3b ee 69 ab bb 9e 11 a6 3a 6a cf 0d 3c
       0.004505507 -0.0052311337 0.0012670045 0.008655408
0000e0 66 9a 15 bb bc 61 f2 ba a5 fb 4c 3b ce f5 f4 ba
       -0.0022827624 -0.0018492262 0.0031277922 -0.0018688978
0000f0 9e ab 47 bb 26 fa 6b 3b 66 ae 53 ba 70 7f be 3b
       -0.0030467282 0.0036007254 -0.00080749986 0.0058135316
000100 60 40 cf 3a a4 d7 2d 3c 9d c7 08 ba f0 e4 ce 3b
       0.0015812032 0.010610495 -0.0005217733 0.0063139126
000110 a9 79 78 bb 42 2f c3 3a c1 3b 37 bb e7 8f 41 3b
       -0.0037914312 0.0014891403 -0.00279592 0.0029535235
000120 d6 d3 1f bb dd 38 d0 bb 13 b6 74 bb 24 4e 8f 3a
       -0.0024387739 -0.006354435 -0.003733997 0.0010933322
000130 4d 41 00 bc a4 f3 39 bb 80 cf 65 3b d3 91 96 bb
       -0.007828069 -0.002837398 0.0035066307 -0.0045950203
000140 b7 bc 88 bb e7 f8 4e 3b 75 58 95 bb 8d 61 e1 3a
       -0.004172887 0.0031581463 -0.004557664 0.001719521
000150 b0 ce 3b 3b a3 7a f3 3a bd 5e 89 3b 17 69 62 3b
       0.002865713 0.0018575977 0.004192202 0.0034547502
000160 fc 41 8c bb 95 ad 11 3c 61 0d bd 3b a5 e9 bf 3b
       -0.004280327 0.008891483 0.005769417 0.00585671
000170 01 94 83 bb 52 d4 dc bb 01 2f 25 3b 71 ea 23 3c
       -0.004015446 -0.0067391777 0.0025205018 0.010004626
000180 47 2d f9 3b 83 e8 cc 3b 7b 9f 9e 3b dc db 60 3c
       0.0076042744 0.0062533035 0.004840789 0.013724294
000190 d0 06 21 bb 34 4d 3c bc 4a d2 a0 bb 22 91 bc bb
       -0.002457071 -0.011493016 -0.004907881 -0.005754606
0001a0 ee 21 92 3a a2 ef 12 3c 01 6b 83 3b 5a bc d7 ba
       0.0011149028 0.008968266 0.0040105586 -0.0016459331
0001b0 24 10 b5 bb 52 27 41 3b 56 bd 9b 3a ba 11 b9 bb
       -0.0055256058 0.00294729 0.0011881988 -0.005647865
0001c0 18 44 47 bb bd a9 f7 3b ba 77 a9 3b 9e f5 0d bb
       -0.0030405577 0.007558076 0.005171743 -0.0021661292
0001d0 db 8b e2 3b a6 75 bf 3b b8 6d 1d bb d3 e1 a2 3b
       0.0069136447 0.005842882 -0.0024021696 0.004970768
0001e0 16 87 22 3c a9 de ce bb 5e 79 e6 3b 5d 01 dc 3a
       0.009919902 -0.0063131643 0.007033511 0.0016785074
0001f0 12 c0 c5 bb 0a 92 9f 3b 4b 89 0c 3c 48 56 49 3b
       -0.0060348595 0.004869704 0.008577655 0.0030721594

linear3.weight f4 [48, 128]
000000 b7 7f 95 bc ae 55 f5 bc d3 a4 e6 3c 3b 1f a8 3d
       -0.018249376 -0.029948082 0.028154766 0.08209082
000010 7d aa 5b bc d6 b2 8e bd 3f dd 0c bc 74 42 af bd
       -0.013407347 -0.06967704 -0.008597671 -0.08557597
000020 a2 a9 7e bd 1e 8c 58 bc f9 ff 4a bd 32 47 04 3d
       -0.062173493 -0.013217 -0.04956052 0.03229446
000030 5e 82 41 b9 ac 5b 5e bd d2 c3 25 bc 33 d6 a6 bd
       -0.0001845448 -0.054286644 -0.010117488 -0.08146324
000040 a3 1c bb 3b 6d df 5a bd 76 8d a4 3c f4 10 53 3c
       0.005710201 -0.05343573 0.020086985 0.01288246
000050 78 83 ab bd f4 51 4e 3c 2b 76 a4 bd 3c 4d 63 3d
       -0.08374685 0.012592781 -0.08030351 0.05549358
000060 9b 77 c3 3d d7 a3 21 bd 1a a7 65 3d 36 ef 9a bc
       0.09544297 -0.03946289 0.056067564 -0.018912893
000070 e4 bf 9b bd 7e 79 88 3c 46 0d ee 3c 01 7c aa bd
       -0.076049596 0.016659494 0.029059064 -0.08324433
000080 fe 21 98 bd 02 2d 6b 3d 9f 39 2d bc 82 37 84 3d
       -0.074283585 0.05741597 -0.01057282 0.064559
000090 26 16 01 3c ec 34 21 3d c3 9e 67 bd 82 8a c1 3b
       0.007878816 0.03935711 -0.05654789 0.005906404
0000a0 31 ed 58 3d 09 27 2e bc 3d a6 04 3d 32 db 49 bc
       0.05296058 -0.010629424 0.0323851 -0.012320327
0000b0 cd 30 64 bd 09 8c 73 bd e6 fd 59 3d f5 b3 c3 3c
       -0.055710603 -0.05945972 0.053220652 0.023889521
0000c0 ff 12 55 bd 5b db 30 bd 44 68 7d 3d 1a c0 8c bd
       -0.05202007 -0.043177944 0.061867014 -0.06872578
0000d0 37 76 1f 3d 75 b0 c7 ba 21 46 aa 3d 94 83 f2 3c
       0.038931098 -0.0015235083 0.08314157 0.029603757
0000e0 14 80 7a bc df a4 d5 3c 7b 71 ea 3c 44 02 91 bd
       -0.015289325 0.026079593 0.028618565 -0.0708051
0000f0 8a 0f 18 3d 60 0a d2 3c ac 1d 1c 3d 2d 2a a5 3d
       0.037124194 0.025639713 0.038114235 0.08064685
000100 ee c2 f8 bc d6 08 60 3d c2 fc 6d 3c 63 16 b1 3d
       -0.030366387 0.054695927 0.014525594 0.08646848
000110 e5 e2 75 bd a5 40 2f 3d d1 30 57 3d d9 cf 5b bc
       -0.060030837 0.04278626 0.05253679 -0.013416254
000120 93 36 44 bb 1d ae 7b 3d de 8a 55 3d 5c 9f 7d 3b
       -0.0029939755 0.061445344 0.052134387 0.0038699722
000130 68 71 4e bb b5 30 12 bd 11 62 8c 3d f8 5c 09 bd
       -0.00315007 -0.035690982 0.06854642 -0.033535928
000140 a6 56 96 3a ae 36 b9 3d ae 81 af bd 86 6c 66 bc
       0.0011469915 0.090436324 -0.08569656 -0.01406396
000150 cd 4c aa bb a5 5d 86 bd 4d 21 92 3d b8 19 c4 3c
       -0.0051971436 -0.0656083 0.07135258 0.023938045
000160 9d 19 de ba 6f d5 56 bc 85 2e 01 bc d1 00 85 3d
       -0.0016944889 -0.01311241 -0.007884626 0.06494296
000170 9d a1 a0 bd d0 e0 c6 3a ac 75 ad bd e7 2c 67 bd
       -0.07843325 0.00151732 -0.0846971 -0.056439307
000180 16 a5 4f 3c b1 d0 55 3d ac 8d 71 3d 7e a6 47 bc
       0.012673637 0.052200977 0.058973 -0.012185691
000190 6f 0e 6e ba 02 08 59 bd 6e d1 12 3d ce bb 24 bd
       -0.000908113 -0.052986152 0.03584426 -0.040218167
0001a0 eb f8 b0 bc 9c 23 00 bc 27 3d 94 3d ec a8 82 bd
       -0.021603068 -0.00782099 0.072382264 -0.063798755
0001b0 17 10 62 39 96 2f 54 bd b3 fe 99 3d 8c 57 e7 3c
       0.00021559033 -0.051803194 0.07519283 0.028239988
0001c0 66 e2 6d 3d 11 08 9d 3d 9d 26 0d bd f5 b9 f9 3c
       0.05807724 0.07667554 -0.034460653 0.030484179
0001d0 8f 5c c8 bb 4d 17 5c 3c ea c6 b4 bd 9b cc 94 bd
       -0.0061145495 0.01343329 -0.08827002 -0.07265588
0001e0 74 e9 5d 3b 34 a3 6c 3d 7d 40 1b bd 80 c8 0f 3d
       0.0033861073 0.05777283 -0.037903298 0.03510332
0001f0 be 9d 1e 3d c3 a9 99 3d 91 d9 0e 3d 55 3b 71 3c
       0.038724653 0.075030826 0.034875456 0.0147236185
000200 05 e5 56 bc 34 92 1e 3d 9a f1 11 3c d0 c4 bf 3d
       -0.013116126 0.03871365 0.0089077 0.09363711
000210 e7 43 3b 3d 7f 93 97 bd 2f 5f 2f bd e9 f3 2b 3d
       0.045719054 -0.074011795 -0.042815384 0.041980658
000220 e9 88 b3 bd 50 ed 97 bd b2 96 ad bd 7a f6 4f 3d
       -0.08766348 -0.07418311 -0.084760085 0.050772168
000230 b5 f7 8a 3d 63 d5 dd bc 14 b6 d0 3c b2 b7 83 bd
       0.067855276 -0.02707929 0.025477447 -0.064315215
000240 c8 d2 ce bc 13 b0 17 3d a7 d2 4b 3d 71 21 4f 3c
       -0.025246993 0.03703315 0.04976144 0.01264225
000250 ed e4 ec 3c b9 02 d7 bc bf 97 1f bd d4 c0 fe 3c
       0.028917754 -0.026246415 -0.038963076 0.031097807
000260 40 95 0a 3c 15 8e a3 3d 1d ba 02 bd 64 cc 31 3c
       0.008458436 0.07986084 -0.031915773 0.010851953
000270 17 f8 1e 3d e2 32 a1 3d 22 13 ad bd e2 b7 a5 3d
       0.038810816 0.07871033 -0.08450915 0.080917135
000280 92 b0 c0 bc c8 a0 24 3d 57 d7 65 bc 5f 8c 89 bd
       -0.023521695 0.040192395 -0.014028392 -0.06716227
000290 9a 0c 50 bd cb 4b 93 3b 11 13 09 3d 3b b8 07 3d
       -0.050793268 0.004495119 0.03346545 0.03313468
0002a0 a3 ca 7b bc 42 4f 2a 3d 86 18 0a 3d 35 6f 40 3d
       -0.015368137 0.041579492 0.033714794 0.046981055
0002b0 a6 5e 97 3d 82 31 74 bd 31 3d 9e 3d 86 b3 96 3d
       0.073911 -0.059617527 0.07726515 0.0735846
0002c0 ca 11 f2 bc fc 79 61 bd 46 52 78 3d 4b 6b 32 bd
       -0.029549498 -0.055047974 0.060625337 -0.043559354
0002d0 e9 90 ad 3d 7d f2 2a 3c c6 79 28 bc ec 7d 44 ba
       0.08474905 0.01043379 -0.010282939 -0.00074955705
0002e0 04 0b d9 bc 55 01 2e bd 4b 8f 57 bd 88 5e b2 bb
       -0.02649451 -0.04248174 -0.05262689 -0.005443398
0002f0 31 f8 d5 bc 87 a5 21 bd dc ff c5 3d 32 ae 6d 3d
       -0.026119323 -0.0394645 0.09667942 0.058027454
000300 2d 77 e3 bc bd b0 ac 3d 81 ce 91 3c 7c 5c a2 bd
       -0.027766788 0.08432148 0.017798664 -0.07927796
000310 39 f8 b1 3d 19 82 93 3d 34 c8 f5 3a 69 e5 1d bc
       0.08689923 0.072025485 0.0018751682 -0.009637215
000320 10 f4 86 3d 15 38 59 3d c6 1e 2e bc bc 3d 91 3d
       0.0658952 0.053032 -0.010627454 0.07091853
000330 e2 a7 81 bd 89 40 7a bd 99 35 68 3b 3c 30 b9 3c
       -0.06330849 -0.0610967 0.0035432337 0.022606008
000340 56 7d 84 bd 20 7a d3 bc b3 2c 8c bd b1 f5 25 3d
       -0.064692184 -0.02581507 -0.06844463 0.040517513
000350 f0 25 31 bd 9c 99 3e 3d df e3 6e ba 49 50 3d bc
       -0.04324907 0.046533212 -0.0009112935 -0.011554786
000360 71 5e 63 bb 04 2b dc 3c c1 2d 2b 3d 6d dc dc 3b
       -0.0034693743 0.02687598 0.04179168 0.006740144
000370 41 5f 33 bc 20 02 24 3d f7 e8 8d 3d 76 17 a1 3d
       -0.010948003 0.04004109 0.069292 0.07865803
000380 3f 59 59 bc ac 6a f0 bc c0 0e a0 bc e3 3f 78 3d
       -0.013265907 -0.02934774 -0.019538283 0.060607802
000390 41 56 a4 3d 40 27 98 3d 62 a0 27 bc 07 ba 73 3d
       0.08024264 0.07429361 -0.010231109 0.05950358
0003a0 2c 73 37 bc 13 c4 c6 3d 32 1c d7 3c c7 7a b7 bd
       -0.011196893 0.09705367 0.026258562 -0.08958965
0003b0 a2 c0 ad bd 53 a4 b5 bb e5 0e 3c 3d 4e 59 42 bc
       -0.084840074 -0.0055432706 0.045912642 -0.011862112
0003c0 49 68 9a bd b0 62 4d 3d 35 58 06 bd c5 5c f3 3c
       -0.07539422 0.050142944 -0.032798965 0.029707322
0003d0 ff d1 43 3c a7 01 b8 3c 58 a2 e3 3c 64 17 15 bd
       0.011951922 0.022461725 0.027787372 -0.03639926
0003e0 93 59 1c 3d 9f 28 af bd 5d 48 52 3d 1e d1 91 bd
       0.038171362 -0.0855267 0.051338542 -0.07119964
0003f0 cf b6 b2 bd 7d 23 ab bd 22 85 85 3c 68 3d 5a 3c
       -0.08726274 -0.08356378 0.016298834 0.013320304

linear3.bias f4 [48]
000000 d7 05 25 bd 37 67 aa bc 2c ab 87 bd 09 19 b2 bd
       -0.040288772 -0.02080117 -0.06624445 -0.08696181
000010 4b 85 a3 3d d8 a7 3c 3d e2 68 e8 3c 26 63 83 3d
       0.07984408 0.046058506 0.028370325 0.064153954
000020 c1 cc 6e bb 7c e4 a8 3c 29 49 90 3c ca 74 6d 3c
       -0.003643796 0.020616762 0.01761301 0.014493177
000030 4f bc 44 3c 5a df 24 bd 29 9d fe bc e6 6b 95 3d
       0.012007787 -0.040252067 -0.0310808 0.072959706
000040 b9 26 8b bd 8f b1 76 3d 1f 56 1d 3d 8f e0 82 3d
       -0.06794495 0.060227927 0.03841221 0.063904874
000050 f7 a7 88 3d ac 87 a0 bd df 10 1c bd e6 19 8f 3d
       0.06672662 -0.07838377 -0.038102027 0.069873616
000060 31 4b 6d 3d 30 b3 20 bd c9 cb 13 3d 6f dd 69 3d
       0.057933036 -0.039233387 0.036083017 0.05709594
000070 6c 1e 26 3d 04 b1 c6 bc 89 de 91 3d c2 bf 1c bd
       0.040556356 -0.02425433 0.07122523 -0.038268812
000080 98 2f 12 bd 2b 54 a5 bd c3 61 ce bc b3 85 7c bd
       -0.03568992 -0.080726944 -0.0251931 -0.061650943
000090 4b e7 b1 bc 3e 56 5b 3d ec dc ae 3d a1 5f 86 bd
       -0.021716734 0.053549044 0.08538231 -0.065612085
0000a0 68 25 38 3d 78 30 11 3d f2 92 85 bd a4 7e 08 3d
       0.04495755 0.035446614 -0.06522168 0.0333239
0000b0 c7 73 40 bd 62 41 80 3c 96 21 af 3c a7 6f 12 3c
       -0.046985414 0.015656177 0.02137832 0.008937753
