第二章-回归模型/model_weight/mlp_tanh.pth (torch, 143585 bytes, 6 tensors)

linear1.weight f4 [128, 96]
000000 03 f3 5e bc 31 f2 e9 3c f9 ea 2b bd 0b e7 8f 3d
       -0.013607743 0.028557869 -0.041972134 0.0702649
000010 15 b3 c5 3d 04 54 81 bd 7e e7 c5 3d d9 e9 f5 3c
       0.09653298 -0.06314853 0.09663294 0.030018734
000020 3a 20 a3 3d b6 c4 bc 3c 45 cf 5b 3d af 86 14 bb
       0.07965131 0.023043018 0.053664465 -0.0022663285
000030 55 44 ac 3d b4 7b e4 3c ed 90 2f bd 74 cf 2a 3d
       0.08411471 0.027891017 -0.04286282 0.04170175
000040 91 ff 2d bd dc 7e 51 3b ad 00 18 bd c0 ae a7 3d
       -0.042480055 0.0031966483 -0.03711002 0.08187628
000050 56 0a 9c bd 61 bc 02 bd 17 0c bd bc 24 39 4a bd
       -0.07619159 -0.031917933 -0.023077054 -0.0493709
000060 c0 79 59 3c e4 5e b3 bd cc 8d c8 3d 22 0a 9b bd
       0.013273656 -0.08758333 0.097926706 -0.07570292
000070 d0 f9 b1 3d 30 4b de 3c 7f ed c4 bc e9 fa 92 3d
       0.08690226 0.027135462 -0.024039028 0.071767636
000080 54 35 cb 3c 69 da b9 3d cc 8b af 3c 6e ac bc bc
       0.024805702 0.090748616 0.021428965 -0.02303144
000090 62 53 14 3d 93 64 7d bc 4d 8e 4f 3d 21 11 d0 3d
       0.036212333 -0.015465873 0.050672818 0.10159517
0000a0 4f da 83 3d 2a 3d 0d bd 97 20 85 3d 66 b5 b9 3c
       0.064381234 -0.03448216 0.06500357 0.022669505
0000b0 1a 40 68 3d a7 84 70 bd 58 84 c5 bd 41 d6 1f bd
       0.056701757 -0.058720257 -0.09644383 -0.039022688
0000c0 c3 56 98 bd b3 96 a9 3d 88 7c 0d 3d 20 8b 30 3d
       -0.074384235 0.08280697 0.03454259 0.04310143
0000d0 90 2d 27 3d ac fb 09 bb af 2a b2 3d ef 2a 99 bd
       0.040814936 -0.002105455 0.086995475 -0.07478892
0000e0 ee a2 65 3c 37 ff 99 bd 47 e3 24 3d ee d8 2a bd
       0.014015896 -0.075193815 0.04025581 -0.041710787
0000f0 b3 b7 24 3d 8a 12 e3 bc 0a 79 bc 3d 64 64 8a bd
       0.04021425 -0.027718801 0.09202774 -0.06757429
000100 b6 d5 57 bd b8 5d 8d bd 68 e6 ce 3d 99 96 b7 3c
       -0.052694045 -0.06902641 0.1010254 0.022410678
000110 9b 66 e1 3d 40 f0 c7 bd 74 e3 b5 bd 96 90 c2 bd
       0.110058986 -0.09762621 -0.08881274 -0.09500234
000120 95 41 6a bd 7f 1c bb 3c 3a 89 46 3d 0b 0c 87 3d
       -0.05719145 0.022840736 0.048470713 0.06594094
000130 bb 17 29 bd 8f 6f b5 bd 3e 7e 86 3d d9 f4 75 bd
       -0.041282397 -0.08859169 0.065670475 -0.060047958
000140 df 1b 97 3d e4 3d 2d bd b7 8d 93 3d 51 b5 cb bd
       0.07378363 -0.04229535 0.07204764 -0.09946693
000150 0f af 1d bd d5 cb 2b 3c d2 b0 10 3d d6 db 40 bd
       -0.038497027 0.010485609 0.03532488 -0.047084652
000160 95 f3 9a 3d cb 88 4b 3d 57 48 70 bd cc cf 99 bd
       0.07565991 0.049691003 -0.05866274 -0.07510337
000170 0f b9 e1 3d 0b ed 6b bd 7b d1 9b bc f0 28 01 be
       0.11021625 -0.05759911 -0.019020787 -0.12613273
000180 39 b7 64 bd 22 39 64 3d 8a 7e 28 bc 72 c3 1b bd
       -0.055838797 0.05571855 -0.0102840755 -0.038028188
000190 59 4e c1 3b ea c3 03 bd e3 a3 a8 bd eb 54 ae bc
       0.0058992323 -0.03216926 -0.08234384 -0.021280726
0001a0 6d c6 b6 bd 02 f3 01 bd c1 bc d2 3d 13 f5 5a 3d
       -0.089245655 -0.03172589 0.10289908 0.053456377
0001b0 86 98 09 3d cc 15 77 bd a4 17 88 bd 16 d3 cd 3a
       0.033592723 -0.06032352 -0.06645134 0.0015703167
0001c0 14 4d 96 3c 13 4c 6a bd f9 9c 2b bd fd 9a 0a bd
       0.0183473 -0.057201456 -0.041897748 -0.033839215
0001d0 fb ad 1f 3b ba 0d 48 bc 0c 7c 72 ba 0f 8b 40 bd
       0.0024365175 -0.012210304 -0.0009250052 -0.047007617
0001e0 8e 6c 85 bd 19 9c 16 bd 8a 8f e8 bc b4 2a 74 bd
       -0.06514846 -0.03676996 -0.028388757 -0.059611037
0001f0 07 10 c1 3d 8f cf 98 bb 53 30 c5 3d fa 0d 43 3d
       0.09426885 -0.004663415 0.09628358 0.04762075
000200 92 21 9e bd 50 76 ac 3d 88 ab 95 bc 7a ee dc bc
       -0.07721247 0.08421004 -0.018270269 -0.026969183
000210 06 90 9d bd cc c7 b4 bd 98 69 19 3d 6b cb 72 bc
       -0.07693486 -0.08827171 0.037454218 -0.014819006
000220 97 9a 3e 3d 21 f1 a0 bd c5 e2 ad 3d 8c 87 90 bd
       0.046534147 -0.07858492 0.084905185 -0.070571035
000230 16 28 e7 bb 0d b6 b7 3c 1c 14 80 3d 93 c4 a7 3d
       -0.007054339 0.022425676 0.062538356 0.081917904
000240 87 fc d3 3d 0e 4d ae bd 23 a3 16 3d ed 08 58 bd
       0.103509 -0.08510791 0.036776673 -0.052742887
000250 e4 ee 35 3b 03 6c b5 bd e7 ec d5 3d e2 6a a7 bd
       0.0027760798 -0.08858492 0.10445576 -0.08174683
000260 3b 65 81 3d 26 fa f5 3c e9 f8 2f 3d ff 70 87 bd
       0.06318136 0.030026507 0.04296199 -0.06613349
000270 30 25 d3 3d 91 b5 06 3c 44 05 bb 3c ab 25 e0 bd
       0.10309827 0.008222 0.02282966 -0.109446846
000280 c1 47 5b 3d 1e be 16 bd ff fa 0d bd 29 77 8b 3d
       0.053535227 -0.036802404 -0.034663197 0.06809837
000290 96 85 1a 3d a0 5c 9d bd 91 f5 11 bd de 89 bf bc
       0.037725054 -0.076836824 -0.03563458 -0.02338117
0002a0 e4 24 94 3d 71 8c 32 bd 34 d1 2c bd d7 0a 68 bd
       0.07233599 -0.043590967 -0.0421917 -0.056650963
0002b0 c5 87 71 bd 8d 0b 86 3c d5 02 c8 3d 8b 8c e9 bd
       -0.05896737 0.01636293 0.09766165 -0.114037596
0002c0 ae 14 31 3d 44 61 0a 3d 73 63 21 3d a1 d2 68 bd
       0.043232612 0.033784166 0.039401483 -0.056841496
0002d0 eb fd 96 3d 93 4f ed 3c cf b4 76 3d c1 7c 28 bd
       0.0737265 0.028968608 0.060231026 -0.0411346
0002e0 5b 73 82 bb 0e 73 35 bc 81 00 eb 3b 19 7d 4c bd
       -0.0039810366 -0.011074794 0.007171691 -0.04992399
0002f0 0d 0f bb 3d d7 16 8b 3d d2 a2 92 3c f0 09 39 bd
       0.0913373 0.06791466 0.017899904 -0.045175493
000300 56 7e 98 3b 7d c6 f0 3b 24 f8 d7 3c dc 0c 1b 3d
       0.0046537323 0.0073478804 0.02636344 0.03785406
000310 38 24 b9 bd 05 4e ff bc 81 fe b2 3d 8e 15 3a 3d
       -0.09040111 -0.031165132 0.08739949 0.045430712
000320 cb 99 16 bb 25 47 68 bd 36 80 75 bd be b9 b6 bd
       -0.0022979851 -0.056708474 -0.059936725 -0.08922146
000330 ec 88 04 bd a9 10 0e 3d df ea 87 3d 96 94 34 3d
       -0.03235714 0.034683857 0.06636595 0.044087015
000340 f1 d0 b4 bd 36 e1 80 bd 1f 12 72 bc e1 12 c6 3d
       -0.08828915 -0.062929556 -0.014774828 0.096715696
000350 ac ad 8f 3c 53 d7 fd bc ce 90 42 3d 9b b1 38 bd
       0.017538868 -0.030986464 0.047501378 -0.045091253
000360 72 ac 78 bd 66 71 8e 3d 68 3d 35 bd 27 d7 e6 bc
       -0.06071133 0.06955223 -0.044248015 -0.028178765
000370 a0 c9 cb bd f2 b1 71 3d 7e 7e a1 3d f7 55 e6 3c
       -0.09950566 0.059007592 0.078854546 0.028117163
000380 35 99 8b bd 27 83 de bd 2b 7a a5 bd d2 0f 89 3d
       -0.06816331 -0.10864859 -0.08079942 0.066924706
000390 78 2c 4c 3d 17 36 9b 3d c9 6d 63 3d a1 8c 76 3c
       0.049847096 0.07578676 0.05552462 0.015048177
0003a0 d5 e9 65 3b dd 1d b6 bd a9 81 a9 bd 00 ff da bd
       0.0035082002 -0.08892415 -0.08276684 -0.10693169
0003b0 5e f8 40 3d f1 fc 82 bd 13 85 63 bc 1b 31 91 bd
       0.04711186 -0.06395901 -0.013886708 -0.07089444
0003c0 9e 17 46 bc 80 30 ab bd e0 35 80 bd a0 58 af 3c
       -0.012090592 -0.0835886 -0.06260276 0.021404564
0003d0 d2 39 ed bc 90 26 52 3d 51 ae f0 bc 62 f7 b1 bd
       -0.028958235 0.051306307 -0.029379996 -0.08689763
0003e0 5e bb 81 bc 18 dc 77 bd 82 a3 f2 bc b9 66 dd bd
       -0.015836414 -0.060512632 -0.029618982 -0.108106084
0003f0 9e 23 69 3d ca 0d a8 bd b1 ce 51 3d 7e 4f 05 3d
       0.056918733 -0.08205755 0.051222507 0.032546513

linear1.bias f4 [128]
000000 78 dd 57 bd b0 ab a6 bd 9e dd 74 3d 43 04 29 bc
       -0.052701443 -0.081382155 0.059781663 -0.0103159575
000010 1e 45 f8 bd f1 e4 77 bc 8c a0 74 bd a4 cb 40 3d
       -0.12122558 -0.0151302675 -0.059723422 0.047069207
000020 7c 52 ff bc fb 02 57 bd b4 c7 4e bc 9d 89 f6 bc
       -0.031167261 -0.052493077 -0.012620855 -0.030094916
000030 cc d9 8c 3d 01 da 6c 3c db 20 a2 bd c8 3f 27 bd
       0.06877479 0.014456273 -0.07916423 -0.04083231
000040 5c 78 ac 3d d8 04 ac bd 8b f2 2b bd fc f9 e1 3d
       0.08421394 -0.08399361 -0.041979354 0.11034009
000050 c5 0a f6 bc 25 59 72 3d 91 d0 8c bd b2 d2 d1 3d
       -0.030034432 0.059167046 -0.068757184 0.10245265
000060 46 53 a4 3d 07 6d ec bc 8f 15 cf bd fc 12 c7 bc
       0.08023696 -0.028860582 -0.10111534 -0.024301045
000070 a0 1d 80 3c 9c c1 e7 bc 52 86 ae bd 1b 32 f8 bd
       0.015639126 -0.028290562 -0.08521713 -0.12118932
000080 f8 d5 a0 3d 19 c5 92 3d c2 6c 1a bd 70 d4 82 3c
       0.07853311 0.071665 -0.037701376 0.015970439
000090 c6 f1 8a bd 20 01 38 3d f7 81 7c bd fb 3b 9b bd
       -0.06784396 0.044922948 -0.06164738 -0.075798
0000a0 de 4c bc bc 82 80 b6 bc 68 09 6f 3c 8d da c3 bd
       -0.022985872 -0.022278074 0.014589645 -0.0956317
0000b0 82 17 4b bd 76 ca 20 bd c3 8b 13 3c df ea 0f 3c
       -0.049582966 -0.03925558 0.00900549 0.008784025
0000c0 41 b1 90 ba 7c de 83 3d d6 f9 90 bd 20 f8 6d bb
       -0.0011039154 0.0643892 -0.070789024 -0.0036311224
0000d0 72 be ce 3d b8 2e 61 3c 40 fc 63 bd 77 6d 63 3d
       0.10094918 0.013744049 -0.055660486 0.055524316
0000e0 9a e0 8c bd 15 32 04 3d f0 83 a0 3d 6f 41 f2 bb
       -0.06878777 0.032274324 0.07837665 -0.007393054
0000f0 9e c3 99 3d 2c bb 9c 3d 40 36 86 3d 33 63 68 bc
       0.07508014 0.07652888 0.06553316 -0.014183807
000100 66 b4 7e 3c 7b d3 a6 3d bc 57 49 3d c9 72 b9 bd
       0.01554594 0.081458054 0.049155936 -0.09055097
000110 86 e1 aa 3d 3b 6b c4 3d 7b 05 97 3d 95 ac 82 3d
       0.083437964 0.09590765 0.07374092 0.06380574
000120 e4 ca b4 3d 9e 30 64 bd 3e 9a 1b bd af a4 62 3d
       0.08827761 -0.055710427 -0.037988894 0.055332836
000130 9d 83 15 3d 09 96 20 3d 6a a1 b1 bb 24 df b2 bd
       0.03650247 0.039205585 -0.0054208534 -0.08733967
000140 37 fa 80 3d f7 c6 8b bd 58 9f e3 bd 92 29 96 3d
       0.06297725 -0.06825059 -0.11114377 0.07332148
000150 92 77 06 3d 7f 2d 1d 3d 45 41 58 bd ba 1d 3d 3d
       0.032828875 0.038373467 -0.05279662 0.046170928
000160 74 0b 00 3d ee cd 8c 3d 8c 9a d2 3c 27 88 d4 3d
       0.031260923 0.068752155 0.02570846 0.103775315
000170 ab dc fc bc 09 04 b0 3d 07 74 b2 3d 3a 2d 6f bc
       -0.030866941 0.0859452 0.08713537 -0.014598185
000180 49 24 73 bd c4 f4 ab 3b d8 34 95 3d fa c1 94 bd
       -0.059360776 0.005247684 0.0728547 -0.072635606
000190 2a 1c 9e bc 63 f5 8a 3d 02 e6 06 3d 15 6e d7 3d
       -0.019300539 0.06785085 0.032934196 0.10519043
0001a0 97 99 c6 3c b0 fd d9 bb ec a3 a3 3b 45 28 27 bd
       0.02424316 -0.0066525564 0.0049939062 -0.04080989
0001b0 98 76 b4 bd b4 45 2a bd 3a ec c1 bd bf 80 a2 3d
       -0.088116825 -0.04157038 -0.09468885 0.079347126
0001c0 08 dd 01 3a 07 91 3c 3b 5d c7 70 bc de b3 3d bd
       0.00049538957 0.0028772966 -0.014695969 -0.046314113
0001d0 70 c8 88 bd b4 d5 75 bc f9 0c 0e 3d e7 6d 4a bd
       -0.066788554 -0.015004564 0.03468034 -0.049421217
0001e0 a6 7d 78 bd ca e6 ad 3d af 3a 4a bc 32 13 80 3d
       -0.060666703 0.08491285 -0.012343093 0.06253661
0001f0 d9 70 df 3d ba 39 fc 3d 27 8a 93 bd 17 69 f1 3c
       0.10910196 0.12315698 -0.07204085 0.029469056

linear2.weight f4 [128, 128]
000000 cc fc 9e bd c1 22 87 bb 40 46 10 bb c6 01 29 bd
       -0.07763061 -0.004124016 -0.0022014529 -0.041261457
000010 d1 9e 08 3d 7d df 22 bd b2 14 4e 3d e8 92 b3 3b
       0.033354584 -0.039763916 0.050312705 0.005480159
000020 c3 c8 8e 3d 5d ee 45 3d 57 03 d2 3b e7 a9 3f 3c
       0.06971886 0.048323024 0.0064090895 0.011698223
000030 3d f6 3e bd 2b 9e 62 bd 94 b7 51 3d 6f 50 91 3d
       -0.04662155 -0.055326622 0.051200464 0.070954196
000040 ad 79 87 3c 26 8d 91 3d 05 4e f2 3c 95 3d 65 3d
       0.016537512 0.07107 0.029578218 0.055966932
000050 ff 19 ea bc 5d 99 88 3c ca 10 ba bd 4c 5d c8 bd
       -0.028576849 0.016674692 -0.090852335 -0.0978342
000060 b3 68 19 3d ad ec 8a bd 73 a9 8e 3d 7c c8 a0 bd
       0.037453365 -0.067834236 0.069659136 -0.07850739
000070 59 35 69 bd d4 fe a3 bd 0d aa 66 3d 0a a2 3d bd
       -0.056935642 -0.08007589 0.056314517 -0.04629711
000080 f5 84 8a bd db b9 68 3d 77 ea 61 bd 41 f3 cb bd
       -0.06763641 0.05681787 -0.055155244 -0.099585064
000090 ba 6c 47 3d b6 0f 94 3d 60 28 a1 3d 4e d0 5c 3d
       0.048687674 0.07229559 0.07869029 0.053909592
0000a0 61 af ac bd 21 a5 02 bd d1 07 0d bd 80 48 b9 bd
       -0.08431888 -0.03189576 -0.034431282 -0.090470314
0000b0 0d 8e 9e 3d 58 62 42 bd 1b 01 7a 3c b7 45 80 bd
       0.07741938 -0.04745707 0.015259053 -0.06263297
0000c0 f1 f5 bc 3d 8f a1 0d 3d a2 d1 74 3d 5a 6a 81 3d
       0.09226597 0.034577902 0.059770234 0.06319113
0000d0 c7 a7 a3 3d b4 a2 fb 3c 77 f5 0e bb 0b 2c 03 bd
       0.07990985 0.030717231 -0.002181379 -0.032024425
0000e0 55 28 85 3d c2 a2 a5 bd 43 ca a1 3d cc f5 23 3c
       0.06501833 -0.08087684 0.078999065 0.010007333
0000f0 26 23 87 bc b2 bc 78 bd c6 5b 6a bd 18 c7 1f 39
       -0.016496252 -0.06072683 -0.05721643 0.0001523759
000100 c2 f9 5c bd 9e 44 40 3d 44 46 8f 3c ca 7b 46 bd
       -0.053949125 0.04694044 0.01748956 -0.0484579
000110 e1 74 6b 3d 29 ac b8 bc 75 da ff bc 86 39 0d bd
       0.05748451 -0.02254303 -0.031232098 -0.034478687
000120 d7 14 e8 3c 86 8b c3 bd b7 56 49 bd ef 7d 6d 3d
       0.02833025 -0.09548096 -0.049154963 0.057981428
000130 9d 2f 06 bd 7c be 10 bc 91 76 aa bd 14 71 20 3b
       -0.03276025 -0.0088344775 -0.08323396 0.0024481462
000140 f7 41 ff 3c 38 16 f7 bc 65 80 82 3c 43 66 ef 3b
       0.031159384 -0.030161962 0.015930364 0.0073058917
000150 8a 37 ca 3b 3f 9f b7 3d ba 4c 13 3d f0 cc 64 3c
       0.0061711716 0.08965921 0.035961844 0.0139648765
000160 47 47 a9 bb 55 32 62 3c 44 08 11 3d 44 de 61 bb
       -0.0051659676 0.013805945 0.035408273 -0.0034464756
000170 bf db 32 3d 12 c5 a5 3d 3a b3 5f 3d 6f 00 8c bc
       0.043666597 0.08094229 0.054614283 -0.01709005
000180 18 c6 a4 bd 3c 25 b7 3c 34 fd 36 bd 84 be c6 bd
       -0.08045596 0.022356622 -0.044675067 -0.09704307
000190 e0 9d 31 3d f9 ef a2 bd 30 eb c9 3d 26 06 b9 bd
       0.043363452 -0.079559274 0.098593116 -0.09034376
0001a0 c3 f1 94 bd 3d aa 3a 3d 77 62 47 bc ab 2a aa bc
       -0.07272675 0.045572508 -0.012169472 -0.020772299
0001b0 2a 10 1e 3d 57 04 6e bd 90 7f 46 bd ae dd b2 bd
       0.038589634 -0.058109608 -0.048461497 -0.08733688
0001c0 75 37 ec bc 64 5e 8e bd ce 1a b2 3d 25 8e 9b bd
       -0.028835038 -0.06951597 0.08696519 -0.07595471
0001d0 bc b8 97 3b 81 02 38 bd f4 d0 15 bc 56 24 63 3d
       0.0046301764 -0.044924263 -0.009144057 0.055454575
0001e0 cf eb 81 3c ea c3 d1 3c 56 f5 94 3c a8 79 6a bd
       0.015859513 0.025606114 0.018183392 -0.057244927
0001f0 79 7d 90 3d 08 81 89 3d 41 5c 84 3c 84 eb 53 3d
       0.07055182 0.06714064 0.016157271 0.051738277
000200 de 3c 44 bd 03 73 89 bd 6f cb 9f bd e7 34 91 bc
       -0.04790961 -0.0671139 -0.07802474 -0.017725421
000210 54 36 8e b9 3d dc 78 bd ca 1a 07 bd a7 5f 01 bd
       -0.00027124828 -0.06075691 -0.032984532 -0.03158536
000220 c7 3d b3 3d 12 79 6f bc ba 1a 87 3d 5d fa 53 3c
       0.087520175 -0.014616268 0.065968946 0.012938109
000230 de f6 df 3c 92 dd 6e 3d ed a0 aa bd 2b a9 c1 bc
       0.027339395 0.058316775 -0.083314754 -0.023640236
000240 40 1d 82 bd 28 90 c1 3d 26 40 78 3c c3 37 43 bd
       -0.06353235 0.09451324 0.015152013 -0.0476606
000250 98 ee 8f bd fb 01 5d 3d 91 75 0d 3b 7f 7f 55 bd
       -0.0702793 0.053956967 0.0021584968 -0.052123543
000260 b7 6f 8e bd a5 70 61 bd aa a8 0e 3d 0c 89 aa bd
       -0.06954902 -0.055039067 0.03482882 -0.08326921
000270 22 11 da bb 26 f5 3f 3d d2 d9 75 3d aa 5a 10 3d
       -0.0066548744 0.04686465 0.060022183 0.035242714
000280 45 01 ef 3a d1 67 e3 3c d0 4d ce 3c fe 68 66 3d
       0.0018234631 0.027759464 0.025183588 0.056252472
000290 5d 1b 85 3c ab 1a 7e 3d 50 78 87 3d ab 9b 84 bd
       0.0162484 0.06203715 0.06614745 -0.06475004
0002a0 15 26 73 bd 48 1b 3a 3d 7a b1 b4 3c 44 02 4f bd
       -0.05936249 0.045436174 0.022057284 -0.05053927
0002b0 3e a9 0c 3d 3a 2b a4 bd 09 3f 15 bd 23 17 fd 3c
       0.03434109 -0.08016057 -0.036437068 0.030894822
0002c0 74 84 8c 3b f8 77 9f bd 39 54 31 3d 88 90 69 3c
       0.0042882506 -0.07786554 0.04329321 0.01425565
0002d0 24 1b 3c bc 8f 12 9d bd 08 2b 29 bd 65 9e 5f 3c
       -0.01148108 -0.076695554 -0.041300803 0.013648604
0002e0 ca 17 5f bd 30 0a b3 3c 16 e8 71 bd 73 47 b8 3d
       -0.054466046 0.021855444 -0.059059225 0.08998003
0002f0 4b 87 66 3d cc 7c 62 3d 5d 58 8f bc 2e 69 cd bd
       0.05628137 0.055294797 -0.01749819 -0.10029827
000300 4e eb 2b bd 70 46 42 bb f7 49 d4 bd b8 62 a8 3d
       -0.04197245 -0.0029644035 -0.1036567 0.08221954
000310 4e e3 b9 3c f8 ac 88 3d e2 18 b5 bd d1 67 7e bd
       0.022691395 0.06673616 -0.08842637 -0.062110726
000320 e7 66 38 3c 1e 6f 81 bb 59 5a 50 bd aa cd c0 3d
       0.011255003 -0.003950014 -0.050867412 0.09414227
000330 3a 2c fd 3c d6 08 64 ba bc 24 a7 3d 53 3d ad bd
       0.030904878 -0.00086988264 0.081613034 -0.08458962
000340 6d 1b af bd df f8 7e 3c b3 52 b5 3d f7 fd 07 3d
       -0.08550153 0.015562265 0.08853664 0.033201184
000350 89 d7 18 bd f3 c1 91 3d 8c 93 60 3d 29 be d5 39
       -0.037314925 0.07117071 0.05482821 0.00040768206
000360 33 fa 60 3d e2 26 a9 3c ec 43 15 39 40 d4 2c bd
       0.05492611 0.020648424 0.0001423505 -0.042194605
000370 9e 9a 37 bd aa 20 6d bd f3 90 10 bd 25 59 3a bd
       -0.04482519 -0.05789248 -0.035294484 -0.04549517
000380 22 33 ee 3c b1 de 8e 3c 5c 93 91 bd 4a 4f 91 bd
       0.029077116 0.017440172 -0.07108185 -0.07095201
000390 47 22 3a 3d 51 a3 6d bd fa 5c ca ba 53 61 66 bd
       0.045442846 -0.05801708 -0.0015439086 -0.05624516
0003a0 19 c8 d7 bc 5c 47 25 3d 23 ec 39 3c f2 50 5c 3d
       -0.026340531 0.040351257 0.011347803 0.053788133
0003b0 e2 b2 fe bb 62 8d 91 bd f7 3d 88 ba 6a ad 15 3d
       -0.0077727893 -0.07107045 -0.0010394444 0.036542334
0003c0 c2 fa fb 3c 05 b4 d7 3c 95 1d d0 3c 12 94 80 3d
       0.03075922 0.026330957 0.02540473 0.06278242
0003d0 40 3c 37 3d b1 eb 89 bc 0f 5d 37 bd f7 23 91 3d
       0.044735193 -0.01683602 -0.044766482 0.07086938
0003e0 21 37 42 bd aa 51 a2 bd ce bf 9e 3c 57 11 23 bd
       -0.047415856 -0.079257324 0.019378569 -0.03981146
0003f0 12 ff 8f bd 12 e0 b3 bd 1f 40 be 3c 85 2c 8f bd
       -0.07031073 -0.087829724 0.023223935 -0.06990913

linear2.bias f4 [128]
000000 64 ee 5c bd 62 81 9c 3d 9f 81 a2 bd d9 d5 8a bd
       -0.053938285 0.07641865 -0.079348795 -0.067790695
000010 46 74 2c 3c f4 f4 67 bd aa 66 3f bc fe 8a 94 3c
       0.010525769 -0.05663009 -0.011682192 0.018132683
000020 17 5f 47 bc 50 f7 2b bd 22 e9 59 3d 50 51 f9 bc
       -0.012168667 -0.041983902 0.05320085 -0.03043428
000030 a7 cc 00 bd 39 e9 aa bd a4 8c a3 bd 2c e1 06 bd
       -0.03144517 -0.08345265 -0.079858094 -0.032929584
000040 69 95 9f 3d 49 80 a9 3d 9c e2 0f 3d 63 f3 36 bd
       0.077921696 0.082764216 0.03512822 -0.044665705
000050 68 5c 3d bd 6d 7f 84 bd 8d 74 08 3c 4a 7b 51 b9
       -0.046230704 -0.06469617 0.008328569 -0.00019977722
000060 2b c3 73 3d 7d 82 8d 3d 1e 54 83 3d 1c 06 29 3c
       0.0595123 0.06909654 0.064125285 0.010316398
000070 d7 40 a4 3d 1a 25 8f bd 08 79 a5 3d 9d f4 9b 3d
       0.0802018 -0.069894984 0.080797255 0.07615016
000080 d7 7b 5d bd 09 fa 69 3d 70 5a 92 bb 24 04 83 3c
       -0.05407318 0.057123218 -0.0044663474 0.015993185
000090 32 84 6d 3c ba de 74 bd ee 0f 8f 3d 74 e7 76 3c
       0.01449685 -0.05978272 0.0698546 0.015069831
0000a0 b6 36 a7 bd 68 c5 73 bd 23 cb 34 3c 45 84 83 bd
       -0.08164732 -0.059514433 0.01103476 -0.06421713
0000b0 8f 0c 40 bc 98 8e 87 3d 7c 4e b5 3d 7d 77 5c bd
       -0.011721744 0.066189945 0.0885286 -0.05382489
0000c0 2f 87 af 3d 04 32 e7 bc 4b e6 0a bd 2d 69 d4 3c
       0.08570706 -0.028222091 -0.03391103 0.025929058
0000d0 d6 83 7c 3d 48 1c e8 bc 92 ab 1d bb 39 1c a1 3d
       0.061649166 -0.028333798 -0.0024058563 0.07866711
0000e0 5a c8 99 3d e4 28 c5 3c a8 f1 3d 3d a0 fe 1d 3b
       0.07508917 0.02406735 0.04637304 0.0024108067
0000f0 bf 7e 14 bd d6 a6 88 3d 63 bc ec 3c 71 db 97 3d
       -0.036253687 0.066724464 0.028898424 0.07414902
000100 20 c7 c2 bc e5 14 97 3d 36 53 c8 3b 5a 70 2b 3d
       -0.02377659 0.07377032 0.006113435 0.041855194
000110 e0 7c 83 bd 9a db 8b 3d 0b 92 76 bd 9d 98 42 bd
       -0.064203024 0.06828995 -0.06019787 -0.047508825
000120 23 aa 60 3d c1 de 85 bc cb f8 86 bd c2 f5 29 3d
       0.054849755 -0.016341569 -0.06590422 0.04149414
000130 9a 71 d8 3c 6c ee 91 3d 33 34 c8 3c 40 9e e4 3c
       0.026421357 0.071255535 0.024438953 0.02790749
000140 2d 60 26 bd dc 22 89 bd 1a 21 80 3d 53 d3 e3 bc
       -0.040619064 -0.06696102 0.062563136 -0.027810728
000150 13 44 de bc ab 70 8a bd d8 21 d0 bb 8b d0 8a bc
       -0.02713207 -0.06759771 -0.0063516907 -0.016945144
000160 dd 02 8d 3d 3b 2f b5 bd ea 4a 84 bd e2 9a 44 3c
       0.06885312 -0.08846899 -0.06459601 0.011999818
000170 89 41 f9 bc 5b 04 a3 bd 25 e6 82 3d 93 4c 4a 3d
       -0.030426757 -0.07959815 0.06391553 0.049389433
000180 43 d8 8f bd 8f 1d 88 3d 53 3b a6 bc 4b bf 04 bd
       -0.070236705 0.06646263 -0.02029196 -0.032408994
000190 ed b8 4b bd e6 16 5c 3d 3d ed db 3c 14 dc 4f bd
       -0.049736906 0.053732775 0.026846522 -0.050746992
0001a0 dd 1f fc bc 40 8f a0 bd cc 09 95 bd d5 58 5b bd
       -0.030776912 -0.07839823 -0.07277259 -0.053551514
0001b0 84 53 87 3d 65 dc 7e bd 03 6c f9 bc e3 1f ce 3c
       0.06607726 -0.062221903 -0.030447012 0.02516169
0001c0 9e 8c 37 bc 5f 00 9d 3d 10 1f 81 bd b7 13 9d 3d
       -0.011202959 0.076660864 -0.06304753 0.07669776
0001d0 d1 97 71 bd e0 7d 5e bd db c2 99 3d b3 80 41 3d
       -0.058982674 -0.054319263 0.07507869 0.047241878
0001e0 2f fd 0c bd f0 31 64 bd a1 c1 24 bd 17 f3 2b bd
       -0.034421142 -0.055711687 -0.04022372 -0.041979875
0001f0 26 d4 44 bd a1 6e c6 3d 4a f9 82 bd 51 65 82 bd
       -0.048053883 0.096890695 -0.06395204 -0.06366981

linear3.weight f4 [48, 128]
000000 02 aa 9b 3d 1d 7e 1c bd f3 aa b6 3d 8d 51 9d bd
       0.07600786 -0.03820621 0.08919325 -0.0768157
000010 8e 2a 77 3d a0 4e 96 bd cf 51 c3 bd 10 c5 27 bd
       0.060343318 -0.07339215 -0.09537088 -0.040959418
000020 1a 96 2a 3d 5e f7 4d 3d 8c e8 34 bd 2a 00 36 3d
       0.041647054 0.050284736 -0.044167086 0.04443375
000030 86 68 77 bd 46 15 07 bd 5b c4 05 3d 36 c1 15 3d
       -0.060402416 -0.032979272 0.032657962 0.036561213
000040 f1 21 bb 3d 9e cc 9d bd c8 a7 3e bd 98 f5 79 3d
       0.09137333 -0.07705043 -0.046546727 0.061025232
000050 3c 3f 85 bd a1 76 8c bd 95 e9 38 bd 08 c4 b7 3c
       -0.065062016 -0.06858564 -0.045144636 0.022432342
000060 0d 9a 61 bd 87 aa 96 bd b6 11 aa 3b 3d 16 10 3d
       -0.055078555 -0.07356744 0.0051900996 0.035177458
000070 7f 91 04 3d 6e bf b7 b8 16 79 84 3d 26 0c 4b bd
       0.03236532 -8.7617766e-05 0.06468408 -0.049572133
000080 bb f8 47 39 7e dd a6 bc 4f d9 1b 3b 03 91 8d bd
       0.00019070778 -0.020369288 0.002378065 -0.069124244
000090 cf 43 47 3d c5 7d dc 3a 00 18 64 3d 71 e7 5c bc
       0.04864865 0.001682215 0.05568695 -0.013482914
0000a0 88 94 25 bd b5 9e af 3c 75 60 48 3d 62 d7 87 3d
       -0.040424854 0.021437982 0.048920114 0.06632878
0000b0 c4 52 ee 3c be 42 c4 bc 83 f3 c2 bd a4 fc 57 3d
       0.0290922 -0.023957606 -0.095191024 0.05273117
0000c0 f9 ad f4 3c 0f 76 be 3d 5c 80 c1 bd 08 ba 04 bd
       0.029868113 0.09299862 -0.09448311 -0.032403976
0000d0 b2 3d c5 bd 7f cc 6c 3b bf 3c c1 bc 3a 7e 9f 3d
       -0.09630908 0.0036132631 -0.023588536 0.07787748
0000e0 ae 71 38 bd 8b e2 bf 3c e8 00 99 bd 56 05 72 bc
       -0.04503029 0.023423454 -0.07470876 -0.01477178
0000f0 80 60 98 bd b5 b4 02 3c 12 30 c8 3d 60 a4 d8 b9
       -0.07440281 0.007977654 0.09774794 -0.000413212
000100 63 2b 97 3b 80 d8 0d bc 7e 32 8f 3b 54 1c e8 bc
       0.0046133264 -0.008657575 0.004370033 -0.02833382
000110 9c a5 23 3d 1e dd a5 3c c9 d9 ad 3d d8 ae 8c 3d
       0.03995286 0.020247038 0.08488805 0.06869286
000120 29 2c 64 3d 73 30 a5 bd 46 a7 92 bd 1d 13 8b bd
       0.055706177 -0.080658816 -0.07160811 -0.06790755
000130 71 ec f8 bc 1a c1 90 bc 39 42 b4 3d 6d b1 64 bd
       -0.030386182 -0.017670203 0.088016935 -0.05583327
000140 e7 f5 19 3c 3b 67 4e bc fa c9 b4 3c a3 54 59 3c
       0.009397007 -0.012597854 0.022068966 0.013264808
000150 48 52 f1 3c 10 f4 8a bb 74 85 46 39 65 d1 95 ba
       0.02945818 -0.0042405203 0.00018932467 -0.0011430202
000160 9b 99 83 bd af ab 53 3d 15 36 a1 3d 5e f6 8e bd
       -0.06425782 0.051677402 0.078716435 -0.069805846
000170 c2 ec 42 bc a0 73 a8 bd 99 6b 47 bd 1d 13 f7 3c
       -0.011897268 -0.08225179 -0.048686597 0.030160481
000180 4b 50 86 3d 44 1f 9c 3d 99 71 4a bb 38 7a a2 3b
       0.065582834 0.07623151 -0.0030890463 0.0049584173
000190 dc e8 16 3d 5a fb 48 bb ac 69 01 3d 17 84 85 3d
       0.036843166 -0.0030667395 0.031594917 0.06519335
0001a0 73 11 2b 3d 3f 37 30 bd 7b cf ba bd 6a 9b 12 bd
       0.041764688 -0.043021437 -0.09121605 -0.035792746
0001b0 b7 33 80 bd 66 34 73 bd fc ac 94 bd af 53 90 bd
       -0.06259864 -0.059376143 -0.07259557 -0.070472114
0001c0 c1 c2 33 3c 22 25 a7 3d db 81 a0 bc d4 af 92 bd
       0.010971726 0.081613794 -0.01959317 -0.07162443
0001d0 5f e2 96 3d 8a 0d f0 bc 3a bd 9d bd 49 3f 91 3d
       0.073673956 -0.02930333 -0.07702108 0.07092149
0001e0 04 40 01 bd 59 eb ce bd 17 86 17 bd 6e 84 7c bd
       -0.03155519 -0.10103483 -0.036993112 -0.061649732
0001f0 2c 3d a4 3c 12 37 15 bc 51 4a 87 3d d4 68 c2 3d
       0.0200487 -0.009107368 0.066059716 0.09492651
000200 b0 3a 85 bd 1b 8f 4d 3d 5d 85 a5 3c c1 ec af bc
       -0.065053344 0.050185304 0.020205194 -0.021475198
000210 46 ea 69 bc 88 1e c7 bd b9 a5 82 3d 19 39 7c 3d
       -0.014277047 -0.0972262 0.06379265 0.06157789
000220 d4 bd 17 bd 70 07 82 bb ac 56 b5 3c e3 70 df 3c
       -0.03704627 -0.003968172 0.022136055 0.027275508
000230 6a 13 15 bc 71 2e 4b 3d bb 94 21 bd 60 a7 a7 bd
       -0.009098867 0.049604837 -0.03944848 -0.08186221
000240 92 7c 91 bd 72 84 40 3d e7 63 78 3d 25 64 79 bb
       -0.07103838 0.04700131 0.06064215 -0.0038054076
000250 cf e8 6c bd 6c e3 02 bd bb 91 4e bd b4 e9 65 bd
       -0.05783921 -0.031955168 -0.05043195 -0.05613108
000260 0c 06 d3 3d 2d 12 cb bd bc c6 a2 3d 79 e8 78 3d
       0.10303888 -0.09915576 0.07948062 0.06076858
000270 c7 26 3b 3d 81 6f 94 3d b9 78 94 3b 60 1e 1d 3c
       0.045691278 0.0724783 0.004530993 0.0095897615
000280 1b c4 8f bc f6 55 ca 3d 51 c5 79 3c 51 22 7f bd
       -0.017549565 0.09879677 0.015244798 -0.062288586
000290 45 86 96 bd 70 35 ab bb 31 16 4c 3c 03 12 19 3d
       -0.07349829 -0.005224876 0.012456463 0.037370693
0002a0 7a d6 81 3d e4 ee 58 3b c0 d0 fc bc eb b9 64 3d
       0.06339736 0.0033101374 -0.030861259 0.055841368
0002b0 48 42 1e 3d 9f e7 c7 3d dc 8b 0b 3d 73 ab 4b 3d
       0.03863743 0.09760975 0.034068927 0.049724054
0002c0 67 83 21 3d a2 46 60 bd 4f f1 81 bd c9 80 f3 bc
       0.039431956 -0.05475486 -0.06344854 -0.029724495
0002d0 63 57 8f ba 8a 92 6e bd 38 62 85 bb a0 89 00 3d
       -0.0010936077 -0.05824522 -0.0040705465 0.03138125
0002e0 d5 f4 83 3d 1c b3 8b 3d 1d d8 1f 3d ec 32 66 bc
       0.064431824 0.06821272 0.03902446 -0.014050227
0002f0 b2 87 a5 3c d0 2c 82 bd 61 3d 95 3d a9 03 48 bd
       0.020206306 -0.063562036 0.07287098 -0.048831616
000300 9f b6 6b 3d 80 d7 ad 3d 78 c1 93 3d 83 e5 68 3d
       0.057547208 0.08488369 0.072146356 0.056859504
000310 9d 5b 9d 3c 4c 88 61 3d 63 51 51 bd a2 bd 97 bd
       0.019208724 0.055061623 -0.051103007 -0.074092165
000320 59 e4 47 bd 23 89 c1 bd f6 30 89 3c 4b 5a 28 bd
       -0.048801754 -0.09449985 0.01674698 -0.041101735
000330 46 ef ab bc a3 9f 8c bd f8 cf 43 bc c4 71 a5 bd
       -0.020988118 -0.06866386 -0.011951439 -0.0807834
000340 8e d0 bc bd 89 84 a2 3d 6c f0 b6 bd 83 04 60 bd
       -0.09219466 0.07935435 -0.089325756 -0.054691803
000350 75 55 47 bd 4b f6 8f bd c9 a8 1b bd 53 f0 be bc
       -0.048665483 -0.070293985 -0.038002763 -0.023307955
000360 2f 7b 7b 3b 6d 44 92 3d 59 63 a6 3d 80 05 cb 3c
       0.0038372984 0.071419574 0.08124418 0.024782896
000370 83 aa 3b bd 2d 57 c3 bd c4 40 d9 3c 51 30 d0 bd
       -0.04581691 -0.09538112 0.02652014 -0.101654656
000380 90 5d c7 bd 3e d1 5b bb 9d ce 6e bd 4a 04 9c 3d
       -0.097346425 -0.0033541466 -0.05830251 0.076180056
000390 d6 07 fc bb d4 cb a9 3d b4 48 99 3d a3 57 61 3c
       -0.007691364 0.0829083 0.0748457 0.013753804
0003a0 6d 2f f5 bc f3 1a ad 3d 91 be 53 bd e3 d6 a8 3c
       -0.029929841 0.08452406 -0.05169541 0.020610278
0003b0 b6 15 c0 ba 66 a8 ae bd c4 33 5e 3d 82 7a 83 3c
       -0.0014654908 -0.08528213 0.054248586 0.016049627
0003c0 c7 a7 8c 3c f1 d5 e5 bc 79 4d 45 bd 13 2b 9a 3d
       0.017169846 -0.028056117 -0.048169587 0.07527747
0003d0 02 1d 45 bd 0c 00 5e 3c c4 d1 bc 3d 6e 30 c6 3d
       -0.048123367 0.013549816 0.09219697 0.09677206
0003e0 53 73 66 3d fa f8 78 3c 0d d7 51 3c 4c 5f d4 bc
       0.056262325 0.015196079 0.01280762 -0.025924347
0003f0 66 6f 5b 3d bf ab 8b bd 85 1f 81 bc 54 a9 80 bc
       0.053573035 -0.06819867 -0.0157621 -0.015705742

linear3.bias f4 [48]
000000 e2 33 54 3d 31 f9 6b 3c 14 a8 98 3a ae 87 80 bd
       0.05180729 0.014402674 0.0011646771 -0.06275879
000010 bb 2d 11 3d 34 ca 81 bd 81 48 fa bb ab 23 20 3b
       0.035444003 -0.06337395 -0.0076380377 0.0024435322
000020 01 24 8d 3d 37 8c 66 bd fc 8c 9e bc 96 53 2d 3d
       0.06891633 -0.056286063 -0.019354336 0.042316042
000030 ad 44 e3 3c 43 d4 8b 3c 50 36 12 3d ff 7b 7b 3d
       0.027742708 0.017068988 0.035696328 0.06139755
000040 24 7d 96 3d 2b 05 a8 3d 39 96 ca 3a 49 e0 9a 3d
       0.073480874 0.08204111 0.0015456147 0.0756231
000050 d0 e0 94 bc b7 1d 7a 3d f9 14 61 3d 98 d2 84 bc
       -0.018173605 0.061063495 0.05495164 -0.0162137
000060 2b 81 6e bc 8b c2 79 bd fb 7e da 3c 1d 0e 59 bc
       -0.014557163 -0.060976546 0.026671877 -0.013247994
000070 4c af ae 3c 9f 2c 4b 3d e4 ab 72 3d 0a 20 ae bc
       0.021323822 0.0496031 0.05924596 -0.021255512
000080 5b cb 68 3d cf cf ba bc 9f 44 3f bc 5a 1e 1f bd
       0.05683456 -0.022804169 -0.011674075 -0.038847305
000090 3b ba 8a 3d 6c 79 b8 3b 97 e9 1c bc d7 c6 06 bd
       0.06773802 0.005629709 -0.0095771765 -0.032904472
0000a0 16 7b 56 3d fb c0 a8 3b d1 e9 55 3d 5a 52 74 bd
       0.052363478 0.005149958 0.052224938 -0.05964885
0000b0 ad bc 6e bd a4 7e 94 bc 10 53 90 3d d0 79 8a bd
       -0.058285404 -0.018126793 0.07047093 -0.06761515
