第二章-回归模型/model_weight/mlp_relu_norm.pth (torch, 146853 bytes, 10 tensors)

linear1.weight f4 [128, 96]
000000 e0 96 e9 bd ab aa a3 bd 06 53 b8 bd e4 e7 46 bd
       -0.1140573 -0.07991537 -0.090002105 -0.048560992
000010 e0 78 da bd e3 ce 86 bd 7d 31 4d 3d 98 93 37 bc
       -0.10667586 -0.06582429 0.050096024 -0.011204623
000020 6b a3 e5 bc ed ac 93 bd 59 c1 99 3d 8b 13 84 bd
       -0.028032025 -0.07210717 0.07507581 -0.0644904
000030 12 ba 98 3d b4 97 85 bc 3f 49 43 3c 60 3f 39 bd
       0.07457365 -0.01630769 0.011919319 -0.045226455
000040 cf d2 06 3c e5 1f 23 3d 40 cd ca bd 4a b5 5b bd
       0.008228972 0.03982534 -0.099024296 -0.053639688
000050 79 f4 96 3d 75 5a 7d bc ba 07 19 bd 47 22 ce 3c
       0.07370848 -0.015463461 -0.037360884 0.02516283
000060 c5 d1 81 bd f1 de 55 3d 6f 6e be 3d 03 a1 8d 3d
       -0.063388385 0.052214567 0.09298407 0.06915476
000070 a6 b8 44 bd e7 34 b0 bc 00 dd ba 3d 3a ce 9b 3d
       -0.048027657 -0.0215096 0.09124184 0.07607694
000080 14 65 6e 3d aa a7 9b 3d a4 a1 cc bd d7 28 4d 3d
       0.058201864 0.07600339 -0.09991768 0.050087776
000090 e5 79 19 bd 46 cd 2c bd 5e a7 1e bd 1f 4c bc bd
       -0.037469763 -0.04218795 -0.038733833 -0.091942064
0000a0 f1 07 2e 3d 89 ff 1f 3d c9 e9 da bd 56 c7 86 bd
       0.042488042 0.039062057 -0.10689122 -0.06580989
0000b0 35 7c a9 3c 45 09 87 3c a9 05 ef 3b 27 95 df 3b
       0.02068911 0.016483912 0.007294376 0.0068232003
0000c0 ea dc 26 bd 3f 8f 68 bd e9 ef c7 bd 4a 12 45 3d
       -0.040738024 -0.056777235 -0.09762556 0.048113145
0000d0 18 7e 72 bd 1c 87 b5 bd 8e da c7 bd 8d 50 b9 3d
       -0.059202284 -0.08863661 -0.09758483 0.09048567
0000e0 06 96 ae 3d 10 f6 22 3d 44 79 27 bd 40 f0 51 3d
       0.085247084 0.039785445 -0.040887132 0.05125451
0000f0 af c1 7f 3c 6b b6 af bc bf fd e3 3b 8f d5 81 3d
       0.015610143 -0.021449288 0.006957739 0.06339561
000100 9c 09 71 bd 9c 3a cc bd a3 ab 94 bd 68 aa e1 bb
       -0.058847055 -0.09972116 -0.072592996 -0.006886769
000110 aa 1c 29 bb 9c 95 c9 bd 52 e2 d8 bc 2c 90 35 bd
       -0.0025804439 -0.09842989 -0.026475105 -0.044326946
000120 34 10 68 bd 61 cd bc 3c 8f c0 27 3c 38 a7 82 bd
       -0.056656078 0.023047151 0.010238781 -0.06379551
000130 94 80 c9 bb 4b 74 8d 3c b8 32 60 bc c2 bd 57 3d
       -0.006149361 0.017267367 -0.013683967 0.0526712
000140 2e b9 9c bd df e6 92 3c 74 88 6d 3d 39 02 b2 bd
       -0.07652508 0.017932354 0.05799146 -0.0869183
000150 35 52 85 bc 80 22 89 3d c8 9e c6 3d 8c 83 a8 bd
       -0.01627455 0.066960335 0.09698254 -0.082282156
000160 50 d6 19 bd aa d4 37 3d a0 0c a0 bd b2 be 9c 3d
       -0.0375579 0.044880547 -0.07814908 0.0765356
000170 46 46 0e bd 35 3d 9b 3d e6 6b de 3d 43 59 f5 3c
       -0.034734987 0.07580034 0.10860424 0.02994979
000180 46 b5 cd bd a9 44 7d bc 6c b7 74 bd eb 05 dc 3d
       -0.10044341 -0.015458264 -0.059745237 0.10743316
000190 08 ed c7 bc f4 10 81 bd cf 2a 86 bd 27 8d bc bd
       -0.024405017 -0.06302062 -0.06551134 -0.0920661
0001a0 51 1d 88 bb 10 c1 3d 3b 72 e4 19 bd 32 ae 1f bd
       -0.0041538854 0.0028954186 -0.037571378 -0.038984485
0001b0 9e e1 71 bc 53 f2 1f 3d f9 1e 53 bd 47 88 b7 bd
       -0.014763264 0.039049458 -0.05154321 -0.0896154
0001c0 5e 73 50 bd c9 58 a5 bd eb a5 98 bd 89 35 99 bd
       -0.050891273 -0.08073575 -0.07453521 -0.07480914
0001d0 e5 59 b9 3d 84 e4 8e 3d d0 61 d8 bd 02 37 ac 3d
       0.09050349 0.0697718 -0.10565531 0.084089294
0001e0 86 d5 9d bd 25 cd d3 3d c9 92 98 bd 76 5a 1c bc
       -0.07706742 0.103418626 -0.07449872 -0.009543052
0001f0 1f 3a 6d bc 7f fe 9c bd 01 a1 45 3d f7 69 85 bd
       -0.014479189 -0.07665729 0.04824925 -0.06514352
000200 a2 9d af bd 05 2d b0 3c 3a 7e fa 3c 65 df c4 3d
       -0.08574988 0.021505842 0.030577768 0.096129216
000210 9b 96 a4 3c e1 39 9d 3d f7 b3 62 3d 8c ed 98 bd
       0.020091346 0.07677055 0.05534741 -0.074671835
000220 b6 82 a8 bd 34 50 69 bd ce 4e a9 bd c9 b6 ca 3d
       -0.08228056 -0.056961253 -0.08266984 0.09898145
000230 b0 04 a3 3d 52 b5 87 3d a5 0d ca bd 43 c2 cf 3d
       0.079598784 0.06626381 -0.09865884 0.10144474
000240 79 91 b3 3c f7 37 4e 3d 8d b4 91 3d 4a a0 7a bc
       0.021919953 0.05034634 0.071145155 -0.015297005
000250 4a bc aa 3c 47 b0 af bd a3 3a ac bd 98 c6 3d 3d
       0.020841736 -0.08578544 -0.084096216 0.046331972
000260 15 9f 46 bd 7d ab 3f 3c a5 06 ce 3d 15 fb 80 3d
       -0.048491556 0.011698601 0.10059861 0.0629789
000270 57 ae bf bd ae 1e c2 3b 25 71 8e bd 98 5e c5 3d
       -0.093594246 0.0059240675 -0.06955174 0.09637183
000280 35 4c 84 bd 9b c7 77 3d 04 39 31 3d 69 b1 9b bc
       -0.06459848 0.060493093 0.043267265 -0.019005494
000290 f7 02 42 3c bc 63 12 3d 76 d1 5b bd b9 ef d1 3d
       0.011841527 0.035739645 -0.053666554 0.102508016
0002a0 d9 2a 70 bd 23 d6 2e bd bd 3f 1a bd 98 d0 88 bb
       -0.058634613 -0.042684685 -0.03765844 -0.004175257
0002b0 7d 34 e1 3d f3 60 91 3c 4f 37 01 bd f7 a3 a4 3d
       0.109963395 0.017746424 -0.031546887 0.08039086
0002c0 3b fb dc 3d 5e b2 ad 3d fc b6 a1 3c d7 71 c3 3c
       0.10790106 0.084812865 0.019740574 0.023857994
0002d0 3a d2 91 3d 21 77 b8 3d d6 e9 93 bd 78 88 aa bc
       0.07120176 0.09007097 -0.07222335 -0.020817026
0002e0 cb 71 a8 bd e1 bf 7e bd c7 d7 4c 3d 9d 93 3d bd
       -0.08224829 -0.06219471 0.05001047 -0.046283353
0002f0 5f 1f 73 bd 44 19 b2 bc 1e ae b8 bd bc 6c e0 bc
       -0.05935609 -0.021740563 -0.09017585 -0.027395599
000300 b2 3b a0 bd 1d 5e ca bd c4 c1 b5 3d e9 72 10 bd
       -0.07823886 -0.09881232 0.088748485 -0.035265837
000310 ad 2a d9 bd 18 ee 0f 3d 39 0b e9 bd 1f 88 9c 3c
       -0.10603843 0.035139173 -0.11379094 0.019107876
000320 9e 50 89 3d ab af ad bd 01 1a 94 3c 56 3f b9 bd
       0.0670483 -0.08480772 0.018078806 -0.090452835
000330 6b b3 28 bd 6c 5a ed 3c 99 dd c0 bd 6b 23 55 b9
       -0.04118673 0.02897378 -0.094172664 -0.00020326457
000340 73 fc 8a bd b9 78 84 3c fa 0d cd bc b3 ee 94 bd
       -0.06786432 0.016170846 -0.025031079 -0.07272091
000350 85 0b 8d 3d ee 78 32 3c 6b 19 79 bd cd 28 a9 3d
       0.06886963 0.01089309 -0.060815256 0.08259735
000360 e0 83 a6 3d 1c e0 b1 3d 11 90 30 bd cc 83 99 bd
       0.08130622 0.086853236 -0.043106142 -0.074958414
000370 d9 04 a7 bd 03 36 43 3b 89 b6 a5 bb 3d 99 f9 bc
       -0.081552215 0.0029786832 -0.0050571603 -0.030468578
000380 bf 07 f0 bc 26 1e 2b bd 78 37 ea bc 36 22 a9 bd
       -0.029300569 -0.0417768 -0.028590903 -0.08258478
000390 22 a7 b6 3d 87 bd 84 3d fe dc 2b bc aa d1 b5 bd
       0.08918597 0.06481462 -0.0104897 -0.08877881
0003a0 75 91 10 bd 22 72 32 3c 23 dd 51 bd 2d f3 25 3d
       -0.03529497 0.010891469 -0.051236283 0.040515114
0003b0 1c 4b af bd 8b 11 62 3a 57 4c 50 3c f0 30 e9 bc
       -0.08559248 0.000862383 0.012713513 -0.028465718
0003c0 3a 7c b5 3c 90 ec dd bb 98 f9 81 3d 09 9f a0 3d
       0.022153962 -0.006772585 0.06346434 0.078428335
0003d0 54 57 e9 3c 00 15 b6 3d ee f1 2e bd bb 3b 81 bd
       0.028484024 0.08890724 -0.04271119 -0.06310221
0003e0 7d 3c a2 3d a8 bc 15 bd 44 22 a4 3c 26 2e 5b 3d
       0.079216935 -0.03655687 0.02003587 0.053510807
0003f0 85 a1 a4 3c 21 47 8a bd b0 3e b6 bd 82 46 ac 3d
       0.02009655 -0.06751848 -0.088986754 0.08411886

linear1.bias f4 [128]
000000 03 e0 89 bd 97 ce e5 bc 10 10 14 ba 70 c6 ab 3c
       -0.0673218 -0.028052611 -0.00056481455 0.020968646
000010 e1 04 f9 bd aa 9b dc bd 78 f5 82 bd eb 28 96 bd
       -0.12159134 -0.10771878 -0.06394476 -0.07332023
000020 f6 25 a8 3d a5 b5 52 bd b5 68 14 3d 8b e3 ac bb
       0.082103655 -0.05144276 0.03623267 -0.0052761487
000030 0a 8b 1b 3d 0b 98 8a 3d b7 1a 30 3d a7 a8 9a bd
       0.037974395 0.06767281 0.042994227 -0.07551699
000040 a3 97 8a 3d 2b ea 9a 3d 69 29 2f bc 57 83 0c bd
       0.06767204 0.07564195 -0.010691025 -0.034304943
000050 94 08 04 3d 4e 6f b2 3d 93 49 9d bd cd 09 b0 bd
       0.032234743 0.08712636 -0.07680049 -0.08595619
000060 ec a5 8d bd 7b 15 68 bd 69 61 dd bd 3c 66 22 bd
       -0.06916413 -0.05666111 -0.10809595 -0.03964828
000070 f1 37 c9 3d 18 bb b8 3d ad 40 8f bd 7f 74 56 3c
       0.09825123 0.0902006 -0.06994758 0.013089298
000080 d9 86 1f 3b 38 52 cc bb 94 53 cf 3d aa 9e fa bb
       0.002434185 -0.006235387 0.10123363 -0.0076483088
000090 67 db cf 3d bd b5 61 bd 45 2a 7c 3d 07 a2 5f bd
       0.101492696 -0.05510496 0.06156375 -0.05459788
0000a0 2e d9 8f 39 f8 b2 cd 3c 4d 56 8a 3d 2f c7 d6 bd
       0.00027436897 0.025109753 0.06754742 -0.1048721
0000b0 64 6c e8 bc 1c aa 93 bc 0b 9c ca 3c c8 4a 89 bd
       -0.028371997 -0.01802545 0.02473261 -0.067037165
0000c0 40 27 2c bd db 7e a3 3b 68 ea 6e bd 46 6d 57 bd
       -0.04202962 0.0049894876 -0.058329016 -0.052594446
0000d0 bb 28 e0 3c 65 99 08 3d 27 3b d2 3d 8d 5d b7 bd
       0.027363172 0.033349413 0.10265189 -0.0895339
0000e0 2a 9f 9d bd 8f 15 dd bd 4e 7a e6 bd 94 d5 a0 3d
       -0.07696374 -0.107951276 -0.112537965 0.07853237
0000f0 d2 ca 80 3d 9f e0 9a bd 43 1a 26 bc e9 0e 70 3d
       0.06288685 -0.07562374 -0.010138097 0.05860797
000100 be dd a1 bd a6 3a 95 bd c8 27 34 3d 80 c5 71 bd
       -0.07903622 -0.07286577 0.04398325 -0.05902624
000110 de 43 bc 3d 0c ca 86 bd 16 55 e4 3d e5 c1 84 bd
       0.09192632 -0.06581506 0.11149041 -0.06482295
000120 32 d8 ca bd 2a 2c 2d bd ec 63 33 bc d1 be fb 3c
       -0.09904517 -0.042278446 -0.010949116 0.030730637
000130 32 91 49 3a 34 0a 68 3d b3 29 89 3d e2 c8 37 3d
       0.00076891773 0.056650355 0.066974066 0.04486931
000140 f4 6f b6 bd f9 8c c0 bd 71 50 43 bd c4 cf e1 bd
       -0.08908072 -0.094018884 -0.047684137 -0.11025956
000150 8a 96 69 3b 64 9c b3 bd 80 32 88 3d af 00 98 3d
       0.0035642707 -0.087700635 0.06650257 0.074220054
000160 cb ec c7 bc dd 58 b1 3c ef 85 3a bd 93 91 c3 bd
       -0.024404904 0.021648819 -0.045537885 -0.095492505
000170 2c 12 46 bd 88 be 84 bd ab 59 a4 3d 62 db a1 3b
       -0.048357174 -0.064816535 0.08024915 0.0049394825
000180 b8 2d 91 ba 15 12 90 3b 29 79 4b 3c d8 43 d2 bd
       -0.0011076247 0.004396687 0.012419024 -0.102668464
000190 7d 8a 55 3d b1 2d 84 3c 12 0e 91 3d 51 db 8d 3d
       0.052134026 0.016135069 0.07082762 0.06926597
0001a0 56 0d 57 bc eb 55 ee bd 0d cc c2 bd 70 0a 1d bd
       -0.013125738 -0.11637481 -0.09511576 -0.038340032
0001b0 55 44 61 3d 6d 58 07 3c 78 b9 da bd 31 80 07 bd
       0.054996807 0.008260828 -0.106799066 -0.033081237
0001c0 bd 75 2f 3c 6d d7 3b bc 3e d2 7f bd 69 cc 97 bd
       0.010709223 -0.011464936 -0.062456362 -0.07412035
0001d0 ab 5c f9 bc 37 66 aa bc 04 ac d6 bd 3b 40 a9 3c
       -0.030439695 -0.020800693 -0.10482028 0.02066051
0001e0 7b e7 02 3d 7c c1 a3 3a 39 7e b8 3c cc 6c 96 3d
       0.03195904 0.0012493576 0.022521125 0.0734497
0001f0 df 53 39 3b bc e3 87 3d e1 3f 5a 3d 11 cd ad bd
       0.002827875 0.06635234 0.053283576 -0.08486379

norm1.weight f4 [128]
000000 a6 e5 7f 3f 9c bf 80 3f 32 20 7e 3f 74 67 80 3f
       0.9995979 1.0058475 0.99267876 1.0031571
000010 00 00 80 3f 00 00 80 3f b8 30 7f 3f f2 1a 7f 3f
       1.0 1.0 0.99683714 0.9965049
000020 5c 29 81 3f d4 59 80 3f f3 58 81 3f 1d fa 80 3f
       1.0090747 1.0027413 1.010527 1.0076329
000030 88 74 7e 3f f6 b5 80 3f c8 ad 7f 3f f1 83 7f 3f
       0.9939656 1.005553 0.99874544 0.998107
000040 bf 78 80 3f 33 19 7f 3f 67 b7 7f 3f 39 80 80 3f
       1.0036849 0.99647826 0.99889225 1.003913
000050 7e a3 7e 3f 45 96 7e 3f 64 b9 7d 3f bd 5a 7e 3f
       0.9946822 0.99448043 0.9911101 0.99357206
000060 b4 6b 80 3f 8a af 80 3f 00 00 80 3f e9 22 81 3f
       1.0032868 1.005357 1.0 1.0088779
000070 21 78 81 3f 7f 59 80 3f 33 82 7f 3f fd 1e 7e 3f
       1.0114785 1.0027312 0.99808043 0.99266034
000080 62 cb 80 3f fe e7 7f 3f ac 74 80 3f 7a 2e 7d 3f
       1.0062068 0.99963367 1.0035605 0.9889904
000090 7b 07 80 3f 58 62 81 3f 2c 2d 7f 3f 21 92 7d 3f
       1.0002283 1.0108137 0.996783 0.990511
0000a0 05 75 7e 3f 75 71 80 3f db a9 7c 3f ac af 81 3f
       0.9939731 1.0034624 0.9869668 1.0131736
0000b0 61 3b 80 3f 15 00 7e 3f dd 77 80 3f fc 9b 80 3f
       1.0018121 0.99218875 1.0036579 1.0047603
0000c0 67 5a 7f 3f 60 d8 80 3f 3d 6d 7f 3f 80 fd 7f 3f
       0.9974732 1.0066032 0.9977606 0.99996185
0000d0 50 36 82 3f 53 38 80 3f 5e fd 80 3f d0 84 7f 3f
       1.0172825 1.0017189 1.0077322 0.9981203
0000e0 00 00 80 3f a7 66 7e 3f 60 4f 7f 3f 73 9c 80 3f
       1.0 0.99375385 0.9973049 1.0047745
0000f0 10 8a 7e 3f c3 97 7e 3f 26 95 7d 3f ee 9a 80 3f
       0.99429417 0.9945032 0.9905571 1.0047281
000100 f8 cd 81 3f 0c 87 7f 3f 41 a0 7e 3f 31 ea 7e 3f
       1.0140982 0.9981544 0.9946328 0.995761
000110 55 a7 81 3f 99 86 7e 3f 5b 83 80 3f 21 ac 7d 3f
       1.0129191 0.9942413 1.0040087 0.9909077
000120 b4 6e 7f 3f db af 7d 3f e8 a4 7e 3f ad 27 7f 3f
       0.99778295 0.9909646 0.99470377 0.99669915
000130 0d 93 80 3f 6e 0b 81 3f 04 4f 7f 3f c0 d0 80 3f
       1.0044876 1.0081613 0.99729943 1.0063705
000140 51 1f 7f 3f e0 f1 82 3f 8d 10 80 3f 74 35 80 3f
       0.9965716 1.0230064 1.0005051 1.0016313
000150 60 03 81 3f ab 2b 80 3f 02 95 7e 3f 15 7d 7e 3f
       1.0079155 1.0013326 0.9944612 0.9940961
000160 d1 c4 7e 3f b2 8f 80 3f d7 0c 81 3f fb 5c 7f 3f
       0.9951907 1.0043852 1.0082043 0.9975125
000170 bb 11 7f 3f b7 db 7e 3f d9 74 80 3f 99 a8 7e 3f
       0.9963643 0.9955401 1.0035659 0.9947601
000180 16 2a 80 3f c2 66 7e 3f 85 a2 7e 3f b4 35 80 3f
       1.0012844 0.99375546 0.99466735 1.0016389
000190 23 aa 80 3f b9 5f 7e 3f 46 22 7e 3f 4f 3d 7f 3f
       1.0051922 0.9936481 0.9927105 0.99702924
0001a0 d6 68 7e 3f 40 0c 81 3f 80 a6 80 3f 1c 09 80 3f
       0.99378717 1.0081863 1.0050812 1.000278
0001b0 5f 37 80 3f 23 93 7f 3f 3a a4 7c 3f e0 1c 81 3f
       1.0016898 0.9983389 0.9868809 1.0086937
0001c0 56 e8 7f 3f 49 8f 81 3f 6f ac 7e 3f ae 8e 7f 3f
       0.9996389 1.0121852 0.9948186 0.99827087
0001d0 2a ce 7e 3f c7 aa 7c 3f 8c 88 80 3f 5c 3a 7f 3f
       0.9953333 0.98698086 1.0041671 0.99698424
0001e0 01 67 7f 3f 59 d1 80 3f 59 0b 80 3f 73 86 7d 3f
       0.99766546 1.0063888 1.0003463 0.9903328
0001f0 d1 8a 82 3f 2f 00 81 3f 74 b1 81 3f dd e7 7f 3f
       1.0198613 1.0078181 1.0132279 0.9996317

norm1.bias f4 [128]
000000 75 89 25 bb dd 52 e7 3b c0 8e 96 ba 40 0e bf 3b
       -0.0025258933 0.0070594386 -0.0011486635 0.005830556
000010 00 00 00 00 00 00 00 00 58 4f 67 bb af e6 8e bb
       0.0 0.0 -0.0035295095 -0.0043609957
000020 4f ca 0a 3c 2e 92 16 3c 55 d2 ec 3b 31 19 e6 3b
       0.008471086 0.009190125 0.007227222 0.007022046
000030 88 94 60 bb 32 64 29 3c f2 05 8e bb b9 10 34 bb
       -0.003426822 0.01033883 -0.004334205 -0.0027475788
000040 8a dd c4 3b cd 0d 16 bb 18 ab 83 3b 2b b3 9c b8
       0.006007855 -0.002289641 0.0040181987 -7.472032e-05
000050 6c 6a 64 bb 53 f4 9e bb 63 47 c6 bb b5 7b 53 bb
       -0.0034853471 -0.004850903 -0.0060509904 -0.003226978
000060 dd 9d 4f 3a 7e c8 24 3c 00 00 00 00 da 30 fd 3b
       0.0007919947 0.010057567 0.0 0.007726771
000070 e5 4b ae 3b 3b a7 8d 3b 5c 72 6e bb 94 78 b9 bb
       0.005319106 0.004322914 -0.0036384081 -0.005660126
000080 90 8f dd 3b 45 93 f8 ba 28 c1 14 3b 96 f7 fd bb
       0.0067614987 -0.0018964788 0.0022698138 -0.007750462
000090 f3 ed 23 bb 02 21 4a 3c 9d 79 a5 ba 90 65 75 3b
       -0.0025013655 0.012336971 -0.0012624745 0.003744457
0000a0 63 3c cd bb b2 aa 08 3c 0d d2 3e bc ac 22 d7 ba
       -0.006263302 0.008341478 -0.01164676 -0.0016413531
0000b0 41 a3 1f 3c 8a ae 8d ba 76 32 57 3c ed b3 6b 3b
       0.009743513 -0.0010809463 0.013134589 0.0035965398
0000c0 c5 ad 73 ba cc 2b e4 3b 6c 8a aa ba 7c 5e 4f 3a
       -0.0009295608 0.006963229 -0.0013011224 0.00079105026
0000d0 00 31 80 3b 6d 15 8e 3b 8b 30 06 3c 6c bf 24 bb
       0.0039120913 0.0043360502 0.0081902845 -0.002513851
0000e0 00 00 00 00 64 c1 ba 3a c0 d9 31 ba 84 74 cc 3b
       0.0 0.0014248309 -0.00067844614 0.0062394757
0000f0 09 6e 41 bb b2 d2 0c 3b f5 2d 92 bb 68 47 be 3b
       -0.002951505 0.002148789 -0.004461045 0.005806852
000100 5a b0 07 3c 57 06 ba bb 24 ad 1d bb b3 b3 95 3b
       0.008281792 -0.0056770253 -0.0024059499 0.004568541
000110 f6 b1 32 3c 8a 40 a4 bb 57 ff b9 3b c1 5f 95 bb
       0.010906687 -0.0050125765 0.005676191 -0.004558534
000120 e2 26 5e bb c1 bd 35 39 f6 0c d5 bb 2f 82 70 ba
       -0.0033897688 0.00017332194 -0.006501789 -0.00091746723
000130 b5 fe 12 bb 74 c4 fc 3b 9d bb 23 bb 97 1c 20 3c
       -0.002242965 0.0077138487 -0.0024983652 0.009772441
000140 fb e5 75 bb f0 ca 8f 3b 40 fd a9 3b ea 02 4c ba
       -0.0037521112 0.0043882057 0.0051876605 -0.00077824167
000150 e5 25 18 3c dd bb c4 3b 58 be 6b 3b e9 22 f8 ba
       0.0092863785 0.0060038404 0.0035971608 -0.0018931302
000160 82 2e 4b ba e1 cd 8b 3b bd bc 00 3c e9 de 1c bb
       -0.00077507657 0.004266486 0.007857499 -0.0023936576
000170 de 69 1c b7 7d f1 d5 bb 87 d1 17 3c 05 b5 00 3c
       -9.322974e-06 -0.006529032 0.009266264 0.007855658
000180 ac 4f b1 3a ca 51 03 ba e6 04 21 bb 18 1b ec bb
       0.0013527772 -0.0005009441 -0.002456957 -0.0072053783
000190 83 7e fb 3b a6 71 9d bb 9b 8c 7b bb 95 e6 bb bb
       0.0076749935 -0.0048048077 -0.0038383368 -0.0057342746
0001a0 d8 86 30 bb 76 4b 48 3b 89 d9 7b 3a b1 0b bc 3b
       -0.0026935842 0.0030562556 0.00096073054 0.0057386984
0001b0 eb ff 9b 3b 82 7a 27 bb 9d 72 ce 3b 02 20 cc 3b
       0.0047607324 -0.0025555198 0.006300284 0.0062294016
0001c0 bb 0c 95 3a 1a b1 4a 3b 55 95 af bb 55 eb ac 39
       0.0011371592 0.0030928315 -0.005358378 0.00032981733
0001d0 76 23 c8 b8 e1 b9 81 bb bb c8 77 3b 63 3e 47 bb
       -9.543348e-05 -0.003958926 0.0037808854 -0.0030402176
0001e0 cc f9 b0 bb c9 c2 68 ba 1b ff e9 3a 58 a5 87 3c
       -0.005400872 -0.0008879123 0.0017852517 0.016558334
0001f0 4f 56 20 3c 56 1f ed 3b 08 06 20 3c de 8f 8c 3a
       0.009786203 0.0072364016 0.009767063 0.0010724028

linear2.weight f4 [128, 128]
000000 04 77 93 bd 47 50 bb 3c f8 7e a5 bb 0b 0d 0f 3d
       -0.07200435 0.022865428 -0.0050505362 0.034924548
000010 b0 75 74 bd dc ba 8c bd ab 42 b9 bd 18 ea 8d bc
       -0.059682548 -0.06871578 -0.09045919 -0.017323539
000020 11 89 6b bc 06 c0 ad 3c ff 8a 34 3c 4b 15 0f bd
       -0.014375941 0.021209728 0.011019467 -0.034932416
000030 55 4a e4 3c 37 e7 55 bd 5e fc 47 bc 08 4c 95 3d
       0.027867476 -0.052222457 -0.012206165 0.072898924
000040 a3 6c 32 bd 0f 87 2d bd 18 74 8c bd 62 c4 3f 3c
       -0.043560635 -0.04236513 -0.068580806 0.011704536
000050 4a 41 b4 3b 9f b0 35 3d f1 6c 8c bd ee 3f 68 bd
       0.005500947 0.044357892 -0.068567164 -0.056701593
000060 67 4c f5 3c 62 3c da 3d a8 3f aa bd 32 cd 30 3d
       0.029943658 0.10656048 -0.08312923 0.04316444
000070 e6 a1 03 3d 03 56 25 3d 7a 0a 0c 3d e1 6e 85 bd
       0.03213682 0.04036523 0.03418968 -0.06515289
000080 59 91 6c bd 6a e4 79 bc df 65 8d 3d 24 7b bc bd
       -0.0577558 -0.015252212 0.06904196 -0.09203175
000090 b5 f4 3d bc 86 45 25 3d e8 50 a7 3d 24 47 a7 bd
       -0.011593987 0.040349506 0.081697285 -0.08167866
0000a0 c0 9d b1 bc 0a 35 93 3d 48 e0 9f bc 46 ea 97 bd
       -0.021681666 0.07187851 -0.019516125 -0.07417731
0000b0 db 33 98 3c 7d f0 9e 3d 9c 5b 54 3d 4d 5e 93 3b
       0.018579414 0.07760713 0.051845178 0.0044973255
0000c0 b5 63 68 bd 35 bf 0d 3d 99 65 43 3b c8 07 5d 3d
       -0.056735713 0.034606177 0.0029815196 0.0539625
0000d0 1c 2a 0f bd ed eb 86 3d d8 1e 46 3d 71 00 a6 bd
       -0.034952268 0.06587968 0.04836926 -0.08105553
0000e0 1a b8 7d 3d ea 73 7c bc d5 d5 3b 3d ae a9 b3 3d
       0.06194315 -0.015408495 0.045858223 0.08772598
0000f0 92 f5 bf bc 1e e4 ad 3d 5f 2f 2e 3d ea fc 44 bd
       -0.023432527 0.084907755 0.042525645 -0.04809276
000100 46 2c 1b bb 24 18 5b 3d b4 5e 69 bd fd 41 82 3d
       -0.0023677512 0.05348982 -0.05697508 0.063602425
000110 35 58 20 3d 18 5c 65 3d ac 3f 71 bd 27 a8 91 3d
       0.03914662 0.05599603 -0.058898613 0.07112151
000120 73 87 9f 3d 72 30 79 bc 55 dd 15 bd c4 da b0 3d
       0.07789507 -0.015209304 -0.03658803 0.08635476
000130 ed d8 0c 3d da 9e 8c 3d a1 80 67 bd 5d cf e6 bc
       0.034386564 0.06866236 -0.056519154 -0.02817505
000140 74 0e 3f bd 24 58 1f 3d 9a 34 07 bd c1 a4 89 bd
       -0.046644643 0.038902417 -0.03300915 -0.067208774
000150 e0 9c b1 bb cf de 75 3d 7d 8c f7 3b 89 38 df ba
       -0.0054203123 0.06002694 0.0075545893 -0.0017030399
000160 23 03 47 3d bf 02 6c 3d 68 08 f0 3c 5b 99 08 3d
       0.048586976 0.057619806 0.029300883 0.033349376
000170 2a 47 2a 3d f2 3c 67 3c 09 6b 97 3d 16 8e ae bd
       0.041571774 0.014113652 0.07393462 -0.085231945
000180 b8 17 73 3d e3 ce a7 bd e6 ec ed bc 09 fa 10 bd
       0.05934879 -0.081937574 -0.029043626 -0.035394702
000190 28 88 dd bc dd 57 a3 bc 80 43 8c 3d 1b 98 67 3d
       -0.027042463 -0.019939357 0.06848812 0.056541543
0001a0 50 e2 31 3d eb f2 14 bd 6b c0 9e bc bb f3 9f bc
       0.04342872 -0.036364477 -0.019378861 -0.0195254
0001b0 09 ff b8 3c c6 13 a0 3d ac 41 d7 3b 2d 5e 0f bc
       0.022582548 0.078162715 0.006569108 -0.008750481
0001c0 de 40 9f bd 38 58 bc bc 87 2a 59 bd a5 18 31 3b
       -0.07776044 -0.022991285 -0.053019073 0.0027022746
0001d0 96 8d da 3c eb e7 68 bc 77 0d ba 3c 08 30 10 bd
       0.026678842 -0.01421545 0.022711499 -0.035202056
0001e0 58 2a 89 3d a3 86 ea ba b3 c5 3e bc ab 1d 1e bd
       0.066975296 -0.0017892908 -0.011643815 -0.038602512
0001f0 80 cb 8e 3d 69 25 8c bd e9 b4 94 bc 8b 24 67 bd
       0.06972408 -0.06843073 -0.018152671 -0.056431334
000200 7a c2 3d bd 54 6a 9b 3d c6 7a e8 bc 6e 10 1e 3d
       -0.046328045 0.0758864 -0.028378855 0.038589887
000210 90 6f 72 3c f9 d0 ac 3d 5b 85 0a bd b3 81 69 bd
       0.014797106 0.08438296 -0.033818584 -0.057008456
000220 68 fd 87 bd cf 3e 13 3c 30 c3 20 3a 51 27 3b bd
       -0.0664013 0.008987143 0.0006132601 -0.045691792
000230 c4 ea ab 3d c0 67 94 bd 7e 81 9b bc 2b 63 a2 bd
       0.08394387 -0.07246351 -0.018982645 -0.07929071
000240 13 3d 69 bc 81 2b 70 3d 71 3f 1e bd 38 e1 f1 3b
       -0.014235753 0.05863524 -0.03863472 0.0073815845
000250 b6 ae 6f bb 4d 43 8a 3c b5 be 40 bc de 7e c0 3c
       -0.0036572642 0.016877795 -0.011764218 0.023497995
000260 82 2a 10 3d 8c 0e 44 bd f4 2d 78 bd dc 3d 8b 3c
       0.03519679 -0.047865435 -0.0605907 0.01699727
000270 ac 9e 6b 3d 19 47 64 3d 2a 32 2e 3d 87 04 73 3d
       0.05752437 0.055731867 0.04252831 0.05933049
000280 40 4f 95 3d 0d c5 88 3d 81 b0 b0 3c e2 e9 79 3d
       0.07290506 0.066782095 0.021568539 0.061014064
000290 f7 a7 54 bd d6 91 6b 3d 25 64 80 bd 06 d2 ac 3d
       -0.051917996 0.057512127 -0.06269101 0.08438496
0002a0 9d 95 9e 3c 61 cc 26 3d 1a 30 48 3d fb dd 99 bc
       0.01935845 0.040722255 0.048874 -0.018782606
0002b0 64 34 b9 bc d8 45 c3 bb c7 1c 9e bd b5 3f 00 3c
       -0.02260799 -0.0059592538 -0.077203326 0.007827689
0002c0 05 d2 59 3c 22 aa 74 3d e7 70 74 3d 6c 50 8f 3d
       0.013294701 0.059732564 0.059677985 0.06997761
0002d0 38 38 65 bc 60 40 e4 3b 16 8a 0e 3d a4 6c ce 3c
       -0.013990454 0.006965682 0.034799658 0.025198288
0002e0 80 7f c4 3b 44 6e d4 3b 5f 85 1e bd 34 e3 90 3d
       0.0059966445 0.0064828712 -0.03870141 0.070745856
0002f0 c4 c7 09 3d cb 8d a5 bd 47 ec 5f bd 89 ed bb 3b
       0.033637777 -0.080836855 -0.05466869 0.0057351035
000300 18 cb 07 3d 4a 43 2f 3d 2c 76 99 3d c0 cc 83 bd
       0.03315267 0.04278878 0.074932426 -0.06435537
000310 64 57 2d 3d cd a9 44 bd 6e ba 75 3d 47 94 1e 3d
       0.04231967 -0.048013497 0.059992246 0.038715627
000320 ae 48 aa 3c ad 51 1a bd 5f 11 d0 3c 5a 0e 94 3d
       0.02078661 -0.03767555 0.025398908 0.072293
000330 f7 e0 fe bc fc 72 9c bd e5 5a a1 bd ab 1c 45 bd
       -0.031113131 -0.07639119 -0.07878665 -0.048123043
000340 e7 66 9d bd af 30 c7 3c 05 73 22 bd f4 f3 fc bb
       -0.07685643 0.024315206 -0.039660472 -0.007719511
000350 3a e3 8d bd f4 b8 3c 3d 08 74 2c bd e7 bb 00 3d
       -0.06928106 0.046074823 -0.042102844 0.031429198
000360 cc 3b 4f bd 38 6a d0 bc 12 94 01 bd 93 0f 8e bd
       -0.050594136 -0.025441274 -0.03163535 -0.06936564
000370 1e e8 69 3d da 6f 0a 3d 3a 80 72 bd 7a 9b 92 3d
       0.05710613 0.033798076 -0.059204318 0.07158561
000380 db bc f9 3c 89 e9 cb 3b 9b ad 89 3c 30 ee a5 bd
       0.030485561 0.006222908 0.016806414 -0.08102071
000390 b1 b2 99 3d ca 5f c8 bc a0 f9 83 3d d3 8c a3 bc
       0.07504786 -0.024459738 0.064440966 -0.019964611
0003a0 a8 1b 14 bb 2d 6d a2 bd 51 17 ef bc d2 2e b1 3b
       -0.0022599492 -0.0793098 -0.029185923 0.0054071927
0003b0 7a d1 a4 3d 5a a4 e0 3c 2b c1 6c bc aa a2 91 3b
       0.08047767 0.027422119 -0.014450352 0.00444444
0003c0 1b 34 ed bc 2e dc a4 bc 2c d2 93 bd b9 0b da 3c
       -0.02895551 -0.020124521 -0.072178215 0.026616918
0003d0 8a 0f 8b 3d cf a1 be 3c 9a 1e 59 bd df e6 9f 3c
       0.06790073 0.023270516 -0.0530077 0.019519268
0003e0 4f 9f d6 3a 95 e8 8e 3d 54 8a 1b 3b 1a c8 23 bc
       0.0016374382 0.06977955 0.0023733573 -0.009996438
0003f0 e6 de 88 bd f9 0f 76 3d c7 27 65 bd 52 30 bf bd
       -0.066831395 0.060073826 -0.055946138 -0.09335388

linear2.bias f4 [128]
000000 3c e6 2d 3d 10 e0 9b bd f2 5f 26 3d e0 b3 8a 3d
       0.042455897 -0.07611096 0.040618844 0.0677259
000010 13 d4 fc 3c 4b 02 f1 bc 90 b8 ac bd 72 1c 39 bd
       0.030862844 -0.029420039 -0.0843364 -0.045193143
000020 b5 ac 73 3d f2 10 3b bd 5e da 09 bd 81 b9 a8 b7
       0.059490878 -0.045670457 -0.033655517 -2.0113543e-05
000030 45 5b b8 bc 07 14 ca bc 7a 60 d9 3b 14 f0 60 3c
       -0.022504458 -0.024667753 0.0066338154 0.013729114
000040 f4 49 cb 3c 16 e0 13 3c d2 ba c0 3d 6f f7 9c 3d
       0.024815537 0.009025594 0.09410633 0.07664382
000050 e6 1e 47 3c 59 fe 9b 3d dd 08 0e 3c 65 b4 1f 3d
       0.012153363 0.07616872 0.008669105 0.038990397
000060 e8 b0 44 bd 54 f1 2e 3d 9b 72 98 bd 29 90 1c 3d
       -0.048020273 0.042710617 -0.07443734 0.03822342
000070 98 7d 41 bd f2 8a 6b bd 12 76 88 bd c5 fa 86 3d
       -0.047238916 -0.057505555 -0.06663145 0.06590799
000080 48 3e 36 bd ec ce 9c 3c 19 5c 8d bd 4e 2f 9f 3d
       -0.04449299 0.019141637 -0.06902332 0.077726945
000090 c9 7c 89 bd fb b0 1c 3d fc e7 9d bd ca e5 0c 3d
       -0.06713254 0.03825472 -0.07710263 0.03439883
0000a0 f5 d4 19 bd 0a 62 5a bd 22 4d dd bc 64 77 a2 bd
       -0.037556607 -0.053316154 -0.027014319 -0.07932928
0000b0 19 60 99 bc 05 fc e5 3b 10 36 43 3c 50 b6 ba bd
       -0.01872258 0.0070185685 0.011914745 -0.091168046
0000c0 be 67 47 bd 70 59 80 3d 62 ee b3 bd af 5a b6 3d
       -0.04868292 0.06267059 -0.08785702 0.08904015
0000d0 2d a1 ba 3c 07 4b 95 3d 74 8e 76 3d 01 3c 99 bc
       0.022781933 0.07289701 0.060194448 -0.01870537
0000e0 c5 36 07 bc 1e c2 9f 3a 07 e4 67 3d f2 d9 a7 3d
       -0.008252804 0.0012188589 0.05661395 0.08195867
0000f0 0e bc d5 bb 16 8f e3 3c 64 0e 5e bd e0 92 83 3d
       -0.006522662 0.02777819 -0.054212943 0.064244986
000100 a4 d5 8c 3d 0f e2 8f bd c8 bf 17 3d 7b 40 ef bb
       0.06876686 -0.07025539 0.03704813 -0.007301388
000110 d9 6d d7 bc b0 07 4c bb 14 48 3f 3b 4e 43 78 bd
       -0.026297497 -0.0031132512 0.002918725 -0.06061106
000120 37 40 3f 3c 99 aa a3 3d 85 78 b2 bd e7 ca 9c 3d
       0.011673025 0.07991523 -0.087143935 0.07655888
000130 56 8c 2a 3d ff 63 77 3d de 79 28 bd 4c 56 dd 3c
       0.04163774 0.060398098 -0.041131847 0.027018689
000140 0b 87 31 bc da 33 02 3d 54 84 36 3d 45 54 11 3d
       -0.010835419 0.03178773 0.04455979 0.035480756
000150 e8 3a 6a bb 7b 84 ee bc f1 a8 d1 ba ac f5 99 3d
       -0.0035740677 -0.029115906 -0.0015995783 0.07517561
000160 42 1a 56 bd 3f 5a 4e bd d2 fb 76 3d 17 e9 7f bd
       -0.052271135 -0.050379034 0.06029875 -0.06247815
000170 28 5d 96 bc f6 7a 10 bd 7c 2e 74 bd 22 69 17 bd
       -0.018354967 -0.035273515 -0.059614643 -0.036965497
000180 14 80 b5 3d b3 51 28 bd 60 19 01 3d 99 b9 1c 3d
       0.088623196 -0.04109354 0.03151834 0.038262937
000190 0c 27 c0 37 89 ba 5c 3d eb fb 87 bd eb 02 b8 3d
       2.2906366e-05 0.05388883 -0.066398464 0.089849316
0001a0 0c 37 9f bc cc 68 1e bd ba ee 64 3c 16 98 37 3d
       -0.019435428 -0.03867416 0.0139729325 0.044822775
0001b0 73 37 8a 3d 3b 7e 73 3c d1 46 23 3b d9 99 a4 bd
       0.06748857 0.014861639 0.0024914036 -0.080371566
0001c0 a1 7c 83 bd 28 61 97 bd 7e 0c 7f bc 76 21 11 bd
       -0.064202555 -0.07391578 -0.015566943 -0.0354323
0001d0 22 eb a3 bd 29 54 ab bc c6 f4 6c bd 9b 95 8c bd
       -0.080038324 -0.020914154 -0.05785062 -0.068644725
0001e0 ee 58 b8 3d df 80 e3 3c 4b 7a 88 3d 60 ef 59 3d
       0.09001337 0.027771411 0.066639505 0.0532068
0001f0 5b c0 27 3d 03 a9 7a 3d d8 1c ff bc 94 13 35 bd
       0.04095493 0.06119634 -0.031141683 -0.044208124

norm2.weight f4 [128]
000000 9e 44 7d 3f 33 e1 7d 3f 3e aa 7f 3f e5 22 83 3f
       0.98932827 0.9917175 0.99869144 1.0245024
000010 bb 68 7b 3f 71 f1 81 3f 00 00 80 3f 00 00 80 3f
       0.9820668 1.0151807 1.0 1.0
000020 00 00 80 3f 56 a5 7f 3f be 0d 7f 3f 8a 55 7f 3f
       1.0 0.9986166 0.99630344 0.997399
000030 b5 0e 7f 3f d6 d1 80 3f fe 0d 7f 3f ab 2e 81 3f
       0.99631816 1.0064037 0.99630725 1.0092367
000040 ab 0a 7f 3f 78 4d 7b 3f c2 cd 7c 3f 7b 19 7f 3f
       0.99625653 0.9816508 0.9875146 0.99648255
000050 90 9b 80 3f 2c e6 7f 3f 59 e8 7e 3f 61 f3 7f 3f
       1.0047474 0.9996059 0.99573284 0.9998074
000060 7e 26 7e 3f 00 00 80 3f 5d b4 7f 3f e9 60 7d 3f
       0.99277484 1.0 0.9988459 0.98976
000070 03 0b 82 3f 2a 24 7e 3f 8f 4a 82 3f 49 19 80 3f
       1.015961 0.9927393 1.0179003 1.0007716
000080 ec 17 7e 3f 32 63 7e 3f df f9 81 3f 1d 71 7d 3f
       0.9925525 0.9937011 1.015438 0.9900072
000090 db 14 80 3f 22 34 7f 3f 76 fd 7e 3f 4b 92 7e 3f
       1.0006365 0.99688923 0.996055 0.99441975
0000a0 ca c0 7a 3f 62 b3 7f 3f 02 4e 7e 3f 5e b3 7e 3f
       0.9795042 0.9988309 0.9933778 0.9949244
0000b0 6c 80 7e 3f 40 19 80 3f 80 67 7b 3f fd 67 80 3f
       0.99414706 1.0007706 0.98204803 1.0031735
0000c0 00 00 80 3f c6 c4 7e 3f 78 97 7f 3f 4b 0d 7e 3f
       1.0 0.99519 0.998405 0.99239033
0000d0 b9 f7 7f 3f 87 79 80 3f 0b 2b 83 3f 55 4a 83 3f
       0.9998737 1.0037087 1.0247511 1.0257059
0000e0 d3 5c 82 3f 8a d2 7e 3f 22 32 82 3f 38 9b 81 3f
       1.0184578 0.9954001 1.0171549 1.0125494
0000f0 00 00 80 3f 83 3c 7e 3f ee a3 7c 3f be be 82 3f
       1.0 0.99311084 0.98687637 1.021446
000100 08 30 80 3f a7 9c 7d 3f f8 1b 7f 3f 22 50 7f 3f
       1.0014658 0.9906716 0.9965205 0.9973165
000110 74 a0 80 3f bd ec 80 3f 97 72 7f 3f 2b ed 80 3f
       1.0048966 1.0072247 0.99784225 1.0072378
000120 da 79 7f 3f c5 bd 81 3f 00 00 80 3f e7 d8 7b 3f
       0.99795306 1.0136038 1.0 0.9837784
000130 a5 5c 7d 3f 10 5d 83 3f d5 d9 7d 3f dd 16 81 3f
       0.9896949 1.0262775 0.9916051 1.0085102
000140 d7 e1 78 3f 77 b4 7e 3f 15 0e 7f 3f 52 fc 80 3f
       0.97219604 0.9949412 0.9963086 1.0077002
000150 d6 a4 7e 3f 23 cc 7e 3f 23 00 80 3f b8 fe 81 3f
       0.9947027 0.9953024 1.0000042 1.0155859
000160 35 91 81 3f 00 00 80 3f 9a 71 7e 3f e1 ef 7f 3f
       1.0122439 1.0 0.9939209 0.999754
000170 24 03 7f 3f 46 44 82 3f 82 8c 7e 3f 97 9d 7f 3f
       0.9961417 1.0177085 0.9943315 0.9984984
000180 16 fa 7b 3f 4f 2b 80 3f 24 74 7f 3f 29 7b 7e 3f
       0.98428476 1.0013217 0.9978659 0.9940668
000190 31 e6 81 3f 40 15 82 3f 86 27 7f 3f 10 09 7f 3f
       1.0148374 1.0162735 0.9966968 0.99623203
0001a0 68 00 7f 3f 17 68 81 3f 39 d2 7e 3f 77 b5 7d 3f
       0.99609995 1.0109891 0.99539524 0.9910502
0001b0 0d f9 7d 3f 00 00 80 3f a8 6b 7e 3f f4 2c 7e 3f
       0.99208146 1.0 0.9938302 0.99287343
0001c0 99 a1 80 3f 58 45 80 3f 29 3e 80 3f e2 98 7f 3f
       1.0049316 1.0021162 1.001897 0.99842656
0001d0 f3 1a 7f 3f 57 a5 7f 3f bc 0b 84 3f d7 5b 7e 3f
       0.99650496 0.99861664 1.0316081 0.99358886
0001e0 9e 7a 82 3f 83 68 80 3f 35 ad 7f 3f 62 af 7e 3f
       1.019367 1.0031894 0.9987367 0.9948636
0001f0 49 07 81 3f d2 2b 7f 3f 01 6f 7e 3f 55 83 80 3f
       1.0080348 0.9967624 0.9938813 1.0040079

norm2.bias f4 [128]
000000 5a 4d fb bb fe 43 bd bb 4e 73 6b 3b c4 c5 e4 3b
       -0.007669133 -0.0057759276 0.0035926881 0.0069815833
000010 67 6e 19 bc 39 65 50 3c 00 00 00 00 00 00 00 00
       -0.009364701 0.012719446 0.0 0.0
000020 00 00 00 00 7b 67 14 3c b7 19 87 bb b7 bc 2c bb
       0.0 0.009057875 -0.0041229385 -0.00263576
000030 2f 78 ab bb 01 a8 f7 3a ae 78 98 39 b3 09 16 3c
       -0.005232833 0.0018894674 0.00029081613 0.009157586
000040 44 3a cf ba 3b 0b 7e 3b bc 7c 99 3b 60 9a 8c bb
       -0.0015810211 0.0038764018 0.004684059 -0.004290864
000050 e5 e4 c8 39 af 43 b5 3b 03 6d 8d bb f6 bf 98 b9
       0.00038317512 0.00553175 -0.0043159737 -0.0002913472
000060 ee ad 20 bb 00 00 00 00 46 bd 99 ba ad 46 94 bb
       -0.0024517733 0.0 -0.0011729382 -0.004525027
000070 9a e1 39 3c 0e bf 3f b9 f8 bf 1e 3c d7 9c c9 3b
       0.0113452915 -0.00018286353 0.009689324 0.00615273
000080 fa c8 95 bb 85 69 d3 bb 79 57 43 3c 81 fd 00 3c
       -0.0045710774 -0.006451788 0.011922711 0.00787294
000090 08 82 92 bb e1 f5 8b bb 43 b7 a5 bb 89 97 ae bb
       -0.0044710673 -0.0042712544 -0.005057247 -0.005328123
0000a0 6e 59 64 bc 96 dd bb 3a 49 7b db bb 6a f5 c7 bb
       -0.013937337 0.0014333006 -0.0066980463 -0.0061022537
0000b0 cd 74 aa bb 1c f8 51 3a f9 f1 53 3b 7e c5 82 b8
       -0.005201912 0.00080096885 0.0032340272 -6.235669e-05
0000c0 00 00 00 00 d7 6b 93 bb 1d 9a 04 bb 7b 80 4f bb
       0.0 -0.0044989395 -0.002023346 -0.0031662274
0000d0 ad 6e 19 3c d9 5e b7 3a c3 8a a7 3c ce 94 67 3c
       0.009364766 0.0013990059 0.020451909 0.014134599
0000e0 86 ba e8 3b 37 c1 67 bb 8a 7f dc 3a a9 fd 71 3c
       0.0071023135 -0.0035362968 0.0016822678 0.01476995
0000f0 00 00 00 00 04 d3 c6 bb 78 38 ec ba 87 a3 57 3c
       0.0 -0.0060676355 -0.00180222 0.013161547
000100 b3 e2 79 3b de ab e1 3b af c9 90 bb 02 33 8a bb
       0.0038129508 0.0068869432 -0.004418574 -0.0042175064
000110 89 d0 2c 3c 1c f4 05 b9 f3 4f 8c bb fa 7a 11 3c
       0.0105477655 -0.00012774806 -0.0042819916 0.008879418
000120 f6 48 5f bb 24 aa 1a 3c 00 00 00 00 ae b5 29 bc
       -0.0034070588 0.009439979 0.0 -0.010358257
000130 5f de c0 bb 1f f6 54 3c 87 b0 3f bc 02 3f 1d 3c
       -0.0058858837 0.012998133 -0.011699802 0.009597542
000140 56 0c 70 bc 90 aa bc bb 50 e7 7d bb a2 b0 9f 3b
       -0.014651379 -0.0057576373 -0.003874261 0.004873351
000150 40 fb b0 bb c8 54 7e bb 8c 10 96 3a b5 9d cd 3b
       -0.005401045 -0.0038807858 0.0011449023 0.0062749037
000160 f9 b0 b1 3b 00 00 00 00 71 93 53 bb 92 f3 64 3b
       0.005422708 0.0 -0.0032283927 0.0034935218
000170 e9 8b 89 ba 27 de 34 3c 4f 0b 7b ba 67 f4 21 3c
       -0.0010493967 0.011039293 -0.0009576575 0.00988493
000180 ad 04 32 3b bc 07 8f 3b fe 17 17 bb ce 81 ae bb
       0.0027163432 0.0043649357 -0.0023055072 -0.0053255325
000190 66 83 1e 3c 8d 3e 74 3c 11 90 a4 bb ac e5 cb b9
       0.0096748825 0.014907491 -0.005022057 -0.00038890296
0001a0 db ac 5d bb 48 14 56 3c 20 73 9f bb 44 1c d2 bb
       -0.0033824954 0.013066359 -0.004866019 -0.006412061
0001b0 0f 81 0f bc 00 00 00 00 a7 aa 16 3c e3 15 e2 bb
       -0.008758797 0.0 0.00919596 -0.0068995818
0001c0 9b 38 03 3c 21 f6 84 3b 38 ba 09 bb 00 13 c1 3a
       0.008009101 0.004057661 -0.0021015536 0.0014730394
0001d0 c2 dc b2 bb e2 e6 c4 3b 72 1e 99 3c 56 f8 87 bb
       -0.0054584453 0.0060089687 0.018691275 -0.004149477
0001e0 11 62 4f 3c c5 c9 69 3b 63 48 73 3b 2e 4f a9 bb
       0.012657658 0.0035673243 0.0037122003 -0.0051669097
0001f0 cd 5e 9a 3b 41 40 da ba dc f5 57 bb de b3 b0 3b
       0.004711008 -0.0016651229 -0.003295294 0.0053925356

linear3.weight f4 [48, 128]
000000 2c 35 9e 3d 32 37 91 3d 27 f8 1c bd cd 8f aa 3d
       0.077249855 0.07090606 -0.038322594 0.08328209
000010 12 c2 8b 3c ab ca ed 3c 60 fc bd 3b 2d 65 b1 3d
       0.017060313 0.029027304 0.0057979077 0.08661876
000020 ee bd 65 3d 84 21 a7 3d ee 51 22 bd ee f2 2c bd
       0.056089334 0.081606895 -0.039628915 -0.042223863
000030 a2 32 85 bc 04 8e 57 bb de 11 09 bd de 36 0f 3d
       -0.016259495 -0.0032891044 -0.033464305 0.034964435
000040 59 d3 31 3d 99 02 fa 3c 43 01 a0 3d ab ae 74 bd
       0.043414447 0.030518817 0.07812741 -0.05973689
000050 ba 1f b7 bd dd 4a 99 3c fd 1a 3e bd c0 8e 7b 3d
       -0.08941598 0.018712455 -0.046412457 0.061415434
000060 00 be 82 3d 28 08 c9 3c 9a 54 21 3d 85 53 a6 3d
       0.06383896 0.024540022 0.039387323 0.08121399
000070 18 d3 b0 3d 07 82 b4 3d 59 32 b4 3b d6 f6 af bd
       0.08634013 0.08813863 0.005499166 -0.08592002
000080 f4 1e f4 3c 0a dc b8 3d 2d 73 59 3c 26 97 84 bc
       0.029799916 0.09026344 0.013272089 -0.016185354
000090 35 88 45 bd 2e da db 3c 5f 43 16 bd fe 1e 6a 3d
       -0.0482256 0.026837435 -0.036685344 0.057158463
0000a0 86 a9 05 bd ca 2d 83 3d e2 83 96 3d 7e 86 87 3a
       -0.032632373 0.06405218 0.073493734 0.0010339764
0000b0 6c 29 68 bd 6a 7e 88 bd a1 1e 7e 3b 7f a5 93 3c
       -0.056680128 -0.066647366 0.003877558 0.01802325
0000c0 7d 4b 93 3d 40 3e a9 bd d2 df 27 3c 96 48 09 bd
       0.071921326 -0.08263826 0.010246234 -0.03351649
0000d0 e8 f6 56 bc d9 76 a4 bc 5e 2b 58 3d 7a 61 59 3d
       -0.0131203905 -0.020076202 0.052775733 0.053071477
0000e0 d9 08 54 bd 17 88 20 bc 34 c2 83 3c cf dd 1d bd
       -0.05176625 -0.009798071 0.016083814 -0.03854161
0000f0 03 dd b0 bd 4a 82 2c 3d 4c bb 18 3b 04 7f 50 3d
       -0.08635905 0.04211644 0.0023304997 0.05090238
000100 6b 81 ad bd 5a 8d cc bc fc 5a af bc df d3 95 bd
       -0.0847195 -0.024969745 -0.02140569 -0.07315802
000110 fd d4 6e bd e6 34 af bc ee 2d 70 3d ed 14 99 bd
       -0.05830859 -0.021387529 0.058637552 -0.074746944
000120 04 60 98 3d c5 23 50 bc a0 19 66 bc de 22 c5 3c
       0.074401885 -0.012703841 -0.014044195 0.024064478
000130 2f 59 54 bd 24 ea da 3d 16 f3 d0 bc 6b 80 66 3d
       -0.051842865 0.1068919 -0.025506537 0.056274813
000140 39 41 42 bd ce 99 a5 bd e1 7b 88 bd a6 51 3e 39
       -0.047425482 -0.080859765 -0.06664253 0.00018150228
000150 24 a3 16 bd 43 71 1e bc 16 bf 93 3d 62 1b 57 bc
       -0.036776677 -0.009670558 0.07214181 -0.013129087
000160 97 6c e9 3c d8 cb 62 3c de fb 23 bd 77 ed a2 bc
       0.028494162 0.013842545 -0.04003512 -0.019888623
000170 a6 c7 2a bd 38 bc 21 bd 2d 22 98 3d 40 14 60 bd
       -0.041694306 -0.03948614 0.074283935 -0.054706812
000180 35 45 6e 3d 9e 76 18 bc 85 28 9c 3d c4 cb 99 bd
       0.05817147 -0.009305624 0.07624916 -0.07509568
000190 30 44 d8 bc b2 07 eb bb dd 62 51 bd 4f 51 25 bd
       -0.026399702 -0.007172548 -0.051119674 -0.040360745
0001a0 ab bd 46 bc b1 f0 88 bb c2 01 a4 bc df e2 8e bc
       -0.012130181 -0.0041790833 -0.02002037 -0.017442165
0001b0 be 75 ac bd a2 43 1a 3d 25 92 0a 3d 1c 4a dc 3c
       -0.08420895 0.037662156 0.03383078 0.026890807
0001c0 96 c5 89 bd f4 c7 a1 3d ab 4b 02 bd 2a 11 9e 3d
       -0.0672714 0.07899466 -0.031810444 0.077181175
0001d0 b1 c6 60 3d eb e2 54 bd b6 3d 3b bc 02 04 a4 bd
       0.054876987 -0.05197422 -0.011428287 -0.08008577
0001e0 ff 6e b9 3b 12 2a 87 bd 70 9b af bd 78 49 04 bc
       0.0056589837 -0.06599821 -0.08574569 -0.008074157
0001f0 33 69 46 bd f4 9c 76 bd 76 a2 de bc 57 d0 92 bd
       -0.04844017 -0.060208276 -0.027177077 -0.07168644
000200 ea eb a2 bd 37 bb 6a 3b 6e 25 d0 3d 78 52 94 3d
       -0.07955153 0.0035817155 0.10163389 0.07242292
000210 19 37 90 bc d1 88 b2 3c 40 1b 83 3a 80 87 0e ba
       -0.017604398 0.021793755 0.0010002628 -0.0005437061
000220 4e a4 4f 3d 3c a9 d7 bc b2 da 4e bb 49 10 8f 3d
       0.050693803 -0.026325814 -0.0031563458 0.06985528
000230 89 41 a0 bd e8 38 b4 3d 6e 3e 86 3c ce 8a a5 bd
       -0.07825 0.087999165 0.01638719 -0.080831155
000240 26 34 07 3d cb 2e 99 bd e3 f3 c8 bd 1a 67 e4 bc
       0.033008717 -0.07479628 -0.09812143 -0.027881194
000250 19 45 9a bd 39 7d 08 bc f0 3c a4 bc 07 71 22 bc
       -0.075327106 -0.008330637 -0.020048589 -0.009914643
000260 59 15 61 bd 01 5b 12 bd 48 8b 88 bc c2 29 04 bc
       -0.054952 -0.03573132 -0.016667977 -0.008066596
000270 51 78 4c bd d1 35 70 3d 51 99 da 3d 16 82 b2 bd
       -0.04991943 0.058645073 0.10673774 -0.08716218
000280 89 3f 9b 3c dd 61 6a bd 86 1b 3f bd 76 09 e3 3c
       0.018951194 -0.057222236 -0.046657108 0.027714472
000290 76 86 71 bd 47 c2 b6 3d 99 89 b1 3c 5a 5d e3 3c
       -0.058966123 0.08923774 0.021672057 0.027754474
0002a0 ac bb 1a bd 30 30 27 3d 8b 62 ab bd f9 b1 12 bd
       -0.037776634 0.04081744 -0.08368405 -0.03581426
0002b0 46 36 8d 3b 22 24 99 3b 0d c6 2f 3d 37 47 c0 3c
       0.0043094484 0.004673497 0.042913485 0.023471458
0002c0 62 52 61 3d 31 cc 0c 3d 61 ba 30 3a 81 a3 d0 bd
       0.055010207 0.03437442 0.000674164 -0.10187436
0002d0 64 52 9f bd 21 73 ce bc 96 01 37 bd ec 50 69 bd
       -0.07779387 -0.025201382 -0.044679247 -0.05696194
0002e0 48 eb 7b 3d 66 c0 4f 3d f7 7c 0b 3d b4 e9 91 3d
       0.06150368 0.050720595 0.034054723 0.071246535
0002f0 2c be 8b 3c a3 23 a1 bd 30 cd d5 3b 00 3e 7f 3d
       0.017058454 -0.07868125 0.0065247044 0.062314987
000300 5d 46 c9 3c 3b 3f b0 3d 1f bd ab 3d 71 b8 9a 3d
       0.024569685 0.0860581 0.08385681 0.07554711
000310 66 a0 ea bb 69 11 64 3d 8d 03 87 bd 7b 2a 90 3c
       -0.0071602343 0.055680666 -0.06592474 0.017598381
000320 80 d2 a9 3d c1 dc 05 3b ba f2 0c 3d c3 3a 86 3d
       0.08292103 0.002042577 0.03441117 0.06554177
000330 a0 3b 61 3d 4d ed b5 3d a7 ee 7c bc c1 22 9f bc
       0.054988503 0.08883152 -0.0154377585 -0.019425752
000340 08 7b 71 3d 5e 0d 4d bd 12 a5 8d bd 93 2c 2e 3d
       0.058955222 -0.050061576 -0.0691625 0.042522978
000350 de 4d e7 3c 6a b0 a1 bc 52 fa 37 bd 9c cc 18 3d
       0.028235372 -0.019737441 -0.04491646 0.037304506
000360 fc d6 c5 bc f0 50 70 3c 35 d0 04 3d a0 c6 b3 bd
       -0.024150364 0.0146677345 0.032425124 -0.08778119
000370 60 e2 a0 3d 15 d4 82 3d f0 06 cf 3c 15 df 05 3d
       0.078556776 0.06388108 0.025271863 0.03268345
000380 0f fa 6f 3c a6 36 03 3d 92 18 ab b8 1b 2c 4e 3d
       0.014647021 0.03203454 -8.158492e-05 0.05033503
000390 3f 54 96 3d dd b9 e4 bc 57 32 a3 3d 56 99 54 3d
       0.073402874 -0.027920658 0.07968586 0.051904045
0003a0 96 bc 89 bd cd ea 55 bd 08 d2 71 bd 5d 20 c1 3c
       -0.06725423 -0.052225877 -0.059038192 0.023575002
0003b0 98 ee b7 3c f0 ab 8e 3b d8 7a cf 3a d4 bd 88 3c
       0.022452638 0.0043539926 0.0015829457 0.01669208
0003c0 ad f9 a5 3d 4d c1 be 3d 69 33 12 bc b7 ba f7 bc
       0.081042625 0.09314213 -0.00892339 -0.0302404
0003d0 98 e8 b3 3c 20 67 6f 3d b7 8a b6 3d 89 03 73 bd
       0.021961495 0.058447957 0.089131765 -0.059329543
0003e0 67 3e c9 bc 36 ac 29 bd 68 82 a2 3c 56 6a 54 bd
       -0.024565889 -0.041424 0.019837573 -0.051859222
0003f0 d4 1b 64 3d 29 59 4e bd 82 5d 34 3c 44 83 05 bc
       0.0556906 -0.050378 0.011008622 -0.008148972

linear3.bias f4 [48]
000000 19 cd 34 3d f0 10 db bc 6d 4e 9c 3c 7a ba 64 bd
       0.04414091 -0.026741475 0.019080365 -0.0558419
000010 06 14 77 3d b3 68 aa 3d ff 91 79 3d e8 21 84 bd
       0.06032183 0.08320751 0.06093025 -0.064517796
000020 09 29 a1 bd 44 a7 f0 bc 49 37 ab 3d 7a bc d5 3c
       -0.07869155 -0.029376633 0.08360154 0.02609085
000030 b5 03 60 bd 9c b1 c8 3c 41 99 26 bd ac 4c 2a bd
       -0.054691035 0.024498753 -0.040673498 -0.041577026
000040 33 bb 80 3d 7d 6e 01 3d 69 a5 00 bd a2 34 78 3c
       0.062857054 0.03159951 -0.031407747 0.015149267
000050 fc 62 94 3d 89 85 98 bd 2f 86 e0 bb ce 04 d4 bc
       0.07245442 -0.07447345 -0.0068519334 -0.025881197
000060 69 07 15 3d bb 97 97 3c 83 0d 9d bd 51 62 3f bd
       0.03638402 0.018504968 -0.07668593 -0.04672462
000070 86 0b fa 3b d0 1c 50 3d 97 57 8f bd c4 17 eb bc
       0.007630768 0.050808728 -0.06999128 -0.028697856
000080 b8 45 7e 3d 88 a8 8a bd a8 cf 42 bd e9 51 a0 3d
       0.062078208 -0.06770426 -0.047561318 0.07828123
000090 6c 03 5a 3d a8 d5 94 3d c1 4e 13 bd 0c be d7 bc
       0.05322592 0.07267314 -0.035963777 -0.026335739
0000a0 df 0e f2 3c 5f 8a b7 bc 8c 97 86 3d 05 9e a9 3d
       0.029548107 -0.022404848 0.06571874 0.08282093
0000b0 8c eb 90 bd 8c 5d 84 bd 32 0b d8 bc 76 86 97 3c
       -0.07076177 -0.06463155 -0.026372526 0.018496733
