第二章-回归模型/model_weight/mlp_leakyrelu.pth (torch, 143645 bytes, 6 tensors)

linear1.weight f4 [128, 96]
00000000: 5626 243d 162b 2f3d eee3 8ebb e75d 7e3d
00000010: 741b 2bbd 3c6c e83d 164f 97bd 5fd3 c13b
00000020: 2a91 b43d 1e5d eebc 3947 b6bc 0eb4 433d
00000030: 9d13 823d 8d61 0d3c 72a8 aebd bddd 863d
00000040: 10f2 82bd 4eca 4abd 70a4 a3bd eafc f83d
00000050: 511a 84bd 2f0e 8a3d 38b8 81bd aafb 973d
00000060: f5e0 80bd ab84 b23c 324d 7f3d 2419 303d
00000070: 5c84 573c 248b b3bc c403 87bc ce0d 39bc
00000080: d3af c13d 834b 55bb 0105 76bd 7d7e 25bd
00000090: ac49 913d 63d4 8ebd 473a 25bc 9f0d 2cbd
000000a0: e4f0 aebb fcd3 7abd d547 87bd 03d4 e1bc
000000b0: 3281 9b3c a028 e33d a3a3 a6bd dc20 d4bc
000000c0: baeb d03d b57c b23d 62a4 a9bd 39c0 643b
000000d0: 42e7 50bd d230 c83c ca02 873d 9fa7 a6bd
000000e0: 7412 46ba 9c46 b7bd 41d1 54bd e1ec 323b
000000f0: ab13 febc 5c4c 963d fa08 ac3d 18af cb3c
00000100: c89d 88bc a42c 9dbd bc2c a9bc e99c a93c
00000110: 94c0 d43d b7ce a6bd c2ad c23b c840 a83d
00000120: 091a ec3d 37e4 643d 2488 783d 9409 a43c
00000130: b78d 93bd fd7b dfbc a7c1 95bd cfb1 6ebd
00000140: ea19 11bd 5725 a13d fe9a d73d 4cb9 5a3d
00000150: 7997 e53d 0fbf 083d 3412 ad3d 054a 8e3c
00000160: cf4b ec3c f417 2fbd 2e04 943d fd8d 243c
00000170: 9d8d f23d 6ad2 adbd a462 8bbb 232b 6cbd
00000180: da17 cebd a25d 42bd fc7b b7bc bff2 8f3d
00000190: 8527 d2bd 4ac8 9f3d 29d0 b83c 4d72 68bc
000001a0: 1aa4 9dbd 1585 5abd a652 b7bd 8ff4 303d
000001b0: d23e 3d3d 542b 85bd cfa1 aabd ac21 c4bb
000001c0: f05d 953d bcde 9f3c 0fe7 93bd 8cfd c6bd
000001d0: f121 873d 9640 353d 57ed b0bd 0d9c a8bd
000001e0: a05d c23c 45b0 153b 92da 42bd 5984 c93b
000001f0: aa06 7bbd d736 9b3d 1869 f33c 1d7d 903d
00000200: 14f3 a7bd 2f62 bfbc 15ee 233d edf6 8d3c
00000210: 217c 743d 58f9 91bd 1c60 923c 0dbb edbc
00000220: 1937 883d ff52 813c 2fcc 193d 6827 b83d
00000230: 1db7 86bc ff6d 9ebd 6d9c 4b3c 5359 c23d
00000240: 30a2 cc3d 48dd 02bd 0255 f0bb 4fe6 30bd
00000250: 7f34 dd3d 6309 1d3d 79a3 00bd 1f51 31bd
00000260: 1cb4 9abd 9a0a 913d 7cbf b9bc dc13 a5bd
00000270: 8e0d f23c e6af cebc 95d4 ae3d 7cfc 22bd
00000280: 17ae d83d 5869 5d3d c0aa a13b 0250 fe3c
00000290: 6458 a0bd 358c 993d 57bb 813d 13df 983d
000002a0: b6d1 563c 9ec6 0dbd b772 c23c 451b 323d
000002b0: 2600 82bd d7c8 593d a243 e33d 0d39 e93d
000002c0: ee56 403d 21d4 d93d a657 12bd 470c 2f3c
000002d0: 7b39 1bbd c5e4 dfbc 072b b1bb 1914 8dbc
000002e0: 3213 dd3d c205 0e3c 7c48 b23d 2f3e b03c
000002f0: 2353 993d 0922 e8bb fc71 c53c d576 1cbd
00000300: e725 86bd 1a27 adbd 53b7 e83d e823 b3bb
00000310: 9162 d83b 72a8 73bc edaf e43c 8ace 39bc
00000320: 7262 c73d ffbd b5bc e304 fa3d b952 abbc
00000330: 8cd2 963d dec5 0fbd a088 403d 6bb0 c4bc
00000340: 662e ed3d 6792 a73d 4a8e 10bd d706 09bc
00000350: 0762 80bd 7e8a 4ebd f906 a0bd 010c 04bd
00000360: e6f1 183d 3b32 2c3d 268e 903d 8ffb ddbd
00000370: 86ae 803d 0c29 f8bd 3923 a73d 4d44 163d
00000380: c7f2 2d3d 9b8e 0a3d 946c d53d 0f66 5fbb
00000390: 81c8 2f3c 6a20 963c 4f0a a2bd 6ff5 78bd
000003a0: 53a9 b13c 46b2 ae3c 3cfe aabd 9d54 00bd
000003b0: 298e b1bd 5d5f 3f3d ca99 57bd 588a e0bd
000003c0: 4bdd 63bc 9bbd 893c 95ae 483b 4f4c caba
000003d0: 6312 273c 59dc 4b3d 0caf 20bd 9686 143c
000003e0: 7979 ac3d 9c37 293d 59f5 843d 5e2b f5bc
000003f0: 67ed 25bd a49a d6bd 5027 bb3c dd2d b3bc
0.040075622 0.0427657 -0.0043606674 0.06210127 -0.04177423 0.11348769 -0.07388131 0.00591509
0.0881675 -0.029097136 -0.022250758 0.047779135 0.06351397 0.008629215 -0.08528222 0.06585262
-0.06393826 -0.04950934 -0.07990348 0.121576145 -0.06450332 0.067409866 -0.06333965 0.07421048
-0.06292907 0.021791777 0.06232948 0.042992726 0.0131541155 -0.021916933 -0.016481288 -0.011294795
0.09457364 -0.003254623 -0.060063366 -0.04040383 0.0709413 -0.06974103 -0.010084695 -0.042005178
-0.005338775 -0.06123732 -0.06605498 -0.027566915 0.018982504 0.11091733 -0.0813668 -0.025894575
0.10201211 0.08715192 -0.08283307 0.0034904613 -0.051001795 0.024437342 0.06592329 -0.0813744
-0.00075558503 -0.089490145 -0.051957373 0.0027301835 -0.031015238 0.07338783 0.0840015 0.024863765
-0.016676798 -0.0767453 -0.020651214 0.020704703 0.10388294 -0.081448965 0.0059411237 0.08215481
0.11528403 0.055881705 0.06067671 0.020024098 -0.07204764 -0.027280802 -0.07312327 -0.05827504
-0.035425104 0.0786845 0.10527609 0.05339937 0.11210532 0.033385333 0.084507376 0.01736928
0.028844742 -0.042747453 0.0722736 0.010043618 0.11843417 -0.08487399 -0.0042537022 -0.057658326
-0.10063143 -0.047452576 -0.022397988 0.07028722 -0.10261444 0.07801874 0.022560196 -0.014187408
-0.076973155 -0.053349573 -0.08951311 0.04320198 0.04620249 -0.06502405 -0.08331644 -0.0059854593
0.07293308 0.019515388 -0.07221805 -0.09716329 0.06598271 0.044251047 -0.08639019 -0.08232889
0.023726285 0.002284066 -0.047571726 0.0061498103 -0.061285652 0.07578819 0.029713199 0.070551135
-0.0820066 -0.023362247 0.040021975 0.017329657 0.05968869 -0.07127637 0.017868094 -0.029019857
0.06651134 0.015786646 0.03754824 0.08991891 -0.016444737 -0.07735824 0.0124274315 0.094896935
0.09991872 -0.03194931 -0.0073343525 -0.04318839 0.108010285 0.03833903 -0.0314059 -0.043290254
-0.075538844 0.070821 -0.022674315 -0.080604285 0.029547479 -0.02523036 0.085366406 -0.03979157
0.1058008 0.05405554 0.004933685 0.03104401 -0.07829359 0.074974455 0.0633456 0.07464423
0.013111522 -0.034613244 0.02373634 0.043483038 -0.063476846 0.05317005 0.11096884 0.11387835
0.046957903 0.106361635 -0.03572812 0.0106840795 -0.037896615 -0.027330766 -0.0054067406 -0.017221497
0.10794677 0.008668365 0.087052315 0.021514026 0.0748656 -0.0070841354 0.024102204 -0.038199265
-0.06550198 -0.08454724 0.11363091 -0.005466927 0.006603547 -0.014871703 0.02791592 -0.011340747
0.09735574 -0.022185324 0.12207963 -0.020913469 0.073643774 -0.03510081 0.047005296 -0.024009904
0.115811154 0.08182221 -0.035291947 -0.008363447 -0.06268697 -0.050425045 -0.0781383 -0.03223801
0.037340067 0.04204009 0.07058363 -0.108389966 0.06283288 -0.12117204 0.08161015 0.03668623
0.04246786 0.033827405 0.104211 -0.0034087931 0.010728956 0.018326003 -0.079121225 -0.06078094
0.021687185 0.021325242 -0.083492726 -0.031330694 -0.08669693 0.046721805 -0.0526369 -0.10963887
-0.013907741 0.016814044 0.0030621637 -0.0015434119 0.010197255 0.049770687 -0.039229438 0.009065291
0.084216066 0.0413128 0.06492109 -0.029927906 -0.040509608 -0.10478714 0.022845894 -0.021872455

linear1.bias f4 [128]
00000000: b199 ce3c 7177 3d3d ed2b 133d 307b 973d
00000010: 96e4 123d a38d bcbd e303 02be 8ab4 89bc
00000020: 6722 ab3c daad 513c 0ada 723d 013c f93d
00000030: 9adc bebd c082 a43d 36a2 c4bc 7d48 9a3d
00000040: 87d8 003d 8748 1d3e b4ae d93d 2fa7 a53d
00000050: cf3a 54bd 508b b1bd e5f4 e73d 9f69 8a3c
00000060: a4ab 123e 3dc6 b53d ddfe 2fbb cfea 0b3e
00000070: 4caf 6abd c84a 953d f66b 223d cd1a 7e3d
00000080: 1dba 14bd 8653 2f3c 8d18 9b3d 6766 b63d
00000090: 0de4 a93d 4cd3 f13a 1eb9 94bd 674e 19bd
000000a0: 0131 8dbd 2827 c0bc d4da 09bb b66c b83d
000000b0: 802b 17bd 11ef f7ba a3ca b73d d205 e03d
000000c0: 4ffd aa3d 8569 6abd 7b54 d43c 0936 21bd
000000d0: 4b31 00be db89 303c b13e 4e3c 80a5 2cbc
000000e0: 8418 5c3d 9821 883c 2ff2 08bd 57df d93c
000000f0: 81ca 6abd 4b8b 49bd b42e 933d cdd1 253c
00000100: 8056 26bd f12e d4bd 197a aabc 550d 8a3d
00000110: faf9 bd3d 9ed5 eb3d 54d7 81bc e8b0 f13c
00000120: 46c6 16bb e556 e4bd 966e c53d 62a7 043d
00000130: ba95 b4bd 879d 7d3b 339e 02bc 1190 093e
00000140: 4f4d 173c 77eb 0bbd b069 5a3d 7743 46bd
00000150: 6bb4 6abd 4cc8 e13c 5faf 453d 9e5c be3d
00000160: 91b9 d33c b48b fdbc ec1d 053d 3d25 8abd
00000170: 3d04 e83c 7a44 3e3d 44ef 8d3d 0a7a 093d
00000180: bb52 8a3c 1d92 cf3c 0c12 dd3d d027 023e
00000190: a38d e2bd c109 c1bd 6e76 7c3d d796 f63d
000001a0: 3c23 1dbd f347 a43d b9b7 dcbd 5277 4a3c
000001b0: 0e19 8c3b 15ad e33c 469b a9bd 0189 dbbb
000001c0: 9eb7 093e 2998 b0bb c4bc a03d fceb ec3d
000001d0: 459b 093e 135d cdbc d673 1c3d 5105 b5bd
000001e0: 877b d63d 6ae6 8e3d a2c8 533c 04bd a13d
000001f0: 4feb 973d f923 873d 607c 073e 4287 7d3d
0.02521977 0.046256486 0.035930563 0.07396543 0.035862528 -0.092067026 -0.12696795 -0.01680972
0.020890428 0.012797797 0.05928997 0.12169648 -0.0931942 0.08032751 -0.02400313 0.07533357
0.031456497 0.15359698 0.10629025 0.08088528 -0.051813897 -0.0866915 0.11326007 0.016896067
0.14323288 0.088757016 -0.0026854791 0.13663791 -0.057296082 0.07289654 0.03965374 0.062037278
-0.036310304 0.010701066 0.07573042 0.089062504 0.0829545 0.0018449812 -0.07261871 -0.037428286
-0.068941124 -0.023456171 -0.0021034973 0.0900511 -0.03690672 -0.0018915852 0.08974197 0.1093861
0.08349096 -0.057229538 0.02591919 -0.039358173 -0.12518804 0.010775055 0.012588189 -0.010537505
0.053734317 0.016617581 -0.03343409 0.026595755 -0.05732203 -0.049205106 0.07186642 0.010120821
-0.040609837 -0.10360516 -0.020810174 0.06740824 0.09276195 0.115153536 -0.015849747 0.0295033
-0.0023006364 -0.11149386 0.09640233 0.03238619 -0.088176206 0.003869863 -0.007972288 0.13433863
0.00923474 -0.034160104 0.053323448 -0.048404183 -0.057300966 0.02756133 0.04826295 0.09295009
0.02584532 -0.030950405 0.03249924 -0.06745384 0.028322333 0.046452023 0.06930402 0.03356365
0.016885152 0.025338227 0.10794458 0.127105 -0.11062171 -0.094256885 0.06163638 0.12040489
-0.03836368 0.08021536 -0.1077723 0.01235755 0.0042754477 0.027792493 -0.08281569 -0.0066996817
0.1344895 -0.0053892327 0.07848504 0.11568448 0.13438137 -0.025068795 0.038196407 -0.08838905
0.1047278 0.06977542 0.012926253 0.0789738 0.074179284 0.06598658 0.13231039 0.06189657

linear2.weight f4 [128, 128]
00000000: 1138 afbd b5f5 21bd 31db f2bc 8d73 0e3c
00000010: a69d 59bc 019c d63d 0fbb 1ebd 28c6 3dbd
00000020: 81df 1b3d 4d37 4c3d 06da aa3d 9ab2 14bd
00000030: f88c 8d3d eece 3a3d c48f 3cbc 3fb5 493d
00000040: 061b 10bd 2085 cb3c 3130 723d e5f7 a1bd
00000050: 0df1 de3c 87d2 7b3d d806 abbd b1ea 293d
00000060: 5da6 a4bd 4842 523c 9a0a 923d e6d0 b2bd
00000070: 68ba 62bd f8f0 abbc 9c7b d9bc f182 d13c
00000080: 0d8c 98bc 0088 993d 0f0a 53bd 1b22 8c3d
00000090: b15f 3a3d 2c1c adbd 5a4e 97bd d66b a23d
000000a0: be7f 143d d7cb 033d 582c 8f3d e3c7 1e3d
000000b0: 389f 883d 24c1 4cbd 8f56 e93c 6f16 5dbd
000000c0: 1ebd 9cbc a913 4d3d de01 913d dd50 9d3d
000000d0: cc29 37bc 28fd a5bd b31f a93d 9409 ff3c
000000e0: 8b13 91bd 2202 26bc cb4f e73b 846b 55bd
000000f0: 3533 a23d e7d0 3bbd 28f4 93bd fcd4 1b3c
00000100: f4f0 18bd afc7 753c 533f 023d c7ef b3bd
00000110: 1e0b 2d3d 6b9d 8dbd f650 aa3d 219f 91bd
00000120: 7bd3 69bd 100d 023d f76b 543c efa1 3dbd
00000130: 9b89 f93d c2d4 183d ef29 6bbc 5056 01bd
00000140: 4149 9c3d 846e 99bc c90e 39bd 4ede 96ba
00000150: 7fbd 8dbc 2423 95bd 432c 3dbc a7f2 36bd
00000160: 8b2e cabd e2c6 a03d edf0 a53d 47a0 3c3d
00000170: 9737 25bd 5887 d33c 9d03 22bc b28e 483d
00000180: 421f 20bd f425 7f3c 90d2 16bc 9b51 6a3d
00000190: b850 44bd 7573 c43d df13 5c3d ec72 6a3d
000001a0: 33af b7bc e054 3ebd 0a99 a73c fd2a bd3c
000001b0: 5f07 d4bc 6cf6 06bd fc28 6d3d ddea 28bd
000001c0: c270 943d ad10 973d ea32 c0bc e8b3 1a3d
000001d0: 3d8a 173d a6fa 873c 2391 a23b 7406 963d
000001e0: dfeb 6d3d a698 373d 330e 88bb 2905 083d
000001f0: 6411 e93c be63 40bc 8202 5abd 2c3f 1f3d
00000200: 5e69 6dbd ac41 773d c61c 88bd 94dd 9b3d
00000210: b922 81bd f0e1 bbbd ea35 7a3d f108 383c
00000220: 402c ab3c 5ed8 12bc f203 c43d 0f20 093d
00000230: 4287 4d3d eeef 59bd b374 383d 56ee 943b
00000240: 8220 653d 1207 d1bd abf2 8b3b 3110 b3bc
00000250: 6791 acbc c6bd 94bd 1fa0 42bd f156 60bd
00000260: 6406 0fbe 13b5 923d 6b2b 3b3a 9147 1abd
00000270: 75b8 5fbc cbaf 9bbc 841d ab3c 51b7 2d3d
00000280: 0020 5abc 8dfc e43a c829 8f3d ce11 3c3d
00000290: 6e32 a6bb 84ef 5b3d dc1e 4d3d 553f afbd
000002a0: c34a c4bd 2a82 4a3d 6546 9d3d 8e39 b6bd
000002b0: bb4a 633d 4eb5 763c c1ff 013c 0487 573d
000002c0: ca5e 393d a576 91bd 6b99 a13d 12e1 433d
000002d0: 952e aebd f32e 19bc 39a6 b23b 6dba 1fbd
000002e0: 8606 b23d a8c0 703d 28eb c13d 94b8 5dbd
000002f0: 130f 97bd 2747 cebd f855 b43c 78f5 2fbd
00000300: 1f61 bb3d d0a8 603d af17 aa3d 3bc5 01bd
00000310: 111d ca3d 9ae4 04bd 18ce a23d 6edf fb3c
00000320: 2ac1 2dbd 5cd4 7cbc b74d 823b 3824 fb3c
00000330: 331e 983c 12ab d63d 9757 3fbd b1d5 2abd
00000340: f782 8c3d c916 1abd 250c 2d3d 7ff1 fabc
00000350: 27e4 3fbd 3eb2 833d 49ad ea3c 9752 5abd
00000360: 4e0f 9b3d d26b 323d a148 f5bd 6275 9a3d
00000370: e49d c33d 20b0 473d 0fd0 c3bd bdcd 88ba
00000380: 6945 cb3c 8c6b 4ebd 1128 9e3c 383e f8bd
00000390: ef26 7eba 3784 a03c d271 43bd be8a 5ebc
000003a0: bc03 a13c 23db 96bd 7dd2 943d d5e5 973d
000003b0: 4685 69bc 9ab8 3abd caa2 403d aaf3 b2ba
000003c0: 33e5 05bd 5e59 6cbd ae1b 753d 0587 a53d
000003d0: 9f93 873d ecf0 c9bd f777 a43c 5eab c6bc
000003e0: 6dcc a33d c8ba acba a87d 2c3d aed0 78bd
000003f0: 4656 ccbd 15ef 6bbc 5fe7 70bd 7ab0 863c
-0.08555616 -0.039540965 -0.029645534 0.008694542 -0.013282215 0.10478974 -0.03875261 -0.046331555
0.038054947 0.049857426 0.08342366 -0.03630314 0.06911653 0.0456075 -0.011508886 0.049245115
-0.03518202 0.024843752 0.05912799 -0.0790861 0.027214551 0.06148007 -0.08350915 0.041483585
-0.08039544 0.0128331855 0.07130928 -0.087312505 -0.055353552 -0.020988926 -0.0265482 0.025575133
-0.018621469 0.07496643 -0.051523264 0.068424426 0.045501415 -0.08452639 -0.07387991 0.07930724
0.036254637 0.03217682 0.0699088 0.038764846 0.066709936 -0.04998888 0.028483657 -0.053976472
-0.019133147 0.050067578 0.07080434 0.07681439 -0.011179399 -0.08104926 0.08257999 0.031132497
-0.07083806 -0.010132344 0.0070590726 -0.052104488 0.07919923 -0.04585352 -0.072243035 0.009511229
-0.037339166 0.015001222 0.031798672 -0.08785968 0.04224693 -0.06914791 0.08316223 -0.071104296
-0.05708645 0.03175074 0.012965194 -0.04629701 0.12184449 0.037312277 -0.0143532595 -0.031576455
0.076311596 -0.018729456 -0.045180116 -0.0011510344 -0.017302273 -0.07282093 -0.011546197 -0.044665005
-0.098721586 0.07850434 0.081025936 0.04605129 -0.040336218 0.025821373 -0.009888557 0.04896421
-0.03909231 0.015573014 -0.009205475 0.05720673 -0.047928542 0.09592334 0.053729888 0.057238504
-0.022422409 -0.04646766 0.020458717 0.023091787 -0.025882421 -0.03294985 0.057900414 -0.041239608
0.07248069 0.073762275 -0.023461778 0.03776923 0.03699707 0.01659901 0.0049611493 0.073254496
0.058086272 0.04482331 -0.0041520833 0.033208046 0.028450675 -0.01174253 -0.053225048 0.038878605
-0.057961814 0.060365364 -0.06646113 0.07610622 -0.06305451 -0.091739535 0.061086573 0.011232601
0.020895123 -0.008962719 0.09571065 0.03347784 0.05017782 -0.05320733 0.045033168 0.0045450134
0.055939205 -0.10206427 0.0042708716 -0.021858307 -0.021065427 -0.07262759 -0.047515985 -0.054770414
-0.13967282 0.071634434 0.00071399537 -0.037665907 -0.013654818 -0.019004723 0.020888098 0.042411152
-0.013313293 0.0017470286 0.06990391 0.045915417 -0.0050719297 0.053695217 0.050078258 -0.085570015
-0.09584572 0.04944054 0.07679442 -0.088976964 0.05549119 0.015057875 0.007934512 0.052618995
0.045256414 -0.07102708 0.0789059 0.047822066 -0.085049786 -0.0093495725 0.005451944 -0.03899615
0.086926505 0.05877748 0.094686806 -0.054131106 -0.07375922 -0.10072165 0.02201365 -0.042958707
0.09149384 0.054848492 0.083052985 -0.031682234 0.09868825 -0.032444574 0.079494655 0.030746188
-0.042420544 -0.01543149 0.0039765495 0.030656919 0.018569088 0.10481848 -0.04671439 -0.0417077
0.06860917 -0.037619386 0.04224791 -0.030632732 -0.046848442 0.064304814 0.028647082 -0.05330142
0.075712785 0.043559857 -0.119767435 0.0754192 0.095515996 0.04875195 -0.095611684 -0.0010437291
0.02481337 -0.050395533 0.019306215 -0.12121242 -0.00096951326 0.019594295 -0.04771597 -0.013582883
0.019655101 -0.07366016 0.0726671 0.07416884 -0.014252966 -0.045586206 0.047030248 -0.001365294
-0.032689285 -0.057702415 0.05984085 0.080823936 0.06619953 -0.09860405 0.020076735 -0.024251636
0.079979755 -0.0013178224 0.042112023 -0.060745887 -0.09977393 -0.014400263 -0.058814403 0.016441572

linear2.bias f4 [128]
00000000: 75bd 47bd e9f2 cc3c 815f 843d 2c61 bfbc
00000010: d964 76bd b73f 013b 2dc7 9d3d 9d0e 35bd
00000020: a7de 353d c3e2 0dbd f3ca 45bd 71b0 0b3d
00000030: 0060 923c f0a5 153d 3ce5 d5bb dfd4 413d
00000040: eae8 f53c f300 bebd 7dac 193d b38b 503d
00000050: d1fd 35bd 8186 a4bd 87d9 ee3c 175b 9b3c
00000060: 79e8 513d 23c5 4e3d 92d6 a93c 30b0 523d
00000070: b81e 76bb c3be 8e3d 160c 98bd 9dd0 c93c
00000080: c163 7f3d 825c 463d 025e c23c fd23 253d
00000090: a19b 54bd 6dff a43c 020d 9c3c 6e1f 3ebd
000000a0: 90e7 173d 4b9e 05bc c016 ba3d cc3c 11bc
000000b0: 2dc6 483c e7e9 bcbb 4567 683c 278b c0bd
000000c0: 1b67 0abd c822 b73d cfbb 25bc 8992 b53d
000000d0: f777 98bd 2135 aa3d 56d7 c63c ae18 bf3d
000000e0: 4a86 84bd a0a3 cf3c 7c7f dd3d 51b0 bc3d
000000f0: e574 a03d 1efd 9b3d d2cc 3bbd 54ab 95bc
00000100: a995 57bd e32f a53c 50a2 0c3d b1aa 063d
00000110: a47a 39bc df07 d2ba f1a3 09bd 4621 783d
00000120: 2de4 bf3d 1690 e43d c975 12ba 282b 78bb
00000130: a940 2e3d bb12 893d 8910 c83d ba8c 95bd
00000140: f270 f5bb 3c07 6a3d d695 65bb f3e3 bf3d
00000150: e798 9f3c 9608 5bbd bf05 2b3d f216 8fbd
00000160: 02c6 703d 9a78 c2bd 3bc6 8e3d 8c81 aa3d
00000170: a624 f33c 13f8 483d 213f 1e3d f269 3c3a
00000180: d867 233c bfb8 c4bc b03d 363a 295a c23d
00000190: 3f30 713c b293 05bd c89a c93d 2e94 0ebd
000001a0: 1bb9 9ebd b202 c23d a2d5 82bb b462 dc3b
000001b0: 9fc0 10ba f48f ff3c ca3d 673d 63bd 903d
000001c0: 7dcb 893d c31f 843d 6e47 81bd 135f 88bd
000001d0: 9300 ddbc d3f8 34bd 3c4e 14bd 70e5 c83d
000001e0: 1005 5d3d 3ec5 853a 1585 8d3d 90e7 4f3d
000001f0: a8da 7bbd f1c9 753d 31d6 b23d e468 0d3d
-0.048764665 0.025018172 0.064635284 -0.023361765 -0.06015477 0.0019721815 0.077040054 -0.04420339
0.04440179 -0.034640085 -0.04828925 0.034103815 0.017868042 0.036535203 -0.006527571 0.04732215
0.030018289 -0.09277525 0.037518013 0.050914478 -0.04443151 -0.08033467 0.02915646 0.018964333
0.051247094 0.050480973 0.020732198 0.051437557 -0.003755493 0.06969979 -0.0742418 0.024635607
0.062350992 0.048428066 0.023726467 0.040317524 -0.05190623 0.020141328 0.019049171 -0.046416692
0.03708607 -0.008155416 0.090863705 -0.008864593 0.01225428 -0.005765188 0.014184778 -0.09401541
-0.033789735 0.08942181 -0.010115578 0.0886584 -0.074447565 0.08310915 0.024272602 0.09330879
-0.06470926 0.025346577 0.10815331 0.09213317 0.07834796 0.07616638 -0.04584963 -0.018270172
-0.05263296 0.020164436 0.03433448 0.032877628 -0.011320744 -0.0016024074 -0.033603612 0.060578607
0.09369693 0.11160295 -0.00055870094 -0.003786752 0.042542133 0.06693026 0.09768779 -0.07302232
-0.007490271 0.057135805 -0.0035031936 0.0936965 0.01948209 -0.053474985 0.041753527 -0.06986798
0.058782585 -0.09495659 0.06971403 0.0832549 0.029680561 0.049064707 0.038634423 0.0007187418
0.009973489 -0.024013875 0.0006951941 0.09489853 0.014720975 -0.032611556 0.09843975 -0.034809284
-0.0775015 0.0947317 -0.003992752 0.0067256335 -0.0005521867 0.031196572 0.05645541 0.07067373
0.067282654 0.064513706 -0.06312452 -0.06658759 -0.026977813 -0.04418261 -0.036207423 0.09809387
0.053959906 0.0010205877 0.06910149 0.050757945 -0.061487824 0.06000704 0.0873226 0.03452386

linear3.weight f4 [48, 128]
00000000: 367d 25bd a19a 28bc f023 78bd 74ae e93c
00000010: fb44 c9bd b329 843d a161 413d ae4d e3bc
00000020: a2da 893d 5b97 d73c 5ea4 933d a8ff c63d
00000030: 27d3 553c 0886 ad3c 824e 90bd b720 44bc
00000040: 1553 743c 4bf5 303d fdf3 c8bc b852 ba3d
00000050: b9ad c83d 8237 833d 220c 4fbc 10bd 01bd
00000060: 6e7f a4bc a81d be3c 3126 57bd 1858 8dbc
00000070: e176 78bd 3153 e3bc a178 de3d 9c75 a23d
00000080: 97aa cb3c 72bf babc ec8b 1f3d 6967 343d
00000090: 4252 723c 02ac 33bd 9453 40bd cfad 1abd
000000a0: 5379 f4bb 6b33 ac3d c727 85bd bf86 62bc
000000b0: f30b 09bc 82db d23d 58ff c73c af6e 94bd
000000c0: c410 6c3c 45b4 34bc cd7f a43a 91de 02bd
000000d0: 3bb0 1d3d fec1 b23d 5002 b3bd 3b05 19bd
000000e0: d63c 46bd 2229 453d c796 cdbd 798e 90bd
000000f0: ce1b b6bc a702 103d b528 0e3d 19e5 28bd
00000100: 0ca4 3d3d 0e42 893d f15e acbd e0a4 ba3d
00000110: bf86 7abd 1d2e c4bc e85c 86bc a32f 413d
00000120: 61d0 b0bc 12d3 873d b0da 8cbd 522c 89bd
00000130: 9dc5 05bd 9db4 b93d 98fd ad3d 7c1e 23bc
00000140: 51ff d33d ab6c 5f3d 67d1 cdba c46c 95bc
00000150: e744 8fbd bbd2 b23c e2e5 713c 2583 263d
00000160: ade3 763a b320 98bd 99ef 8bbd fd2e ca3c
00000170: ad62 e5bc 15cd bc3d c63b 053d 8562 74bd
00000180: d4df 00bd d721 9a3d 3977 a33d fdca c13d
00000190: 2bda 02bc aa5b 943b f26c 87bd 3bda 79bd
000001a0: ad75 c9bd e90d c4bc 6d42 23bc 9237 95bc
000001b0: 8537 b13d dee1 8f3a 4a67 1d3d 2b31 833d
000001c0: 14d5 87bd f3b4 52bb a380 42bc 1e67 8bbd
000001d0: 9da0 98bd 10ca 85bc b63a 3d3d b75b 813d
000001e0: ffa6 403c 6d7b 14bd 7bf2 43bc e2c7 e1bd
000001f0: b9fb 3b3d 303a 9dba 2d60 c4bc ef22 64bd
00000200: 2360 69bd 864a 2f3d 3835 a03d aa5c ffbb
00000210: 85d5 e8bc dff8 aabc ad92 3ebd a995 c83c
00000220: d866 1b3c 3235 ebbb dc56 c4bc b4ff 823c
00000230: c5f3 823d a3ef dcbc 2843 3d3d 882c 053d
00000240: f39c 98bd 14ec 30bc e450 bebd bf13 f0bb
00000250: 7710 253d 5d6f 943d 501d 0cbd 89e0 763b
00000260: 6a1c c33c a566 11bd 8a9b 8a3d 8552 983c
00000270: ed4a bdbc 5269 c13d 293f 55bd 5d92 68bd
00000280: d046 28bd 3025 4d3d 66f2 433d ab10 2b3d
00000290: e79e 863d 5258 c03d 4e43 7bbd 2933 d6bd
000002a0: 03d9 903d ce38 5d3d 04ca 533d 2cda fd3c
000002b0: 7e6e ee3c 8df8 e63a 15eb 31bc 6858 413d
000002c0: 891b 65bd 232e 803d 3d72 a5bd 3799 f83b
000002d0: 35ab ac3d cbd2 fb3b cca8 b1bd fada b3bc
000002e0: 292f 623d 486e a73d a9d7 97bd dab1 bcbd
000002f0: 6245 04bd a7f0 4d3d 4bdb 863d c327 453d
00000300: 52d0 85bd adcd 463d 8578 c93c 8b49 7a3d
00000310: 8c19 07bd b7f8 9dbc 2e0d b43c 4268 3bbc
00000320: 3724 b2bc 706f f3bb 6ad1 89bc 1c7f 863d
00000330: 5cc8 5a3c 7302 30bc ce3b a83d 65d6 08bd
00000340: 2359 4d3c e382 053d ab43 b83d 718d 28bd
00000350: 09d1 313c 25f6 263d 99e4 ae3d ce6e 62bd
00000360: 9bb8 34bd ea1a 153c 1683 a63d a344 8ebb
00000370: 9819 70bd d792 fa3c d702 2c3d 53d2 973d
00000380: 9a38 6dbc 2f0b 91bd 5bbb 85bd 591a c13d
00000390: 9423 6dbd 94f9 2dbd 1850 92bd 57ef 58bd
000003a0: 767d 943d b901 cfbc 0a3a e0bc 56d0 17bd
000003b0: 7c89 d53d 03c2 77bd d4e5 53bc d9f6 d0bd
000003c0: e23b a93d cd18 2d3d 4653 9ebc eedf 7c3d
000003d0: 78c1 1d3c 7da1 ae3c 2288 fa3c e860 0a3e
000003e0: bbcb cbbc 03c6 9a3d fd55 873c c9ad edbd
000003f0: c030 15bb deb7 a2bd 477c cf3b 0499 9bbd
-0.040402614 -0.010290773 -0.060581148 0.028525569 -0.0982761 0.06453266 0.047212247 -0.027747001
0.06731154 0.02631729 0.07209085 0.09716731 0.013050831 0.021182075 -0.07046224 -0.01197069
0.014912386 0.04320268 -0.024530405 0.090978086 0.0979876 0.06407072 -0.01263717 -0.031674445
-0.020080294 0.0232075 -0.052526657 -0.01725392 -0.060660247 -0.02774963 0.10862852 0.079325885
0.024861617 -0.022796366 0.0389518 0.044043932 0.01479012 -0.04386521 -0.046954706 -0.037763413
-0.007460752 0.08408245 -0.065017276 -0.013826071 -0.008364665 0.10295774 0.02441375 -0.07247674
0.014408294 -0.011029308 0.0012550295 -0.031950537 0.038498145 0.08728407 -0.087406754 -0.037358504
-0.04839786 0.04813493 -0.10038524 -0.070584245 -0.022230055 0.03515878 0.03470679 -0.04123411
0.046299025 0.06702052 -0.08416546 0.09113479 -0.06116366 -0.02394777 -0.016401723 0.04716457
-0.021583738 0.06632055 -0.06877649 -0.066979066 -0.03265916 0.090676524 0.08495635 -0.0099559985
0.10351432 0.054546993 -0.0015702666 -0.01824034 -0.06995564 0.021829 0.014764281 0.040652413
0.00094180816 -0.07428112 -0.06832809 0.024680609 -0.028001154 0.09218804 0.032527708 -0.059664268
-0.03146346 0.07525986 0.07981724 0.09462545 -0.007986586 0.004527529 -0.066125765 -0.060999136
-0.09836898 -0.023932414 -0.009964568 -0.018214975 0.08653168 0.0010977348 0.038428582 0.064058624
-0.06632438 -0.0032151311 -0.01187149 -0.068067774 -0.074525096 -0.016331702 0.04619857 0.06316321
0.011758565 -0.03625052 -0.011959667 -0.11024453 0.04589436 -0.0011995491 -0.023971641 -0.055697378
-0.05697645 0.04279568 0.07822651 -0.007793029 -0.028422127 -0.020870624 -0.0465266 0.024485426
0.009484969 -0.0071779722 -0.023967199 0.01599107 0.063941516 -0.026969736 0.046206623 0.03251317
-0.07451811 -0.010798473 -0.092927724 -0.0073265727 0.040298905 0.07247803 -0.034207642 0.0037670454
0.02381726 -0.03549828 0.06767948 0.018594036 -0.023107016 0.094439164 -0.052062187 -0.056780208
-0.041083157 0.050084293 0.04783859 0.041763943 0.06573277 0.09391846 -0.061343484 -0.10458977
0.07072642 0.05400925 0.05170633 0.030987822 0.029105421 0.0017621681 -0.010859271 0.04720345
-0.055934463 0.062588 -0.0807843 0.007586624 0.08431093 0.0076850406 -0.086747736 -0.021955002
0.055220757 0.08175331 -0.07414181 -0.0921361 -0.03229273 0.050278332 0.065847956 0.048133623
-0.065338746 0.04853599 0.024593601 0.061105292 -0.032983348 -0.019283636 0.02197894 -0.011438431
-0.021745784 -0.007429056 -0.01682349 0.06567213 0.013353433 -0.010742771 0.08214532 -0.033407588
0.012533459 0.032595526 0.08997282 -0.041150514 0.0108530605 0.040762085 0.08539695 -0.055281453
-0.044121366 0.009100655 0.081304714 -0.004341678 -0.058618158 0.030587597 0.041994896 0.07413163
-0.014478827 -0.07082211 -0.06529876 0.094288535 -0.057895258 -0.042474344 -0.07144183 -0.052962627
0.07250492 -0.025269376 -0.027371425 -0.03706392 0.10426614 -0.06048776 -0.012933213 -0.102033325
0.08263375 0.04225998 -0.019326817 0.061736993 0.009628646 0.021317238 0.030582491 0.1351353
-0.02487742 0.07557299 0.016520495 -0.116054125 -0.0022764653 -0.07945226 0.0063319537 -0.07597545

linear3.bias f4 [48]
00000000: 8977 dbbc b403 0bbd c1b8 62bc ef73 763d
00000010: 00b5 3e3d 7139 e03b a3d1 c93c 3f1b 9d3d
00000020: 6a0f 9e3c 08df 92bc d931 67bd 0bb5 2dbb
00000030: 71e5 19bc f622 1abd 4989 1ebd 71f7 013c
00000040: dbf0 87bd 19eb 953d d6f8 7c3c 2ea6 4cbc
00000050: 95c1 bc3d a270 d53c d089 bbbc 6daf 31bb
00000060: d49f 1fbd b8cd 963d b17c b23d 34d1 13bd
00000070: e4e7 b6bc a302 63bc b323 a83d 9aa2 08bc
00000080: 99e6 8cbc a53e 1d3d a3c9 213d e627 423d
00000090: aa84 4f3d f462 88bd 3be7 afbc c5d2 883d
000000a0: 5aa9 883d 9d77 823d 3be2 4d3c 1495 85bd
000000b0: a6ad 893d 4aad 633d f200 dd3c 4897 93bd
-0.026790397 -0.03393908 -0.013837994 0.060169157 0.046559334 0.006842785 0.024636095 0.076712124
0.01929446 -0.017928615 -0.056444023 -0.0026505615 -0.009393082 -0.037630998 -0.038705144 0.00793253
-0.066377364 0.07320232 0.0154401865 -0.012490792 0.0921661 0.026054684 -0.022892863 -0.0027112619
-0.038970783 0.073634565 0.08715189 -0.036088184 -0.022327371 -0.013855609 0.08209934 -0.0083395485
-0.017199801 0.03838982 0.039498936 0.04740133 0.050663628 -0.06659499 -0.021472564 0.06680826
0.06672926 0.06370471 0.012566145 -0.06522575 0.06722574 0.055585183 0.02697799 -0.07206589
