第二章-回归模型/model_weight/mlp_leakyrelu_norm.pth (torch, 146933 bytes, 10 tensors)

linear1.weight f4 [128, 96]
000000 08 1c 57 bc f3 8b 84 3d 5f 2c c0 bd ba 7b 51 3d
       -0.013129242 0.06472006 -0.09383463 0.051143385
000010 37 80 98 3d f1 75 cc 3b 17 d0 5b bd 75 ec 96 bc
       0.0744633 0.0062396456 -0.053665247 -0.018423298
000020 70 89 57 3d d4 8f d4 bb 09 3e b4 bc 4a 78 a5 3d
       0.052621305 -0.006486872 -0.022002237 0.08079584
000030 23 02 13 3c d4 21 94 bd b0 00 95 bd 30 8c 4d bd
       0.008972677 -0.07233015 -0.07275522 -0.05018252
000040 78 ad bc bc 44 5d ce 3d 85 12 06 3d 7f d3 99 bd
       -0.023031935 0.10076383 0.032732505 -0.07511043
000050 23 2c be bd 63 52 fe 3c 9d b2 11 bd 92 1e f1 3c
       -0.09285762 0.031045144 -0.03557073 0.029433522
000060 18 5f 57 3d 62 1f 68 bb 16 43 4e bd d8 71 13 3d
       0.052580923 -0.0035419096 -0.050356947 0.03599724
000070 0e 20 e3 3c 17 44 25 3d 40 eb 06 bc 75 1e 93 bc
       0.027725246 0.04034814 -0.008234799 -0.017958859
000080 f5 0d ef bc c2 1a 7d bd 51 45 ac bb fd 06 8b 3d
       -0.02918146 -0.061793096 -0.0052572866 0.06788442
000090 4c 61 24 3d 79 45 69 3d 6d ac 65 3c ad 7f a3 bd
       0.040131852 0.05695102 0.01401816 -0.079833366
0000a0 91 74 ce 3d b2 7f bb bd 3c 57 40 3d de ee be bd
       0.10080827 -0.09155215 0.046958193 -0.09322904
0000b0 92 b8 06 3d 18 48 df 3c a0 3f 98 3c 36 87 1e 3d
       0.032890864 0.027256057 0.018585026 0.038703166
0000c0 b1 fc b5 3c 74 96 b2 bc d9 15 dd 3c 98 b8 02 3d
       0.02221522 -0.021800257 0.026987957 0.031914324
0000d0 ab 41 ac bd 08 46 bf 3b 54 e1 c8 3c 29 1e 85 bd
       -0.08410963 0.005837206 0.024521507 -0.06499893
0000e0 d2 1d 64 bc 57 15 43 bd 85 de c4 bd 8a 8b f8 3c
       -0.013923125 -0.047627773 -0.09612755 0.030339975
0000f0 a1 3d a3 3d ee ee 2d bd 0b da 53 3d 81 d0 ad bd
       0.07970739 -0.04246419 0.051721614 -0.084870346
000100 3c 17 e6 3c 7c 80 a2 bd a3 74 a2 3d 0f b1 47 3d
       0.02808725 -0.07934663 0.07932403 0.04875284
000110 22 39 d5 3d f2 84 63 bc 92 c3 92 3d d0 34 68 bd
       0.10411288 -0.013886677 0.07166208 -0.05669099
000120 be fa 93 bc c2 f7 56 bd e8 c4 9b 3c 96 0b bb 3d
       -0.0180639 -0.052482374 0.01901479 0.09133069
000130 18 86 54 bb d3 f8 8e 3d 12 30 b2 bc ae b0 02 3d
       -0.003242856 0.06981053 -0.021751437 0.031906776
000140 ab 17 96 bd f5 5d fb bc d1 3f 10 3a b8 7a 3b 3b
       -0.07328733 -0.03068445 0.00055026734 0.0028607082
000150 15 5c bb 3c 57 b8 7c 3c bf 83 88 3c 33 6c 84 bd
       0.022871057 0.015424809 0.016664384 -0.0646595
000160 f0 4b b6 bd ca 82 1d bc fa 5c e6 3c ae d8 66 3d
       -0.08901203 -0.009613702 0.028120507 0.056358986
000170 a4 da ac 3d 2c db 60 3d f3 9c d1 3d 3c 08 83 3d
       0.0844014 0.05489652 0.10235014 0.06398055
000180 b6 ab b5 bd 88 a2 9c bd 93 29 2e 3d 44 43 d7 bc
       -0.08870642 -0.07648188 0.042520117 -0.026277192
000190 06 fc 0d 3d 07 9c 01 bd 3e 93 a9 3d 0d a1 a2 3d
       0.034664176 -0.03164294 0.08280037 0.07940874
0001a0 4f 34 93 3d de 20 a4 3d 91 9e fb bc e0 ea 20 bd
       0.071877114 0.080140814 -0.030715259 -0.039286494
0001b0 2d b8 b1 bd ae ae 27 bb a2 68 b2 bd 2c 45 a2 3d
       -0.08677707 -0.0025586295 -0.087113634 0.0792335
0001c0 84 1b 15 bd 87 b4 22 bd 34 e5 e2 bb eb b2 33 3d
       -0.036403194 -0.039722946 -0.006924296 0.0438718
0001d0 ff 06 a3 bd 97 4a 5f 3c 5e 9d ae bd 01 78 8c 3d
       -0.07960319 0.013628623 -0.08526109 0.068588264
0001e0 2e 39 58 bd da 11 a6 3d 6d e8 a8 3d 4e 32 a3 3d
       -0.052788906 0.08108874 0.08247457 0.07968579
0001f0 16 ff 98 3d 55 41 c8 3d 84 63 9d 3d 26 80 b8 bd
       0.07470529 0.09778086 0.07684997 -0.090088174
000200 55 24 c2 bd a0 21 be 3d 80 0f 18 bd dc 25 c9 3d
       -0.09479586 0.09283757 -0.037124157 0.09821674
000210 d0 f9 9c 3d ae 3c 56 3c a2 0b b9 bd 2c 69 89 bc
       0.076648355 0.013075991 -0.09035422 -0.016773783
000220 64 6d ad 3d f5 b1 7f 3c c7 fb b2 3d 00 1b 23 bd
       0.0846813 0.015606393 0.08739429 -0.03982067
000230 8c 1d 82 3d d4 36 2b 3d 82 69 f8 3a c9 69 ae bc
       0.06353292 0.041800335 0.0018952342 -0.021290677
000240 6a a6 54 3d 20 e4 d0 3d fc 95 89 3d 36 5e 0f bb
       0.051916517 0.101997614 0.067180604 -0.0021876222
000250 a4 83 cb bd 13 06 d2 bc 6b 59 97 3d c3 93 ff bb
       -0.09937218 -0.025637662 0.07390102 -0.007799597
000260 f0 56 c4 bd b9 74 a3 bd d5 45 5e bd b9 1e 94 3d
       -0.095868945 -0.079812475 -0.054265816 0.072324224
000270 e0 83 ad bd 78 48 90 bd f2 43 bf bd e2 23 35 3d
       -0.08472419 -0.07045072 -0.093391314 0.044223674
000280 88 0b 1e bd c0 94 b3 3d 69 b8 9f 3b 8b f9 79 bc
       -0.038585216 0.08768606 0.0048742783 -0.01525725
000290 c9 1c 2c bc 0c ff 72 3d f3 01 4f 3d 0b 02 0b bd
       -0.01050491 0.059325263 0.05053897 -0.033937495
0002a0 b4 10 03 3d ec 72 52 bd 55 d6 78 bc 96 2c 2a 3d
       0.03199835 -0.05137913 -0.0151878195 0.041546427
0002b0 36 e6 a5 bd 5e 5b 33 bd b3 9e 5f 3d 0b fb b2 bd
       -0.0810055 -0.043788306 0.054594707 -0.08739289
0002c0 67 e9 ab ba 84 3e 6d 3d 7b 52 b4 bd 51 ff a8 3d
       -0.0013115824 0.057920948 -0.088047944 0.08251823
0002d0 ae cd cc 3d cc 91 f6 3c 46 fa 68 3d de 30 ad bc
       0.10000168 0.030098818 0.056879304 -0.021141466
0002e0 e9 ba f8 3c f8 e1 45 3d df 4d 55 3a 60 a2 7e bd
       0.030362563 0.048311204 0.0008136909 -0.06216657
0002f0 34 48 56 3d 6e 0e b3 3d aa 63 7b bd d8 82 8b 3d
       0.052314952 0.087429866 -0.061374344 0.06812066
000300 eb 3d 59 3c cd bb b0 3d 1f a4 82 3d ad d7 be 3d
       0.013259391 0.0862957 0.0637896 0.09318481
000310 94 da f3 3c b8 a2 aa 3d d9 57 9a 3c ae e2 4e 3d
       0.029767312 0.083318174 0.018840717 0.050509147
000320 d9 88 e4 bd be e9 b3 3d 98 e2 38 bd b9 6e 12 bc
       -0.11158914 0.08784817 -0.04513797 -0.008937531
000330 03 8f 05 bd 74 f5 02 3d f3 f4 80 bd c1 98 6a bc
       -0.03260709 0.031972364 -0.0629672 -0.014318646
000340 ca a0 17 bd 91 4a 87 3c c3 e1 74 3d f0 f8 30 bc
       -0.037018575 0.016515048 0.059785616 -0.010801539
000350 ff bb a8 3d 1a 9c 83 3d cb eb 84 bd a6 9e 83 bd
       0.082389824 0.064262584 -0.064902864 -0.06426744
000360 b2 a2 53 bd 93 34 ac 3c 1a e8 8c 3d 44 3c f3 bc
       -0.05166883 0.021021163 0.06880207 -0.029691823
000370 ff f8 ae 3b e3 4a 91 bd 65 06 0b bd 23 dc 90 3c
       0.0053397412 -0.07094362 -0.033941645 0.017683094
000380 85 8d a8 bd 28 50 b1 bd e8 84 a2 3d 7a d6 1f 3d
       -0.08230118 -0.08657867 0.07935506 0.0390229
000390 d2 2b 4c 3d 76 50 37 bd e7 92 7b bd 8c 0b 99 3c
       0.049846478 -0.044754468 -0.061419394 0.018682264
0003a0 df 6a e3 bc 9e cd a1 bc c8 aa df bc 2c 33 88 bb
       -0.027760921 -0.019751366 -0.027303115 -0.004156491
0003b0 8b 46 ae 3d e2 43 1d 3d 7e 9e c1 bd b2 e7 6b 3d
       0.08509549 0.038394816 -0.09454058 0.05759401
0003c0 0e 5f 6d bd 5b d6 6a 3d ab 3c 99 3d f7 18 bc 3a
       -0.05795198 0.05733333 0.074822746 0.0014350702
0003d0 55 25 0a 3d 11 62 3b bc 2e 0c 2c bd 52 28 5b 3b
       0.03372701 -0.011436955 -0.042003803 0.003344078
0003e0 4f 1f 04 bd 64 cd a5 bd 68 7c 50 bc f2 18 a0 bd
       -0.03225642 -0.08095816 -0.012724973 -0.07817258
0003f0 34 30 1f bd e4 39 93 bd 5a 52 54 3d e3 7e a8 3d
       -0.03886433 -0.07188776 0.05183635 0.08227327

linear1.bias f4 [128]
000000 e4 d4 e4 bc f1 b5 36 bc 8e fa 26 bd bb 8c 16 3d
       -0.027933545 -0.011151777 -0.04076629 0.036755305
000010 f9 c9 73 bd a3 97 84 bd 97 2a 04 be 18 f7 57 bd
       -0.059518788 -0.06474235 -0.12906872 -0.05272588
000020 89 69 0c 3d 8f 8e a1 bb 1a 93 ae bd 4e 44 fb bd
       0.034280334 -0.0049303244 -0.08524151 -0.122688875
000030 26 e9 e9 bd b7 9d f4 3c 20 21 b2 3d 0c 7c c5 3b
       -0.11421423 0.02986036 0.08697724 0.0060267504
000040 7b 41 3b bd 80 8b 18 3d 85 b3 0d 3d da aa a9 bd
       -0.045716744 0.037242413 0.03459503 -0.082845405
000050 d9 ee 4e 3d 5d f0 5a 3d cb 1b c5 bd 99 2d 4b bd
       0.05052075 0.053451885 -0.09624442 -0.049604032
000060 9b 47 91 bd 35 b7 98 3d e7 e8 86 bd 68 5e d5 3c
       -0.07093736 0.07456819 -0.06587391 0.026045993
000070 d0 dc 82 3c 9f fa d4 3d 69 ce 6a bd b7 b0 62 bd
       0.015974432 0.10399365 -0.057325754 -0.05534431
000080 ae 0e f3 bd 30 de 68 bd e0 14 45 3c 9a 23 14 3c
       -0.11868034 -0.05685252 0.012028903 0.009041691
000090 fb c0 40 bd a9 8e e9 3d e0 29 7a bd af c6 66 bd
       -0.04705904 0.114041634 -0.06107509 -0.056341823
0000a0 3c 19 bd 3d 03 85 8c 3d 44 93 38 3d 69 17 9c bc
       0.09233329 0.068613075 0.04506232 -0.019054132
0000b0 32 fc 54 3d 36 c5 cd bc ad d0 4a bd 43 9b cf bd
       0.051998325 -0.025118452 -0.049515415 -0.10137036
0000c0 fb 9a bf 3d 03 8a a5 bd 6a 87 9b bd 59 e4 a1 3d
       0.09355732 -0.08082964 -0.075941876 0.07904882
0000d0 5c c0 63 3d 9c 7b b6 bd c6 a5 00 bd 58 3e a1 bd
       0.05560337 -0.08910295 -0.031408094 -0.07873219
0000e0 b5 66 d3 3d d1 8a 8b 3c 23 37 a2 3b e3 ad b0 bd
       0.10322324 0.017033966 0.0049504205 -0.08626916
0000f0 a2 0a 9e 3d 64 6e bd 3d 76 4a 90 3d 89 d3 91 bd
       0.07716872 0.09249571 0.07045452 -0.07120425
000100 5a ab c0 bd 25 d7 e8 3d e6 6d 82 3d 20 c3 ad 3d
       -0.09407683 0.113691606 0.06368618 0.08484483
000110 d1 57 8d ba 31 1c e0 bd 0f 47 8e 3d 5d 1c b9 3d
       -0.0010783618 -0.10942877 0.06947147 0.09038613
000120 90 86 4e 3d 39 1c e8 bc 16 6a f7 bb ec ff f9 bd
       0.050421298 -0.02833377 -0.007550488 -0.12207016
000130 06 0a ae bd 97 71 ba 3d 1a eb d9 ba 38 f3 a9 bd
       -0.084980056 0.09103697 -0.0016625852 -0.082983434
000140 e3 fa d9 3d 9b da d5 3d bb 90 4b bd 84 13 91 3d
       0.10643556 0.10442086 -0.049698573 0.070838004
000150 80 bf 71 bc 74 f2 3b bd 05 1b a9 3d 46 1b 68 3d
       -0.01475513 -0.04588552 0.08257107 0.056666635
000160 40 dc 84 ba 64 f7 78 3d 7b e3 2a 3c 15 d6 f6 bd
       -0.001013644 0.060782805 0.010430212 -0.12052552
000170 73 14 57 3c e9 d9 e9 3d e4 b6 8e bd 34 33 03 3d
       0.013127434 0.11418516 -0.06968477 0.032031253
000180 09 26 a9 bd c2 e6 71 bc c7 ac 53 3d d6 71 05 bc
       -0.08259208 -0.01476449 0.051678445 -0.008144816
000190 5a 0f b5 3d 93 b4 52 bc d7 8d 2f bd 2b 98 24 bd
       0.08840819 -0.012860435 -0.04285988 -0.04018418
0001a0 2d 77 32 bc 8c ed b9 3d cc a0 ce bd a9 96 80 3c
       -0.0108926715 0.090785116 -0.10089263 0.01569684
0001b0 09 92 5c 3d 26 19 18 bd 72 20 c5 bd 96 ef a9 3c
       0.053850207 -0.03713336 -0.09625329 0.020744126
0001c0 5a 53 54 bd 02 ba d5 bd ee c2 e6 bd bf 5d 55 bd
       -0.051837303 -0.10435869 -0.11267649 -0.052091356
0001d0 e2 e1 9f 3d 30 53 7f bd 13 b0 bb 3d 24 ad cc bd
       0.078067556 -0.062335193 0.09164443 -0.099939615
0001e0 a8 08 88 bc 13 33 4a 3d ec 75 83 3d a2 77 00 be
       -0.01660569 0.049365114 0.06418976 -0.12545636
0001f0 60 a7 c7 bc 69 1d 00 3e 3c 0b 3b 3d e1 67 cf 3d
       -0.024371803 0.12511219 0.04566501 0.10127235

norm1.weight f4 [128]
000000 21 bd 7e 3f ef bb 7e 3f 99 eb 7c 3f dc df 80 3f
       0.9950734 0.99505514 0.98796993 1.0068316
000010 b7 d9 7e 3f c1 a1 7f 3f 7d 09 80 3f 36 b1 80 3f
       0.99550956 0.9985619 1.0002896 1.005408
000020 50 e9 7f 3f 67 0d 80 3f 23 87 80 3f 85 85 80 3f
       0.9996538 1.000409 1.004124 1.0040747
000030 67 76 81 3f 5e 26 7e 3f d6 fc 7e 3f 25 49 7e 3f
       1.0114259 0.99277294 0.9960455 0.9933036
000040 64 84 7f 3f 6b 18 7e 3f d8 69 80 3f b3 1f 81 3f
       0.9981139 0.9925601 1.0032301 1.0087799
000050 94 5d 81 3f 04 28 80 3f d2 ac 7f 3f 74 83 80 3f
       1.0106683 1.0012212 0.9987308 1.0040116
000060 29 58 80 3f 38 f2 7f 3f 3e 2b 83 3f 9d 5c 80 3f
       1.0026904 0.9997897 1.0247571 1.0028263
000070 1e 4b 80 3f 82 97 7f 3f c2 11 80 3f 15 eb 80 3f
       1.0022924 0.9984056 1.0005419 1.0071741
000080 dd ef 81 3f 41 bb 80 3f c7 4f 80 3f 8f 03 84 3f
       1.0151325 1.0057145 1.0024346 1.0313586
000090 21 cc 7b 3f e8 4c 81 3f 03 16 82 3f ae 49 80 3f
       0.9835835 1.0101595 1.0162967 1.0022485
0000a0 db 30 80 3f 32 40 7c 3f 8b ab 80 3f 81 ec 80 3f
       1.001491 0.98535454 1.0052351 1.0072175
0000b0 30 14 80 3f 1e 8a 80 3f a7 82 81 3f 56 3e 80 3f
       1.0006161 1.004215 1.0117997 1.0019023
0000c0 71 1c 7f 3f 6b 59 83 3f 1a 18 7e 3f f6 91 82 3f
       0.99652773 1.0261663 0.99255526 1.0200794
0000d0 c4 01 7f 3f c7 ff 7f 3f 57 c7 82 3f ed 97 7d 3f
       0.9961207 0.9999966 1.0217084 0.99059945
0000e0 d4 9f 80 3f 2c 6f 7f 3f 92 be 80 3f 23 c9 7f 3f
       1.0048776 0.9977901 1.0058157 0.99916285
0000f0 cc a3 80 3f 4f d8 7e 3f 04 d2 7f 3f 4b 7e 81 3f
       1.0049987 0.9954881 0.99929833 1.0116667
000100 8a 7b 7c 3f f4 a0 80 3f c7 60 7f 3f 31 2c 80 3f
       0.98626006 1.0049119 0.99757046 1.0013486
000110 be 7e 7f 3f 34 2f 83 3f f9 a5 80 3f 4c 07 80 3f
       0.9980277 1.024878 1.0050651 1.0002227
000120 56 39 7e 3f cf 59 7d 3f 0b 53 7c 3f c5 8e 80 3f
       0.9930624 0.9896516 0.98564214 1.004357
000130 84 1c 80 3f a6 07 80 3f 4e ba 7f 3f ce 62 81 3f
       1.0008702 1.0002334 0.99893653 1.0108278
000140 24 57 81 3f 6f 02 80 3f f7 6a 80 3f 63 8f 7e 3f
       1.0104718 1.0000743 1.0032643 0.9943754
000150 ad 09 80 3f e9 69 82 3f 5d 95 7f 3f 4c 8b 7d 3f
       1.0002953 1.0188571 0.99837285 0.99040675
000160 cd d7 7e 3f 81 bb 80 3f 0e 38 80 3f 63 b8 81 3f
       0.99548036 1.0057222 1.0017107 1.0134395
000170 93 f7 81 3f 70 cc 81 3f 6d c6 7d 3f 41 e6 7d 3f
       1.0153679 1.0140514 0.991309 0.99179465
000180 bf 40 7e 3f d5 4e 81 3f a7 fc 80 3f 49 b4 81 3f
       0.99317545 1.0102183 1.0077103 1.0133144
000190 8a 93 80 3f cc 57 81 3f 2c a5 81 3f ab a0 7f 3f
       1.0045025 1.0104918 1.0128531 0.99854535
0001a0 c6 ee 7f 3f f2 9e 80 3f 52 28 81 3f a5 c1 7d 3f
       0.99973714 1.0048506 1.009043 0.99123603
0001b0 44 1f 7f 3f ba b2 7e 3f e5 ea 7f 3f 19 54 7d 3f
       0.9965708 0.99491465 0.99967796 0.9895645
0001c0 39 5d 82 3f 77 38 7d 3f 75 60 80 3f c9 60 80 3f
       1.0184699 0.98914284 1.0029436 1.0029536
0001d0 8b e4 7f 3f 93 de 7f 3f 3d a9 7d 3f 8a e3 80 3f
       0.99958104 0.99948996 0.9908636 1.006944
0001e0 3a 4f 7d 3f 06 8f 7d 3f fe 2f 7d 3f c1 46 81 3f
       0.98949015 0.9904636 0.98901355 1.0099717
0001f0 93 b7 7e 3f 9e 3e 83 3f 15 bb 7e 3f 8e 33 81 3f
       0.9949886 1.0253484 0.99504215 1.0093858

norm1.bias f4 [128]
000000 a5 9a 89 b8 97 8e 02 3b 35 60 37 bc 06 a3 08 3c
       -6.561474e-05 0.0019921416 -0.011192371 0.008339649
000010 d9 e2 af bb ad f1 9f bb c4 2c 17 ba 1d fa e7 bb
       -0.0053676185 -0.004881105 -0.00057668635 -0.0070793764
000020 d5 ef 38 3b 55 cc c5 ba 28 ff c1 38 12 6c 6b bb
       0.0028219123 -0.0015090803 9.250484e-05 -0.003592257
000030 2a 19 8a b8 ea 82 c7 bb 19 0e 05 3c a9 fd 12 ba
       -6.58504e-05 -0.006088604 0.008121037 -0.00056072563
000040 26 ed 5d bb 64 4e d0 bb e0 37 a0 3b e5 19 e5 bb
       -0.0033863275 -0.006357001 0.0048894733 -0.0069916123
000050 d3 ab a8 3b fc be 4d 3b 71 1b 29 bb 7f 56 b8 39
       0.005147436 0.0031394353 -0.002580371 0.0003515966
000060 34 25 b4 3b fd ec 96 ba 9f 7d 3e 3c 1b 4a 3f 3b
       0.005497599 -0.001151472 0.01162663 0.0029188457
000070 af 3f 0d 3c d3 25 a7 39 4a e1 b5 3b e4 1b 03 3a
       0.00862114 0.00031880903 0.005550538 0.00050014094
000080 92 ad 55 bc 88 18 22 3b 36 f5 70 bb 0e e0 0d 3b
       -0.013041871 0.002473386 -0.003676725 0.002164844
000090 f4 3c 29 bc a1 06 68 3c b6 76 eb 3b c2 87 a7 3b
       -0.010329474 0.014161737 0.0071857823 0.005112619
0000a0 02 86 fa 3b c4 2b 11 bc 19 2a f5 3b 00 e8 f5 3b
       0.0076453695 -0.008860532 0.007481825 0.007504463
0000b0 85 18 92 3b 7f 4c 2a 3b 50 0a d1 38 15 2e c4 ba
       0.0044584894 0.0025985537 9.9678175e-05 -0.0014967347
0000c0 5b 3f 46 3b b3 69 25 3b b9 a6 b1 b9 82 6b 8c 3c
       0.0030250165 0.0025240004 -0.0003388429 0.017141107
0000d0 87 52 cb ba 80 20 87 ba 7f e6 65 3c 9d 47 98 b8
       -0.0015512266 -0.0010309368 0.014032005 -7.261264e-05
0000e0 21 52 d1 3a bb 1f 97 39 fe 64 1c 3b 24 0f 56 bb
       0.0015969911 0.00028824605 0.0023863907 -0.0032662833
0000f0 8e f1 d7 3b e8 96 6c bb 8d 49 9d ba 19 7b 94 3c
       0.006590075 -0.003610069 -0.0012000069 0.018125104
000100 7b 43 2a ba d0 7a f7 3b cd 37 a1 ba 99 73 70 3a
       -0.0006495041 0.007552482 -0.0012299955 0.0009172499
000110 4c c3 87 bb 5e 87 7c 3b 16 e6 d3 3b 1d 14 8f 39
       -0.0041431542 0.0038532834 0.0064666374 0.0002729007
000120 ef 8e 81 bb 08 bb f9 bb ff 97 e8 bb 7c 38 55 bb
       -0.0039538066 -0.007621173 -0.0070981975 -0.0032534888
000130 35 13 13 3a 27 75 f2 3b c0 38 f7 ba f7 c9 08 3c
       0.0005610467 0.0073992196 -0.0018861517 0.008348933
000140 3c 38 1b 3c 87 ab 8c 3b 8c 69 5a 3b 52 fb a1 3b
       0.009473857 0.0042929086 0.003332707 0.00494329
000150 98 84 13 39 d4 70 85 3b d3 9b 69 ba 1a 39 0d bc
       0.00014068407 0.004072288 -0.0008911464 -0.008619571
000160 44 c2 89 bb 10 54 0b 3c df 9e 01 3b 87 62 b8 bb
       -0.0042040665 0.008503929 0.0019778532 -0.0056269797
000170 25 be 35 3c b2 7a e1 3b 21 96 0c bc a9 c8 90 bb
       0.011092697 0.0068810815 -0.008580715 -0.004418452
000180 d2 f5 76 bb fd 62 a7 3c 90 a1 1c 3c c5 6f 3a 3c
       -0.0037683141 0.020432943 0.009560004 0.011379187
000190 df 77 87 3b 9e 28 09 3c c1 d4 ef 38 68 7c 53 3b
       0.004134163 0.0083715 0.000114360366 0.0032270197
0001a0 76 92 10 3b 1b 6e bc 3b a6 e5 ab bb e4 27 0c bc
       0.0022059954 0.0057504303 -0.005245882 -0.008554433
0001b0 0b 9b 31 3b 6f 86 4e bb 03 69 c7 3b 10 71 cd ba
       0.002710047 -0.0031513234 0.0060855164 -0.0015673954
0001c0 f9 a7 94 3b 46 a3 14 3c 54 60 60 bb b2 6a 01 3b
       0.0045366255 0.009072131 -0.0034237104 0.0019747433
0001d0 8b e1 48 3b 73 7c 19 3a 3b 22 d3 3a c0 f6 d6 b8
       0.0030652012 0.0005855031 0.0016108224 -0.00010250276
0001e0 30 27 07 3b b4 97 da b9 aa 77 02 bc 57 bf ab bb
       0.0020622723 -0.00041693228 -0.0079631 -0.0052413153
0001f0 c4 48 72 b9 50 d6 85 3c 38 7b 1c bb 0f e7 00 3c
       -0.00023106026 0.016337544 -0.0023877155 0.007867589

linear2.weight f4 [128, 128]
000000 ed 95 a8 bd 6d d4 86 bb a1 68 bc bc 0e 32 0e bc
       -0.08231721 -0.0041146786 -0.02299911 -0.008678926
000010 78 db 10 3d 51 ec 37 3d 64 4c 9a bc 03 c5 55 3d
       0.03536555 0.044903103 -0.018835254 0.05218984
000020 7b a8 10 bd aa 6f 30 3d 16 57 60 3d ec 73 ae bd
       -0.035316925 0.04307524 0.05477055 -0.08518204
000030 49 8c ae 3c c3 4e da 3b 22 07 5b 3d f0 99 32 bd
       0.021307128 0.006662221 0.0534736 -0.043603837
000040 df 58 97 bd 09 1b 45 3c 09 f2 a5 3d fa 5b 42 bd
       -0.07389998 0.012030371 0.08102805 -0.047450997
000050 99 55 31 bd 97 2a 08 3d 85 a3 d8 bb 7b 79 e8 bc
       -0.043294523 0.03324374 -0.00661129 -0.028378239
000060 7e cb 4d bc 26 e5 24 bd 73 7b 2b bd cc 30 89 3d
       -0.012560723 -0.040257595 -0.041865777 0.066987604
000070 45 e3 a0 3d b5 c2 85 3d 76 8b 8f bd bd 52 28 bb
       0.07855848 0.06531278 -0.07009022 -0.0025684081
000080 ba ac 3f 3d 50 a3 6a 3c 5f 60 b0 bd f8 df 7f 3d
       0.046795584 0.014321163 -0.08612131 0.062469453
000090 10 79 d9 3c 52 05 74 3c 44 78 42 3d a4 68 05 3d
       0.026546985 0.014893847 0.047477975 0.032570496
0000a0 0e f3 0e 3d d3 31 2d 3d ae ff 85 3d d5 d1 2f 3d
       0.034899764 0.042283844 0.06542908 0.04292472
0000b0 ce 54 8f 3d 47 70 a4 3d 86 24 bc 3d b1 b9 7c 3d
       0.06998597 0.08029228 0.09186654 0.061700527
0000c0 9a 5e b7 3c 3a a9 d0 3c c5 45 78 3d ec ab 02 3d
       0.022383977 0.025471319 0.060613412 0.03190224
0000d0 a5 89 84 bd 71 ec 1c 3d 66 d4 98 bd 58 4b 85 39
       -0.06471566 0.038311426 -0.07462387 0.00025423872
0000e0 25 37 52 bd c7 a5 c4 3d 6d 78 a7 3d 4c 5e c2 bc
       -0.05132212 0.09601932 0.08177266 -0.023726605
0000f0 30 46 8b 3d f7 8a 72 3c 04 5b aa bb ca 03 d3 bc
       0.068004966 0.01480364 -0.005198838 -0.025758643
000100 50 ac e2 bc af 02 fa 3a 35 37 17 39 32 25 96 bd
       -0.027670056 0.0019074286 0.00014421048 -0.07331313
000110 c8 3c 64 bb 0c 59 5e 3d b4 54 83 bd 70 c0 d8 bc
       -0.0034826268 0.05428414 -0.0641264 -0.026458949
000120 12 e4 f4 ba c0 65 ef 3c 71 ec 98 3d 36 36 5a bd
       -0.0018683693 0.029223323 0.074669726 -0.053274356
000130 75 1f a1 3d 28 67 99 bd cf 56 dc 3c 79 d8 83 3d
       0.07867328 -0.074903786 0.026896862 0.06437773
000140 81 49 54 bd a6 eb 84 bd 05 e1 d4 bc 5e aa 85 bd
       -0.05182791 -0.06490259 -0.025986204 -0.065266356
000150 22 93 7b bd 8c 9c 4f 3d 80 f8 29 bd 30 d7 a5 3a
       -0.061419614 0.050686404 -0.041496754 0.0012652632
000160 42 d5 32 3d 20 46 0a 3d 13 94 79 3d 1e f7 cc 3b
       0.04366041 0.033758283 0.06093223 0.0062550446
000170 4e 1c 7f bd e6 63 ad bd 51 81 b4 3c 55 4a 63 bd
       -0.062282853 -0.0846632 0.02203432 -0.05549081
000180 c0 92 a0 3d f1 da 11 ba a6 b9 80 bd c7 2b 73 bd
       0.0784049 -0.0005563936 -0.0628541 -0.05936792
000190 ae 9b 0e 3d 78 87 09 bd 8c ca d1 bc e2 fd ab bc
       0.034816436 -0.03357646 -0.025609277 -0.020995084
0001a0 6d 4a e0 bc 6c bb 9b bd 5e f3 93 bd cb 21 52 3d
       -0.027379239 -0.07604107 -0.07224153 0.05130176
0001b0 63 23 09 bc 8b ea c8 bc 18 c7 94 3c c9 2c 9f 3d
       -0.008370253 -0.024525901 0.018161342 0.07772214
0001c0 94 14 dd bc 05 0c 14 ba 5a ee f9 3c 8d aa 01 bd
       -0.026987351 -0.0005647543 0.030509163 -0.03165679
0001d0 2b b3 9e 3d 56 a2 ad bd db c9 7c ba f0 6d 8a bb
       0.07749017 -0.08478229 -0.0009643116 -0.0042245314
0001e0 14 fb 33 bd b9 74 a2 3d 59 b9 36 3d 03 8f 03 bd
       -0.04394062 0.07932419 0.044610355 -0.03211881
0001f0 22 ba cc bc 07 1c a8 3c 83 47 24 3c 60 94 8a 3c
       -0.024991099 0.020521177 0.010026815 0.016916454
000200 c6 7a 57 3b 52 ea b0 3c 72 53 86 3d ad 5f 76 3d
       0.0032879575 0.021596108 0.06558885 0.060149837
000210 0e ce 80 3c 42 17 59 3c 57 fe 81 3d eb 9f c9 3d
       0.015723255 0.013250174 0.063473396 0.09844955
000220 2b 89 9e bc dd 85 15 3d b3 ad 82 bc dd e4 50 bd
       -0.019352516 0.036504615 -0.015951967 -0.05099951
000230 96 29 7e bd 02 e8 97 3c 40 b9 f5 bc 81 dd 56 3c
       -0.06205138 0.018543247 -0.02999556 0.013114334
000240 f7 a9 10 3c 2e 06 38 3b fb 29 9e 3c 2b 49 51 3d
       0.008829585 0.0028079855 0.019307127 0.05109517
000250 df c9 61 bd af 0b a2 3d d0 9a 13 bc 3d 68 be 3d
       -0.05512416 0.07912385 -0.009009078 0.092972256
000260 31 fd bd bc 14 8d 36 bc 49 45 2b 3d f6 9f 97 3c
       -0.02319202 -0.011142034 0.041814122 0.018508893
000270 2c ad ca bc f9 c8 26 bd b9 d7 8d 3d ff d6 aa 3d
       -0.024740778 -0.040719006 0.069259115 0.083417885
000280 dd 10 8f 3d 90 4c 80 bc 47 db c5 bc b8 b9 dc bc
       0.06985638 -0.015661508 -0.024152411 -0.026944026
000290 96 18 80 3c 06 9f 18 bd c9 2e 07 3d 49 45 71 3d
       0.015636723 -0.03726103 0.033003602 0.058903966
0002a0 ff d5 21 3d d8 12 4f bd a2 3f c3 3a d6 58 40 bd
       0.039510723 -0.05055508 0.0014896283 -0.04695972
0002b0 e2 86 e1 bc 28 43 28 bd ae 0f 8d 3d 78 d6 8d 3d
       -0.027530137 -0.04107967 0.06887756 0.06925672
0002c0 c0 b5 a8 3d 4d f4 a2 3d e3 71 29 bd 64 eb 01 3d
       0.08237791 0.07956753 -0.041368376 0.031718627
0002d0 0d a6 28 bd ce 34 48 bd 4a 72 c0 3c e2 4a 1d bc
       -0.041173983 -0.048878483 0.023491997 -0.009600373
0002e0 59 a0 97 bd 39 54 97 bc ab d9 08 bd 84 4f 0a bc
       -0.07403631 -0.018472778 -0.03341071 -0.00844181
0002f0 bf 07 b1 38 e5 20 23 bb 6e ae 87 3c 71 4b 65 3c
       8.4414605e-05 -0.0024891433 0.016562667 0.013995037
000300 e2 6f 84 bd e9 e5 ec bc 76 e4 af bd 62 ba 44 3d
       -0.064666525 -0.028918223 -0.08588497 0.04802931
000310 33 69 45 3d 90 ce b3 bb 04 5d c6 3c d1 43 11 bd
       0.04819603 -0.0054872707 0.024214275 -0.035465065
000320 66 c5 bc bd b8 7b 85 bd 1f ff d1 3b 9d 92 9a 3d
       -0.09217338 -0.06517738 0.0064085866 0.075474955
000330 c5 9f 33 bd 3e 55 f3 3c 88 e0 85 bd 7a 9a 4d bd
       -0.04385354 0.029703733 -0.065369666 -0.05019615
000340 ff bb ca bc 34 8b 1a 3c 26 75 c3 3d e8 83 c4 bc
       -0.024747847 0.009432603 0.09543829 -0.023988679
000350 74 1e 4c bd 73 d7 ff ba ee fe 22 bd 5f 13 ce bc
       -0.04983373 -0.0019519165 -0.0397939 -0.025155721
000360 12 9c ba bd 9f c1 8b bc 3f 5d a2 bd e8 53 9e 3a
       -0.09111799 -0.0170601 -0.079279415 0.0012079449
000370 32 6f 09 bd 40 99 61 3d 76 78 46 3c 90 23 18 3d
       -0.03355331 0.05507779 0.012113681 0.03714329
000380 b2 85 85 3d 16 2d b3 bd 62 9c d3 bd 54 db a9 ba
       0.06519641 -0.08748834 -0.10332562 -0.0012959042
000390 b2 00 eb 3c 9c 14 4f bd e9 a3 07 bd 2d 88 d2 bd
       0.028686855 -0.050556764 -0.0331153 -0.1027988
0003a0 35 db 80 bd bc 20 5b bd 94 10 eb 3c 0f bf 5e bd
       -0.062918104 -0.053498015 0.028694429 -0.054381426
0003b0 37 ba 25 bd 7c f9 33 3d 44 35 98 3d ca ee 89 3d
       -0.04046079 0.0439391 0.074320346 0.067349985
0003c0 bb cb ad bc 47 ab ba bd 76 62 90 3d 17 36 15 3d
       -0.02121531 -0.091147 0.0705003 0.036428537
0003d0 38 e8 af 3c 28 66 e1 3c dd 21 d6 bd 35 5e 9a 3d
       0.021473035 0.027514532 -0.10455678 0.075375
0003e0 ea b3 ac 3d 0b b2 5e bd 11 fb 4f 3d 60 4c ab bd
       0.084327534 -0.054369014 0.050776545 -0.08364177
0003f0 75 77 d7 bc d1 c8 78 bc a2 f5 62 bc 47 09 31 bd
       -0.026302079 -0.015184597 -0.013852509 -0.04322174

linear2.bias f4 [128]
000000 9d bc 74 bb e8 8f 78 3d 62 64 87 bc ad db 77 3d
       -0.0037343868 0.060684115 -0.016527358 0.060512234
000010 4a 0d 81 3d 7e 7c 23 bd 0d a2 52 3d 38 49 5b 3d
       0.06301363 -0.039913647 0.051424075 0.053536624
000020 5d a7 91 3d a2 6e b1 bc 83 cc 6c bc c2 ba 95 3d
       0.07112 -0.0216592 -0.014453056 0.07311012
000030 8f b0 9a 3d eb f0 9c bd cf fe 1f bd c2 4f 8b bd
       0.07553207 -0.07663139 -0.039061364 -0.06802322
000040 7b fe 89 bc 6d bf 78 3c 03 47 ce bc 16 70 94 3d
       -0.016844979 0.015182358 -0.025180345 0.07247941
000050 de 09 3c bd 7a a7 87 bb 10 a7 54 bd 88 1a ea bc
       -0.045907848 -0.004139838 -0.051917136 -0.028577104
000060 62 93 7c 3d b7 1f 90 bc 4e f4 a3 3c 73 d4 54 bd
       0.061663993 -0.017593248 0.020013954 -0.05196042
000070 6f 62 ae bd 1d c8 2d 3d ac 16 04 3c 6f 01 34 bc
       -0.085148685 0.04242717 0.008062046 -0.01098667
000080 48 4d 5e bd 90 21 1f 3d ef ab 81 bd 89 92 8d 3d
       -0.05427292 0.038850367 -0.06331622 0.06912715
000090 59 31 7a 3d 5f fb 5f bd 85 d8 b2 3d 45 1c 28 3d
       0.061082218 -0.054683086 0.08732704 0.041042585
0000a0 60 4c 83 bd 31 98 29 3c 8e 1e 65 bd 5c 2d 0f 3d
       -0.06411052 0.010351227 -0.055937342 0.034955367
0000b0 79 21 a2 bd 3e 85 a3 bd 2c 47 38 bd 93 53 96 3d
       -0.07916541 -0.07984398 -0.04498975 0.07340159
0000c0 61 4e 41 3d 34 32 5c 3d 4f 80 8b bd 61 2b fe 3a
       0.04719389 0.053758815 -0.06811582 0.001939159
0000d0 0f 2a 59 bd e4 4e b5 3d be a9 a7 3d 64 32 75 3d
       -0.053018626 0.08852938 0.08186673 0.05986251
0000e0 b0 c4 a4 bd a9 cb e1 3c 24 02 7d 3d 0c e9 95 3d
       -0.08045328 0.027562933 0.06176962 0.07319841
0000f0 13 b9 80 bb 66 51 e2 bc cb 47 42 3d 55 b5 63 bd
       -0.0039283126 -0.027626704 0.04743175 -0.055592854
000100 8c 2f 0c bd 0f 71 bc bc 9c bd 95 bd aa ef 8a 3d
       -0.03422503 -0.02300313 -0.07311556 0.067839935
000110 e9 55 92 3c b4 8b 3a bc 30 6e 9a 3d 12 79 90 bd
       0.01786323 -0.011385847 0.07540548 -0.07054342
000120 01 9f 78 bd bb 9e fc 3b 8d c7 76 3c 3d b2 a1 3c
       -0.060698513 0.007709352 0.015062225 0.019738311
000130 89 a8 3c 3d 8f 04 a1 3d 47 af a9 bd cc f2 81 3d
       0.046059165 0.078621976 -0.082853846 0.06345138
000140 1d 72 f8 3a 97 d8 10 bc e8 3c a3 bd f6 4c ab 3d
       0.0018954907 -0.008840702 -0.07970601 0.083642885
000150 c3 3e 92 3d d6 eb 58 3b 72 3e 8d bb 12 d4 9c 3d
       0.07140877 0.0033099554 -0.0043104226 0.07657637
000160 99 f5 d1 3b 05 bb 9c 3d ab 6a 30 bd d1 0a 6d bd
       0.0064074514 0.07652859 -0.043070477 -0.057871643
000170 04 ee 16 bd d6 95 b6 3c 92 ca 85 bd 3b 6b 01 bd
       -0.036848083 0.022288244 -0.06532778 -0.031596404
000180 56 03 25 3d 48 79 99 bd 46 65 a9 bd e5 b3 df 3b
       0.040286385 -0.07493836 -0.082712695 0.006826865
000190 b1 67 11 3d 3e 38 2e bd de b9 98 3d 37 f3 c8 bd
       0.03549928 -0.042534105 0.07457326 -0.098120145
0001a0 e9 18 ba bd e0 90 a4 3c f5 15 84 3d e5 07 70 bd
       -0.090867825 0.020088613 0.064495005 -0.05860128
0001b0 1a 8b ea bc 48 fc a7 bd 31 16 5e 3d ba bf aa 3d
       -0.028630782 -0.08202416 0.054220382 0.0833735
0001c0 b5 5a 7e 3c 4b a4 98 bd 89 06 05 bc de a8 f0 bc
       0.015524556 -0.074532114 -0.008119234 -0.029377397
0001d0 ff af 70 bd f6 12 18 bd 2f 51 89 bd 5a 0d 90 3b
       -0.058761593 -0.037127458 -0.06704938 0.004396123
0001e0 c3 42 5e bd 4d 8d ca 3b eb 2c 97 3c 4b 88 95 3d
       -0.054262888 0.006181395 0.018454036 0.073013864
0001f0 9e b8 34 bd 60 df 07 bc d9 cb 12 3d bb a9 d4 bc
       -0.044121377 -0.008293003 0.035838936 -0.02595984

norm2.weight f4 [128]
000000 b4 36 83 3f bc 15 82 3f fe cc 7e 3f 40 f8 82 3f
       1.0251069 1.0162883 0.99531543 1.023201
000010 80 41 7e 3f c8 b6 81 3f 06 af 81 3f ec 28 82 3f
       0.99318695 1.0133905 1.0131538 1.0168738
000020 90 99 81 3f f0 c5 7d 3f 0d 5a 80 3f 4b c5 7e 3f
       1.0124989 0.99130154 1.0027481 0.99519795
000030 b3 14 81 3f 17 e2 80 3f a2 25 81 3f 06 83 80 3f
       1.0084442 1.0068997 1.008961 1.0039985
000040 82 81 83 3f b5 2f 7f 3f 27 cc 7d 3f b0 41 82 3f
       1.0273898 0.9968217 0.99139637 1.0176296
000050 48 77 7e 3f 3c 07 81 3f 28 1b 82 3f ce da 77 3f
       0.9940076 1.0080333 1.0164537 0.96818244
000060 99 71 7e 3f bb ff 7d 3f 6c 08 83 3f f4 bf 7b 3f
       0.99392086 0.9921834 1.0236945 0.9833977
000070 af 3e 7f 3f 0e 63 7d 3f 7e 61 80 3f 77 6b 80 3f
       0.9970502 0.9897927 1.0029752 1.0032796
000080 4a 16 81 3f 70 19 79 3f b4 4f 7d 3f 4f 6f 7f 3f
       1.0084927 0.9730444 0.9894974 0.9977922
000090 c3 b9 81 3f 01 6a 7f 3f 7d df 7d 3f 46 a1 81 3f
       1.0134815 0.99771124 0.9916914 1.0127342
0000a0 3a 5d 7f 3f 7f 20 7e 3f 01 46 7d 3f 47 d0 7e 3f
       0.9975163 0.99268335 0.9893494 0.99536556
0000b0 2e fb 7e 3f 98 1b 7e 3f 07 44 80 3f b6 64 81 3f
       0.9960202 0.99260855 1.002076 1.010886
0000c0 f9 b6 7e 3f e0 03 7e 3f d1 93 81 3f 6f 3a 82 3f
       0.99497944 0.9922466 1.0123235 1.0174083
0000d0 34 e4 7e 3f 0f 8c 80 3f d7 45 7d 3f 5a 75 80 3f
       0.9956696 1.0042742 0.9893469 1.0035813
0000e0 6a af 7f 3f 01 51 7f 3f 44 51 82 3f 47 de 7f 3f
       0.99877036 0.9973298 1.018105 0.99948543
0000f0 bd 62 7e 3f 7e 41 7f 3f ec e8 7f 3f f8 cb 82 3f
       0.9936941 0.9970931 0.99964786 1.0218496
000100 ce 3a 7e 3f dc c9 7f 3f 71 5f 81 3f 45 d2 7e 3f
       0.9930848 0.9991739 1.0107251 0.99539596
000110 61 de 7f 3f c5 f5 7f 3f 77 a7 80 3f b6 42 80 3f
       0.999487 0.9998439 1.0051106 1.0020359
000120 62 3b 80 3f 61 45 7e 3f 42 07 7f 3f fa 05 7e 3f
       1.0018122 0.99324614 0.9962045 0.9922787
000130 c5 ec 7e 3f 50 48 7e 3f 9e d5 7e 3f 6b 80 82 3f
       0.9958003 0.9932909 0.99544704 1.019544
000140 db de 7e 3f 5b fd 7e 3f 10 e3 81 3f f2 7e 7e 3f
       0.995588 0.9960534 1.0147419 0.99412453
000150 c5 42 80 3f 3d 03 81 3f c1 b0 7e 3f 47 2d 81 3f
       1.0020376 1.0079113 0.99488455 1.0091943
000160 4c ff 82 3f 07 ae 7e 3f 7b e0 80 3f 67 f0 80 3f
       1.023416 0.99484295 1.0068506 1.0073365
000170 2c 6d 7f 3f 28 12 7b 3f 59 b9 7c 3f f0 ae 80 3f
       0.9977596 0.9807458 0.9872032 1.0053387
000180 3f 67 80 3f 9f c2 7d 3f 86 3b 80 3f fa 7b 81 3f
       1.0031508 0.99125093 1.0018165 1.011596
000190 f1 71 80 3f 01 b8 7b 3f 7b 23 7e 3f 97 e1 7e 3f
       1.0034772 0.9832764 0.9927289 0.9956297
0001a0 20 d7 7c 3f 88 d3 81 3f b8 d2 81 3f 7d 27 7e 3f
       0.98765755 1.0142679 1.0142431 0.99279004
0001b0 42 62 79 3f 3f ca 80 3f 10 2e 80 3f fa 9a 7d 3f
       0.97415555 1.0061721 1.0014057 0.990646
0001c0 6c 5a 7e 3f bd c4 7e 3f 8e 47 81 3f 0e 8d 80 3f
       0.9935672 0.9951895 1.0099962 1.0043046
0001d0 f7 20 7f 3f 12 73 80 3f 27 a7 7e 3f 17 53 80 3f
       0.99659675 1.0035117 0.99473804 1.0025357
0001e0 16 dc 82 3f f9 07 80 3f 8c 1a 7f 3f 5e 73 7b 3f
       1.0223415 1.0002433 0.9964988 0.9822291
0001f0 cf 4d 7e 3f 02 0d 7d 3f 48 c2 81 3f 4c da 80 3f
       0.99337476 0.98847973 1.0137415 1.0066619

norm2.bias f4 [128]
000000 62 33 32 3c 84 97 34 3c 8b d8 dd bb 73 86 1d 3c
       0.010876508 0.011022452 -0.0067701987 0.009614575
000010 8b 7c 34 bc 56 dd 84 3c 59 0f 63 3c d3 c0 fc 3b
       -0.0110160215 0.016218822 0.01385864 0.007713416
000020 62 9e 0b 3c f3 04 a7 bb e3 d6 99 3b dc 0e 98 bb
       0.008521648 -0.0050970255 0.004694806 -0.0046404433
000030 06 21 dc 3b 35 9c 48 bb 20 ac fd bb 42 0a c4 ba
       0.006717804 -0.0030610685 -0.007741466 -0.001495667
000040 3e 5d 03 3c 5a 8a 0d 3c 5c f4 f3 3b fb aa 49 bb
       0.008017836 0.008638943 0.0074449014 -0.0030772078
000050 38 8e 85 bb 5e 47 1b 3b d7 96 1b bb d0 00 07 bc
       -0.0040757917 0.0023693661 -0.002374103 -0.00823994
000060 b7 e5 ad bb 95 51 e3 bb 46 5c cf 3a d1 ec 51 bc
       -0.005306925 -0.0069372156 0.0015820346 -0.012812809
000070 1b 5e 54 bb 5a f8 df bb 82 97 d5 3b 97 36 23 ba
       -0.0032404724 -0.0068350257 0.0065183053 -0.0006226091
000080 43 22 4a 3c 7a 90 6d bc c4 40 da bb 1f 15 69 bb
       0.01233727 -0.014499778 -0.0066605527 -0.0035565568
000090 c9 de 73 bb 56 63 00 bb b5 38 f5 3b 19 b1 91 3a
       -0.0037211648 -0.0019590459 0.0074835666 0.0011115401
0000a0 13 e6 9c bb 22 ff af bb 74 3a 1e bc 74 21 ed bb
       -0.004788169 -0.0053709904 -0.009657491 -0.007236654
0000b0 ec 19 19 bb 16 d7 d4 bb 44 ba b6 3b 9a cf 0f 3c
       -0.0023361398 -0.006495367 0.005576404 0.008777523
0000c0 8d 9a 05 3a 2a 3e 28 bb 90 d9 94 b7 09 8f 66 bb
       0.0005096577 -0.0025671818 -1.7744285e-05 -0.003518047
0000d0 68 f6 cd 3b fd 3a 80 3b 02 46 bc bb 54 0a 0a 3c
       0.0062854774 0.003913282 -0.0057456503 0.008425314
0000e0 65 1d 35 bb 6a e1 63 bb 17 2d 0b 3c 8c b0 46 3c
       -0.0027635929 -0.0034771808 0.008494637 0.012127053
0000f0 f8 70 91 bb c8 14 67 bb 1c f2 b7 3a d0 8a 87 3c
       -0.0044385158 -0.003526019 0.0014033946 0.016545683
000100 64 ec 67 bb f6 22 e6 3b bb 64 cc 3b 70 6d 53 bb
       -0.0035388703 0.0070232106 0.006237594 -0.0032261275
000110 9f 11 55 3b d4 cd aa 3b 78 9b 56 3c fb 7d d6 3b
       0.0032511724 0.005212525 0.01309859 0.0065457798
000120 60 77 a8 bb 1d 3e 2d bb c0 84 f0 ba 81 fa 1f bb
       -0.0051411837 -0.0026434727 -0.001835011 -0.0024410787
000130 48 af 29 bb e7 aa 92 bb 5f b5 6f bb 89 50 07 3c
       -0.002589183 -0.0044759396 -0.0036576611 0.008258947
000140 31 ea 1b bb bd 4b 8c bb 28 2a e6 3b 6d 76 99 b9
       -0.0023790712 -0.0042814896 0.0070240684 -0.00029270668
000150 53 b3 40 3b d6 c2 26 3b be 97 55 bb 1d a0 40 3c
       0.002940376 0.002544572 -0.0032591666 0.011756924
000160 fb 56 3b 3c 03 ec e1 3b 43 de 8f bb b9 c5 43 3b
       0.011434312 0.00689459 -0.0043905093 0.002987249
000170 c1 31 51 3b f5 d2 8d 3a 16 c1 1b bb d1 6c 06 3b
       0.0031920525 0.0010820316 -0.0023766211 0.0020511637
000180 bd 1f a6 ba aa a9 81 bb 28 4f df 3a 3e da f8 3b
       -0.0012674254 -0.003956993 0.001703714 0.007594376
000190 26 2e 07 3c 83 24 aa ba 9d 59 9a 3b 86 51 81 bb
       0.008250749 -0.0012980852 0.0047103898 -0.003946486
0001a0 04 5e e6 3b c5 f1 3c 3c 04 2f a7 3b 62 c4 a7 bb
       0.0070302505 0.011532252 0.0051020402 -0.005119846
0001b0 eb e7 ac 3b e0 da 07 bc 16 00 6e 3b b5 0b 14 3a
       0.00527667 -0.00829193 0.003631597 0.00056474964
0001c0 70 16 17 bb d1 88 fb 39 6a fa df 3b 1c 6e 6c bb
       -0.0023054145 0.00047976387 0.0068352716 -0.0036076372
0001d0 da 2f d6 bb 4c 97 d3 3b 6d 0c 63 3b 15 59 9d 3b
       -0.006536466 0.006457245 0.0034644858 0.004801879
0001e0 ab 49 53 3c 14 f6 4b ba 63 ce 16 3c 91 a6 26 bc
       0.012895982 -0.0007780504 0.00920448 -0.010171548
0001f0 a5 ba 8d 3b 18 79 10 3c b0 b7 0c 3c 02 c7 6e 3b
       0.0043252283 0.0088179335 0.008588716 0.0036434536

linear3.weight f4 [48, 128]
000000 70 a3 8f 3c 76 67 00 bd 62 19 72 3d 48 4e f0 bb
       0.017533988 -0.031348668 0.05910624 -0.0073335506
000010 da 14 05 bd f5 a0 70 bd ff bb 8a bd 92 16 20 bb
       -0.03249059 -0.05874725 -0.06774139 -0.0024427515
000020 81 88 99 3d d6 c8 5a bd bc e6 e9 bc a8 65 79 bd
       0.07496739 -0.05341419 -0.028552406 -0.060887963
000030 91 22 4a bd e1 12 6b bd cf 91 52 3d 69 94 bb bd
       -0.04934937 -0.05739105 0.051408585 -0.09159166
000040 77 33 78 3d c5 d3 8d bd 19 74 2f 3d ab 07 0b bd
       0.060595956 -0.069251575 0.04283533 -0.03394286
000050 70 b7 6d bd 2f 2f 64 3d be e6 12 3b 01 41 2f 3c
       -0.058036268 0.05570906 0.0022415365 0.0106966505
000060 5a 8d 44 3c b8 6f 3f 3d d7 13 93 bd 50 6a bd 3c
       0.011996591 0.046737403 -0.071815185 0.023121983
000070 ab 67 77 bb 26 4a 68 bd e3 eb b3 3d 94 df 9d 3b
       -0.0037751 -0.05671134 0.08785226 0.0048179124
000080 db e4 94 3b 18 24 dd 3b c2 2b 89 bd 1d 45 d2 bc
       0.0045438833 0.0067486875 -0.06697799 -0.025667721
000090 e6 9d 43 bc 65 87 39 3d a4 fd 30 bd b9 96 c2 3c
       -0.011939501 0.045295138 -0.04321064 0.02375351
0000a0 b3 b4 88 3d aa f8 b7 3d 29 da 61 3d ea 48 25 3d
       0.06675091 0.08982976 0.055139694 0.04035274
0000b0 2b d0 04 3d 08 1e 11 3c c5 22 8a 3d 90 28 5f b9
       0.032425087 0.008857258 0.06744913 -0.00021282048
0000c0 11 6f 69 3b 21 dc 92 3d 11 3e 49 3d d7 fc 6a 3d
       0.003561918 0.071708925 0.049131457 0.057370033
0000d0 ba 14 f8 bc 74 5f 89 bd e4 64 24 bd aa c0 5a 3d
       -0.03028332 -0.06707659 -0.04013528 0.053406395
0000e0 7f 8f fa 3c 0b 1b 0a 3d 66 de 59 bc 05 25 3c 3c
       0.030586002 0.033717196 -0.013297653 0.0114834355
0000f0 ad dc c5 bb d8 c7 92 3c db e0 ba ba 79 a5 ea 3c
       -0.0060382695 0.017917559 -0.0014257686 0.028643357
000100 9a a3 a3 bc 2b 4c da bd 5c bb 5d 3d 50 87 9a bd
       -0.019975472 -0.10659059 0.054133758 -0.0754534
000110 b3 cd 31 bd bf 5d 75 bd d2 cc b5 3d 18 64 91 bd
       -0.04340906 -0.059903856 0.08876957 -0.070991695
000120 98 8d b3 bd 39 3e 50 3d d7 bd aa bd ad 20 50 bd
       -0.08767241 0.05084059 -0.0833699 -0.050812412
000130 a6 dc f6 3c 17 e5 04 bb 6a ea 2f 3c 4e 29 c5 3c
       0.03013451 -0.002027815 0.010737041 0.024067547
000140 f0 ac 7d 3d 51 c9 ab 3c f2 34 3b bc fe 39 88 3d
       0.061932504 0.020970019 -0.011426197 0.06651686
000150 7c 3d 35 3c 2c 12 28 3d 1e 47 a8 bd f1 3e 8d 3d
       0.011062022 0.041032955 -0.082166895 0.06896771
000160 6b ba 42 3d 87 b0 ab 3c dd f8 7f bd 1f 4b 50 3d
       0.047541063 0.020958198 -0.062493194 0.05085289
000170 0e 05 9e 3d 99 bb bd 3d 2b 7c ae bd 2e 57 66 bd
       0.07715808 0.09264297 -0.08519777 -0.056235485
000180 c3 19 21 bd 92 e7 53 3d d2 72 73 bd c4 2b c8 3d
       -0.03933121 0.051734515 -0.059435673 0.09773973
000190 56 fa 19 3b 16 d6 63 bd 8f 7f 66 bc fa e4 5a bd
       0.002349516 -0.05562409 -0.014068498 -0.053441025
0001a0 d7 05 01 3d 98 ce 20 bc fb 3a 8c bd f3 a1 2b bd
       0.03149971 -0.009814881 -0.06847187 -0.041902494
0001b0 d5 b7 d6 bb 46 d3 90 bd 43 f8 7d 3d 5d b5 8b bd
       -0.006552676 -0.07071547 0.06200434 -0.06821702
0001c0 aa bd 8b bd 3d 7a c4 3c f0 5e db 3c 5b 7e 4e 3d
       -0.06823285 0.023984069 0.026778668 0.05041347
0001d0 3e 88 8c bd 0e 1b fd bb de e9 3f 3d 63 0b 89 bb
       -0.06861924 -0.0077241724 0.046853893 -0.0041822656
0001e0 d8 1e 84 3d 92 57 ca 3d a9 a2 f9 bc 47 49 85 3d
       0.064511955 0.09879984 -0.03047307 0.06508117
0001f0 01 80 09 bd d8 35 fd bc 1c 62 e0 3c 88 54 1e 3d
       -0.03356934 -0.030909464 0.027390532 0.038654834
000200 d4 33 08 3d c4 82 26 3d 14 76 bc 3c 4f bd d0 bd
       0.033252552 0.04065205 0.023005523 -0.10192358
000210 fc bb 81 3d ed bc af bd 97 6a cc 3c be 0f 1d bd
       0.06334683 -0.085809566 0.02495317 -0.03834509
000220 ec f9 3d 3d 6f 73 c9 3b 64 2e 25 3d 13 88 65 bd
       0.046380922 0.006147794 0.040327445 -0.056037974
000230 54 8a a3 3c 28 13 15 3d 50 0e d0 bb c0 9f 91 bd
       0.01996342 0.036395222 -0.0063493624 -0.07110548
000240 a8 5c c9 bb 20 b1 b8 3c 69 da 04 bc 4f 0d 14 3c
       -0.0061450787 0.022545397 -0.008108714 0.009036376
000250 cf 12 9e bd e0 ff 08 3c 12 c8 09 3d bc b3 51 3d
       -0.07718431 0.008361787 0.033638068 0.0511968
000260 7f d3 03 3c 8c d3 9c 3d f9 20 bd bd c4 b6 90 bd
       0.00804603 0.07657537 -0.09234805 -0.0706611
000270 54 3a d5 bc 20 27 43 bd 2a bb 0e bc 6e c4 81 3d
       -0.02602879 -0.047644734 -0.008711616 0.06336294
000280 00 67 99 bc a3 39 93 3d 6e 05 95 bd 31 dc 9c 3c
       -0.018725872 0.07188728 -0.07276426 0.019147964
000290 dd 74 4e bd 3b 71 8a 3d e0 c7 73 3d d0 4f a2 3d
       -0.05040442 0.06759878 0.059516788 0.07925379
0002a0 b6 44 9d bd 46 f6 10 bd 8c c4 a8 39 12 2a 85 bc
       -0.07679121 -0.035391115 0.00032189896 -0.016255412
0002b0 81 2c bf bd f3 de cf bc d6 91 a9 3c 35 65 88 3b
       -0.0933466 -0.025374865 0.020699423 0.0041624554
0002c0 31 3f 36 bd 4d f6 49 3d c7 98 d2 bc de 67 b6 bc
       -0.044493858 0.049307156 -0.025707616 -0.022266325
0002d0 47 0b 18 3b f0 31 09 3d 17 6b de bc bf af 51 3d
       0.0023200081 0.03349489 -0.027150674 0.051192995
0002e0 6e e1 db bc 74 b5 31 3c f8 f3 f2 3c e7 49 ac 3d
       -0.026840892 0.010846484 0.029657349 0.08412533
0002f0 7b 84 dc 3c 3c a8 0d 3d 48 39 cb 37 00 66 84 3d
       0.02691864 0.03458427 2.422616e-05 0.064647675
000300 fb 9e a1 bd 95 6c c9 bd 4b 71 81 3d f3 f4 a3 bd
       -0.07891651 -0.098351635 0.06320437 -0.08005705
000310 a4 9a 39 3d 9b e4 72 3d 92 34 26 bd c9 42 77 bd
       0.045313492 0.059300046 -0.04057748 -0.060366426
000320 13 84 85 3d 68 78 c8 bc bb 02 57 3d 69 fa 92 3d
       0.06519332 -0.024471477 0.05249284 0.07176668
000330 4d d0 84 bd 2b 13 90 bb 8c 4e 79 bd 11 62 7b 3d
       -0.06485043 -0.0043968162 -0.060865924 0.06137282
000340 34 cb 40 bd b3 55 99 3c 82 fd 8d bd 29 22 22 3d
       -0.04706879 0.018717622 -0.069331184 0.03958336
000350 af 4c 9a 3c 9c 4f 0c bc 1a 66 69 bd 63 ff 2a bd
       0.018835394 -0.008563902 -0.056982137 -0.041747462
000360 c5 52 25 3d a3 97 11 3d 01 17 05 bb 2f 13 66 3d
       0.04036214 0.035545003 -0.00203079 0.05617064
000370 d0 0a fa b8 94 d0 7f 3d 45 e2 ce bc cd ad 2a bd
       -0.00011922943 0.062454775 -0.025254378 -0.041669656
000380 ce 5f 2e bd bf 82 8b 3d 15 81 fc 3b 56 66 8d bd
       -0.042571835 0.06812047 0.0077058175 -0.06904285
000390 b9 a1 5a bd d2 4a 73 3c b4 cd b2 bb fd 61 a2 3d
       -0.053376887 0.0148493815 -0.0054566506 0.07928846
0003a0 ea 6c b2 3d 80 c6 fb 3c ad 28 56 bd 2b 23 c6 3c
       0.0871218 0.0307343 -0.052284885 0.024186691
0003b0 6e 18 4e 3c 06 6e 24 3c e6 8a ba bc 72 a4 9c 3c
       0.012579067 0.010035997 -0.02277131 0.019121382
0003c0 ba b0 7b 3c 82 f7 55 3d 7d 2d aa 3d 81 e3 c5 3c
       0.015361959 0.052237995 0.083094575 0.024156334
0003d0 5e 77 ab bd 8a e4 7a 3d 0a 83 ab 3d 4c f3 10 bd
       -0.08372377 0.061253108 0.08374603 -0.035388276
0003e0 91 52 bd 3d 61 3a a7 3d ed 04 87 bd 4e 08 e3 3b
       0.09244264 0.08165432 -0.065927364 0.00692848
0003f0 70 e9 94 3d 27 26 d8 3c 7a cd da 3c b6 70 79 3d
       0.07271087 0.02638538 0.026709307 0.060898505

linear3.bias f4 [48]
000000 b1 4e 87 3d f6 16 4a 3d bc ef 33 bd 57 72 b8 bc
       0.06606806 0.049338304 -0.0439298 -0.022515459
000010 1e a5 00 bd c1 df 42 bc 7d b3 f3 3b fc 4f 1f ba
       -0.031407468 -0.011894167 0.007437168 -0.0006077287
000020 b0 1b 0e 3d f9 d7 1b 3d 65 cd b7 ba 4d 67 80 bd
       0.034694374 0.038047764 -0.0014023004 -0.06269703
000030 65 f8 ce 3c be ff a2 3c c1 1e cd 3c 4d 67 dc bb
       0.025264928 0.019897338 0.025039079 -0.0067261816
000040 b5 97 94 bb 47 98 01 3d 52 66 c2 bc d0 b4 1e bd
       -0.0045346864 0.031639364 -0.02373043 -0.038746655
000050 cf b7 9a bd de fc 50 3c 77 a5 3e bd a4 ee 50 bc
       -0.0755459 0.012755601 -0.04654452 -0.012752209
000060 28 5e 0f bc 01 6a da 3b b0 e2 83 3d 3f 9a 93 bd
       -0.008750476 0.0066654687 0.064397216 -0.072071545
000070 5b 3c 2a bd 12 6c 1f 3d 4b 18 05 bd 5e 3d 96 3c
       -0.041561466 0.038921423 -0.03249387 0.018339809
000080 36 e2 1d bd 4f 03 53 bc c5 ef 97 bc cc 2b ac b9
       -0.03854581 -0.012879207 -0.018546948 -0.00032839028
000090 09 e2 94 3c 60 11 2c b9 69 b3 90 3c 14 49 73 bc
       0.018174188 -0.00016409671 0.017663674 -0.014848966
0000a0 12 38 10 3d 9d fb 22 bd 55 48 ff bc 1c 50 91 3d
       0.035209723 -0.03979074 -0.03116242 0.07095358
0000b0 b4 eb c0 3d b8 89 8c 3d d5 2b 54 3d c7 7a 0c 3d
       0.09419957 0.06862205 0.051799614 0.034296777
