第二章-回归模型/model_weight/mlp_relu.pth (torch, 143122 bytes, 6 tensors)

linear1.weight f4 [128, 96]
0	0xbb9b1880	-0.0047331452
1	0x3d92eb86	0.07173829
2	0x3dcbaac4	0.0994468
3	0xbcf4dfc0	-0.029891849
4	0x3dbcc1b6	0.09216635
5	0xbc43e0e0	-0.01195547
6	0xbdb51bce	-0.08843194
7	0xbd9f6fb4	-0.077849776
8	0xbdcd5323	-0.10025623
9	0xbdccc37a	-0.09998222
10	0xbd7b0bf4	-0.061290696
11	0x3d9294ee	0.07157312
12	0xbce588c8	-0.028019324
13	0x3cb18350	0.02166906
14	0x3d7a5dac	0.06112449
15	0x3da74c6c	0.08168873
16	0xbce4bacc	-0.027921103
17	0xbc9aa290	-0.018876344
18	0xbd05a7c4	-0.032630697
19	0xbc032a78	-0.008005731
20	0xbc8bca1c	-0.017064147
21	0xbda860fb	-0.082216226
22	0x3cb954f4	0.022623517
23	0x3da5a2d6	0.08087699
24	0x3ad8c040	0.0016536787
25	0xbda95007	-0.08267217
26	0xbdbe8c76	-0.093041345
27	0x3c35a430	0.011086509
28	0xbcd8da30	-0.026471227
29	0xbda92a78	-0.082600534
30	0xbdc67f25	-0.0969222
31	0xbd360ffd	-0.04444884
32	0xbb86b010	-0.0041103438
33	0xbd250bbc	-0.040294394
34	0x3c42a1c0	0.0118793845
35	0x3cdf9798	0.027293965
36	0x3d019538	0.031636447
37	0xbdcfeb41	-0.10152293
38	0xbdcb65c5	-0.099315204
39	0x3dc20c2e	0.09474979
40	0x3d960aaa	0.07326253
41	0x3d65a89c	0.056069
42	0xbbb20ab0	-0.005433403
43	0x3d712c40	0.05888009
44	0xbdad1401	-0.08451081
45	0x3d8ba62c	0.06818804
46	0x3c4bd608	0.012441166
47	0x3cd17938	0.025570497
48	0x3d4347c0	0.047675848
49	0x3d95e4a8	0.07319003
50	0xbcee906c	-0.0291216
51	0xbdb0cfe6	-0.086334035
52	0xbb0180e0	-0.0019760653
53	0xbdbaf17a	-0.09128089
54	0xbd9f2e84	-0.07772544
55	0x3d278494	0.04089792
56	0xbda31673	-0.07963266
57	0x3b7cb340	0.003855899
58	0xbcb03084	-0.021507509
59	0x3d7e77b4	0.062125877
60	0xbd1876fc	-0.037222847
61	0xbd671df6	-0.056425057
62	0x3d8ccf30	0.068754554
63	0xbc22e390	-0.00994195
64	0xbbc573c0	-0.0060257614
65	0xbc135f70	-0.008994922
66	0xbd64dc98	-0.055874437
67	0xbd4ca5eb	-0.04996292
68	0x3da9932e	0.082800254
69	0x3d0bf5f4	0.034170106
70	0xbd3e2b20	-0.046427846
71	0x3dcf47f0	0.10121143
72	0xbced88e4	-0.028995939
73	0xbdcca0cd	-0.09991608
74	0xbda2c87a	-0.07948394
75	0x3bcdf700	0.006285548
76	0xbd0f321c	-0.034959897
77	0xbdcfe04f	-0.10150205
78	0xbd287b75	-0.041133363
79	0xbd325352	-0.04353649
80	0x3c0ff6b8	0.00878685
81	0xbb9f9e50	-0.0048711672
82	0xbd456ad8	-0.048197597
83	0x3da5ebb0	0.081015944
84	0xbca993b8	-0.02070032
85	0xbd757342	-0.05992437
86	0x3d60e7ac	0.05490844
87	0x3db3be24	0.08776501
88	0xbd84e3a6	-0.06488733
89	0xbdb72f75	-0.089445986
90	0xbd7f85fc	-0.062383637
91	0x3d9a4644	0.07532933
92	0x3d730570	0.059331357
93	0xbb2b48e0	-0.0026135966
94	0x3ca729f0	0.02040574
95	0x3d3c2ac8	0.045939237
96	0xbd5f2b2f	-0.054484542
97	0x3dc07094	0.093964726
98	0x3d906422	0.07050349
99	0xbdaa112c	-0.083040565
100	0x3d7a4732	0.061103053
101	0x3d943641	0.072369106
102	0xbd2e932a	-0.042620815
103	0x3d8c3106	0.06845288
104	0xbd5e17d5	-0.054221947
105	0x3d587c1d	0.05285274
106	0x3d1f6b5d	0.03892075
107	0x3de3236c	0.110907406
108	0xbdc81b95	-0.09770886
109	0x3d36ddc2	0.04464508
110	0xbd805421	-0.06266046
111	0xbd9803ce	-0.07422601
112	0xbc469720	-0.012120992
113	0x3c8ddc1f	0.017316876
114	0x3d8a1764	0.06742743
115	0x3c109a16	0.008825799
116	0x3bbc8271	0.0057528545
117	0x3d691b0d	0.056910563
118	0x3d7b5355	0.06135877
119	0x3de2eedb	0.11080714
120	0x3d0caa44	0.034342065
121	0xbc8ac6eb	-0.016940555
122	0xbd8e705e	-0.06955026
123	0xbd364691	-0.04450089
124	0x3d7d6c7d	0.06187104
125	0x3c7b0727	0.0153215295
126	0xbd78ddac	-0.060758278
127	0x3db213d4	0.08695188
128	0x3d9af84f	0.07566892
129	0x3db1f2a8	0.08688861
130	0x3c97b643	0.018519526
131	0xbd81303e	-0.063080296
132	0xbd1db5ca	-0.038503446
133	0x3c8b1e59	0.016982244
134	0xbd3b09ad	-0.045663524
135	0xbda0ca2f	-0.078510635
136	0x3d6be521	0.05759156
137	0x3dc051a8	0.09390575
138	0x3c361370	0.011113033
139	0x3d709b43	0.05874182
140	0x3dd0ee12	0.10201658
141	0x3b01644d	0.0019743622
142	0xbdab68b4	-0.0836958
143	0x3d855e48	0.06512123
144	0x3d3ace7a	0.045607068
145	0xbd903852	-0.07041992
146	0x3dd463f6	0.103706285
147	0xbd9e30ec	-0.07724175
148	0xbd7dc31e	-0.061953656
149	0xbd32a75e	-0.043616645
150	0xbd90f4bf	-0.070779316
151	0xbd582158	-0.052766174
152	0x3c95a517	0.018267198
153	0xbb46a27e	-0.0030309255
154	0xbd2fd59a	-0.042928316
155	0xbd1828e4	-0.03714837
156	0x3d8ad5f7	0.06779092
157	0xbcad063a	-0.021121133
158	0xbc9fb8d5	-0.019497314
159	0x3baec0b1	0.005333029
160	0xbd19003a	-0.03735373
161	0xbcde0479	-0.027101742
162	0xbd013fdc	-0.03155504
163	0x3cdb6ddf	0.026785789
164	0x3ca5c82b	0.02023705
165	0x3c71dcb1	0.01476209
166	0x3dde9543	0.10868313
167	0xbce57790	-0.028011113
168	0x3dac2cf2	0.0840701
169	0x3d72f485	0.059315223
170	0xbd4fbc52	-0.050716706
171	0x3b180f77	0.0023202577
172	0xbd165ae5	-0.036707778
173	0xbcd3e09e	-0.025863942
174	0xbb458d4b	-0.0030144032
175	0x3cc00e76	0.023444396
176	0xbd575134	-0.052567676
177	0xbd06f2c1	-0.032946352
178	0xbd08fac7	-0.033442285
179	0xbcd16334	-0.025559999
180	0x3dd8798a	0.10570057
181	0xbc976386	-0.018480074
182	0xbc860a4c	-0.016362332
183	0xbdb18646	-0.08668189
184	0x3b13d5c0	0.0022557825
185	0xbd862448	-0.06549889
186	0x3e0539f8	0.13010395
187	0xbd8e9e0d	-0.069637395
188	0x3b9b9f94	0.004749248
189	0x3d43eee5	0.04783525
190	0x3e0bf1ae	0.13666412
191	0xbd1cc153	-0.038270306
192	0x3d329dd6	0.043607555
193	0xbdd9ac68	-0.10628587
194	0x3d232296	0.039827906
195	0xbd8dac04	-0.06917575
196	0xbdd73e73	-0.10509958
197	0xbde3249d	-0.11090968
198	0xbd6c800c	-0.057739303
199	0xbb21757f	-0.0024636684
200	0xbd2dab9c	-0.042399988
201	0x3d42f994	0.047601297
202	0x3ccf2403	0.025285726
203	0xbdb6f846	-0.08934073
204	0xbca2978f	-0.01984766
205	0x3bdece2c	0.00679948
206	0xbd4d6904	-0.05014898
207	0xbdb4fd49	-0.08837373
208	0xbd389ce7	-0.04507151
209	0xbc044481	-0.008072973
210	0xbd119251	-0.03553993
211	0x3db7b1fc	0.08969495
212	0xbda51755	-0.08061091
213	0xbdb4d56d	-0.0882977
214	0xbcfd7e53	-0.030944025
215	0x3ca86545	0.020556102
216	0xbdb14ae3	-0.08656862
217	0xbd912fd5	-0.07089201
218	0xbda14bfa	-0.078758195
219	0x3d6949a2	0.056954987
220	0xbd9a4ec7	-0.07534557
221	0x3dd23b86	0.102652594
222	0x3d8f764e	0.07004987
223	0xbbdef639	-0.0068042544
224	0xbc217b08	-0.009855993
225	0x3cacf5d1	0.021113308
226	0x3cfea229	0.031083183
227	0x3d058263	0.03259505
228	0x3d3b8e2e	0.04578989
229	0xbd9130fd	-0.07089422
230	0xbd76f1a7	-0.06028905
231	0x3dd0706e	0.10177694
232	0x3db55676	0.08854382
233	0x3d31f1ef	0.043443616
234	0x3b26c887	0.0025449113
235	0xbda1e021	-0.07904077
236	0x3db75b42	0.08952953
237	0x3d9c7984	0.07640365
238	0x3dbfdc17	0.09368151
239	0xbd2256a9	-0.039633427
240	0x3c985713	0.018596208
241	0x3d4d7d5a	0.050168373
242	0x3d74cbbd	0.059764612
243	0xbd945fd1	-0.07244838
244	0x3d7764db	0.060398918
245	0x3d1f5558	0.03889975
246	0x3d8cc1fc	0.06872937
247	0xbdb32830	-0.087478995
248	0xbcf9912e	-0.030464735
249	0x3d45f591	0.048329893
250	0xbb09e39c	-0.0021040207
251	0x3d959284	0.07303336
252	0x3d523bfc	0.051326737
253	0xbd9b7079	-0.07589812
254	0xbd26da84	-0.040735736
255	0xbb8f59b4	-0.004374707

linear1.bias f4 [128]
0	0xbdb761e2	-0.089542165
1	0x3e17848d	0.14796658
2	0x3da13970	0.078722835
3	0xbe001947	-0.12509643
4	0x3d6c8bdd	0.05775057
5	0xbd71e85d	-0.05905949
6	0x3beb8ed0	0.0071886554
7	0xbd5277cb	-0.051383775
8	0xbd1ae20f	-0.037813243
9	0x3d82016c	0.063479275
10	0xbcd22b52	-0.025655422
11	0x3db23919	0.08702297
12	0xbd1634fe	-0.03667163
13	0xbbe3ed3d	-0.0069557712
14	0x3d01bdd2	0.031675167
15	0x3e1a4c5d	0.15068193
16	0xbd4e7048	-0.05040005
17	0xbd6b6a23	-0.057474267
18	0x3c7d57e1	0.0154628465
19	0xbd41157e	-0.047139637
20	0x3d641530	0.05568427
21	0xbc41f7c2	-0.011838855
22	0x3d1c8915	0.03821667
23	0xbdad1108	-0.08450514
24	0x3dd34212	0.10315336
25	0x3b81ebbb	0.003964869
26	0x3d682443	0.056675207
27	0x3d612256	0.054964386
28	0xbd5de154	-0.054169968
29	0x3e15f5ed	0.14644594
30	0x3c02187f	0.007940411
31	0xbdf406a7	-0.11915331
32	0x3a5e00c8	0.00084687443
33	0x3dd65c89	0.104668684
34	0x3c5afa3d	0.0133653255
35	0x3d19f85e	0.037590377
36	0x3cfb20ad	0.03065523
37	0x3d54aa87	0.05192044
38	0x3c8abcb8	0.016935691
39	0x3df4f843	0.11961415
40	0xbcb34f5b	-0.021888426
41	0xb68a8422	-4.128103e-06
42	0xbda749ab	-0.08168348
43	0x3bd1d0e2	0.0064030746
44	0x3dbbef3a	0.09176488
45	0x3dfb4fe3	0.122710966
46	0x3c416040	0.011802733
47	0x3dbeb0af	0.093110435
48	0x3e0858eb	0.1331517
49	0xbcb0a93e	-0.021565076
50	0x3da1a78c	0.07893285
51	0x3d081b4f	0.03322917
52	0x3dccdfad	0.100036
53	0x3dd9b919	0.10631008
54	0x3d94bcf9	0.07262606
55	0x3de1fe54	0.11034837
56	0xbccab155	-0.024742762
57	0x3df1867e	0.117932305
58	0xbda994a6	-0.082803056
59	0xba00f0bf	-0.00049186865
60	0x3df7bf16	0.120969936
61	0x3dd4d022	0.10391261
62	0x3e2f5b9e	0.17124793
63	0xbdac9699	-0.08427162
64	0xbd83c365	-0.06433753
65	0xbd21bd85	-0.03948738
66	0xbd15f7da	-0.036613323
67	0x3d99953f	0.074991696
68	0xbd4543eb	-0.048160475
69	0x3dbda0c9	0.09259183
70	0x3dec151e	0.11527465
71	0xbdb55ffd	-0.08856199
72	0x3d8050b6	0.062653944
73	0x3d7053dd	0.05867373
74	0x3d50cab3	0.05097456
75	0x3d3d31d5	0.0461901
76	0x3db3592a	0.08757241
77	0xbd5660fb	-0.05233858
78	0xbd54b3ca	-0.051929273
79	0xbd823678	-0.06358045
80	0x3def5179	0.116854616
81	0x3dd33fd7	0.10314911
82	0x3ddd44f2	0.10804166
83	0xbca78314	-0.020448245
84	0x3c565ec7	0.01308412
85	0xbdb0835a	-0.08618803
86	0xbd8352d3	-0.06412282
87	0x3d544be3	0.051830184
88	0x3bf7ee5f	0.007566258
89	0x3d8bd990	0.06828606
90	0x3bb2b753	0.005453983
91	0x3d4570d9	0.048203323
92	0x3cb7fef1	0.022460433
93	0x3d97e026	0.074158
94	0x3df26726	0.1183608
95	0xbd6fa599	-0.058507536
96	0x3e2f08ac	0.17093152
97	0xbcc58403	-0.0241108
98	0x3d491bee	0.0490989
99	0x3dac46a4	0.08411911
100	0x3913b659	0.00014086942
101	0x3db7eced	0.08980737
102	0xbd9767f7	-0.073928766
103	0xbd46337d	-0.048388947
104	0x3de30fa3	0.11086967
105	0x3dc3f4f7	0.09568208
106	0x3e023b9c	0.12718052
107	0x3deb41e3	0.11487176
108	0x3c7e4554	0.015519459
109	0x3cb031aa	0.021508057
110	0xbd892734	-0.066969305
111	0x3dae9e56	0.08526294
112	0x3df34250	0.118778825
113	0x3d8f1650	0.06986678
114	0x3c4777d7	0.012174568
115	0x3d75c9ad	0.060006786
116	0xbdcce29e	-0.10004161
117	0x3d6fcdd6	0.05854591
118	0x3db7443d	0.08948562
119	0xbbf13878	-0.007361468
120	0x3de33a98	0.1109516
121	0xbdc30d1f	-0.09523987
122	0x3cb5fc79	0.022215115
123	0x3d28b8bf	0.041191813
124	0xbdc9c773	-0.09852495
125	0x3cebd260	0.028786838
126	0xbdd7e398	-0.10541457
127	0xbcf28058	-0.029602215

linear2.weight f4 [128, 128]
0	0xbdb4ae6e	-0.08822332
1	0x3d5484af	0.05188435
2	0xbd1301ee	-0.035890512
3	0x3c2d287a	0.010568732
4	0x3c76e85a	0.015070045
5	0x3bb1ea96	0.005429576
6	0x3e178cae	0.14799759
7	0x3c90974a	0.017650265
8	0xbdbe6e3c	-0.09298369
9	0x3d125004	0.03572084
10	0xbd99f194	-0.075167805
11	0xbb0d1a85	-0.00215307
12	0xbdf9d245	-0.12198309
13	0x3d2b99b6	0.041894637
14	0xbcc49f4f	-0.024001746
15	0x3cd1c8e6	0.025608491
16	0x3c9b904c	0.018989705
17	0x3d808646	0.062756106
18	0x3bf086e1	0.0073402976
19	0xbd5338a3	-0.051567685
20	0x3b1cdaad	0.0023934052
21	0xbd36168e	-0.044455104
22	0xbd8dd26f	-0.06924903
23	0x3c4ae74f	0.01238425
24	0x3dbfc74c	0.09364185
25	0xbd81959b	-0.06327363
26	0xbd0a0426	-0.033695363
27	0xbbc9a16c	-0.006153276
28	0x3d8d9626	0.06913404
29	0xbbf6b587	-0.007528964
30	0xbdc3fb3e	-0.09569405
31	0x3cf18201	0.029480936
32	0xbda15990	-0.07878411
33	0x3d9628f5	0.07332031
34	0xbdb99465	-0.09061507
35	0xbce95bdf	-0.02848619
36	0xbdf1c513	-0.11805167
37	0xbd8264e6	-0.06366901
38	0x3da3dc14	0.08000961
39	0xbd986e2c	-0.074428886
40	0x3d523f7a	0.051330067
41	0x3c554204	0.013016228
42	0xbd7d93c1	-0.061908487
43	0xbcd3066f	-0.025759904
44	0x3ddad578	0.10685247
45	0x3defa458	0.11701268
46	0x3c850658	0.016238376
47	0x3ca06314	0.019578494
48	0xbbf8031e	-0.007568731
49	0xbd45cc4a	-0.04829053
50	0xbbbf0442	-0.005829365
51	0xbdaf406e	-0.08557211
52	0x3deb7725	0.114973344
53	0x3d4f7aa3	0.050654065
54	0x3d192da9	0.03739706
55	0x3df6f63b	0.120586835
56	0xbdc003c1	-0.09375716
57	0xbd95ebe4	-0.07320383
58	0xbca34e77	-0.019934876
59	0xbda10857	-0.07862919
60	0x3d9e5c63	0.07732465
61	0x3b880bdf	0.004151806
62	0x3cd0edbe	0.02550399
63	0xbcc433a0	-0.023950398
64	0x3cdf886d	0.027286733
65	0xbd8a033a	-0.06738897
66	0x3d49e8f3	0.049294423
67	0x3d2aec31	0.041729156
68	0xbc92f490	-0.017938882
69	0xbdc95571	-0.0983075
70	0x3d0a3e64	0.033750907
71	0xbda65cd7	-0.081231765
72	0xbcd80db6	-0.026373725
73	0x3d6c264d	0.057653714
74	0xbd8a1705	-0.06742672
75	0x3d8a3e69	0.06750185
76	0x3c8bd056	0.017067116
77	0xbd6f80d6	-0.058472477
78	0x3bb50440	0.0055241883
79	0xbdb1f2f6	-0.08688919
80	0x3d088ab6	0.03333541
81	0x3dba29eb	0.090900265
82	0x3bef7aca	0.007308339
83	0xbc0a0990	-0.008425131
84	0xbd9ce659	-0.07661123
85	0x3cfe57b0	0.031047672
86	0x3cf038cf	0.029323963
87	0xbb9a7068	-0.004713107
88	0xbd5a2412	-0.053257056
89	0x3dd66d4b	0.10470065
90	0xbca6951f	-0.020334778
91	0xbd87e71c	-0.066358775
92	0x3d509fc9	0.050933633
93	0x3dadf6c4	0.084943324
94	0x3bdcce94	0.006738493
95	0xbd7ce46f	-0.06174129
96	0x3d0f4b89	0.034984145
97	0x3b3a1cad	0.002839844
98	0x3c801abe	0.015637752
99	0xbd95f99f	-0.07323002
100	0xbc56b34d	-0.013104272
101	0x3d402a13	0.046915125
102	0xbc96b5a4	-0.01839716
103	0xbbda91cc	-0.0066702124
104	0x3c65dbca	0.014029453
105	0x3d2ffe3a	0.04296706
106	0x3db81ff3	0.08990469
107	0x3d737a43	0.05944277
108	0xbdaec434	-0.085335165
109	0x3cd6fa49	0.026242392
110	0x3d9c64d9	0.07636423
111	0x3da716c7	0.08158641
112	0xbc593ae3	-0.013258669
113	0x3d72ddec	0.059293672
114	0x3ce2184b	0.027599474
115	0xbad43be0	-0.001619216
116	0x3d0eed61	0.03489435
117	0xbdcad1db	-0.09903308
118	0x3dd43e3e	0.10363434
119	0xbb9b7c55	-0.004745046
120	0x3d774f27	0.06037822
121	0xbd83f9d4	-0.06444135
122	0x3d7a3583	0.06108619
123	0xbcb145ce	-0.02163973
124	0xbd0151cb	-0.031572144
125	0x3de070e6	0.10959034
126	0xbdb81365	-0.08988074
127	0x3d411ab0	0.04714459
128	0xbdaea87b	-0.08528229
129	0x3c5e1090	0.0135537535
130	0xbd281846	-0.041038774
131	0x3db18779	0.086684175
132	0x3c43f358	0.011959873
133	0xbbe29290	-0.0069144443
134	0x3d489da2	0.048978455
135	0x3b37e160	0.0028057918
136	0x3af91400	0.0019003153
137	0xbd47d790	-0.04878956
138	0x3d15a280	0.036531925
139	0xbd67aa48	-0.056558877
140	0x3c769e20	0.015052348
141	0x3ccc0988	0.024906889
142	0xbd9edef5	-0.077573694
143	0xbabcbc80	-0.0014399439
144	0xbd87ecbe	-0.06636952
145	0x3d681702	0.056662567
146	0xbda659b0	-0.08122575
147	0xbc215250	-0.009846285
148	0xbd93acf2	-0.07210721
149	0xbd3c6fad	-0.04600494
150	0xbb8c4a20	-0.0042812973
151	0x3d819b8d	0.06328497
152	0xbd65c557	-0.0560964
153	0xbcf8daea	-0.030377824
154	0xbc32f800	-0.010923386
155	0xbda1cd60	-0.079005
156	0xbcbe9494	-0.023264207
157	0x3d000a52	0.031259842
158	0xbd0d6507	-0.034520175
159	0xbd59b721	-0.05315316
160	0x3d6ea996	0.0582672
161	0x3d68b6ae	0.056814842
162	0x3d2e92c6	0.042620443
163	0x3d04b4e0	0.03239906
164	0x3d8fe0f9	0.07025332
165	0xbd2c05f8	-0.04199788
166	0x3d8c36fd	0.06846426
167	0xbd67401e	-0.05645763
168	0x3d98de8b	0.07464322
169	0xbd95c2b4	-0.07312527
170	0xbcfc6a28	-0.030812338
171	0xbc5705a0	-0.0131239
172	0xbda531cc	-0.080661386
173	0xbdacc983	-0.08436873
174	0xbca29c1c	-0.01984983
175	0x3c675a58	0.014120661
176	0x3d485e32	0.048917957
177	0x3c9f8b44	0.019475587
178	0xbdaddad0	-0.08489001
179	0x3bb54820	0.0055322796
180	0xbc179238	-0.00925117
181	0x3ca64a10	0.020298988
182	0xbda2a0d1	-0.079408295
183	0xbd3ee6c7	-0.046606805
184	0xbb488d40	-0.003060177
185	0x3d9eecb3	0.077599905
186	0xbd1051aa	-0.03523413
187	0xbc1fc268	-0.00975094
188	0x3d83becb	0.06432875
189	0x3d8b8c11	0.06813825
190	0xbd8e4bf7	-0.06948083
191	0x3c52b930	0.012861535
192	0x3d09e11a	0.03366194
193	0xbda67073	-0.08126917
194	0xbd853430	-0.065040946
195	0xbd71f732	-0.059073634
196	0x3c6dec00	0.014521599
197	0xbd8c7da6	-0.06859903
198	0xbdad0e07	-0.08449941
199	0x3bbb9190	0.0057241395
200	0x3d737cc2	0.05944515
201	0x3cd22504	0.025652416
202	0x3da7cbed	0.08193193
203	0x3d7997e2	0.060935862
204	0xbc51b6d0	-0.012799934
205	0x3d042444	0.032261148
206	0x3d1b58ce	0.037926488
207	0xbda37690	-0.079815984
208	0xbd5c4d33	-0.05378456
209	0x3cd519e8	0.02601333
210	0x3c8042f0	0.015656918
211	0x3a0a3400	0.0005272031
212	0xbcbd7698	-0.023127839
213	0x3d59f4ea	0.053212084
214	0xbd43f3bc	-0.047839865
215	0xbd89350a	-0.066995695
216	0x3d55dafa	0.052210785
217	0xbd88c77b	-0.06678673
218	0x3c5d8248	0.013519831
219	0x3d88138d	0.06644354
220	0xbdac8fc7	-0.08425861
221	0xbcf8cf18	-0.030372187
222	0x3d9e4097	0.07727163
223	0x3d64451e	0.055729978
224	0xbd785ce8	-0.060635477
225	0x3c861d80	0.016371489
226	0xbb23a240	-0.0024968535
227	0xbd13b867	-0.03606453
228	0xbd2f2725	-0.04276194
229	0x3db15395	0.0865852
230	0x3d25a9ea	0.040445246
231	0xbcb01258	-0.021493122
232	0xbc7bd630	-0.0153708905
233	0x3cbc25b4	0.022967197
234	0xbd982841	-0.07429553
235	0xbd0bed5b	-0.034161907
236	0xbd869ac4	-0.06572488
237	0x3bd59bd0	0.0065188184
238	0x3d8fb37f	0.07016658
239	0xbccc0e5c	-0.02490919
240	0x3cb9bed0	0.022673994
241	0x3d9a071d	0.07520888
242	0xbd4bd623	-0.049764764
243	0xbd432520	-0.047642827
244	0xbd0c6799	-0.034278486
245	0xbd8ad624	-0.06779125
246	0xbdb3c4d1	-0.08777774
247	0x3d70d4b6	0.058796607
248	0xbd7d2272	-0.061800428
249	0xbd145183	-0.036210548
250	0xbd8bfb7b	-0.068350755
251	0xbbe38ab0	-0.006944023
252	0x3d6a9832	0.05727405
253	0xbd39356e	-0.04521697
254	0xbd2c266e	-0.042028837
255	0x3d6a9526	0.057271145

linear2.bias f4 [128]
0	0x3cbf0b50	0.023320824
1	0x3b6a9f60	0.0035800561
2	0x3d1925f1	0.0373897
3	0xbca8617d	-0.020554299
4	0xbd571b2d	-0.05251615
5	0xbd1b65a2	-0.03793872
6	0xbd10b136	-0.03532525
7	0x3d825d4d	0.06365452
8	0x3ce98c4a	0.028509278
9	0x3bd58b99	0.0065168855
10	0x3dbe521f	0.09293007
11	0x3cd3d835	0.025859931
12	0xbc9a3111	-0.018822225
13	0xbd78d614	-0.060751036
14	0xbd794953	-0.060860943
15	0xbd456e07	-0.048200633
16	0x3da0991e	0.07841705
17	0x3d0eb678	0.034841985
18	0xbc1d92fa	-0.0096175615
19	0x3da0a1a1	0.07843328
20	0xbbb28c4a	-0.0054488527
21	0x3c69bb59	0.014265859
22	0xbd596df9	-0.053083394
23	0x3d176e9d	0.036970723
24	0x3de1ec86	0.110314414
25	0x3d6512c9	0.055926118
26	0xbd4483ff	-0.047977444
27	0xbd912209	-0.0708657
28	0x3da1a8df	0.07893538
29	0x3d0b02f5	0.033938367
30	0x3dcc2ed8	0.09969872
31	0xbd9de345	-0.07709364
32	0x3dc42485	0.09577278
33	0xbd3ee185	-0.04660179
34	0xbd29c33f	-0.041445967
35	0xbd8d0d04	-0.06887248
36	0xbd252724	-0.04032053
37	0xbcf29f3c	-0.029616944
38	0x3ca2da5e	0.019879516
39	0xbc1b7d9d	-0.009490398
40	0x3a9e4ec0	0.0012077913
41	0xbd8153d7	-0.06314819
42	0x3d163ff9	0.036682103
43	0x3bafe6ed	0.0053681047
44	0x3d9bbf80	0.07604885
45	0xbd8cf0c4	-0.0688186
46	0x3cd98c13	0.02655605
47	0xbbb1c9a3	-0.0054256483
48	0x3d5f3a87	0.054499175
49	0xbd7c8a6b	-0.061655443
50	0xbd8b5757	-0.06803768
51	0xbd214149	-0.0393689
52	0x3d99c6af	0.07508599
53	0x3dd91226	0.10599165
54	0x3da44cea	0.08022483
55	0xbd221e82	-0.039579876
56	0x3df14824	0.11781338
57	0xbd539156	-0.051652275
58	0x3da669d8	0.08125657
59	0x3cc68766	0.024234485
60	0xbcb9d926	-0.022686552
61	0xbd9627cb	-0.07331809
62	0xbc3b95b4	-0.011449266
63	0xbb575b60	-0.003286086
64	0xbd0d60c9	-0.03451613
65	0xbcc445de	-0.023959097
66	0x3dc10e81	0.094265945
67	0x3d781650	0.060568154
68	0x3d12d198	0.035844415
69	0xbc8888f8	-0.016666874
70	0x3d10210a	0.03518776
71	0xbcfd6594	-0.030932225
72	0x3d9ff064	0.07809523
73	0x3da967cc	0.08271751
74	0x3ca0de3b	0.019637218
75	0x3c84db54	0.016217865
76	0x3d612252	0.05496437
77	0x3d110cc2	0.035412557
78	0xbc2968b3	-0.010339904
79	0x3da2aa33	0.07942619
80	0xbcad708b	-0.021171829
81	0xbcf2d440	-0.029642224
82	0xbd502bad	-0.050822902
83	0xbd1457ed	-0.036216665
84	0x3dc186cc	0.094495386
85	0xbd984e7a	-0.07436843
86	0xbd8f521e	-0.069980845
87	0xbc94addb	-0.018149307
88	0x3d9836a4	0.07432297
89	0x3da0dbea	0.07854445
90	0xbab3403c	-0.001367576
91	0xbd9eda71	-0.07756508
92	0xbd138e97	-0.036024656
93	0x3d99dd66	0.075129315
94	0xbc520442	-0.012818398
95	0xbd71b64b	-0.05901174
96	0xbc5c0eac	-0.013431232
97	0x3d886358	0.06659573
98	0x3d481bc1	0.048854593
99	0xbd1770f1	-0.036972944
100	0x3d7b0f77	0.061294045
101	0x3d6a6b21	0.057231072
102	0xbdbcc54e	-0.092173204
103	0x3cceda11	0.025250467
104	0x3cdd92aa	0.027047474
105	0xbd40f238	-0.047105998
106	0x3d8b9c9a	0.06816979
107	0xbc831e9f	-0.016005812
108	0x3d661b3b	0.056178313
109	0x3c624758	0.013810955
110	0xbcb96d4f	-0.02263513
111	0x3d04b927	0.032403138
112	0x3d106392	0.035251208
113	0x3de01465	0.1094139
114	0x3d2f4726	0.04279246
115	0x3d9325d8	0.071849525
116	0x3ca21ba8	0.019788578
117	0xbd19dc25	-0.03756346
118	0x3d0c8944	0.034310594
119	0xbbb8471a	-0.0056237103
120	0xbd30328e	-0.043016963
121	0xbcacbce8	-0.021086171
122	0xbd46fb78	-0.048579663
123	0x3d531c8a	0.05154089
124	0x3cc4db48	0.024030343
125	0xbd423ee6	-0.047423266
126	0x3bc1b145	0.0059110248
127	0xbc5683f9	-0.013092988

linear3.weight f4 [48, 128]
0	0xbdb0d222	-0.0863383
1	0xbd3fcb3b	-0.046824675
2	0x3d8e617e	0.06952189
3	0x3ddd2ba5	0.1079934
4	0x3d839551	0.06424964
5	0xbce444b1	-0.027864786
6	0x3d386ede	0.045027606
7	0x3d0a10eb	0.03370754
8	0xbc14025b	-0.009033765
9	0xbcf893e5	-0.03034396
10	0xbd4f27cf	-0.050575074
11	0x3c87e15c	0.016586952
12	0x3bbed514	0.0058237407
13	0x3c3f9768	0.011693813
14	0xbd50624d	-0.050874997
15	0x3d793814	0.060844496
16	0xbda5c32f	-0.08093869
17	0xbca237ac	-0.019801937
18	0xbdaf1a21	-0.085499056
19	0xbc645eae	-0.013938589
20	0xbcb18ad9	-0.021672653
21	0x3c971904	0.018444546
22	0x3d4a1ab5	0.049341876
23	0x3da67c9c	0.08129236
24	0x3cb86822	0.022510592
25	0x3b5625fa	0.0032676444
26	0xbd4ff1c4	-0.050767675
27	0xbdae392d	-0.08506999
28	0xbd8552c8	-0.0650993
29	0x3dcab490	0.09897721
30	0xbce64b5f	-0.028112112
31	0xbd9b1de4	-0.075740606
32	0x3da39505	0.079874076
33	0x391f2116	0.00015175747
34	0x3da4d2e7	0.08048039
35	0xbc1681a6	-0.009186184
36	0x3dbf9b04	0.09355739
37	0x3da8dbbe	0.082450375
38	0xbb509d2e	-0.0031831968
39	0xbdcaff10	-0.099119306
40	0x3c1aad60	0.00944075
41	0xbd96cc58	-0.07363194
42	0x3dce8ec4	0.10085824
43	0x3d192ece	0.037398152
44	0x3d152521	0.036412362
45	0x3be86758	0.0070923977
46	0xba90dc2c	-0.0011051944
47	0x3dc25465	0.09488753
48	0x3dba9b4a	0.0911165
49	0xbc15f334	-0.009152222
50	0xbda1ade1	-0.07894493
51	0x3d50a908	0.05094245
52	0xbca21aad	-0.01978811
53	0x3d69da67	0.05709305
54	0x3c2cee42	0.010554852
55	0x3d0dcca2	0.03461898
56	0xbad96ce7	-0.0016588242
57	0x3d8e5d92	0.06951441
58	0xbd0ba833	-0.034095954
59	0xbdd5b18a	-0.104342535
60	0xbd4f11e8	-0.050554186
61	0x3d81f628	0.06345779
62	0xbd6afd95	-0.05737074
63	0xbd6bce1a	-0.0575696
64	0x3c3ee7a0	0.011651903
65	0x3d386305	0.045016307
66	0x3c0bfde4	0.008544419
67	0xbce85426	-0.028360438
68	0xbc67b13e	-0.014141379
69	0x3d10b2a9	0.035326634
70	0xbc66ffa9	-0.01409904
71	0x3dae12bd	0.08499668
72	0x3d801812	0.06254591
73	0x3c069612	0.0082144905
74	0x3d7d2355	0.061801273
75	0x3b833a74	0.004004771
76	0x3c8a2602	0.016863827
77	0x3c655ee4	0.0139996745
78	0x3cda006e	0.026611533
79	0x3bc4308a	0.0059872316
80	0x3cda65ec	0.026659928
81	0x3cf6f014	0.030143775
82	0x3b29b780	0.0025896728
83	0xbd095517	-0.033528414
84	0x3d82c553	0.06385293
85	0xbd1d1759	-0.038352344
86	0x3d5c14d2	0.053730793
87	0x3da221e0	0.079166174
88	0xbc89094f	-0.016728071
89	0x3d692d6f	0.056928094
90	0x3be2f5aa	0.006926258
91	0x3dc22754	0.094801575
92	0x3c3cca2f	0.011522814
93	0x3d825b0f	0.06365024
94	0x3cdf54c6	0.027262103
95	0x3cd63dd1	0.026152523
96	0x3bd35ac7	0.0064500305
97	0x3d16869a	0.03674946
98	0x3dbb1783	0.09135344
99	0x3d240935	0.040047843
100	0x3d2341f7	0.03985783
101	0x3ca9f9f4	0.02074907
102	0x3d4fbacc	0.050715253
103	0xbc981013	-0.018562352
104	0x3c5d6b62	0.013514372
105	0xbb9b2be6	-0.0047354577
106	0x3d8ac31e	0.06775497
107	0x3d7f4fb0	0.062331855
108	0xbd8e5e53	-0.06951585
109	0x3db836aa	0.08994801
110	0xbd6f476e	-0.05841773
111	0xbb7dd9f2	-0.0038734642
112	0xbd562977	-0.052285638
113	0x3d77af51	0.06046993
114	0x3d4f06e7	0.050543692
115	0x3caa640a	0.020799655
116	0x3d9d29cf	0.0767399
117	0xbc87ebd8	-0.016591951
118	0xbd01642c	-0.031589672
119	0x3da75c94	0.08171955
120	0x3ced4d21	0.028967442
121	0xbd82a6ec	-0.06379494
122	0xbd11944c	-0.035541818
123	0xbda8428a	-0.08215816
124	0xbd5a3460	-0.053272605
125	0x3d0f8f81	0.035048965
126	0x3bd24fbf	0.006418198
127	0xbd91b24e	-0.07114087
128	0xbd9ede4a	-0.07757242
129	0x3db4d9ab	0.08830579
130	0xbcffd5f8	-0.031229958
131	0x3d9c049f	0.07618069
132	0xbd870742	-0.06593181
133	0xbda494df	-0.080362074
134	0x3cebcc8e	0.028784063
135	0x3cd624c7	0.026140584
136	0xbcadd2d6	-0.021218698
137	0x3da2355e	0.07920335
138	0x3b2ba56c	0.0026191128
139	0xbd94f8bc	-0.07274005
140	0xbc3e83fe	-0.011628149
141	0x3cfac9ac	0.030613743
142	0xbc9301cc	-0.017945193
143	0xbd857be3	-0.0651777
144	0xbcfce154	-0.030869164
145	0xba98d6b7	-0.001166067
146	0x3b32b82d	0.0027270422
147	0x3cb3c792	0.021945748
148	0x3d19f0f5	0.03758331
149	0x3c88b3ad	0.016687239
150	0x3db3722f	0.08762013
151	0xbd72f534	-0.059315875
152	0x3be4c86b	0.0069818995
153	0x3db7bcc0	0.08971548
154	0xbcf2d8ef	-0.029644458
155	0x3bdeeb6e	0.0068029677
156	0x3c99473e	0.018710729
157	0xbd7043e9	-0.058658514
158	0x3d6f13fa	0.05836866
159	0xbd992215	-0.07477204
160	0xb90ac7df	-0.00013235163
161	0xbcb41dfc	-0.021986954
162	0x3d824ca5	0.06362275
163	0xbbbde52f	-0.005795143
164	0xbc96919b	-0.018379977
165	0xbc172439	-0.009224945
166	0xbc1ca9c6	-0.0095619615
167	0xbd9de12d	-0.077089645
168	0x3dafc629	0.08582718
169	0x3c07586a	0.008260826
170	0x3d8c677f	0.06855678
171	0xbda84ed6	-0.08218162
172	0x3d7923a3	0.060825
173	0xbd863108	-0.06552321
174	0x3dc1336e	0.094336376
175	0x3d3029dd	0.043008674
176	0xbd19a03b	-0.037506323
177	0x3ddcfe36	0.107906744
178	0x3b59bf85	0.0033225727
179	0xbd0d4b85	-0.03449585
180	0x3dc9abd1	0.098472245
181	0xbc45ff5d	-0.012084809
182	0x3cf0df96	0.02940349
183	0x3d657f92	0.056029864
184	0xbd15c89a	-0.03656826
185	0x3da34124	0.07971409
186	0xbd8c6f0f	-0.0685712
187	0xbccab01e	-0.024742182
188	0xbd8be3de	-0.068305716
189	0xbc846c2f	-0.016164867
190	0xbcf5589a	-0.029949475
191	0xbd7ab072	-0.061203428
192	0xbd96c5df	-0.0736196
193	0x3d71b975	0.059014756
194	0xbcbec6f7	-0.023288233
195	0xbc9baa0e	-0.019001987
196	0x3ce704cb	0.028200528
197	0xbd6baec5	-0.05753972
198	0xbc7fa567	-0.0156034
199	0xbd0933cb	-0.03349666
200	0x3b7116c5	0.0036787253
201	0xbce524fc	-0.027971737
202	0xbd8e756b	-0.069559895
203	0xbdabb29e	-0.08383678
204	0xbd264d28	-0.040600926
205	0x3d9a786f	0.07542502
206	0xbd627dcb	-0.055295747
207	0x3d08714b	0.03331117
208	0x3dae6b17	0.085165195
209	0x3d7b29aa	0.06131903
210	0xbd4db367	-0.05021992
211	0x3d1a0b61	0.037608508
212	0xbd3a684e	-0.04550963
213	0xbd9896d2	-0.07450642
214	0x3d0bb3d8	0.03410706
215	0xbd3785b9	-0.044805262
216	0xbcda0d33	-0.026617622
217	0x3d643efc	0.05572413
218	0x3dd37389	0.10324771
219	0xbc8a9a74	-0.016919352
220	0xbd3514f8	-0.04420945
221	0xbd689ed7	-0.056792106
222	0xbd26ac16	-0.040691458
223	0x3bf06282	0.007335962
224	0x3da89153	0.082308434
225	0xbd78b438	-0.060718745
226	0xbce81a91	-0.02833298
227	0x3d8a0447	0.06739097
228	0x3dacd84b	0.08439692
229	0xbcc35cc6	-0.023847949
230	0xbd344b93	-0.044017386
231	0x3d88f19f	0.066867106
232	0x3d568e17	0.0523816
233	0x3d77a397	0.060458746
234	0x3c0c9b2b	0.008581917
235	0x3dbc6636	0.09199183
236	0x3c9a1785	0.018810043
237	0x3d2f63e3	0.04281987
238	0x3d49636d	0.049167085
239	0x3d3adc6d	0.04562037
240	0xbd714945	-0.058907766
241	0x3db75cd3	0.08953252
242	0x3dcba68d	0.099438764
243	0x3d80ea95	0.06294743
244	0xbcb15523	-0.021647042
245	0xbd92be12	-0.07165159
246	0xbd860b31	-0.06545103
247	0xbbbae017	-0.005702983
248	0x3cf9ee72	0.030509207
249	0x3d432d3c	0.04765056
250	0x3c486169	0.012230256
251	0xbb9e7d18	-0.0048366897
252	0xbd1356e6	-0.035971545
253	0x3c873422	0.016504351
254	0x3d7fd19d	0.062455762
255	0xbd7e9fd5	-0.062164146

linear3.bias f4 [48]
0	0xbd96bd13	-0.07360282
1	0xbd739808	-0.05947116
2	0xbd0416b3	-0.03224821
3	0x3d8de3b5	0.06928197
4	0xbd5b2acd	-0.053507615
5	0xbd25764c	-0.04039602
6	0x3b98a385	0.004658165
7	0xbca0d866	-0.019634437
8	0xbd3b3324	-0.04570307
9	0x3d2f0023	0.04272474
10	0xbc783b09	-0.015150794
11	0xbc9dd05b	-0.01926439
12	0xbd4dfa1b	-0.050287347
13	0x3c4863e9	0.012230852
14	0xbd6c4885	-0.057686348
15	0x3d5920c1	0.053009752
16	0x3d46ea5a	0.04856334
17	0xbccd048f	-0.025026588
18	0x3d51fe07	0.05126765
19	0x3d57a196	0.052644335
20	0xbd13d7d2	-0.036094494
21	0xbcaf5b4e	-0.021405842
22	0x3c9e2702	0.01930571
23	0xbd508fa4	-0.050918236
24	0xbd24c515	-0.040227015
25	0x3c7c051e	0.015382079
26	0xbcfba922	-0.030720297
27	0xbc9f8f41	-0.019477488
28	0x3d268831	0.040657226
29	0xbd11c6f1	-0.035590116
30	0x3d80b2ee	0.06284128
31	0x3d120df2	0.03565783
32	0x3d1e7c34	0.038692668
33	0xbd332ad7	-0.043742027
34	0x3d8b4219	0.067997165
35	0x3d05cffa	0.032669045
36	0x3d9d47a4	0.0767968
37	0x3d94b63c	0.07261321
38	0x3cc8926d	0.024483884
39	0x3d767f2e	0.06017988
40	0x3d418145	0.04724242
41	0xbd88f251	-0.06686843
42	0xbd77bca4	-0.060482636
43	0xbb6dff9c	-0.0036315685
44	0xbceecab4	-0.02914939
45	0x3d9f0ac3	0.077657245
46	0x3d9846ac	0.074353546
47	0x3d502e7e	0.05082559
