第二章-回归模型/model_weight/mlp_leakyrelu_norm.pth (torch, 146386 bytes, 10 tensors)

linear1.weight f4 [128, 96]
000000 57 ea b8 bd 2b 25 83 bd e5 36 a4 3d 18 86 9a 3c
       -0.09029072 -0.064035736 0.08018283 0.018862769
000010 23 4c d0 bc e2 97 b2 3d ed 9d d0 bc 43 04 af 3d
       -0.02542693 0.087203756 -0.02546593 0.08545735
000020 35 ed 05 3d a7 a4 04 bd 79 dd 23 bd 79 0f 2f bd
       0.03269692 -0.032383587 -0.040006135 -0.042739365
000030 82 8d bc bd c7 d6 0a bd df 35 95 bd 55 11 c4 3a
       -0.09206678 -0.033896234 -0.07285666 0.0014958779
000040 00 9e 97 3d 94 0e ed bb 5a 0e 9d 3d dc 59 b2 3d
       0.07403183 -0.007234404 0.07668753 0.087085456
000050 aa dc 6f bd e7 1e 91 bc ff 92 c4 bd 14 c5 0e 3d
       -0.05856005 -0.01771493 -0.0959835 0.034855917
000060 9b 84 2d 3c a2 c2 76 3c cc 44 1a bd 41 8d 03 bc
       0.010590698 0.0150610525 -0.037663266 -0.008029283
000070 24 e1 83 bc c9 d3 29 3d bf 23 a6 bd 25 37 32 3d
       -0.016098566 0.04146174 -0.08112287 0.04350962
000080 ca b3 a9 3d b8 83 dd bc 60 92 88 bd 22 80 2d bd
       0.08286245 -0.027040347 -0.06668544 -0.042358525
000090 60 c8 84 3c f8 e2 f0 bc 76 4f ce bd 43 7b c8 3b
       0.016208827 -0.029405102 -0.1007375 0.0061182096
0000a0 c3 8c dc bd 4b 71 59 3d 89 33 b2 3d d2 d7 51 bd
       -0.10769036 0.05308656 0.08701236 -0.051231213
0000b0 29 84 d3 bd d2 5b 1b 3c 96 58 24 3d fa ea d1 bc
       -0.10327942 0.009482341 0.040123545 -0.02562474
0000c0 e2 c2 98 3d 39 5f 70 3d ab d1 66 bc 70 a8 4c 3a
       0.07459046 0.05868456 -0.014088075 0.00078070816
0000d0 d1 9f 45 3b 14 7f 90 3d 16 1a f4 3b fc 8d 76 3d
       0.0030155072 0.07055488 0.0074493987 0.060194
0000e0 63 70 96 3c a1 17 c4 bc 3f 4b 99 3c 4a 6b 81 bd
       0.018364137 -0.023937048 0.018712638 -0.06319292
0000f0 a4 93 ab 3d 31 32 a0 bd 88 17 ad bd 60 ff 79 3d
       0.083777696 -0.07822073 -0.08451754 0.06103456
000100 7f 4c b3 bd 5f 2a 95 bd 7b 70 2d bd cb a6 75 bb
       -0.08754825 -0.07283472 -0.042343598 -0.003748345
000110 80 b3 b2 3c 3c da 11 bd 93 34 93 3d 86 c5 f6 bc
       0.021814108 -0.035608515 0.07187762 -0.030123483
000120 69 9c 76 3d 7d b8 0b bd 48 b0 cb bd a4 fd 1e bb
       0.060207758 -0.03411149 -0.09945732 -0.0024260068
000130 1f 4e ac 3d 81 0a 11 bc d3 fc ad 3d 3e cb e4 3d
       0.08413338 -0.008852602 0.08495488 0.11171578
000140 78 72 c1 3d 13 ce 03 3d 00 c6 ce 3b 49 e6 ab 3d
       0.09445661 0.03217895 0.0063102245 0.08393533
000150 e1 8c 9f 3d c1 5c ca 3b 15 97 1d bd 54 26 00 bc
       0.077905424 0.006175608 -0.03847416 -0.007821638
000160 50 18 80 bd a3 42 2a 3d 8f b8 b3 bd cd fe 1d bd
       -0.06254637 0.041567456 -0.08775436 -0.038573075
000170 17 e1 b4 3d 2d 2a 68 3d ee 77 bb 3d a7 3b e6 3d
       0.08831995 0.056680847 0.09153734 0.112418465
000180 98 4c a4 bd 7b 3f b9 3d 1d 14 5b 3d 44 d0 3b 3d
       -0.080224216 0.09045311 0.05348598 0.045852914
000190 30 5b 72 bd 07 c3 86 3c d6 48 23 3c a2 40 a1 bd
       -0.059168994 0.016450418 0.009966096 -0.07873656
0001a0 cd 6f b3 3d 4a 05 2c bd bd 1d 4e bc 86 82 a3 3c
       0.08761559 -0.04199723 -0.012580332 0.0199597
0001b0 03 bd a0 bd ab f4 98 3d 31 4b 9b bd 86 fc 8b bc
       -0.07848551 0.07468542 -0.07582701 -0.017088186
0001c0 61 93 88 3d ba a2 2f 3b da ed b3 bd 53 10 b3 bc
       0.06668735 0.0026799873 -0.08785601 -0.02185837
0001d0 1d d2 7f 3d d1 31 a8 3d be 13 65 3d ad 7a 96 bd
       0.06245624 0.08212627 0.05592703 -0.07347617
0001e0 70 c6 4a bd 16 47 49 3d 7b 6b a6 3d e6 74 94 bd
       -0.04950565 0.04914006 0.08125969 -0.07248859
0001f0 a4 a6 de bc 26 18 c4 bd 4d 9f 1c bd f3 91 7d bd
       -0.02717907 -0.095749184 -0.03823786 -0.061906766
000200 69 1a 95 bd 6f e8 ae bd b0 04 d9 bd 00 73 f8 3c
       -0.07280428 -0.08540427 -0.10596597 0.030328274
000210 c2 be ab 3d 19 27 7a bd d0 f2 00 3d e8 a4 3a 3d
       0.083859935 -0.061072443 0.031481564 0.045567423
000220 db 07 3a bc ff 7e 9c bd 66 12 a6 3d fd d6 bb 3d
       -0.011354412 -0.0764141 0.08108978 0.09171865
000230 21 0a 53 bd e3 55 36 3d 64 fd 8c bd 7d f8 cb bb
       -0.05152333 0.0445155 -0.06884268 -0.0062246905
000240 db 79 4f 3d f8 53 a8 bd 0b d1 4a 3d 0c 1f e2 3c
       0.05065332 -0.08219141 0.049515765 0.027602695
000250 6b 25 cd bc fd 95 85 3c 27 cd e2 bd 72 42 20 bd
       -0.025042256 0.016306872 -0.11074286 -0.039125867
000260 fc b7 97 3d 24 c1 4e 3d c5 e7 9f 3d 11 4a a6 3d
       0.07408139 0.050477162 0.078078784 0.08119596
000270 a2 3d 8a 3c 37 43 49 3d d9 d9 47 bd c2 2f 84 bd
       0.016875092 0.049136367 -0.04879174 -0.064544216
000280 56 5d 77 ba 3e fc 84 bd c5 ea 8a bd d4 59 18 3d
       -0.00094362104 -0.06493424 -0.0678306 0.03719504
000290 10 96 f2 bc bc 9f 04 3b 01 f9 a3 3d b3 14 f5 3b
       -0.029612571 0.002023681 0.08006478 0.007479274
0002a0 a2 c2 c8 3a b8 2e be 3d 02 ab 68 bd 2a d0 aa 3c
       0.0015316794 0.09286255 -0.05680371 0.020851213
0002b0 18 ed 1d bd 36 31 bd bc 9c 08 87 3d ac 89 b6 bd
       -0.03855619 -0.023094755 0.06593439 -0.089129776
0002c0 c4 e1 be 3c f1 7d 8f bd 81 54 0f 3d 36 06 92 3d
       0.023301013 -0.07006443 0.0349927 0.07130091
0002d0 f0 5f 0c 3d 70 f7 b2 3d 65 20 84 bd bc b4 df bc
       0.03427118 0.08738601 -0.06451491 -0.02730786
0002e0 4c 98 4a 3d 62 90 c1 3d 3c c2 3b 3d 20 53 7c 3d
       0.049461648 0.09451367 0.045839533 0.06160271
0002f0 1e 2e 50 bc 58 fc 9a bd eb 6f a4 3d c3 68 e4 3c
       -0.012706308 -0.07567662 0.08029159 0.027881986
000300 fa eb 94 bc 38 e9 63 bd 09 67 1b bd dd 0a 6d bd
       -0.018178929 -0.055642337 -0.03794006 -0.05787169
000310 ac 7a d6 3d 31 d3 c4 3b 05 26 a6 3d 77 84 9e bc
       0.104726166 0.0060066213 0.081127204 -0.019350274
000320 13 6a b9 bb 10 35 23 bd 20 4b 92 bd 31 f7 7e 3d
       -0.005658397 -0.039845526 -0.07143235 0.06224746
000330 fa 14 bd 3d 6f 45 89 3d 13 fc 27 bd 97 dc 1f bc
       0.092325166 0.067026965 -0.04101188 -0.009757183
000340 5d 30 6a 3b 4a 35 14 bd 90 09 46 bd 39 82 bc 3d
       0.0035734393 -0.036183633 -0.048348963 0.092045255
000350 58 31 84 3d b7 ee ce b9 3a 46 ef 3c 3c 4f b9 bd
       0.06454724 -0.00039469238 0.029208291 -0.09048316
000360 ca ec c3 bd 6e 71 13 3c 68 70 a2 bc 76 2a 1e bd
       -0.09566648 0.008999212 -0.01982899 -0.038614713
000370 ca e5 9a 3b 44 88 a7 bd d6 b0 30 3d 61 9f 90 3c
       0.0047271 -0.081802875 0.043137394 0.017654123
000380 49 6d 2a 3d 85 5d 99 3d 44 a9 11 3d df bc 7d bd
       0.04160813 0.074885406 0.035561815 -0.0619477
000390 59 91 02 bc c2 ed 43 3d c7 dc a0 3d ab 65 7e 3d
       -0.007969224 0.047834165 0.0785461 0.062108677
0003a0 de dd 94 bd de b3 99 bd 7e c2 1f bd 7b 07 91 bd
       -0.0726888 -0.0750501 -0.03900384 -0.07081505
0003b0 82 2d d0 3d 7a 4a 1f bd 88 91 b1 3d f3 63 63 3d
       0.1016493 -0.038889386 0.08670336 0.05551524
0003c0 1f 6f 9a bd 45 6c 44 3d 92 4c 04 3d 9d 70 40 bc
       -0.07540726 0.047954816 0.032299586 -0.011745599
0003d0 65 1b e1 bc f3 07 80 3b 64 62 ae bc 58 76 b8 bd
       -0.027478883 0.0039071976 -0.02128715 -0.09006947
0003e0 82 14 49 bd 25 70 ff bc 63 6d 20 3d ac 75 95 bd
       -0.049091823 -0.031181404 0.03916682 -0.07297835
0003f0 31 e2 9a 3c d1 28 36 3d 22 b4 c7 3d 85 42 f5 3c
       0.018906685 0.04447252 0.097511545 0.029938946

linear1.bias f4 [128]
000000 be a1 f9 3c ed 2f 3b 3d 6c 7d c8 3d fe db 75 bd
       0.030472632 0.045700002 0.09789547 -0.060024254
000010 97 94 32 3c 61 86 17 bd 7e 38 87 bd e9 7a 10 bd
       0.010899684 -0.036993388 -0.06602572 -0.035273466
000020 66 8a 5e bd 89 e0 db 3d 8f 72 a6 bd 29 89 69 3d
       -0.054331206 0.10736186 -0.08127319 0.05701557
000030 4d ad b6 3a c8 3d 9c 3d af f5 2b 3c ce a3 c4 3d
       0.0013937146 0.07628971 0.010495587 0.09601556
000040 e8 c9 d0 bd ef 17 cb bd 35 88 85 bc fb a6 9e 3d
       -0.101947606 -0.09916674 -0.0163003 0.07746693
000050 47 69 ca bd 08 b1 bc 3b 52 6c 96 bd e9 eb e7 3c
       -0.09883361 0.0057584085 -0.07344879 0.028310733
000060 f7 71 0d 3d 91 59 82 bd 2a 00 e5 3d 73 48 61 bd
       0.034532513 -0.0636474 0.11181672 -0.055000734
000070 6a b8 ce 3d b1 66 c7 3c aa 6e 9b bd 48 a3 ca 3a
       0.10093768 0.02434096 -0.07589467 0.0015460039
000080 cf 1b 0e 3d 97 c6 ba bd 6b 0d 10 bd da 72 16 bc
       0.03469449 -0.09119909 -0.035169046 -0.009182656
000090 2b 4d 9c bd 77 b9 39 bd 3c 7e 7c 3b f2 e6 ad 3d
       -0.07631906 -0.04534289 0.003852739 0.08491315
0000a0 c0 c9 db bd 64 0f 9d bd 5c 85 11 bd 05 95 44 bd
       -0.1073184 -0.07668951 -0.035527572 -0.04799368
0000b0 57 e1 c4 bd 4c 14 db bd 1a b5 35 bd d2 94 2c bd
       -0.09613293 -0.10697231 -0.044362165 -0.042134114
0000c0 b7 19 c0 3c f4 78 f3 bd 54 a2 4b bd 9b 27 84 3d
       0.023449762 -0.11888304 -0.049715355 0.06452867
0000d0 08 9e ab 3b b0 5c b2 bd e0 5d 01 3c 20 59 fe 3c
       0.0052373447 -0.08709085 0.007895917 0.031048357
0000e0 47 87 92 3d b6 a0 c8 bd 0a 7c 5b bc 24 b1 3a 3d
       0.07154708 -0.09796278 -0.013396272 0.04557909
0000f0 88 52 04 3c bd eb a7 bd c8 3e ae 3d 99 34 91 3d
       0.008076318 -0.081992604 0.08508068 0.0709011
000100 87 0d ec bd 54 97 dd 3d d2 73 18 3d 65 46 12 3c
       -0.11526018 0.10819879 0.03721983 0.008927916
000110 a1 41 da 3b 1a 36 2d bb 4a 18 60 bd ed e1 df 3b
       0.0066606556 -0.0026429952 -0.054710664 0.0068323524
000120 59 4d 24 3a bc 71 6f bd 8f 52 be bc 5d d4 0f 3d
       0.0006267629 -0.058458075 -0.023232726 0.035114635
000130 05 92 5f bc fe c0 6f 3b 18 55 7b 3d 84 d9 99 3d
       -0.013645654 0.0036583538 0.06136045 0.07512191
000140 df 05 23 bd 81 c1 1c bd 92 d6 99 3d 60 04 ad bd
       -0.03980052 -0.038270477 0.07511629 -0.084481
000150 22 a4 11 bd 2a f8 c8 bc dd bc d5 3d d6 98 61 bd
       -0.03555692 -0.024532396 0.104364134 -0.055077396
000160 a5 4f ce bd 02 4c 5c 3d 82 e7 e7 3c 76 3c d4 3d
       -0.10073785 0.053783424 0.028308634 0.103630945
000170 32 81 bd 3d c5 0d 7a bd 16 60 94 bd 14 62 ab bd
       0.09253158 -0.061048288 -0.072448894 -0.08368316
000180 63 be 4c 3b 2d f6 34 bd 06 55 79 3d 8e b1 2f bd
       0.003124141 -0.044180084 0.0608721 -0.04289394
000190 90 a1 13 3c dd 41 c9 bc d0 80 97 ba 45 0e 08 3d
       0.0090106875 -0.024567539 -0.0011558775 0.033216733
0001a0 4b 5e a7 bc 52 51 ab bd c8 59 3a 3a e6 7f 53 bd
       -0.020430705 -0.0836512 0.00071087154 -0.051635645
0001b0 ce 5e d5 3c ba 19 18 bc 6e 33 45 3d 8f 5f cd 3d
       0.026046183 -0.009283477 0.04814475 0.10027992
0001c0 4a 52 ce 3d ef 39 2e 3c 22 4a de 3c 12 60 52 bd
       0.10074289 0.01063393 0.027134959 -0.05136115
0001d0 01 36 51 bd 67 52 a4 bd 0d f6 41 bd 89 b7 dd bd
       -0.051076893 -0.080235295 -0.047353793 -0.10826022
0001e0 12 85 d1 bd 7b 58 fb bd 0e 57 8f 3d ab f6 dc bd
       -0.10230459 -0.12272736 0.06999026 -0.10789236
0001f0 12 27 b7 3d ed 71 41 3d 8c c5 39 bd d1 70 f7 bc
       0.08942999 0.04722779 -0.04535441 -0.030205162

norm1.weight f4 [128]
000000 a1 4e 80 3f e3 f7 7d 3f e3 f6 80 3f 0b 4a 80 3f
       1.0023996 0.9920637 1.0075344 1.0022596
000010 e2 4f 7d 3f 79 59 81 3f 5e 85 84 3f cf c5 7d 3f
       0.98950016 1.010543 1.03532 0.99129957
000020 34 dc 7e 3f 43 b2 7f 3f 13 13 7e 3f 6f c2 7c 3f
       0.99554753 0.9988138 0.99247855 0.9873418
000030 f6 3e 80 3f b1 df 7f 3f 4c 7e 7e 3f a0 29 7e 3f
       1.0019214 0.999507 0.99411464 0.99282265
000040 68 68 7d 3f ce c1 80 3f 7f 78 7f 3f d2 4a 80 3f
       0.98987436 1.0059144 0.9979324 1.0022833
000050 d3 58 7e 3f 30 f6 80 3f b2 95 7f 3f dd 5b 81 3f
       0.99354285 1.007513 0.9983779 1.010616
000060 93 50 80 3f d5 fe 80 3f 0c 91 82 3f 10 9b 7e 3f
       1.0024589 1.0077769 1.0200515 0.99455357
000070 bd ef 7f 3f c4 bf 7e 3f 4c 51 7e 3f a5 1a 80 3f
       0.99975187 0.9951136 0.993428 1.0008131
000080 7c ee 7f 3f 05 fb 80 3f 16 4a 80 3f 45 a4 81 3f
       0.99973273 1.0076605 1.0022609 1.0128256
000090 c6 e8 80 3f 21 e9 7e 3f 6a 41 80 3f 8b fc 7e 3f
       1.0071037 0.99574476 1.0019963 0.996041
0000a0 56 6b 81 3f b4 87 7d 3f cd f4 80 3f a9 e1 80 3f
       1.0110881 0.9903519 1.0074707 1.0068866
0000b0 f1 88 81 3f cb 27 80 3f 3a 71 80 3f f0 0b 81 3f
       1.0119916 1.0012144 1.0034554 1.0081768
0000c0 eb c0 80 3f 57 f8 80 3f 8a 8d 80 3f 03 e9 82 3f
       1.0058874 1.0075787 1.0043194 1.022736
0000d0 5a ea 7d 3f b2 42 80 3f f8 d1 7e 3f 5f 80 80 3f
       0.9918572 1.0020354 0.99539137 1.0039176
0000e0 22 10 80 3f ac dc 80 3f fe 32 80 3f 08 8c 7f 3f
       1.0004923 1.0067344 1.0015562 0.99823046
0000f0 44 4c 81 3f 9c 7a 7f 3f e5 e6 7f 3f a9 8a 81 3f
       1.01014 0.9979646 0.9996169 1.0120441
000100 59 52 7e 3f 21 6c 81 3f a4 fe 81 3f ab 37 7e 3f
       0.993444 1.0111123 1.0155835 0.9930369
000110 4a 21 7f 3f 66 83 7e 3f e7 a4 7f 3f d7 4e 7c 3f
       0.9966017 0.9941925 0.99860996 0.985578
000120 ba a0 80 3f 02 e2 7f 3f 40 39 7f 3f 63 26 80 3f
       1.004905 0.99954236 0.9969673 1.0011715
000130 79 df 7e 3f 1f 91 80 3f ca d7 80 3f 0b d4 7e 3f
       0.9955974 1.0044287 1.0065854 0.995423
000140 dc 75 7f 3f d8 80 80 3f 45 ad 7f 3f c3 20 7f 3f
       0.99789214 1.003932 0.99873763 0.99659365
000150 35 df 80 3f 41 83 81 3f 84 ae 81 3f fc ce 80 3f
       1.0068117 1.011818 1.0131383 1.0063167
000160 76 0d 7e 3f a9 08 7f 3f 86 7c 80 3f 11 69 81 3f
       0.9923929 0.9962259 1.0038002 1.0110189
000170 e2 61 7e 3f b6 96 80 3f f7 b7 80 3f b9 98 81 3f
       0.9936811 1.0045993 1.0056142 1.0124732
000180 76 47 7e 3f 38 69 80 3f de eb 81 3f 0b 5f 80 3f
       0.9932779 1.003211 1.0150106 1.0029005
000190 0f 40 80 3f cd 41 80 3f a2 5c 7b 3f 88 48 80 3f
       1.0019549 1.0020081 0.9818822 1.0022135
0001a0 20 42 80 3f e1 09 83 3f 47 ad 7f 3f 5a 0c 81 3f
       1.002018 1.023739 0.99873775 1.0081894
0001b0 92 4b 81 3f 29 7c 83 3f cb c5 7e 3f d6 fe 80 3f
       1.0101187 1.0272266 0.9952056 1.007777
0001c0 75 4b 80 3f 2a e7 7e 3f ec 70 82 3f 68 84 7e 3f
       1.0023028 0.9957148 1.0190711 0.99420786
0001d0 76 f5 81 3f 61 f8 7e 3f 92 96 80 3f 2c f9 7f 3f
       1.0153034 0.99597746 1.004595 0.9998958
0001e0 67 73 80 3f 31 24 7e 3f 91 47 81 3f ad 6e 7f 3f
       1.0035218 0.99273974 1.0099965 0.9977825
0001f0 31 c3 80 3f d6 8f 7e 3f e6 df 7e 3f d6 9f 80 3f
       1.0059568 0.99438226 0.9956039 1.0048778

norm1.bias f4 [128]
000000 ad 6f 81 3b 26 da ce bb e0 06 01 3c 55 d3 34 3b
       0.0039500804 -0.0063126264 0.007875174 0.0027591784
000010 c7 aa 0c bc cf 29 b1 bb cb e4 31 3c 70 c3 58 bb
       -0.008585638 -0.0054065953 0.010857771 -0.0033075474
000020 81 47 ed b9 66 c0 cc b7 34 44 52 b9 44 4f 99 ba
       -0.00045257437 -2.4408288e-05 -0.00020052568 -0.0011696597
000030 57 ef 92 3b 6a 5c 96 3b 04 12 a7 bb 0f 00 7e 3a
       0.004484098 0.0045886533 -0.005098583 0.000968934
000040 22 42 f0 bb ff 43 07 3b e4 82 48 bb 4f 0d dd 39
       -0.0073321024 0.0020639894 -0.0030595595 0.0004216232
000050 fc 7a 4c 3b f3 66 a8 3b 5e af e6 39 de c6 91 3b
       0.0031201234 0.0051392256 0.00043999677 0.0044487556
000060 01 aa 1a 3b 29 b8 f1 3b 7f b7 59 3c dc 26 0d bc
       0.0023599865 0.00737669 0.013288378 -0.008615222
000070 f3 7a 1a 3b eb e0 f7 3b 90 79 b4 bb d2 cb 16 3c
       0.0023571819 0.007564654 -0.0055076554 0.009203868
000080 c3 c7 0a 3b fc d9 cc bb 1a 8d 74 3b fa 3d 8c ba
       0.0021176196 -0.0062515717 0.0037315548 -0.0010699623
000090 b9 15 da 3b 86 a0 84 bb 13 4f b4 bb f5 ef 1e bb
       0.0066554216 -0.004047456 -0.0055025904 -0.0024251912
0000a0 8c 8f b7 bb 44 08 64 bb f0 8a 59 3b c2 fb bb 3a
       -0.005601829 -0.0034794966 0.0033194385 0.0014341997
0000b0 1f b8 0b bc 17 72 6b bb 73 49 48 bb f1 90 94 3b
       -0.008527785 -0.0035926157 -0.0030561357 0.00453388
0000c0 19 af 8d 3b bb e8 ca bb f4 04 e7 3a ef ad 96 3c
       0.004323852 -0.0061922944 0.0017625378 0.018393485
0000d0 66 43 af bb 85 d0 13 3b 64 ac 88 bb e7 b4 e4 b8
       -0.0053486107 0.0022554707 -0.004170941 -0.00010905583
0000e0 b4 dd 8f 3b af 63 66 bb 8e fa 76 3b e3 93 c7 ba
       0.0043904427 -0.003515463 0.0037685963 -0.0015226569
0000f0 bc dc 1a bb d8 1c 0f bb 8b 5f 2e 3b 65 8e 3a 3c
       -0.0023630103 -0.002183726 0.002660724 0.011386489
000100 0a 96 0c bc 77 cf 16 3c 8d c2 2e 3c 74 b0 04 3b
       -0.008580694 0.009204737 0.010666502 0.0020246776
000110 47 ba b9 bb 66 96 e8 bb 4f 54 8c bb c0 36 9b ba
       -0.005667958 -0.007098007 -0.0042825113 -0.0011841878
000120 bc 65 d1 3b 48 fd 9d ba 8c d7 98 bb cf f0 fe 3a
       0.0063903015 -0.0012053633 -0.004664367 0.0019450429
000130 1f f7 75 bb f6 0f f2 b7 30 48 eb 3b fa 7f 6c bb
       -0.003753133 -2.885608e-05 0.0071802363 -0.0036087022
000140 10 d4 80 bb 62 00 92 3b 8c 9d 7c 3a 74 19 9a 3b
       -0.00393153 0.004455612 0.00096365134 0.0047027413
000150 cf 60 ee 3a d7 cc 72 3b e5 65 46 3c ba 03 b4 bb
       0.001818681 0.0037048364 0.0121092545 -0.0054936083
000160 5e 26 fb bb 7d 4a 1e ba 1c eb ba 3b 5e da 34 3c
       -0.007664486 -0.00060383213 0.0057042968 0.011038391
000170 d8 e7 2f ba 9b 23 83 3a 07 9c eb 3b 34 6a 6f 3b
       -0.00067102676 0.0010005118 0.007190231 0.0036531808
000180 27 65 d4 bb d0 27 07 ba ec e4 3b 3c 4b 2e 88 3a
       -0.006481785 -0.0005155774 0.011468153 0.0010389773
000190 65 b3 70 3b 44 57 be 3b 7b ab 16 bc ac 27 51 3b
       0.0036728021 0.0058087427 -0.009196158 0.0031914515
0001a0 a8 b9 e4 3b 84 db a8 3b 2b d4 e0 3b fb ea 8d 3a
       0.0069801398 0.0051531214 0.00686123 0.0010827476
0001b0 22 3d 00 3c 76 33 5e 3c c8 98 a6 ba e1 b4 e5 3b
       0.007827075 0.013562074 -0.0012710327 0.007010088
0001c0 68 4a 90 3b ac ce 09 3c d7 ec cc 39 40 52 f9 bb
       0.004403401 0.008411091 0.00039086372 -0.007608682
0001d0 d8 20 87 3b 42 22 f9 bb dc c3 ac bb 13 62 97 bb
       0.0041237883 -0.007602961 -0.0052723717 -0.0046198457
0001e0 f7 38 87 ba 7e 79 9e 3b e1 32 da 3b 7f c7 0e 3b
       -0.001031666 0.0048362603 0.0066588973 0.002178639
0001f0 f5 f1 b0 3b 43 2f 87 bb 01 8b d9 bb de 9c 6a bb
       0.0053999373 -0.004125507 -0.006638885 -0.0035799067

linear2.weight f4 [128, 128]
000000 21 68 5a bd 29 36 94 3d 0c e0 9f 3d ed ff 95 3c
       -0.05332196 0.07236893 0.078064054 0.018310511
000010 07 b4 69 bd 6e 23 8f bc 84 cb 25 3d 0f f8 d7 3c
       -0.057056453 -0.017472949 0.04047729 0.0263634
000020 2c be ab bd c2 2a 96 bd d5 ef 0e bd 88 55 a5 3d
       -0.08385882 -0.07332374 -0.03489669 0.080729544
000030 df c2 95 bb fe 52 07 bd f7 a7 1d bd d1 9e 9a 3d
       -0.0045703496 -0.033038132 -0.038490262 0.07549823
000040 af e1 63 3d 37 6a 3d bd 87 9e 7f bd 72 76 1a bd
       0.05563515 -0.046243872 -0.062407043 -0.037710615
000050 10 11 88 bd 41 22 a2 3c 74 0d 40 3c 64 6c ec 3c
       -0.066438794 0.019791724 0.0117219575 0.028860278
000060 77 9b ec bc e7 fe 47 3d e9 58 9a bd f4 ac b3 bc
       -0.028882725 0.04882708 -0.075364895 -0.021933056
000070 c0 94 93 3d 32 15 d7 bc 31 ac 86 bd 52 d7 a0 bd
       0.07206106 -0.026255224 -0.06575812 -0.07853569
000080 a6 2d 87 3d d3 ce ba bb 25 6c d9 bb 2f f3 99 bb
       0.066005036 -0.005700925 -0.0066352063 -0.004698179
000090 0b 4f 11 bc 76 72 b9 bd a2 1f 91 3d fc 6b 80 bd
       -0.008868943 -0.09055035 0.070861116 -0.062705964
0000a0 28 b0 06 3c ec 3f 11 3d 4a 1b 04 bc 7a 06 51 3d
       0.00822071 0.03546135 -0.008063147 0.051031567
0000b0 11 4f 24 bd a4 e5 9e bc 52 59 05 3b e2 77 41 3d
       -0.040114466 -0.01939661 0.0020347429 0.04723347
0000c0 7e 1c 2f 3d f7 c0 ba 3b 27 d2 b6 bc 27 4b 9e bd
       0.04275178 0.0056992727 -0.022317005 -0.07729178
0000d0 d4 c5 b8 3c d7 48 34 3d ec 95 f4 bc c2 df c6 3d
       0.02255527 0.044014778 -0.029856645 0.09710647
0000e0 78 75 13 bd 01 b9 38 bd 75 eb d3 bc 6a ad f5 3c
       -0.0360007 -0.04509831 -0.02586911 0.029989917
0000f0 8e f6 95 3d ef 6e 6d bd 7a f2 63 bd f2 37 4b bc
       0.07322417 -0.057967123 -0.055651166 -0.012403475
000100 2e 31 af bd d9 48 aa 3d 15 ac d5 bb 15 69 8c 3d
       -0.08554302 0.08314676 -0.006520758 0.0685598
000110 cd 01 7c 3d 0a 9f 76 3d 33 23 0e bd a4 00 96 3d
       0.061525155 0.060210265 -0.034701537 0.07324341
000120 1d 9a a5 bd 76 36 d5 3c a2 53 f0 bc 52 41 6b 3d
       -0.080860354 0.026026946 -0.029336754 0.05743534
000130 49 dd 20 3d a4 3e b9 bc da d5 89 bd e4 11 81 3c
       0.039273534 -0.022612877 -0.06730242 0.015755601
000140 63 fb 65 bd e7 2b b3 3d c0 a7 13 3d 72 65 77 3d
       -0.056147944 0.08748608 0.03604865 0.06039948
000150 91 a9 32 3c b9 e3 1d bc f4 d7 66 bc 94 83 b5 3c
       0.010904686 -0.009636813 -0.014089573 0.022157468
000160 ff 08 81 3d ef 07 b2 bc 37 6f 8e 3c 3d 4d 82 bd
       0.06300544 -0.021732299 0.017387016 -0.06362388
000170 f8 47 ad bd b6 29 83 bc d8 27 9f 3c 0b bf a0 bd
       -0.084609926 -0.0160111 0.019428179 -0.078489386
000180 24 07 1f 3d 6f 6c 0b bc 8d 82 44 3c 06 3a ea 3c
       0.03882517 -0.008509739 0.011994016 0.02859212
000190 cb 0f 3d bd 0f fb 33 bc 29 55 83 bd ec df 4a bc
       -0.04615764 -0.01098515 -0.064127274 -0.012382489
0001a0 55 47 ce bb 02 d3 75 3d 27 ac 83 3b 26 ef a5 bc
       -0.0062951245 0.060015686 0.004018325 -0.020255636
0001b0 97 6b 9b 3d 58 ee 92 3d d1 5a 7f bc 8c f7 d3 bc
       0.075888805 0.07174367 -0.015585617 -0.025874875
0001c0 fe 21 45 3d 6f f9 b4 3d da 2b 79 3d f1 ac 06 bd
       0.04812812 0.08836638 0.060832836 -0.032879774
0001d0 f6 2f 47 3c 69 df 19 bd 36 e0 64 3d bd 09 2c bd
       0.012157431 -0.037566576 0.055877887 -0.042001475
0001e0 9e 2a 11 bd 4e c3 7a bd a3 9f 15 bd dd 88 62 bd
       -0.035441034 -0.061221413 -0.036529195 -0.055306304
0001f0 58 54 9a bd 8b 91 87 bd f3 a2 be bc 0f 4a 9b bd
       -0.075356185 -0.06619557 -0.02327106 -0.07582485
000200 13 bb 9a bb 4a 6a f5 3c bc 33 89 bd e5 1a 04 3d
       -0.004722008 0.02995791 -0.06699321 0.03225221
000210 5b 49 0d bd d2 8d 9a bc af 62 b9 bd c0 64 36 bd
       -0.034493785 -0.018866453 -0.090520255 -0.044529676
000220 e1 a4 92 bd 6b a6 5d 3d 38 4b 08 39 2e 87 4e 3d
       -0.071603544 0.054113787 0.00012997992 0.050421886
000230 3a 3a 64 3c e2 40 12 3d c6 e1 85 bd 6f ba 30 bd
       0.013929898 0.03570641 -0.065372035 -0.043146547
000240 e9 d8 75 bd e3 62 41 3c 20 bb d7 bc 62 e5 ce 3b
       -0.060021315 0.011803362 -0.026334345 0.0063139657
000250 56 9a d0 bc 46 98 5d bc 21 5a 1d bd 53 13 2f bd
       -0.025464218 -0.013525074 -0.03841603 -0.04274304
000260 af 09 c4 bb a2 66 ae 3d 93 89 64 bd 35 63 52 bb
       -0.0059825997 0.085156694 -0.055795263 -0.003210259
000270 d0 dd 54 3d 6e 5d b7 3c 7f 7f 24 3d b6 25 8d 3d
       0.05196935 0.022383418 0.040160652 0.068919584
000280 76 50 97 3d 49 0d b1 3d 13 47 95 3c 63 f5 03 3d
       0.073883936 0.08645112 0.018222367 0.03221644
000290 c9 a2 59 bd 65 34 b0 bd 9f 8f 84 3d be 46 94 3d
       -0.05313376 -0.086037435 0.06472706 0.072400555
0002a0 87 41 43 bd 88 28 b4 bc a7 60 c9 3a 88 06 88 bd
       -0.047669914 -0.021991983 0.0015363888 -0.06641871
0002b0 7b a9 ec ba 61 ca e0 bc f8 5b b4 ba 86 91 00 3d
       -0.001805588 -0.027440252 -0.0013760319 0.031388782
0002c0 84 8b a2 3d 1e f7 87 3d 20 d4 2b 3c 98 7a 25 3d
       0.07936767 0.06638931 0.010487586 0.040400118
0002d0 49 51 06 3d 6d c8 87 3d 06 6d 57 bd 79 72 ed 3b
       0.032792363 0.06630025 -0.052594207 0.007246312
0002e0 c0 c1 16 bc fe d6 3b 3d 5c 9a 0e 3d a3 04 a9 3d
       -0.009201467 0.04585933 0.034815177 0.082528375
0002f0 e3 4b 29 3c 33 44 18 3d 26 5f 84 3c f8 65 55 bc
       0.010333034 0.037174415 0.016158652 -0.0130247995
000300 c2 8e 14 3b 97 47 9e bd b0 32 0d 39 4e 81 46 3d
       0.0022668098 -0.077284984 0.0001346569 0.04846316
000310 a2 e3 5a 3d f0 d2 16 3d 7f 4c 3a bd 46 0b 5c bb
       0.053439744 0.03682226 -0.04548311 -0.0033576055
000320 37 7e 88 3d 7c dc 27 bd f0 70 f8 bc cb d7 81 3d
       0.066646986 -0.040981755 -0.03032729 0.06339987
000330 e8 d1 8b bd e4 3b 70 3d 70 6b 4d bd bf d2 4a 3d
       -0.06827146 0.058650866 -0.05015129 0.04951739
000340 32 89 f1 3c ed 7a 61 3d bb ff 70 bd 44 f8 03 3d
       0.029484365 0.05504887 -0.058837634 0.032219186
000350 0a 13 4a 3c 7b 09 92 bd b7 24 9f 3c 26 cb 61 3c
       0.012333641 -0.071307145 0.019426687 0.0137813445
000360 26 38 33 3d f8 48 12 bc e4 8f 98 bb b2 3a 25 3d
       0.04375472 -0.00892853 -0.004655825 0.04033918
000370 26 de a0 3d 05 26 76 bd 40 61 85 3d 28 64 4a bd
       0.078548715 -0.060094852 0.065126896 -0.049411923
000380 dc be cb 3c 63 38 05 3d 96 93 78 3c 96 7a 98 3d
       0.024871282 0.032524478 0.015171906 0.074452564
000390 05 ce 5e 3d a6 bb 0b bd c2 e5 2e bd 43 b2 44 3d
       0.054395694 -0.034114502 -0.042699583 0.048021566
0003a0 09 24 f2 bc 8f 56 be bd 05 10 f2 bc 59 ca 42 bc
       -0.029558199 -0.092938535 -0.029548654 -0.011889064
0003b0 a9 99 8f bd f8 fe 9e 3d 82 94 4b 3d f1 f6 86 3d
       -0.0701173 0.07763475 0.049702175 0.06590069
0003c0 a7 1d 77 3c 6a 6b 54 bd 6d e8 9d 3d 65 57 a8 bd
       0.015082753 -0.05186025 0.07710347 -0.08219794
0003d0 55 ea 1d bd 60 69 82 bd 29 f5 63 bd 98 9d 21 bd
       -0.038553555 -0.06367755 -0.055653725 -0.039456934
0003e0 39 f8 79 bd 19 84 7a bd 90 0c ab bb 65 ef b7 3c
       -0.06102774 -0.061161134 -0.0052200034 0.02245302
0003f0 ec 96 67 bd e0 f3 06 3c 22 a9 9d 3d da cf a1 3d
       -0.056540415 0.008236855 0.07698275 0.07900973

linear2.bias f4 [128]
000000 f1 8a 25 bd 3d 51 73 bd 24 82 31 3d 3b 8d 18 3d
       -0.040415708 -0.059403647 0.043337002 0.037244063
000010 ca f9 b1 3d f3 24 ff bc 90 3a 55 3d 87 1b 11 3d
       0.086902216 -0.031145548 0.052057803 0.035426643
000020 82 5b 71 bc 87 0e b4 3c 31 f1 c0 bb 62 62 32 bd
       -0.01473129 0.021979583 -0.0058881273 -0.043550856
000030 b9 d8 91 3c 6d b3 37 bd 1d 39 17 3d 51 7a 20 3d
       0.017803537 -0.044848848 0.0369197 0.03917915
000040 0a ce aa 3d ec d8 0d bd 99 37 a7 bc 64 27 e1 3c
       0.0834008 -0.0346307 -0.020412253 0.027484603
000050 e9 9c a7 bc c9 40 2e bd 14 a2 25 3d 4a 1b 88 bc
       -0.020460563 -0.042542253 0.040437773 -0.016614575
000060 37 2b 4f 3c d9 ad 4a 3d 9c 06 c7 3c 80 38 29 3c
       0.012644581 0.0494822 0.024295144 0.010328412
000070 e4 c7 9a ba d2 9d 8d bd 05 34 31 3d fe 55 1c bd
       -0.001180884 -0.069148675 0.0432625 -0.038167946
000080 f5 22 b2 3d 0b 13 ad 3d e3 f1 a8 bd ac cf 02 3d
       0.08698074 0.08450898 -0.08249261 0.031936333
000090 24 2e 08 3d 52 a2 ff 3c 8c 1d 96 3c 23 e4 a1 bd
       0.033247128 0.03120533 0.018324636 -0.07904842
0000a0 99 c4 a8 bd aa 3f 1b bd 4c 87 12 bc 50 23 f7 bb
       -0.08240623 -0.03790251 -0.00894339 -0.0075420514
0000b0 85 82 b8 3c 58 54 94 bd fe fe 2c 3d f4 d4 f5 3c
       0.022523174 -0.0724265 0.042235367 0.03000877
0000c0 29 5e 11 3c 4c 16 37 3c 0c b4 52 bc ff a9 c5 3c
       0.008872547 0.01117475 -0.012860309 0.024128912
0000d0 67 ce 1a 3c c2 c2 86 bd ea a3 35 3d a0 03 57 bc
       0.009448624 -0.06580116 0.044345774 -0.013123423
0000e0 ed 12 d7 bc d8 b0 d4 bb 7c 9d 29 bc eb 77 81 3d
       -0.026254142 -0.006490808 -0.010352489 0.06321701
0000f0 c1 05 c2 3d e6 1a 06 3d 86 df 8b bd 41 cd d3 3c
       0.09473754 0.032740496 -0.06829743 0.025854709
000100 99 86 80 3d f5 04 13 bc 8b cc bb bd b5 11 f1 bc
       0.062756725 -0.00897335 -0.09169873 -0.029427389
000110 ad ed 5f bd f0 20 08 bd c3 30 c8 3c b5 10 aa ba
       -0.054670025 -0.033234537 0.024437314 -0.001297495
000120 85 38 a0 3d bd 28 3f 3d c5 92 ac bc 09 9d a7 3d
       0.0782328 0.04666971 -0.021066079 0.08184249
000130 4b ed 67 3c de 37 61 3d d8 55 a2 bc 08 fd a0 bd
       0.014155696 0.05498492 -0.019816324 -0.07860762
000140 d4 09 64 3d dc df c9 38 34 db 22 3c fe 70 6c 3c
       0.055673435 9.626124e-05 0.009939957 0.014431236
000150 9e 96 26 bb 52 0d 20 3d ea 2d 37 3c ae 4b 88 bd
       -0.0025419365 0.039075203 0.01118038 -0.0665506
000160 f3 a6 97 3d 00 80 e1 bc b0 e9 b7 bd af 40 ab 3d
       0.0740489 -0.027526855 -0.08980119 0.08361947
000170 4b 21 5f 3d b3 2d 07 bc aa 14 6c 3c 90 0d 27 3c
       0.05447511 -0.008250642 0.014409224 0.010196105
000180 51 5f 10 3d f1 45 a6 bc 8c ad e1 3c 1d 60 94 3d
       0.03524715 -0.020297023 0.027548574 0.07244895
000190 e3 5e 23 38 84 7c ce bc 8d 62 a0 3b 1f 6a be 3c
       3.89506e-05 -0.025205858 0.0048945607 0.023243962
0001a0 ca 3b 82 bd 44 d6 db 39 9e 03 c1 bc c8 ac 7d bd
       -0.0635906 0.00041930575 -0.023561295 -0.061932355
0001b0 6e 40 62 bd 0a 34 1a bd 68 a8 3f 3c 93 90 d4 3c
       -0.055237226 -0.037647285 0.011697866 0.025947845
0001c0 1c cf 96 3c e7 41 77 3d 5c 09 62 3c f5 a6 61 bd
       0.018409304 0.060365584 0.013796177 -0.055090863
0001d0 36 ab 25 bd 47 7c a7 bc 2e 62 4f bd de e9 15 3d
       -0.040446483 -0.020445002 -0.05063074 0.036599986
0001e0 59 69 96 3d 54 39 5c bb 77 fb ad bd 4c d4 70 bd
       0.07344312 -0.0033603506 -0.08495229 -0.058796212
0001f0 78 8c cb bd 20 7f 15 3d 6f 6c 74 3d aa b3 34 3d
       -0.09938902 0.03649819 0.059673723 0.044116654

norm2.weight f4 [128]
000000 b6 6d 7c 3f f3 0f 7e 3f 95 58 7f 3f dd 3f 7e 3f
       0.98604906 0.99243087 0.9974454 0.993162
000010 ab a7 7f 3f 4a e2 7b 3f 00 ad 80 3f 3b de 81 3f
       0.99865216 0.98392165 1.0052795 1.0145944
000020 a1 7e 7f 3f 82 c0 80 3f 7d c0 7e 3f db 46 81 3f
       0.99802595 1.0058749 0.99512464 1.0099748
000030 5c d2 80 3f de 12 7f 3f 52 ae 7e 3f db 36 7f 3f
       1.0064197 0.99638164 0.9948474 0.9969308
000040 19 6e 7e 3f 7a cb 81 3f d3 da 7f 3f 36 64 81 3f
       0.99386746 1.0140221 0.99943274 1.0108707
000050 3c 79 82 3f 42 3d 7e 3f 66 eb 7e 3f 2d 94 80 3f
       1.0193248 0.9931222 0.9957794 1.004522
000060 cb 50 7d 3f 45 b3 81 3f c2 4a 81 3f 77 5a 7f 3f
       0.98951405 1.0132834 1.0100939 0.99747413
000070 6d 14 7a 3f 59 6a 80 3f 4b f1 7a 3f 3b 15 80 3f
       0.9768742 1.0032455 0.98024434 1.0006479
000080 f9 15 7c 3f e1 1e 81 3f d4 ad 80 3f 51 c8 82 3f
       0.9847103 1.0087548 1.0053048 1.0217382
000090 b7 32 83 3f c4 03 7f 3f 27 91 7f 3f fd f0 7c 3f
       1.0249852 0.9961512 0.9983086 0.9880522
0000a0 a7 cb 80 3f 33 64 82 3f ff 6b 81 3f 58 e5 80 3f
       1.006215 1.0186828 1.0111083 1.006999
0000b0 2a 4b 80 3f 0c 10 7f 3f 69 cd 7e 3f 2d b0 7d 3f
       1.0022938 0.9963386 0.9953218 0.9909695
0000c0 e4 c9 7c 3f 3b 82 7e 3f 0b 0d 79 3f 49 6f 81 3f
       0.9874556 0.99417466 0.97285527 1.0112087
0000d0 9d dd 7e 3f 5e 1c 82 3f 64 9a 7e 3f 32 b1 7e 3f
       0.99556905 1.0164907 0.9945433 0.9948913
0000e0 5c d5 7e 3f a9 ae 81 3f ab 95 81 3f b7 9e 7e 3f
       0.9954431 1.0131427 1.01238 0.9946093
0000f0 60 29 81 3f 2b b0 81 3f 57 7d 7e 3f ea 57 80 3f
       1.0090752 1.0131887 0.99410003 1.0026829
000100 98 0c 82 3f 8e 5b 80 3f 41 f3 7e 3f bb 34 7f 3f
       1.0160093 1.002794 0.99589926 0.99689835
000110 e2 15 80 3f 12 04 7f 3f d8 2b 7d 3f 82 a4 81 3f
       1.0006678 0.99615586 0.98895025 1.0128329
000120 de d0 7e 3f 26 eb 7f 3f 46 58 7d 3f b0 d6 7f 3f
       0.99537456 0.99968183 0.9896282 0.9993696
000130 2e c6 7d 3f 9c cb 7f 3f a6 a7 7f 3f db c5 80 3f
       0.99130523 0.9992006 0.99865186 1.0060381
000140 a2 d1 7e 3f ef bd 7e 3f ce a7 7f 3f 40 f9 82 3f
       0.99538624 0.99508566 0.99865425 1.0232315
000150 4c 10 83 3f 22 a3 7e 3f 23 cf 7f 3f d3 fa 80 3f
       1.0239348 0.9946767 0.9992544 1.0076545
000160 f0 d2 7e 3f 39 54 7f 3f e9 29 81 3f 97 3f 80 3f
       0.99540615 0.9973789 1.0090915 1.0019406
000170 9b d8 7a 3f bb d5 80 3f 3f f8 7e 3f dc 89 81 3f
       0.97986764 1.0065225 0.99597543 1.0120196
000180 af e1 7d 3f eb a6 7f 3f a3 70 80 3f e7 33 7d 3f
       0.9917249 0.9986407 1.0034374 0.9890732
000190 c2 2f 82 3f e8 47 7e 3f 32 1b 84 3f 59 bd 7e 3f
       1.0170825 0.9932847 1.0320799 0.9950767
0001a0 f5 07 7d 3f c9 5d 7e 3f 63 32 7b 3f 46 91 80 3f
       0.98840266 0.99361855 0.9812376 1.0044334
0001b0 41 67 81 3f 59 2d 7f 3f ff f9 7f 3f 66 1d 7f 3f
       1.0109636 0.9967857 0.9999084 0.99654233
0001c0 ec e8 7c 3f fd 1d 7d 3f 5e 4b 7f 3f ac bf 7e 3f
       0.9879291 0.98873883 0.99724376 0.9951122
0001d0 eb 12 80 3f 43 d6 80 3f bd 75 7d 3f 4e 26 7e 3f
       1.0005773 1.0065387 0.9900778 0.992772
0001e0 cd db 7d 3f 5a d4 7d 3f f8 cf 7e 3f 00 6f 81 3f
       0.99163514 0.9915215 0.99536085 1.0112
0001f0 3d c5 7d 3f 30 33 7c 3f 03 cc 7b 3f ec cc 7e 3f
       0.99129087 0.98515606 0.9835817 0.99531436

norm2.bias f4 [128]
000000 db ac 26 bc 46 8b 6b bb 12 71 4b bb 2e 59 ed 3b
       -0.010173048 -0.0035941168 -0.0031042737 0.007243297
000010 f5 9f 18 ba e9 1b 35 bc 91 5a 46 bc 52 a5 c6 3b
       -0.00058221753 -0.011054018 -0.012106554 0.006062188
000020 8a 22 44 bb 31 7b b3 3b 65 85 a4 bb b0 43 1b 3c
       -0.0029927813 0.005477332 -0.0050207847 0.009476587
000030 fd c5 50 bb 5c 44 7b bb 6b 83 ba bb 93 3c 90 bb
       -0.0031856291 -0.0038340306 -0.005691936 -0.0044017523
000040 91 78 fe ba b2 38 b4 3b 6f 19 78 bc 87 c4 0e 3c
       -0.0019414594 0.0054999227 -0.015142783 0.008713848
000050 40 f2 f7 3b 01 28 05 3c ae fd 95 bb b0 4d 9a 3a
       0.0075667202 0.008127213 -0.00457736 0.001177242
000060 2d c5 d1 ba 64 35 33 3c 84 c8 c9 3b 7b 42 23 3c
       -0.0016004198 0.010938022 0.0061579365 0.009964581
000070 75 60 4e 3b 59 6d 54 3b e7 33 2a bc 88 05 88 bb
       0.0031490598 0.003241381 -0.010388351 -0.00415105
000080 76 7c bb bb c8 e5 d0 3b 1c f4 bb bb fb 43 25 3c
       -0.005721624 0.0063750483 -0.005735887 0.010087009
000090 d7 f7 86 3c 6e a8 a8 bb 4c 54 03 bb 68 92 bc bb
       0.016475601 -0.0051470315 -0.0020039259 -0.0057547577
0000a0 e9 90 6e 3b b7 d2 19 3c 9b a1 f0 ba 60 4a 27 3c
       0.003640229 0.009388617 -0.0018358709 0.0102106035
0000b0 a7 fe 0a 3b da c4 8e 3b ab 06 b3 bb 2e 53 60 3c
       0.0021208914 0.0043569626 -0.0054634414 0.013691707
0000c0 a6 28 78 3b 98 5f 9b bb f3 b6 fc bb e4 ad cd 3b
       0.0037866025 -0.0047416203 -0.007712239 0.006276833
0000d0 54 35 26 bb 88 7a 60 bb 10 04 f1 bb 8c af dc ba
       -0.0025361376 -0.0034252722 -0.0073552206 -0.0016836985
0000e0 ce 2f b9 bb 71 0f 13 3c 5f 65 67 3c 5a 7e a8 bb
       -0.0056514507 0.0089758495 0.01412329 -0.0051420154
0000f0 ae e0 c2 3a 78 b6 dd 3b 48 eb 8a bb f1 90 68 bb
       0.0014867985 0.0067661367 -0.0042394735 -0.0035486782
000100 9f 30 21 3c 00 d0 6b 3c 67 ea 88 bb 49 81 82 bb
       0.009838252 0.014392853 -0.0041783336 -0.003982697
000110 99 bf ff 3b aa 1e c1 bb 68 9d 3b 3b 54 35 28 3c
       0.0078048226 -0.005893548 0.0028627757 0.010266621
000120 05 4f 9c bb 39 13 53 bc 7f d4 0b bc 96 50 6d 39
       -0.004770162 -0.012883001 -0.00853455 0.00022632102
000130 cd cf ba ba f5 a2 b0 3a 79 c4 a2 ba 35 79 17 3c
       -0.0014252603 0.0013476299 -0.0012418173 0.009245207
000140 fb e9 a6 b9 8f 1d df 3b 13 f1 71 ba aa 11 c1 3b
       -0.00031836316 0.0068089436 -0.0009229343 0.0058919983
000150 cb fe 12 3c a2 8b cc 39 b8 cc d8 bb d3 b0 8b bb
       0.00897188 0.00039013947 -0.0066162013 -0.0042630224
000160 61 d5 2c bb 69 3d 64 bb 4d f9 8a bb 55 1a ac b9
       -0.00263723 -0.0034826642 -0.0042411448 -0.00032826015
000170 a9 f6 10 3c 54 ef dc 3a c5 1d 51 bb 68 b5 51 3c
       0.008847871 0.0016855993 -0.0031908613 0.012799598
000180 88 8a 16 bc de ae 1b 3a 67 db 0d 3c 8a 7a 79 3b
       -0.009188302 0.0005938838 0.008658267 0.0038067424
000190 68 03 4e 3c 60 2b e5 ba 58 ea ad 3c 38 a9 ac 3b
       0.012574054 -0.001748424 0.021229908 0.005269196
0001a0 e0 b1 b1 bb 16 21 84 bb bb 46 48 bc a8 57 08 3c
       -0.0054228157 -0.0040322645 -0.012223895 0.00832168
0001b0 ea fe 86 3b 51 fb 9e bb ca 64 32 3b 1a 53 73 bb
       0.0041197436 -0.0048517366 0.002722072 -0.003712839
0001c0 27 ce ba ba 83 33 52 ba d1 46 b2 3b dc 4f 96 bb
       -0.0014252112 -0.000801854 0.005440571 -0.0045871567
0001d0 95 63 c9 3b 34 b7 a1 39 6a 58 0d bb 6d cb bc ba
       0.0061459043 0.0003084481 -0.0021567591 -0.0014403887
0001e0 3e 4e 86 bb e3 70 1f 3b 23 2b b0 bb 54 26 41 bc
       -0.0040986827 0.002432876 -0.005376236 -0.011788923
0001f0 02 2e 31 3c 2e 2f d5 b7 fd 5b 2f bc 25 e7 b4 bb
       0.010814192 -2.5413548e-05 -0.010703084 -0.0055207186

linear3.weight f4 [48, 128]
000000 68 05 ac bc 76 68 4f bd f0 09 a4 3b 59 d9 e5 3c
       -0.020998672 -0.05063673 0.0050060675 0.028057741
000010 cf 2c f9 3c de 1b 99 3d 24 e6 a1 bd 59 6f 33 bd
       0.030416874 0.07476018 -0.07905224 -0.04380736
000020 a2 d3 5a bd 2a d1 88 3d 2d ea 1c bd ce 6d ea ba
       -0.053424485 0.0668052 -0.038309265 -0.0017885508
000030 7b 4a a0 bd 0b 13 01 bd 97 3e a0 bd 67 04 c0 3c
       -0.07826706 -0.0315123 -0.07824438 0.0234396
000040 85 25 91 3b 6b c6 1b 3d b3 5e 41 3c ba e3 b0 3c
       0.0044295215 0.038031023 0.011802363 0.021592963
000050 3f 6c 1d bd af 4d 46 bd 69 aa 4d ba 1d a1 b5 3d
       -0.03843331 -0.04841393 -0.00078455225 0.088686205
000060 c5 f1 fa 3c 54 b5 70 3d 7d e5 df 3d e3 4f 76 bd
       0.030632863 0.058766678 0.10932443 -0.06013478
000070 93 47 7e bd e6 a3 d8 bb d1 1a 51 bd 72 5d ac ba
       -0.062079977 -0.006611335 -0.051050965 -0.0013150407
000080 fe 30 97 3c e4 99 a1 3c b6 64 94 3c 28 16 d7 3d
       0.018455978 0.019726701 0.018114429 0.10502273
000090 83 f1 a8 3d 6a 21 92 bb 65 7a 79 bd f4 e1 fd 3c
       0.0824919 -0.0044595497 -0.06090774 0.030991532
0000a0 55 5c 7c bd f8 6f a3 bc e2 d6 06 bc ac 6f a0 3d
       -0.061611492 -0.019950852 -0.008229943 0.078338
0000b0 c8 73 a7 bb 80 4d b9 3d 53 45 56 bc b6 ec 85 3c
       -0.0051102377 0.09047985 -0.013078052 0.016348224
0000c0 ab 92 79 3c d5 cb 14 bc ef 71 13 3d 64 e6 96 bd
       0.015232722 -0.0090818005 0.035997327 -0.07368162
0000d0 ec 0e 34 3c 07 39 54 bd 05 66 81 3c 05 01 a2 3d
       0.010989886 -0.051812198 0.015795717 0.07910351
0000e0 7d 2b 54 bd a4 6e 83 bd 24 9c 1d 3d 6e 2a f3 3c
       -0.051799286 -0.064175874 0.038478985 0.029683318
0000f0 70 ae b1 bc 36 41 1e 3d db c6 79 3d fc 29 2d bd
       -0.021689624 0.03863641 0.06098066 -0.042276368
000100 e8 92 15 3c 6c 42 69 3d 37 8f 9a bd e3 81 a7 bd
       0.009129263 0.05694811 -0.07546847 -0.08179071
000110 e7 6e 33 3c bf 0a 8d bd e6 2d 0e bd 24 c4 36 3d
       0.010951734 -0.06886815 -0.03471174 0.044620648
000120 1d 35 62 3c f5 ce 28 3d 1b 5f 1b 3d 17 34 8e 3d
       0.0138066085 0.041212995 0.037932497 0.06943529
000130 06 87 c1 3d 1e fa 12 bd 33 53 95 bc b0 da 2d bc
       0.09449582 -0.03588306 -0.018228149 -0.010611221
000140 96 d5 3b bd d0 55 f8 3c e9 e7 22 bd 12 6d fc bc
       -0.04585799 0.030314356 -0.039771948 -0.030813728
000150 ca a5 3c bb 26 7b 36 bd 9e ea b1 bc 0a b0 55 3d
       -0.0028785341 -0.044551037 -0.02171832 0.052169837
000160 93 de 57 3a e8 46 67 3d 45 df 3c bd e9 8e 66 bb
       0.0008234765 0.056464106 -0.046111364 -0.0035180396
000170 e4 99 24 3c 14 fe 66 bd b2 25 0e bc 9c 8e 8a bc
       0.010046456 -0.05639465 -0.008675979 -0.016913705
000180 d6 17 20 3d 71 57 ab bd 6e 92 54 bd 01 e9 56 3d
       0.03908523 -0.083662875 -0.05189746 0.052468304
000190 ad 4f 71 3c 82 3b 23 bd 2d 73 bb 3c fe c7 ab 3c
       0.014728469 -0.039851673 0.022882069 0.020969387
0001a0 47 4e 0f bd 4b 08 5d bd e4 60 91 bd 47 bb 20 bd
       -0.03498676 -0.053962987 -0.070985585 -0.0392411
0001b0 85 d0 88 bc cd c0 cb 3a 39 77 56 3d df 60 3c 3d
       -0.016700992 0.001554513 0.052359793 0.04599082
0001c0 db 60 d9 3c 5d 98 b0 3c 96 f1 5a bd d4 5c 4a bd
       0.026535442 0.021557027 -0.05345305 -0.049404934
0001d0 04 8d 92 bd 7e b1 a3 3d c0 0a be bd 27 6e 2e 3d
       -0.07155803 0.07992838 -0.09279394 0.04258552
0001e0 89 2c d3 3c 35 37 c3 3d 81 b3 33 bb e8 56 06 3d
       0.025778072 0.09532014 -0.0027420225 0.032797724
0001f0 e1 d8 2f bd e4 74 2a bd b0 1d 82 3d 05 62 27 3d
       -0.04293144 -0.04161538 0.06353319 0.040864963
000200 19 84 65 bd 12 31 ad 3c 4c 3b 08 bd 8d 9b a1 3d
       -0.05603418 0.021141563 -0.033259675 0.07890997
000210 a2 9e 90 bd d9 c1 0d bd df 16 36 3c bc 2e 10 bd
       -0.07061507 -0.034608696 0.011113851 -0.03520082
000220 56 be 95 bd 43 16 7d 3d db a9 27 bd 75 9d 29 bd
       -0.07311694 0.06178881 -0.04093347 -0.04140993
000230 2d 93 f6 bc 3b ee 33 3d bd 2b 19 3d 19 eb a5 3d
       -0.030099476 0.043928366 0.037395228 0.08101482
000240 b4 8e c3 bc 7a 7d 63 bd b1 59 81 3d aa b6 a3 3d
       -0.023871757 -0.055539586 0.063159354 0.07993825
000250 ca 9a 70 3d fe 70 ff bc 0c b6 7d bd aa ba 70 3c
       0.05874137 -0.031181809 -0.06194119 0.014692942
000260 d5 c5 4c 3d ac fe 1d 3d 12 10 ac 3d de b9 59 bc
       0.049993355 0.038572952 0.08401503 -0.013288943
000270 bd 55 6b bd fd 88 84 bd 1a 57 62 bd 8d 08 f2 bc
       -0.057454813 -0.06471441 -0.055258848 -0.029545093
000280 3b 7e 0b bd af 46 26 3c 03 6d 82 3c d1 4f 97 3d
       -0.03405593 0.010148688 0.015921121 0.07388271
000290 d8 8a 7e ba 1d 23 f1 bb 31 62 8e 3d d8 cc 70 3d
       -0.00097100204 -0.007358922 0.06952322 0.058789104
0002a0 a4 b4 38 bd 06 32 19 bc 5d 28 b9 bd 6b 2d a0 bd
       -0.045094147 -0.009350305 -0.09040902 -0.07821163
0002b0 33 54 54 bc c6 43 56 3d b5 27 35 3d d8 18 6a 3d
       -0.012959528 0.052310728 0.04422732 0.0571526
0002c0 6c 45 7e bd 80 c5 1a 3d 76 f8 72 3c f6 17 a2 bd
       -0.062077925 0.037786007 0.0148297455 -0.079147264
0002d0 ab 30 5e bd 41 14 ce 3c 7e d3 55 3d 6c 19 45 bd
       -0.054245632 0.025156142 0.052203648 -0.048119947
0002e0 ce 3a 61 bd ce 64 19 bd 49 d8 0b bd b2 94 e5 3c
       -0.05498772 -0.03744965 -0.034141812 0.028025005
0002f0 09 a9 ba 3c e7 02 ae bc 0e db 5f bb 9f d1 7d 3d
       0.02278568 -0.021241618 -0.0034157666 0.06196749
000300 c0 bb 03 3d d4 8f 4e 3d fd 7f 17 3d 92 9f d1 bc
       0.032161474 0.050430134 0.036987294 -0.025588784
000310 df c6 28 3d e7 77 90 bd 5a 08 8b bd 1c 40 9c 3d
       0.041205283 -0.070541196 -0.06788702 0.076294154
000320 af 67 0d ba 8c 82 df 3b 46 03 93 bc 8e 4d 30 bd
       -0.0005394173 0.0068209823 -0.017945897 -0.043042712
000330 7b 0d 8e 3d d3 42 42 3d 47 f7 8a 3d 5c 76 96 bd
       0.06936165 0.04742701 0.06785446 -0.07346794
000340 99 ba 85 bd bc 19 09 3d 9a 67 a7 bc 8d 6a 24 bd
       -0.06529731 0.033471808 -0.020435143 -0.040140677
000350 b1 d8 c1 3d c6 60 30 3d e2 79 64 3d 92 39 25 bd
       0.09465159 0.04306104 0.0557803 -0.040338106
000360 65 0b 31 3d 39 58 bd bc f7 33 43 3d d2 59 b6 bd
       0.043223757 -0.023113357 0.04765698 -0.089038506
000370 b3 a9 bf 3d 4c ab 27 bd 73 62 01 3d f0 4b d1 3c
       0.093585394 -0.040934846 0.03158803 0.025548905
000380 ac b3 f6 bc 63 9b 8a 3d 2e 07 ff 3c 99 62 a0 3c
       -0.030114971 0.06767919 0.031131353 0.019578265
000390 23 76 ca bc 1a 30 11 3d ac aa 6c 3d 58 27 46 39
       -0.024714535 0.035446264 0.057779953 0.00018897408
0003a0 81 89 92 bd b9 70 26 3d 77 af ad 3c b7 56 8b bd
       -0.07155133 0.040634844 0.021201832 -0.06803649
0003b0 95 43 9b bc 39 17 bf bd 44 45 7c bd 1d b2 80 bd
       -0.018953124 -0.09330601 -0.061589494 -0.062839724
0003c0 ca 41 9d 3d 26 9e 32 bd 96 84 b9 3c e0 3f aa bd
       0.07678564 -0.043607853 0.02264623 -0.083129644
0003d0 12 10 95 3d ad c1 9e 3d 82 a4 74 bc 87 38 11 3d
       0.07278456 0.077517845 -0.0149318 0.0354543
0003e0 b9 dd 81 bd ea 72 f9 3a a7 aa b5 bc 5d 79 ad bd
       -0.06341118 0.001903144 -0.0221761 -0.08470414
0003f0 9e b6 9e 3c a5 f1 a0 bd 6e 53 62 3d e2 f2 86 bd
       0.019374188 -0.0785859 0.055255346 -0.06589295

linear3.bias f4 [48]
000000 f7 bd a8 3d 15 44 a1 3d cc 3d b8 bc 83 de 4c bd
       0.08239358 0.07874314 -0.022490405 -0.05001689
000010 e4 52 b4 3d e1 c7 ad bc a2 a4 93 3d 82 5d cd 3c
       0.08804873 -0.021213474 0.072091356 0.025069002
000020 0a dd e4 3c 4d a7 a3 3c b9 18 b7 3d 63 d9 d1 bb
       0.02793743 0.019977236 0.08940262 -0.0064040883
000030 94 74 02 bc ae 60 60 3d b8 63 2c bc 49 77 68 bd
       -0.007962365 0.0547797 -0.010521822 -0.056754384
000040 89 7e 7b bd 1b ac 32 3d 60 ad 3a 3d 63 a3 ee bc
       -0.06139997 0.043621164 0.0455755 -0.029130643
000050 b7 a4 93 bc 34 10 82 3a eb b2 25 3d c0 51 05 3d
       -0.018022878 0.0009923042 0.040453833 0.032548666
000060 bb af e0 3c 33 96 52 bc 5e 8d a8 3d 5a 31 a6 3d
       0.027427545 -0.012853193 0.08230089 0.08114882
000070 58 16 b4 3d a9 28 59 3d 5c bf 3f bd 5c 37 23 bc
       0.08793324 0.053017292 -0.046813354 -0.009961929
000080 af 17 11 3c a2 f3 b7 3c 42 e9 82 3d e0 44 33 3d
       0.008855744 0.02245504 0.06392147 0.043766856
000090 4e b0 71 3c 53 69 7e bd 73 14 fc bc 96 b9 47 bd
       0.014751507 -0.062112164 -0.03077147 -0.048760973
0000a0 2f 2b 26 3b 0a 31 67 bd ca cc 5a 3d 14 78 7f 3d
       0.002535533 -0.05644325 0.05341796 0.062370375
0000b0 04 df bc bb 11 19 76 bd f5 cb 69 bc 58 30 95 bd
       -0.00576389 -0.0600825 -0.014269819 -0.072846115
