第二章-回归模型/model_weight/mlp_tanh.pth (torch, 143122 bytes, 6 tensors)

linear1.weight f4 [128, 96]
00000000: 05f3 5ebc 33f2 e93c faea 2bbd 0ce7 8f3d
00000010: 14b3 c53d 0454 81bd 7de7 c53d e1e9 f53c
00000020: 3920 a33d b5c4 bc3c 44cf 5b3d 9c86 14bb
00000030: 5344 ac3d b57b e43c ee90 2fbd 75cf 2a3d
00000040: 92ff 2dbd df7e 513b af00 18bd c1ae a73d
00000050: 560a 9cbd 62bc 02bd 150c bdbc 2239 4abd
00000060: b779 593c e55e b3bd cc8d c83d 210a 9bbd
00000070: cff9 b13d 344b de3c 80ed c4bc ebfa 923d
00000080: 5435 cb3c 69da b93d c78b af3c 6fac bcbc
00000090: 6253 143d 9364 7dbc 4c8e 4f3d 2111 d03d
000000a0: 4fda 833d 2a3d 0dbd 9720 853d 6ab5 b93c
000000b0: 1840 683d a584 70bd 5884 c5bd 41d6 1fbd
000000c0: c356 98bd b496 a93d 8b7c 0d3d 1c8b 303d
000000d0: 8f2d 273d abfb 09bb b02a b23d ee2a 99bd
000000e0: eea2 653c 37ff 99bd 49e3 243d efd8 2abd
000000f0: b3b7 243d 8a12 e3bc 0879 bc3d 6564 8abd
00000100: bad5 57bd b85d 8dbd 69e6 ce3d 9c96 b73c
00000110: 9b66 e13d 3ff0 c7bd 74e3 b5bd 9790 c2bd
00000120: 9641 6abd 831c bb3c 3889 463d 0c0c 873d
00000130: b817 29bd 8e6f b5bd 3e7e 863d daf4 75bd
00000140: de1b 973d e33d 2dbd b88d 933d 4fb5 cbbd
00000150: 11af 1dbd dbcb 2b3c cfb0 103d d3db 40bd
00000160: 94f3 9a3d cd88 4b3d 5948 70bd cecf 99bd
00000170: 0eb9 e13d 0bed 6bbd 81d1 9bbc f028 01be
00000180: 39b7 64bd 2339 643d 907e 28bc 6ec3 1bbd
00000190: 594e c13b ebc3 03bd e3a3 a8bd e654 aebc
000001a0: 6ec6 b6bd 00f3 01bd c1bc d23d 16f5 5a3d
000001b0: 8398 093d d015 77bd a517 88bd e3d2 cd3a
000001c0: 114d 963c 114c 6abd fb9c 2bbd fd9a 0abd
000001d0: f7ad 1f3b b90d 48bc 037c 72ba 0d8b 40bd
000001e0: 8c6c 85bd 1c9c 16bd 898f e8bc b72a 74bd
000001f0: 0910 c13d 84cf 98bb 5430 c53d fb0d 433d
00000200: 9021 9ebd 5276 ac3d 84ab 95bc 72ee dcbc
00000210: 0690 9dbd c8c7 b4bd 9869 193d 66cb 72bc
00000220: 969a 3e3d 20f1 a0bd c6e2 ad3d 8d87 90bd
00000230: 1928 e7bb 0eb6 b73c 1c14 803d 92c4 a73d
00000240: 89fc d33d 0e4d aebd 22a3 163d eb08 58bd
00000250: e2ee 353b 006c b5bd e8ec d53d e26a a7bd
00000260: 3d65 813d 24fa f53c e9f8 2f3d fc70 87bd
00000270: 3025 d33d 9ab5 063c 4605 bb3c aa25 e0bd
00000280: c347 5b3d 21be 16bd 00fb 0dbd 2977 8b3d
00000290: 9b85 1a3d a15c 9dbd 93f5 11bd dc89 bfbc
000002a0: e324 943d 728c 32bd 33d1 2cbd d90a 68bd
000002b0: c687 71bd 8f0b 863c d702 c83d 8b8c e9bd
000002c0: af14 313d 4461 0a3d 7463 213d a5d2 68bd
000002d0: edfd 963d 914f ed3c cbb4 763d bf7c 28bd
000002e0: 5573 82bb 0b73 35bc 8100 eb3b 1b7d 4cbd
000002f0: 0b0f bb3d d516 8b3d cfa2 923c f309 39bd
00000300: 537e 983b 80c6 f03b 26f8 d73c d90c 1b3d
00000310: 3824 b9bd 054e ffbc 81fe b23d 8f15 3a3d
00000320: cb99 16bb 2347 68bd 3780 75bd bdb9 b6bd
00000330: ec88 04bd aa10 0e3d deea 873d 9694 343d
00000340: efd0 b4bd 35e1 80bd 2212 72bc e112 c63d
00000350: afad 8f3c 50d7 fdbc cc90 423d 98b1 38bd
00000360: 75ac 78bd 6671 8e3d 6a3d 35bd 29d7 e6bc
00000370: a2c9 cbbd f1b1 713d 7d7e a13d f555 e63c
00000380: 3599 8bbd 2683 debd 2d7a a5bd d40f 893d
00000390: 792c 4c3d 1636 9b3d c66d 633d 9e8c 763c
000003a0: d2e9 653b dd1d b6bd aa81 a9bd 00ff dabd
000003b0: 5ef8 403d f1fc 82bd 1385 63bc 1a31 91bd
000003c0: 9d17 46bc 8130 abbd e035 80bd 9d58 af3c
000003d0: d039 edbc 9126 523d 53ae f0bc 61f7 b1bd
000003e0: 57bb 81bc 19dc 77bd 7fa3 f2bc ba66 ddbd
000003f0: 9b23 693d cb0d a8bd b1ce 513d 7e4f 053d
-0.013607745 0.028557872 -0.041972138 0.070264906 0.09653297 -0.06314853 0.096632935 0.030018749
0.0796513 0.023043016 0.05366446 -0.0022663241 0.08411469 0.02789102 -0.042862825 0.041701753
-0.04248006 0.003196649 -0.037110027 0.081876285 -0.07619159 -0.031917937 -0.02307705 -0.049370892
0.013273648 -0.08758334 0.097926706 -0.07570291 0.08690225 0.027135469 -0.02403903 0.07176765
0.024805702 0.090748616 0.021428956 -0.023031441 0.036212333 -0.015465873 0.050672814 0.10159517
0.064381234 -0.03448216 0.06500357 0.022669513 0.05670175 -0.05872025 -0.09644383 -0.039022688
-0.074384235 0.082806975 0.0345426 0.043101415 0.040814932 -0.0021054547 0.08699548 -0.07478891
0.014015896 -0.075193815 0.04025582 -0.04171079 0.04021425 -0.027718801 0.092027724 -0.0675743
-0.05269406 -0.06902641 0.10102541 0.022410683 0.110058986 -0.0976262 -0.08881274 -0.095002346
-0.057191454 0.022840744 0.048470706 0.06594095 -0.041282386 -0.08859168 0.065670475 -0.06004796
0.07378362 -0.042295348 0.07204765 -0.09946691 -0.038497034 0.010485615 0.035324868 -0.04708464
0.0756599 0.04969101 -0.058662746 -0.07510339 0.110216245 -0.05759911 -0.019020798 -0.12613273
-0.055838797 0.055718552 -0.010284081 -0.038028173 0.0058992323 -0.032169264 -0.08234384 -0.021280717
-0.08924566 -0.031725883 0.10289908 0.05345639 0.033592712 -0.060323536 -0.06645135 0.0015703108
0.018347295 -0.05720145 -0.041897755 -0.033839215 0.0024365166 -0.012210303 -0.00092500466 -0.04700761
-0.06514844 -0.03676997 -0.028388755 -0.05961105 0.094268866 -0.0046634097 0.096283585 0.047620755
-0.07721245 0.08421005 -0.018270262 -0.026969168 -0.07693486 -0.08827168 0.037454218 -0.014819002
0.046534143 -0.07858491 0.08490519 -0.07057104 -0.0070543406 0.022425678 0.062538356 0.0819179
0.10350902 -0.08510791 0.03677667 -0.05274288 0.0027760793 -0.0885849 0.10445577 -0.08174683
0.06318138 0.030026503 0.04296199 -0.06613347 0.10309827 0.008222008 0.022829663 -0.10944684
0.053535234 -0.036802415 -0.0346632 0.06809837 0.037725072 -0.07683683 -0.03563459 -0.023381166
0.07233598 -0.04359097 -0.042191695 -0.05665097 -0.058967374 0.016362933 0.09766167 -0.114037596
0.043232616 0.033784166 0.039401487 -0.05684151 0.07372651 0.028968604 0.06023101 -0.041134592
-0.003981034 -0.011074792 0.007171691 -0.049923997 0.091337286 0.06791464 0.017899899 -0.045175504
0.004653731 0.007347882 0.026363444 0.03785405 -0.09040111 -0.031165132 0.08739949 0.045430716
-0.0022979851 -0.056708466 -0.05993673 -0.089221455 -0.03235714 0.03468386 0.06636594 0.044087015
-0.088289134 -0.06292955 -0.014774831 0.096715696 0.017538873 -0.030986458 0.04750137 -0.04509124
-0.060711343 0.06955223 -0.044248022 -0.028178768 -0.09950568 0.05900759 0.07885454 0.02811716
-0.06816331 -0.10864858 -0.08079944 0.06692472 0.0498471 0.075786754 0.05552461 0.015048174
0.0035081995 -0.08892415 -0.082766846 -0.10693169 0.04711186 -0.06395901 -0.013886708 -0.070894435
-0.012090591 -0.08358861 -0.06260276 0.021404559 -0.028958231 0.05130631 -0.02938 -0.08689762
-0.0158364 -0.060512636 -0.029618977 -0.10810609 0.05691872 -0.08205756 0.051222507 0.032546513

linear1.bias f4 [128]
00000000: 76dd 57bd afab a6bd a2dd 743d 4804 29bc
00000010: 2045 f8bd fce4 77bc 89a0 74bd a3cb 403d
00000020: 7852 ffbc fa02 57bd b5c7 4ebc a189 f6bc
00000030: cad9 8c3d 03da 6c3c d920 a2bd cb3f 27bd
00000040: 5c78 ac3d d704 acbd 8af2 2bbd fcf9 e13d
00000050: ca0a f6bc 2359 723d 91d0 8cbd b1d2 d13d
00000060: 4753 a43d 076d ecbc 9215 cfbd f912 c7bc
00000070: 9c1d 803c 97c1 e7bc 5386 aebd 1f32 f8bd
00000080: fad5 a03d 19c5 923d c46c 1abd 72d4 823c
00000090: c7f1 8abd 2301 383d f881 7cbd fc3b 9bbd
000000a0: e14c bcbc 7c80 b6bc 6709 6f3c 8dda c3bd
000000b0: 8117 4bbd 76ca 20bd bd8b 133c e2ea 0f3c
000000c0: 37b1 90ba 7cde 833d d6f9 90bd 16f8 6dbb
000000d0: 72be ce3d ba2e 613c 3dfc 63bd 776d 633d
000000e0: 99e0 8cbd 1532 043d f183 a03d 7441 f2bb
000000f0: 9dc3 993d 2dbb 9c3d 3d36 863d 3b63 68bc
00000100: 6ab4 7e3c 7ad3 a63d be57 493d c972 b9bd
00000110: 86e1 aa3d 3a6b c43d 7a05 973d 95ac 823d
00000120: e4ca b43d 9e30 64bd 409a 1bbd b1a4 623d
00000130: 9d83 153d 0796 203d 70a1 b1bb 24df b2bd
00000140: 37fa 803d f6c6 8bbd 589f e3bd 8e29 963d
00000150: 9477 063d 7e2d 1d3d 4441 58bd b91d 3d3d
00000160: 760b 003d eccd 8c3d 8e9a d23c 2788 d43d
00000170: a8dc fcbc 0804 b03d 0574 b23d 392d 6fbc
00000180: 4a24 73bd c8f4 ab3b d934 953d f9c1 94bd
00000190: 241c 9ebc 61f5 8a3d ffe5 063d 146e d73d
000001a0: 9799 c63c b6fd d9bb f3a3 a33b 4328 27bd
000001b0: 9876 b4bd b345 2abd 3bec c1bd bf80 a23d
000001c0: eedc 013a 0491 3c3b 61c7 70bc ddb3 3dbd
000001d0: 6ec8 88bd b5d5 75bc fa0c 0e3d e66d 4abd
000001e0: a57d 78bd c9e6 ad3d bb3a 4abc 3313 803d
000001f0: d970 df3d b939 fc3d 288a 93bd 1469 f13c
-0.052701436 -0.08138215 0.059781678 -0.010315962 -0.121225595 -0.015130278 -0.05972341 0.047069203
-0.031167254 -0.052493073 -0.012620856 -0.030094923 0.068774775 0.014456275 -0.079164214 -0.040832322
0.08421394 -0.083993606 -0.04197935 0.11034009 -0.030034442 0.05916704 -0.068757184 0.10245264
0.080236964 -0.028860582 -0.10111536 -0.024301039 0.015639119 -0.028290553 -0.08521714 -0.12118935
0.07853313 0.071665 -0.037701383 0.015970442 -0.067843966 0.04492296 -0.061647385 -0.075798005
-0.022985877 -0.022278063 0.014589644 -0.0956317 -0.049582962 -0.03925558 0.009005484 0.008784028
-0.0011039142 0.0643892 -0.070789024 -0.00363112 0.10094918 0.013744051 -0.055660475 0.055524316
-0.06878776 0.032274324 0.07837666 -0.0073930565 0.075080134 0.076528884 0.06553314 -0.014183815
0.015545944 0.08145805 0.049155943 -0.09055097 0.083437964 0.09590764 0.073740914 0.06380574
0.08827761 -0.055710427 -0.0379889 0.055332843 0.03650247 0.039205577 -0.005420856 -0.08733967
0.06297725 -0.06825058 -0.11114377 0.07332145 0.032828882 0.038373463 -0.052796617 0.046170924
0.03126093 0.06875214 0.025708463 0.103775315 -0.030866936 0.08594519 0.08713535 -0.014598184
-0.05936078 0.005247686 0.072854705 -0.0726356 -0.019300528 0.067850836 0.032934185 0.105190426
0.02424316 -0.006652559 0.0049939095 -0.04080988 -0.088116825 -0.041570377 -0.094688855 0.079347126
0.00049538806 0.002877296 -0.014695973 -0.04631411 -0.06678854 -0.015004565 0.034680344 -0.049421214
-0.0606667 0.084912844 -0.012343104 0.06253662 0.10910196 0.12315697 -0.072040856 0.02946905

linear2.weight f4 [128, 128]
00000000: c9fc 9ebd d422 87bb 4746 10bb c301 29bd
00000010: d29e 083d 7ddf 22bd b414 4e3d d292 b33b
00000020: c4c8 8e3d 5aee 453d 5903 d23b eba9 3f3c
00000030: 40f6 3ebd 2a9e 62bd 92b7 513d 7150 913d
00000040: ab79 873c 288d 913d 064e f23c 913d 653d
00000050: 001a eabc 5b99 883c ca10 babd 4c5d c8bd
00000060: b468 193d adec 8abd 70a9 8e3d 7dc8 a0bd
00000070: 5935 69bd d6fe a3bd 0caa 663d 06a2 3dbd
00000080: f784 8abd dbb9 683d 73ea 61bd 3ff3 cbbd
00000090: b76c 473d b50f 943d 6228 a13d 52d0 5c3d
000000a0: 60af acbd 1fa5 02bd d007 0dbd 8048 b9bd
000000b0: 0b8e 9e3d 5462 42bd 1e01 7a3c b845 80bd
000000c0: eef5 bc3d 90a1 0d3d 9dd1 743d 5b6a 813d
000000d0: c9a7 a33d b2a2 fb3c 89f5 0ebb 0e2c 03bd
000000e0: 5228 853d c2a2 a5bd 44ca a13d c9f5 233c
000000f0: 2723 87bc b4bc 78bd c85b 6abd b6c7 1f39
00000100: c3f9 5cbd 9d44 403d 4546 8f3c c97b 46bd
00000110: de74 6b3d 28ac b8bc 74da ffbc 8739 0dbd
00000120: d414 e83c 868b c3bd b456 49bd f07d 6d3d
00000130: 9f2f 06bd 80be 10bc 9076 aabd 1471 203b
00000140: f941 ff3c 2f16 f7bc 6480 823c 3d66 ef3b
00000150: 8937 ca3b 409f b73d bc4c 133d f7cc 643c
00000160: 5047 a9bb 5632 623c 4108 113d 5cde 61bb
00000170: c1db 323d 13c5 a53d 3bb3 5f3d 6f00 8cbc
00000180: 19c6 a4bd 3b25 b73c 33fd 36bd 86be c6bd
00000190: e09d 313d faef a2bd 30eb c93d 2606 b9bd
000001a0: c4f1 94bd 3aaa 3a3d 7462 47bc a62a aabc
000001b0: 2c10 1e3d 5904 6ebd 937f 46bd addd b2bd
000001c0: 6f37 ecbc 645e 8ebd cd1a b23d 258e 9bbd
000001d0: b9b8 973b 8102 38bd fbd0 15bc 5824 633d
000001e0: d2eb 813c efc3 d13c 51f5 943c a479 6abd
000001f0: 777d 903d 0781 893d 3e5c 843c 86eb 533d
00000200: df3c 44bd 0373 89bd 6fcb 9fbd e834 91bc
00000210: 7d36 8eb9 3edc 78bd c91a 07bd a55f 01bd
00000220: c43d b33d 1879 6fbc ba1a 873d 5afa 533c
00000230: e4f6 df3c 95dd 6e3d eda0 aabd 29a9 c1bc
00000240: 3f1d 82bd 2790 c13d 2e40 783c c037 43bd
00000250: 97ee 8fbd fd01 5d3d a875 0d3b 7e7f 55bd
00000260: b76f 8ebd a470 61bd ada8 0e3d 0d89 aabd
00000270: 0911 dabb 27f5 3f3d d0d9 753d b65a 103d
00000280: 4d01 ef3a d067 e33c c84d ce3c fe68 663d
00000290: 601b 853c ab1a 7e3d 5178 873d aa9b 84bd
000002a0: 1726 73bd 481b 3a3d 7db1 b43c 4302 4fbd
000002b0: 40a9 0c3d 392b a4bd 0a3f 15bd 1c17 fd3c
000002c0: 7384 8c3b f977 9fbd 3954 313d 8390 693c
000002d0: 231b 3cbc 9012 9dbd 082b 29bd 649e 5f3c
000002e0: c917 5fbd 2e0a b33c 14e8 71bd 7147 b83d
000002f0: 4a87 663d c97c 623d 5d58 8fbc 2e69 cdbd
00000300: 4ceb 2bbd 7f46 42bb f849 d4bd b962 a83d
00000310: 4ee3 b93c f8ac 883d e018 b5bd d167 7ebd
00000320: e466 383c 0f6f 81bb 5a5a 50bd a9cd c03d
00000330: 352c fd3c ea08 64ba bc24 a73d 513d adbd
00000340: 6d1b afbd d2f8 7e3c b352 b53d f4fd 073d
00000350: 88d7 18bd f2c1 913d 8a93 603d b3be d539
00000360: 35fa 603d e426 a93c 2843 1539 44d4 2cbd
00000370: 9a9a 37bd aa20 6dbd f190 10bd 2859 3abd
00000380: 2533 ee3c b3de 8e3c 5b93 91bd 4b4f 91bd
00000390: 4922 3a3d 55a3 6dbd 135d caba 5361 66bd
000003a0: 1cc8 d7bc 5b47 253d 26ec 393c f250 5c3d
000003b0: dcb2 febb 658d 91bd f73d 88ba 6aad 153d
000003c0: bffa fb3c 07b4 d73c 911d d03c 1494 803d
000003d0: 413c 373d aceb 89bc 145d 37bd f723 913d
000003e0: 2237 42bd ac51 a2bd cebf 9e3c 5911 23bd
000003f0: 11ff 8fbd 10e0 b3bd 2140 be3c 872c 8fbd
-0.07763059 -0.004124025 -0.0022014545 -0.041261446 0.033354588 -0.039763916 0.050312713 0.005480149
0.06971887 0.048323013 0.0064090905 0.011698226 -0.04662156 -0.05532662 0.051200457 0.07095421
0.016537508 0.071070015 0.02957822 0.055966917 -0.02857685 0.016674688 -0.090852335 -0.0978342
0.03745337 -0.067834236 0.069659114 -0.0785074 -0.056935642 -0.080075905 0.056314513 -0.046297096
-0.06763642 0.05681787 -0.05515523 -0.09958505 0.048687663 0.072295584 0.078690305 0.053909607
-0.084318876 -0.031895753 -0.03443128 -0.090470314 0.07741936 -0.047457054 0.015259055 -0.06263298
0.09226595 0.034577906 0.059770215 0.06319114 0.07990987 0.030717228 -0.002181383 -0.032024436
0.06501831 -0.08087684 0.07899907 0.01000733 -0.016496254 -0.060726836 -0.057216436 0.0001523782
-0.05394913 0.046940435 0.017489562 -0.048457894 0.0574845 -0.022543028 -0.031232096 -0.03447869
0.028330244 -0.09548096 -0.049154952 0.05798143 -0.03276026 -0.008834481 -0.08323395 0.0024481462
0.031159388 -0.030161945 0.015930362 0.007305889 0.006171171 0.089659214 0.03596185 0.013964883
-0.005165972 0.013805946 0.035408262 -0.0034464812 0.043666605 0.080942295 0.054614287 -0.01709005
-0.08045597 0.02235662 -0.044675063 -0.09704308 0.043363452 -0.07955928 0.098593116 -0.09034376
-0.07272676 0.045572497 -0.012169469 -0.02077229 0.03858964 -0.058109615 -0.048461508 -0.087336875
-0.028835027 -0.06951597 0.08696518 -0.07595471 0.004630175 -0.044924263 -0.009144063 0.055454582
0.015859518 0.025606124 0.018183382 -0.05724491 0.070551805 0.06714063 0.016157266 0.051738285
-0.047909614 -0.0671139 -0.07802474 -0.017725423 -0.00027124948 -0.060756914 -0.03298453 -0.031585354
0.08752015 -0.014616273 0.065968946 0.012938106 0.027339406 0.058316786 -0.083314754 -0.023640232
-0.063532345 0.09451323 0.01515202 -0.04766059 -0.07027929 0.053956974 0.0021585021 -0.05212354
-0.06954902 -0.055039063 0.03482883 -0.083269216 -0.006654863 0.046864655 0.060022175 0.03524276
0.0018234641 0.027759463 0.025183573 0.056252472 0.016248405 0.06203715 0.066147454 -0.06475003
-0.059362497 0.045436174 0.02205729 -0.050539266 0.034341097 -0.080160566 -0.03643707 0.030894808
0.00428825 -0.07786555 0.04329321 0.014255646 -0.011481079 -0.07669556 -0.041300803 0.013648603
-0.054466043 0.02185544 -0.059059218 0.08998001 0.056281365 0.055294786 -0.01749819 -0.10029827
-0.041972443 -0.002964407 -0.10365671 0.08221955 0.022691395 0.06673616 -0.08842635 -0.062110726
0.011255 -0.003950007 -0.050867416 0.094142266 0.030904869 -0.0008698838 0.081613034 -0.08458961
-0.08550153 0.015562253 0.08853664 0.033201173 -0.03731492 0.0711707 0.054828204 0.00040768608
0.054926116 0.020648427 0.00014234765 -0.04219462 -0.044825174 -0.05789248 -0.035294477 -0.045495182
0.029077122 0.017440176 -0.07108184 -0.07095202 0.045442853 -0.058017094 -0.0015439115 -0.05624516
-0.026340537 0.040351253 0.011347806 0.053788133 -0.0077727865 -0.07107047 -0.0010394444 0.036542334
0.030759213 0.02633096 0.025404723 0.06278244 0.044735197 -0.01683601 -0.0447665 0.07086938
-0.04741586 -0.07925734 0.019378569 -0.039811466 -0.07031072 -0.08782971 0.023223938 -0.06990915

linear2.bias f4 [128]
00000000: 61ee 5cbd 6281 9c3d 9e81 a2bd d9d5 8abd
00000010: 4774 2c3c f3f4 67bd ac66 3fbc fe8a 943c
00000020: 135f 47bc 51f7 2bbd 21e9 593d 4f51 f9bc
00000030: a6cc 00bd 39e9 aabd a38c a3bd 32e1 06bd
00000040: 6a95 9f3d 4780 a93d 9de2 0f3d 63f3 36bd
00000050: 695c 3dbd 6d7f 84bd 8a74 083c cb7a 51b9
00000060: 2ec3 733d 7c82 8d3d 2054 833d 1a06 293c
00000070: d740 a43d 1b25 8fbd 0879 a53d 9ff4 9b3d
00000080: d47b 5dbd 09fa 693d 6e5a 92bb 2304 833c
00000090: 3284 6d3c bade 74bd ed0f 8f3d 77e7 763c
000000a0: b536 a7bd 6ac5 73bd 26cb 343c 4584 83bd
000000b0: 920c 40bc 998e 873d 7c4e b53d 7c77 5cbd
000000c0: 2e87 af3d 0632 e7bc 4ce6 0abd 2e69 d43c
000000d0: d883 7c3d 4d1c e8bc b2ab 1dbb 391c a13d
000000e0: 5bc8 993d e228 c53c aaf1 3d3d a5fe 1d3b
000000f0: be7e 14bd d6a6 883d 63bc ec3c 72db 973d
00000100: 21c7 c2bc e614 973d 3153 c83b 5970 2b3d
00000110: e07c 83bd 9adb 8b3d 0992 76bd 9b98 42bd
00000120: 24aa 603d c2de 85bc cdf8 86bd c2f5 293d
00000130: 9771 d83c 6aee 913d 2e34 c83c 419e e43c
00000140: 2c60 26bd d922 89bd 1a21 803d 52d3 e3bc
00000150: 1744 debc aa70 8abd d121 d0bb 88d0 8abc
00000160: dc02 8d3d 3d2f b5bd ec4a 84bd e29a 443c
00000170: 8b41 f9bc 5b04 a3bd 23e6 823d 944c 4a3d
00000180: 43d8 8fbd 8e1d 883d 543b a6bc 4bbf 04bd
00000190: ecb8 4bbd e616 5c3d 3bed db3c 15dc 4fbd
000001a0: d81f fcbc 408f a0bd cc09 95bd d558 5bbd
000001b0: 8453 873d 65dc 7ebd 046c f9bc e61f ce3c
000001c0: a58c 37bc 5f00 9d3d 101f 81bd b813 9d3d
000001d0: ce97 71bd df7d 5ebd dac2 993d b480 413d
000001e0: 2efd 0cbd ee31 64bd a1c1 24bd 18f3 2bbd
000001f0: 27d4 44bd 9e6e c63d 4af9 82bd 5265 82bd
-0.053938273 0.07641865 -0.07934879 -0.067790695 0.01052577 -0.056630086 -0.011682194 0.018132683
-0.012168664 -0.041983906 0.053200845 -0.030434279 -0.031445168 -0.08345265 -0.07985809 -0.032929607
0.0779217 0.0827642 0.035128225 -0.044665705 -0.046230707 -0.06469617 0.008328566 -0.00019977537
0.05951231 0.069096535 0.0641253 0.010316396 0.0802018 -0.06989499 0.080797255 0.07615017
-0.05407317 0.057123218 -0.0044663465 0.015993183 0.01449685 -0.05978272 0.069854595 0.015069834
-0.081647314 -0.05951444 0.0110347625 -0.06421713 -0.011721747 0.06618995 0.0885286 -0.053824887
0.08570705 -0.028222095 -0.033911034 0.02592906 0.061649173 -0.028333807 -0.0024058637 0.07866711
0.07508918 0.024067346 0.046373047 0.0024108079 -0.036253683 0.066724464 0.028898424 0.07414903
-0.023776593 0.07377033 0.006113433 0.04185519 -0.064203024 0.06828995 -0.060197864 -0.047508817
0.05484976 -0.01634157 -0.06590424 0.04149414 0.026421351 0.07125552 0.024438944 0.027907493
-0.04061906 -0.066961 0.062563136 -0.027810726 -0.027132077 -0.0675977 -0.0063516875 -0.016945139
0.06885311 -0.088469006 -0.06459603 0.011999818 -0.030426761 -0.07959815 0.06391551 0.049389437
-0.070236705 0.06646262 -0.020291962 -0.032408994 -0.049736902 0.053732775 0.026846519 -0.050746996
-0.030776903 -0.07839823 -0.07277259 -0.053551514 0.06607726 -0.062221903 -0.030447014 0.025161695
-0.011202966 0.076660864 -0.06304753 0.07669777 -0.058982663 -0.05431926 0.07507868 0.04724188
-0.03442114 -0.05571168 -0.04022372 -0.04197988 -0.048053887 0.09689067 -0.06395204 -0.063669816

linear3.weight f4 [48, 128]
00000000: 04aa 9b3d 1e7e 1cbd f1aa b63d 8b51 9dbd
00000010: 8f2a 773d 9d4e 96bd ce51 c3bd 10c5 27bd
00000020: 1996 2a3d 61f7 4d3d 87e8 34bd 2600 363d
00000030: 8968 77bd 4515 07bd 5ac4 053d 35c1 153d
00000040: f421 bb3d 9bcc 9dbd c6a7 3ebd 96f5 793d
00000050: 3a3f 85bd a176 8cbd 95e9 38bd 0dc4 b73c
00000060: 0f9a 61bd 84aa 96bd af11 aa3b 3c16 103d
00000070: 7d91 043d f8b7 b7b8 1679 843d 280c 4bbd
00000080: ddf8 4739 7fdd a6bc 59d9 1b3b 0391 8dbd
00000090: d043 473d ba7d dc3a 0018 643d 69e7 5cbc
000000a0: 8794 25bd b49e af3c 7360 483d 66d7 873d
000000b0: c452 ee3c bd42 c4bc 81f3 c2bd a4fc 573d
000000c0: f9ad f43c 1276 be3d 6280 c1bd 06ba 04bd
000000d0: b33d c5bd 69cc 6c3b be3c c1bc 3b7e 9f3d
000000e0: af71 38bd 8ce2 bf3c e800 99bd 5605 72bc
000000f0: 8260 98bd c0b4 023c 1330 c83d 25a4 d8b9
00000100: 5e2b 973b 8ad8 0dbc 8632 8f3b 541c e8bc
00000110: 9da5 233d 19dd a53c c9d9 ad3d daae 8c3d
00000120: 282c 643d 7430 a5bd 46a7 92bd 1c13 8bbd
00000130: 71ec f8bc 13c1 90bc 3842 b43d 6cb1 64bd
00000140: e5f5 193c 3567 4ebc f9c9 b43c 9c54 593c
00000150: 4652 f13c 0df4 8abb 8485 4639 7cd1 95ba
00000160: 9b99 83bd afab 533d 1636 a13d 5df6 8ebd
00000170: c9ec 42bc a273 a8bd 9a6b 47bd 1013 f73c
00000180: 4c50 863d 461f 9c3d 9071 4abb 377a a23b
00000190: d9e8 163d 34fb 48bb af69 013d 1984 853d
000001a0: 7811 2b3d 3c37 30bd 7ccf babd 6d9b 12bd
000001b0: b333 80bd 6734 73bd fcac 94bd ad53 90bd
000001c0: c1c2 333c 2125 a73d e281 a0bc d6af 92bd
000001d0: 5de2 963d 8d0d f0bc 39bd 9dbd 4b3f 913d
000001e0: 0140 01bd 5aeb cebd 1a86 17bd 6f84 7cbd
000001f0: 303d a43c 1537 15bc 534a 873d d368 c23d
00000200: b23a 85bd 1c8f 4d3d 5985 a53c caec afbc
00000210: 4bea 69bc 851e c7bd b9a5 823d 1d39 7c3d
00000220: d3bd 17bd 7707 82bb ad56 b53c e070 df3c
00000230: 6713 15bc 712e 4b3d bc94 21bd 64a7 a7bd
00000240: 947c 91bd 7084 403d e063 783d 1c64 79bb
00000250: cee8 6cbd 6ee3 02bd bc91 4ebd b4e9 65bd
00000260: 0c06 d33d 2b12 cbbd c1c6 a23d 78e8 783d
00000270: c526 3b3d 856f 943d b778 943b 621e 1d3c
00000280: 22c4 8fbc f455 ca3d 53c5 793c 4f22 7fbd
00000290: 4486 96bd 7135 abbb 3116 4c3c 0112 193d
000002a0: 79d6 813d daee 583b bdd0 fcbc eeb9 643d
000002b0: 4842 1e3d 9ee7 c73d da8b 0b3d 72ab 4b3d
000002c0: 6683 213d a246 60bd 50f1 81bd c880 f3bc
000002d0: 5d57 8fba 8992 6ebd 4662 85bb a189 003d
000002e0: d5f4 833d 1bb3 8b3d 1cd8 1f3d ea32 66bc
000002f0: af87 a53c d12c 82bd 623d 953d a903 48bd
00000300: 9db6 6b3d 82d7 ad3d 77c1 933d 83e5 683d
00000310: 9c5b 9d3c 4a88 613d 5f51 51bd a1bd 97bd
00000320: 5be4 47bd 2389 c1bd f430 893c 4f5a 28bd
00000330: 41ef abbc a59f 8cbd fdcf 43bc c471 a5bd
00000340: 8ed0 bcbd 8884 a23d 6af0 b6bd 8104 60bd
00000350: 7555 47bd 4af6 8fbd c9a8 1bbd 54f0 bebc
00000360: 467b 7b3b 6e44 923d 5963 a63d 8305 cb3c
00000370: 84aa 3bbd 2e57 c3bd c040 d93c 5230 d0bd
00000380: 925d c7bd 45d1 5bbb 9bce 6ebd 4c04 9c3d
00000390: e507 fcbb d3cb a93d b248 993d a857 613c
000003a0: 6c2f f5bc f11a ad3d 92be 53bd e3d6 a83c
000003b0: 8415 c0ba 67a8 aebd c433 5e3d 847a 833c
000003c0: c8a7 8c3c ecd5 e5bc 7b4d 45bd 122b 9a3d
000003d0: 001d 45bd 0000 5e3c c4d1 bc3d 7030 c63d
000003e0: 5473 663d f8f8 783c 10d7 513c 475f d4bc
000003f0: 626f 5b3d c0ab 8bbd 871f 81bc 50a9 80bc
0.07600787 -0.038206212 0.08919323 -0.07681569 0.06034332 -0.07339213 -0.095370874 -0.040959418
0.04164705 0.050284747 -0.044167068 0.044433735 -0.060402427 -0.03297927 0.03265796 0.03656121
0.091373354 -0.07705041 -0.04654672 0.061025225 -0.065062 -0.06858564 -0.045144636 0.022432351
-0.055078562 -0.07356742 0.0051900963 0.035177454 0.03236531 -8.760387e-05 0.06468408 -0.04957214
0.00019070828 -0.02036929 0.0023780672 -0.069124244 0.048648655 0.0016822137 0.05568695 -0.013482907
-0.04042485 0.02143798 0.048920106 0.06632881 0.0290922 -0.023957605 -0.09519101 0.05273117
0.029868113 0.09299864 -0.09448315 -0.03240397 -0.09630909 0.003613258 -0.023588534 0.077877484
-0.045030292 0.023423456 -0.07470876 -0.01477178 -0.074402824 0.0079776645 0.097747944 -0.00041321028
0.004613324 -0.008657584 0.0043700365 -0.02833382 0.039952863 0.02024703 0.08488805 0.06869288
0.055706173 -0.08065882 -0.07160811 -0.06790754 -0.030386182 -0.01767019 0.08801693 -0.055833265
0.009397005 -0.012597849 0.022068964 0.013264801 0.029458176 -0.004240519 0.0001893249 -0.0011430229
-0.06425782 0.051677402 0.07871644 -0.06980584 -0.011897274 -0.0822518 -0.0486866 0.030160457
0.06558284 0.076231524 -0.0030890442 0.004958417 0.036843155 -0.0030667307 0.03159493 0.06519336
0.041764706 -0.043021426 -0.09121606 -0.035792757 -0.06259861 -0.059376147 -0.07259557 -0.0704721
0.010971726 0.08161379 -0.019593183 -0.07162444 0.07367394 -0.029303337 -0.07702107 0.0709215
-0.03155518 -0.101034835 -0.036993124 -0.061649736 0.020048708 -0.009107371 0.06605973 0.0949265
-0.06505336 0.050185308 0.020205187 -0.021475215 -0.014277051 -0.09722618 0.06379265 0.061577905
-0.037046265 -0.003968175 0.022136057 0.027275503 -0.009098864 0.049604837 -0.039448485 -0.08186224
-0.071038395 0.047001302 0.060642123 -0.0038054055 -0.057839207 -0.031955175 -0.050431952 -0.05613108
0.10303888 -0.09915575 0.079480655 0.060768574 0.04569127 0.07247833 0.004530992 0.009589763
-0.017549578 0.098796755 0.0152448 -0.06228858 -0.07349828 -0.0052248766 0.012456463 0.037370685
0.063397355 0.003310135 -0.030861253 0.05584138 0.03863743 0.09760974 0.03406892 0.04972405
0.039431952 -0.05475486 -0.06344855 -0.029724494 -0.001093607 -0.058245216 -0.004070553 0.031381253
0.064431824 0.06821271 0.039024457 -0.014050225 0.0202063 -0.06356204 0.072870985 -0.048831616
0.0575472 0.084883705 0.07214635 0.056859504 0.019208722 0.055061616 -0.051102992 -0.07409216
-0.04880176 -0.09449985 0.016746975 -0.04110175 -0.020988109 -0.06866387 -0.011951444 -0.0807834
-0.09219466 0.079354346 -0.08932574 -0.054691795 -0.048665483 -0.07029398 -0.038002763 -0.023307957
0.0038373037 0.07141958 0.08124418 0.024782902 -0.045816913 -0.095381126 0.026520133 -0.10165466
-0.09734644 -0.0033541482 -0.058302503 0.07618007 -0.007691371 0.082908295 0.07484569 0.013753809
-0.02992984 0.08452404 -0.051695414 0.020610278 -0.001465485 -0.08528214 0.054248586 0.016049631
0.017169848 -0.028056107 -0.048169594 0.07527746 -0.04812336 0.013549805 0.09219697 0.096772075
0.05626233 0.0151960775 0.012807623 -0.025924338 0.05357302 -0.06819868 -0.015762104 -0.015705734

linear3.bias f4 [48]
00000000: e233 543d 26f9 6b3c 1ea8 983a af87 80bd
00000010: ba2d 113d 34ca 81bd 7f48 fabb a523 203b
00000020: 0024 8d3d 368c 66bd fd8c 9ebc 9553 2d3d
00000030: af44 e33c 40d4 8b3c 5336 123d fe7b 7b3d
00000040: 237d 963d 2b05 a83d 2c96 ca3a 49e0 9a3d
00000050: cfe0 94bc b81d 7a3d fb14 613d 97d2 84bc
00000060: 2d81 6ebc 89c2 79bd fc7e da3c 1f0e 59bc
00000070: 51af ae3c 9f2c 4b3d e3ab 723d 0820 aebc
00000080: 5acb 683d cfcf babc a444 3fbc 5a1e 1fbd
00000090: 3bba 8a3d 6a79 b83b 91e9 1cbc d7c6 06bd
000000a0: 167b 563d fcc0 a83b d2e9 553d 5852 74bd
000000b0: adbc 6ebd a47e 94bc 1253 903d d079 8abd
0.05180729 0.014402663 0.0011646783 -0.062758796 0.035444 -0.06337395 -0.0076380367 0.0024435308
0.06891632 -0.05628606 -0.019354338 0.04231604 0.027742712 0.017068982 0.03569634 0.061397545
0.07348087 0.08204111 0.0015456132 0.0756231 -0.018173603 0.0610635 0.05495165 -0.016213698
-0.014557165 -0.06097654 0.026671879 -0.013247996 0.021323832 0.0496031 0.059245955 -0.021255508
0.056834556 -0.022804169 -0.01167408 -0.038847305 0.06773802 0.005629708 -0.009577171 -0.032904472
0.052363478 0.0051499587 0.05222494 -0.05964884 -0.058285404 -0.018126793 0.070470944 -0.06761515
