第二章-回归模型/model_weight/mlp_leakyrelu.pth (torch, 143172 bytes, 6 tensors)

linear1.weight f4 [128, 96]
00000000: 2535 243d b55c 2f3d 1098 8dbb 2766 7e3d
00000010: 63fc 2abd 887a e83d 7241 97bd 8454 c13b
00000020: 05b4 b43d 26bc eebc 2855 b5bc 5784 433d
00000030: 004d 823d 003b 0d3c ba7d aebd 78f0 863d
00000040: f1c7 82bd 66c3 4abd 5968 a3bd 05fe f83d
00000050: 8df9 83bd 6a01 8a3d 7a8d 81bd c0ff 973d
00000060: 03b4 80bd abc0 b23c 49b4 7f3d 85ee 2f3d
00000070: d567 593c af26 b4bc 928a 86bc 7b17 3abc
00000080: 4de3 c13d 4013 58bb b3c0 75bd 6787 25bd
00000090: 295c 913d d3df 8ebd 5bbd 24bc 3d46 2cbd
000000a0: a5bf adbb 1723 7bbd 5733 87bd 2e44 e2bc
000000b0: 3e1b 9c3c fb06 e33d 5090 a6bd 4c39 d4bc
000000c0: b905 d13d df79 b23d 0881 a9bd 6271 623b
000000d0: 4ab2 50bd b190 c73c 481a 873d b6b9 a6bd
000000e0: 3831 3aba 3b57 b7bd e980 54bd d8f6 313b
000000f0: 4870 fdbc 2547 963d 663c ac3d c732 cb3c
00000100: 7bcd 87bc 6b53 9dbd b798 a8bc dee3 a83c
00000110: d1f3 d43d 6901 a7bd e5e2 c43b ab06 a83d
00000120: 3925 ec3d 2591 643d 33cd 783d d2b5 a33c
00000130: 4d5f 93bd 4be7 dfbc 4b93 95bd 2fe0 6ebd
00000140: afc4 10bd 5612 a13d 7ad0 d73d c38d 5a3d
00000150: 2de8 e53d a88f 083d 2c49 ad3d 8cc4 8d3c
00000160: f0fe ec3c 9d8e 2fbd b724 943d 046d 223c
00000170: cc9b f23d 2601 aebd 92e7 8bbb ee6e 6cbd
00000180: 2409 cebd 03a6 42bd 202a b7bc edcd 8f3d
00000190: 9e12 d2bd 6f9c 9f3d 6e2e b93c 0bcf 69bc
000001a0: 418b 9dbd 20e3 5abd af2c b7bd daa0 303d
000001b0: 5c8a 3d3d 4c54 85bd 127e aabd d01a c7bb
000001c0: 5964 953d 173d 9f3c 66e1 93bd ff16 c7bd
000001d0: bc37 873d 120e 353d 05ea b0bd 60b5 a8bd
000001e0: 0474 c23c 389b 123b f8a8 42bd ee67 c83b
000001f0: 36e5 7abd 1037 9b3d 5a73 f33c db75 903d
00000200: 50e7 a7bd 3b7d bfbc 890c 243d 0cc0 8d3c
00000210: 59a7 743d b007 92bd ff44 923c f9b0 edbc
00000220: 8f35 883d 6d55 813c 50c0 193d f122 b83d
00000230: 8ba9 86bc ff6c 9ebd 3577 4b3c 3f49 c23d
00000240: 0295 cc3d f9dc 02bd ecd0 f0bb afd9 30bd
00000250: 0328 dd3d 3407 1d3d 15b7 00bd 8f65 31bd
00000260: 34b9 9abd bcfc 903d a4d0 b9bc a724 a5bd
00000270: 4df5 f13c d7dd cebc a8d8 ae3d e510 23bd
00000280: 81b4 d83d 8a62 5d3d 8a86 a23b e11d fe3c
00000290: aa41 a0bd 4a86 993d ebbf 813d 3cd0 983d
000002a0: ca6b 573c e7da 0dbd 7b95 c23c caf5 313d
000002b0: 4cff 81bd 2eac 593d 4f4e e33d 122f e93d
000002c0: d96d 403d 85ca d93d 3245 12bd 04b2 2e3c
000002d0: e111 1bbd 7f04 e0bc 6003 b1bb b400 8dbc
000002e0: 3f22 dd3d 5881 0e3c 6152 b23d b177 b03c
000002f0: 7350 993d 64e1 e7bb 377f c53c 4872 1cbd
00000300: 6048 86bd 084e adbd 03a2 e83d 889b b5bb
00000310: 643b d73b 1963 74bc 609a e43c 2357 3abc
00000320: ec62 c73d 4b3f b6bc 330d fa3d cafb abbc
00000330: bbd1 963d 100d 10bd 1758 403d b626 c5bc
00000340: 5013 ed3d 9477 a73d 7ba1 10bd 7734 09bc
00000350: 295e 80bd 2caa 4ebd 272d a0bd d116 04bd
00000360: 989f 183d 7bfe 2b3d 6b7a 903d 521e debd
00000370: f2a4 803d 7748 f8bd 2a0e a73d 5e01 163d
00000380: 11b8 2d3d f433 0a3d 1a5a d53d 1ad4 65bb
00000390: b675 2f3c 8721 953c 3c18 a2bd ea70 79bd
000003a0: ac82 b13c 57d8 ad3c 5bf5 aabd 53cf 00bd
000003b0: 7d80 b1bd fabe 3e3d 8b80 57bd a1d0 e0bd
000003c0: 0c6d 63bc b2e6 883c cbdb 4c3b 1c99 d5ba
000003d0: aa2d 283c ab83 4b3d d7a1 20bd 6c40 133c
000003e0: 0f7f ac3d 42e8 283d 6d01 853d 66ad f5bc
000003f0: 37e8 25bd 18b9 d6bd 747e bb3c b197 b3bc
0.040089745 0.04281302 -0.004321106 0.06210914 -0.0417446 0.11351496 -0.073855296 0.0058999676
0.088233985 -0.02914245 -0.022135332 0.04773363 0.06362343 0.008620024 -0.08520074 0.065888345
-0.06385792 -0.049502753 -0.07978887 0.121578254 -0.064440824 0.06738551 -0.06325813 0.07421827
-0.062843345 0.021820387 0.062427793 0.04295208 0.013269384 -0.021991102 -0.016423497 -0.011358137
0.09467182 -0.0032970458 -0.059998225 -0.040412333 0.07097656 -0.06976285 -0.0100549115 -0.042059172
-0.005302387 -0.06131276 -0.06601589 -0.027620401 0.019055959 0.11085316 -0.08132994 -0.025906228
0.1020617 0.08714651 -0.08276564 0.0034552445 -0.05095128 0.024360986 0.065968096 -0.0814089
-0.0007102671 -0.08952185 -0.05188075 0.0027155187 -0.030937329 0.073377885 0.084099576 0.024804486
-0.016577473 -0.07681926 -0.020580633 0.020616468 0.10398067 -0.08154566 0.0060084932 0.08204397
0.11530537 0.055802483 0.06074257 0.01998416 -0.071959116 -0.027331969 -0.073034845 -0.058319267
-0.035343822 0.078648254 0.105378106 0.05335785 0.11225925 0.033340126 0.08461222 0.017305635
0.028930157 -0.042860616 0.07233565 0.009913687 0.11846122 -0.08496313 -0.0042695487 -0.05772298
-0.10060337 -0.047521602 -0.022358954 0.07021699 -0.10257457 0.07793509 0.022605147 -0.014270554
-0.07692576 -0.05343926 -0.089440696 0.04312215 0.046274528 -0.06510219 -0.08324827 -0.0060761943
0.072945304 0.01943831 -0.07220726 -0.09721183 0.06602427 0.04420287 -0.08638386 -0.082377195
0.023736961 0.002237035 -0.047524422 0.006115905 -0.06125375 0.07578862 0.02971809 0.07053729
-0.08198416 -0.023375144 0.040051017 0.01730349 0.059729908 -0.071303725 0.017855166 -0.029015051
0.066508405 0.015787804 0.03753692 0.089910395 -0.016438266 -0.07735633 0.012418558 0.09486627
0.099893585 -0.031949017 -0.007349124 -0.04317635 0.10798647 0.038336948 -0.0314246 -0.043309744
-0.07554856 0.07079455 -0.022682495 -0.080636315 0.029535914 -0.025252266 0.08537418 -0.039811034
0.105813034 0.054049052 0.004959886 0.031020107 -0.078250244 0.07496317 0.063354336 0.074615926
0.0131482575 -0.03463259 0.023752918 0.043447293 -0.06347522 0.05314272 0.110989206 0.11385931
0.04697976 0.10634331 -0.03571052 0.010662559 -0.037858848 -0.027345894 -0.0054020137 -0.01721225
0.107975475 0.00869783 0.08707119 0.021541448 0.074860476 -0.007076429 0.024108512 -0.038194925
-0.06556773 -0.08462149 0.11359026 -0.0055422224 0.006568359 -0.014916205 0.027905643 -0.011373314
0.09735665 -0.022246977 0.12209549 -0.020994086 0.07364222 -0.035168707 0.04695901 -0.02406631
0.11575949 0.081771046 -0.03531025 -0.008374325 -0.062679596 -0.050455257 -0.07821112 -0.032248322
0.037261575 0.04199074 0.070545994 -0.10845627 0.06281461 -0.121231966 0.081569985 0.036622398
0.042411868 0.033740953 0.10417576 -0.003506905 0.010709217 0.018204464 -0.079147786 -0.0608987
0.021668755 0.021221323 -0.08347579 -0.03144772 -0.08667085 0.04656885 -0.052612823 -0.10977293
-0.013880979 0.016711567 0.0031258937 -0.001629624 0.010264793 0.049686115 -0.039216843 0.008987527
0.08422672 0.041237123 0.064944126 -0.02998991 -0.04050466 -0.104845226 0.022887446 -0.021922918

linear1.bias f4 [128]
00000000: 305f ce3c c165 3d3d fa15 133d 286c 973d
00000010: 0e30 123d 7e2d bcbd 8c01 02be c2f0 89bc
00000020: 7056 ab3c 29e5 513c 27a9 723d 5c15 f93d
00000030: 82d8 bebd 9670 a43d c3e3 c4bc b13f 9a3d
00000040: a4bd 003d 6011 1d3e 388f d93d 639c a53d
00000050: 7af0 53bd 3f4f b1bd f517 e83d 06e5 893c
00000060: e4c1 123e 8c77 b53d 9809 34bb 78ec 0b3e
00000070: 96c3 6abd cb46 953d a7ce 213d 99fe 7d3d
00000080: eaa9 14bd d8e6 2e3c af68 9b3d 6e58 b63d
00000090: d9ff a93d d809 e93a 05e2 94bd 6ba0 19bd
000000a0: 3cd2 8cbd ece1 bfbc 8a86 0abb af1a b83d
000000b0: ffa6 16bd c9ac eaba 3456 b73d 02dd df3d
000000c0: 88e9 aa3d 143e 6abd 9ccd d33c 6752 21bd
000000d0: 003b 00be cc89 303c 4102 4f3c cdac 2cbc
000000e0: 5fea 5b3d 9cd8 873c f97b 0abd 7e92 d93c
000000f0: 2515 6bbd 345f 4ebd 2150 933d 2d34 253c
00000100: 3b81 26bd 6809 d4bd 8a78 a9bc bf27 8a3d
00000110: 70e5 bd3d 31cb eb3d c21e 82bc 90f5 f13c
00000120: 00e8 1dbb c72f e4bd e057 c53d 3727 053d
00000130: 0745 b4bd 8d2c 7e3b ae49 01bc 4980 093e
00000140: d25f 173c 8c3b 0cbd f154 5a3d aa2e 46bd
00000150: d74b 73bd 8db6 e13c 0015 463d 0748 be3d
00000160: 624a d33c 15e2 fdbc bda4 073d 0930 8abd
00000170: 4be7 e73c 4703 3e3d 0ba7 8d3d 5798 093d
00000180: e9f9 893c c470 ce3c ef16 dd3d 3112 023e
00000190: 9c7a e2bd 17fd c0bd 067c 7c3d 6b7a f63d
000001a0: 419a 1dbd d023 a43d 27ac dfbd 8de2 493c
000001b0: 0796 8b3b 4d92 e33c 7979 a9bd 3c8d debb
000001c0: 2498 093e 905d a6bb 50b2 a03d c6f4 ec3d
000001d0: af8c 093e 332b cbbc 452d 1c3d 84d4 b4bd
000001e0: 2766 d63d c9ce 8e3d bd28 533c d051 a13d
000001f0: 0ede 973d fd12 873d 8e9d 073e 78b3 7d3d
0.025191873 0.04623962 0.03590963 0.07393676 0.03569036 -0.091883644 -0.12695903 -0.016838435
0.02091524 0.012810984 0.059243347 0.12162277 -0.09318639 0.080292866 -0.024034387 0.075316794
0.031430855 0.1533866 0.1062302 0.08086469 -0.05174301 -0.08657693 0.113326944 0.01683284
0.14331776 0.088606924 -0.0027471539 0.13664424 -0.05731543 0.07288893 0.03950372 0.06201038
-0.036294855 0.010675155 0.07588326 0.089035854 0.08300752 0.0017779423 -0.07269672 -0.037506502
-0.068760365 -0.023423158 -0.002113732 0.089894645 -0.036780354 -0.0017904277 0.08951989 0.10930826
0.08345324 -0.05718811 0.025854878 -0.039385226 -0.12522507 0.010775041 0.012634815 -0.010539246
0.05369031 0.01658278 -0.033809636 0.02655911 -0.057393212 -0.05038376 0.07193018 0.01008324
-0.040650588 -0.103533566 -0.02068736 0.06745862 0.09272277 0.11513365 -0.015883807 0.029536039
-0.0024094582 -0.11141925 0.096359015 0.0325081 -0.088022284 0.0038783879 -0.007891102 0.13427843
0.009239154 -0.034236476 0.053303663 -0.048384346 -0.0593985 0.027552867 0.04835987 0.09291082
0.025792304 -0.030991593 0.03311609 -0.06747443 0.028308531 0.046389844 0.069166265 0.03359255
0.0168428 0.025200255 0.1079539 0.12702252 -0.11058542 -0.09423273 0.061641715 0.12035068
-0.038477186 0.08014643 -0.10921507 0.01232208 0.004259828 0.027779723 -0.08275122 -0.006791739
0.13436943 -0.0050770715 0.078465104 0.11570124 0.13432573 -0.024800872 0.03812911 -0.08829597
0.10468703 0.06973035 0.012888131 0.078769326 0.074154004 0.065954186 0.13243696 0.061938733

linear2.weight f4 [128, 128]
00000000: 63a0 afbd 2b70 22bd 1f73 e9bc 6064 0e3c
00000010: b65b 5abc 81ea d63d 5ccd 1ebd 9bbb 3dbd
00000020: 588f 1b3d 5b07 4d3d 939d aa3d f4d6 14bd
00000030: 6452 8d3d 85c4 3a3d b0d0 3dbc ddd4 493d
00000040: 9abb 10bd dd71 be3c adac 723d df06 a2bd
00000050: e8bf de3c 6666 7b3d 7ac6 a9bd 380f 2a3d
00000060: fda3 a9bd 89b2 4f3c 95d8 913d 178b b2bd
00000070: 1fd0 63bd a3f0 abbc eaba d2bc 664b d13c
00000080: 2b3d 98bc 6241 993d d4b2 51bd f497 8c3d
00000090: b341 3a3d 7126 adbd 107c 97bd 3362 a33d
000000a0: a7d0 1b3d 1c6a 053d bdce 8e3d 9d0b 143d
000000b0: 92c3 883d cb6a 46bd e07e ea3c 7832 5dbd
000000c0: 7f20 9dbc 17db 4c3d 02f6 903d b849 9d3d
000000d0: f239 37bc b085 a5bd a0e2 a83d 2300 fe3c
000000e0: 032d 91bd abfd 24bc 63bb e73b b5bb 55bd
000000f0: d816 a23d 21fb 3abd 1030 94bd 2182 1b3c
00000100: 0930 19bd 6623 763c bd65 033d 1bca b3bd
00000110: 02d7 2c3d 30ac 8dbd 1724 aa3d d06e 91bd
00000120: 8105 6bbd 3088 013d 9ee1 553c a76d 3dbd
00000130: df88 f93d 72a6 183d 836c 6cbc 8d9c f9bc
00000140: f34d 9c3d ebc6 99bc e8d6 38bd 448a 9bba
00000150: 4414 6ebc d853 95bd 83dd 3cbc e709 37bd
00000160: 1a47 cabd 3ebc a03d 6730 a63d ab86 3c3d
00000170: a195 24bd 9b53 d33c dc7a 00bc 6d8b 483d
00000180: 638d 1fbd e41b 803c 8843 16bc 1a7d 623d
00000190: 8c48 44bd 8230 c43d 3912 5c3d 5b8c 6a3d
000001a0: 045b b9bc f542 3ebd 0413 a53c f48c bc3c
000001b0: 8143 d2bc 5ef4 06bd ed25 6d3d c24c 20bd
000001c0: f0ad 943d 7dd3 973d 9e3b c0bc 122f 1b3d
000001d0: 343d 183d fb4a 933c 9410 a13b 8ab8 953d
000001e0: 5cd3 6d3d 78d9 373d 2d2e 89bb ceb9 063d
000001f0: 0993 ec3c 214d 40bc f6a1 59bd adc0 1f3d
00000200: d65a 6dbd 6558 773d 94a5 88bd 9fe2 9b3d
00000210: 3fc5 80bd e1e7 bbbd d024 7a3d 2d88 383c
00000220: d65e ab3c 41f9 12bc ba0a c43d 0630 093d
00000230: 9177 4d3d 05ee 59bd d09b 383d 2763 953b
00000240: c238 653d 557d d0bd 90d5 8b3b 64fa b2bc
00000250: db41 acbc a5ad 94bd bacd 42bd 0e40 60bd
00000260: 6713 0fbe a709 933d 89e1 413a c642 1abd
00000270: c93d 5fbc b8a7 9bbc 6e17 ab3c 58c1 2d3d
00000280: 2c16 5abc 3e83 e73a 4a0b 8f3d dc21 3c3d
00000290: bf6b aabb 1108 5c3d 963f 4d3d 7243 afbd
000002a0: bbb6 c4bd 82e2 4b3d 6a5a 9d3d 2322 b7bd
000002b0: 7245 633d 0a9b 743c d667 013c 1590 573d
000002c0: b26b 393d a57c 91bd 6aa1 a13d a501 443d
000002d0: a034 aebd f074 19bc f3da b23b 3f9f 1fbd
000002e0: 8f0f b23d bfd5 703d 86e6 c13d 65a0 5dbd
000002f0: 7b07 97bd 44ac cfbd 2b7d b43c 85e1 2fbd
00000300: ad6d bb3d 20a5 603d 153c aa3d 86af 01bd
00000310: 3c1a ca3d 70d9 04bd 64d4 a23d f6a9 fb3c
00000320: a9a0 2dbd 1ae7 7cbc 6bae 823b 1c3c fb3c
00000330: 1cac 973c efb4 d63d f743 3fbd 362b 2bbd
00000340: e489 8c3d f6ff 19bd e316 2d3d a5e1 fabc
00000350: 6727 42bd 3bbf 833d 94c1 ea3c ed4a 5abd
00000360: 9716 9b3d 3985 323d 5369 f5bd f881 9a3d
00000370: c69f c33d 88c8 473d 2d1e c4bd 82ab 85ba
00000380: 5065 cb3c 5058 4ebd 3a43 9e3c db00 f6bd
00000390: 8186 80ba 4598 a03c 3f5f 43bd ac79 5ebc
000003a0: ac47 a13c edd0 96bd 59c1 943d 7dec 973d
000003b0: 9b49 6abc abb2 3abd 0296 403d 7a72 b0ba
000003c0: 0bdf 05bd 8f3f 6cbd 3c30 753d 0895 a53d
000003d0: 2190 873d 5818 cabd 3997 a43c f3af c6bc
000003e0: 1ed1 a33d 52d7 a8ba a28d 2c3d 2e32 78bd
000003f0: d691 ccbd 06a3 6bbc f3e4 70bd 11c7 863c
-0.08575513 -0.039657753 -0.028497277 0.008690923 -0.01332753 0.10493947 -0.038770065 -0.046321493
0.0379785 0.050055843 0.08330836 -0.036337808 0.069004804 0.045597572 -0.0115853995 0.049275268
-0.03533516 0.023247654 0.059246708 -0.07911467 0.027191117 0.06137695 -0.082898095 0.04151842
-0.082832314 0.012676843 0.07121388 -0.087179355 -0.0556184 -0.020988768 -0.025723893 0.025548648
-0.018583855 0.07483174 -0.051195934 0.0686492 0.045472812 -0.08454598 -0.0739671 0.079777144
0.038040783 0.032571897 0.06973026 0.036143888 0.06677927 -0.04844169 0.028624952 -0.05400321
-0.019180534 0.050013628 0.07078172 0.07680076 -0.011183249 -0.080821395 0.0824635 0.031005925
-0.070886634 -0.010070245 0.007071899 -0.052180964 0.07914513 -0.04564965 -0.0723573 0.009491474
-0.037399326 0.015023088 0.032079447 -0.08778783 0.042197235 -0.06917608 0.08307665 -0.07101214
-0.057378296 0.03162402 0.01305428 -0.04624715 0.12184309 0.03726811 -0.014430168 -0.030470157
0.07632055 -0.01877161 -0.045126826 -0.0011866768 -0.014531199 -0.072913826 -0.011527422 -0.044687178
-0.09876843 0.07848404 0.08114701 0.046026867 -0.04018176 0.025796702 -0.007841792 0.04896109
-0.038953196 0.0156383 -0.009171374 0.055295087 -0.04792075 0.09579565 0.053728316 0.05726276
-0.022626407 -0.046450574 0.020150669 0.02301643 -0.025666954 -0.03294789 0.057897497 -0.039135702
0.072597384 0.07413385 -0.023465928 0.037886687 0.037167743 0.01798009 0.0049153063 0.07310589
0.058062896 0.04488513 -0.004186413 0.03289204 0.028878706 -0.011737139 -0.053132974 0.03900211
-0.057947956 0.060387034 -0.066722065 0.07611584 -0.06287622 -0.09175087 0.061070263 0.011262936
0.020919245 -0.00897056 0.095723584 0.033493064 0.050162856 -0.05320551 0.04507047 0.004558939
0.05596233 -0.10180155 0.004267402 -0.021847911 -0.021027496 -0.072596826 -0.047559477 -0.054748587
-0.13972245 0.071795754 0.0007395973 -0.037661336 -0.013625571 -0.019000873 0.020885196 0.042420715
-0.01331095 0.0017663015 0.06984575 0.04593073 -0.0052008326 0.05371863 0.05010947 -0.08557786
-0.096051656 0.04977656 0.07683261 -0.08942058 0.05548615 0.014929542 0.007898292 0.05262764
0.045268722 -0.07103852 0.078921154 0.04785313 -0.08506131 -0.009366259 0.0054582297 -0.03897023
0.08694374 0.058797594 0.09467797 -0.054108042 -0.07374474 -0.10140279 0.022032341 -0.04293968
0.09151778 0.054844975 0.08312241 -0.031661533 0.09868285 -0.032433927 0.079506665 0.030720692
-0.042389546 -0.015435958 0.0039880774 0.03066831 0.018514685 0.10483729 -0.046695676 -0.041789256
0.06862238 -0.03759762 0.042258155 -0.030625174 -0.04740086 0.06432959 0.028656758 -0.05329411
0.07572668 0.043584082 -0.119829796 0.07544321 0.09551959 0.048775226 -0.09576068 -0.0010198208
0.024828583 -0.05037719 0.019319165 -0.12011882 -0.000980571 0.019603858 -0.047698256 -0.0135788135
0.019687496 -0.07364068 0.07263441 0.074181534 -0.0142997755 -0.045580547 0.04701806 -0.0013461851
-0.032683413 -0.0576778 0.059860453 0.08085066 0.06619287 -0.098679245 0.02009164 -0.024253821
0.0799887 -0.0012881553 0.04212726 -0.06059473 -0.099887535 -0.01438213 -0.058812093 0.016452344

linear2.bias f4 [128]
00000000: a927 47bd dad3 cc3c 8f7b 843d cead c1bc
00000010: 2504 77bd c42b 5b3b 52c0 9d3d d232 35bd
00000020: e2c4 353d 3a17 0ebd 720a 46bd 25a6 0b3d
00000030: 4e0f 933c 6183 153d 0fdf d5bb 8bc9 413d
00000040: 242a f63c e0da bdbd eeac 193d 37f8 503d
00000050: 0a21 36bd 4f86 a9bd 1ed9 ee3c 76ac 9a3c
00000060: a6df 513d 11f2 4e3d d5c8 a93c c844 523d
00000070: adc7 76bb 53c2 8e3d 03dd 97bd a7f9 c93c
00000080: 3c57 7f3d 160d 463d 7f68 c23c e69b 243d
00000090: 01d8 54bd 21a4 a43c 831e 9c3c b2d4 3ebd
000000a0: 8be0 173d 2086 05bc 41f2 b93d 41cf 10bc
000000b0: f7b3 483c d1e3 bdbb 1d4c 693c 6b58 c0bd
000000c0: dc7c 0abd 379c b63d 725e 26bc 2197 b53d
000000d0: 947d 98bd 8c25 aa3d f0dc c63c 3004 bf3d
000000e0: 7785 84bd 448e cf3c 32a4 dd3d 9399 bc3d
000000f0: 5a4c a03d b4f7 9b3d af9f 3bbd 9b38 96bc
00000100: 69b2 57bd 491d a53c 6efa 0c3d 377c 063d
00000110: 7df8 3bbc acbc ceba 0803 0abd 541b 783d
00000120: 45d3 bf3d 6da8 e43d 2592 c5b9 9581 7bbb
00000130: 6856 2e3d 6259 893d 140a c83d 0d6d 95bd
00000140: 8552 f6bb 611d 6a3d 76ca 6ebb cfb6 bf3d
00000150: 1c27 9d3c 4f07 5bbd 4bf8 2a3d 0b10 8fbd
00000160: 0590 703d 5175 c2bd 95c6 8e3d 416f aa3d
00000170: 7cf9 f23c 1308 493d f514 1e3d b6c5 373a
00000180: f179 223c 128d c4bc 0f8a 1a3a 3466 c23d
00000190: b09c 703c 6ca6 05bd c28b c93d b7b2 0ebd
000001a0: b1ae 9ebd 6413 c23d a280 89bb 8563 dd3b
000001b0: ac04 fdb9 ce9b ff3c 2d39 673d 4ca1 903d
000001c0: e3ae 893d 7263 843d f95e 81bd 1f53 88bd
000001d0: f5b1 dcbc e88c 34bd a083 14bd 9d04 c93d
000001e0: eeeb 5c3d ee8d 863a 597c 8d3d 10e5 4f3d
000001f0: c9dc 7bbd cc90 753d ab04 b33d 7e5b 0d3d
-0.048621807 0.025003362 0.064688794 -0.023642447 -0.060306687 0.0033442834 0.07702698 -0.04423792
0.044377215 -0.03469012 -0.048349805 0.034093995 0.017951634 0.036502246 -0.006526835 0.047311347
0.030049391 -0.09270263 0.037518434 0.051017966 -0.044465102 -0.082775705 0.029156264 0.018881064
0.05123868 0.05052382 0.020725647 0.051335126 -0.0037655637 0.06970658 -0.074152015 0.024655176
0.062339053 0.048352323 0.023731468 0.04018774 -0.05196381 0.020097794 0.019057518 -0.04658956
0.037079375 -0.008149654 0.090794094 -0.008838476 0.012249938 -0.00579498 0.014239338 -0.093918644
-0.03381048 0.08916514 -0.010154353 0.08866716 -0.07445827 0.08307943 0.024275273 0.093269706
-0.06470769 0.025336392 0.108223334 0.092089795 0.07827063 0.07615605 -0.045806583 -0.018337538
-0.05266038 0.020155566 0.034418516 0.032833304 -0.011472818 -0.0015772781 -0.033694297 0.060572937
0.09366468 0.11164937 -0.00037683654 -0.0038376797 0.042562872 0.067065015 0.09767547 -0.072961904
-0.0075171613 0.057156924 -0.0036436594 0.0936104 0.019183688 -0.053473767 0.041740697 -0.06985482
0.058731098 -0.094950326 0.0697147 0.08322001 0.029659979 0.049079966 0.038594205 0.0007010357
0.009916768 -0.023993049 0.0005895206 0.0949215 0.014685795 -0.032629415 0.0984111 -0.034838405
-0.077481635 0.09476355 -0.0041962424 0.0067562484 -0.000482594 0.031202223 0.05645101 0.07062015
0.0672281 0.0646428 -0.06316943 -0.06656479 -0.026940325 -0.04407969 -0.03625834 0.09815333
0.053935938 0.0010265687 0.06908483 0.05075556 -0.061489854 0.059952542 0.08741125 0.034511082

linear3.weight f4 [48, 128]
00000000: 6b51 24bd a629 28bc a01b 78bd bbd4 ea3c
00000010: 38f4 c9bd ba9a 813d 2b78 413d 0b18 e3bc
00000020: b8f2 893d dacb d73c e8af 933d 370c c73d
00000030: 3e5c 553c 53c0 ad3c 5352 90bd a836 44bc
00000040: 9241 7b3c 9e97 313d 0c15 c9bc 4454 ba3d
00000050: 62bf c83d e3ed 823d 950f 4fbc 55a9 01bd
00000060: c65c a4bc 684d bc3c 5b0e 57bd 5024 8dbc
00000070: 9762 78bd 1332 e3bc 3596 de3d 7dc7 a13d
00000080: d242 cb3c f6b7 babc 278d 1f3d 0e81 333d
00000090: ffd2 723c f490 33bd a24d 40bd 2d30 19bd
000000a0: 1173 f4bb 4347 ac3d 8a1a 85bd a54a 62bc
000000b0: 77b9 08bc 4bde d23d e348 c83c a175 94bd
000000c0: 7197 6c3c 46cf 37bc 68b5 a43a 06cd 02bd
000000d0: c421 1e3d 06ce b23d 8307 b3bd 67f5 18bd
000000e0: c03d 46bd b53f 453d fab9 cdbd e584 90bd
000000f0: 77db b7bc 8b1a 103d 018a 0e3d 7ce1 28bd
00000100: cfb4 3d3d 734c 893d 4add acbd 13b1 ba3d
00000110: ee3e 7bbd 254a c4bc 0472 85bc 453c 413d
00000120: fa9e b0bc 39d6 873d c4a6 8abd a924 89bd
00000130: e3c0 05bd 03ba b93d 9dfe ad3d be6e 23bc
00000140: 1808 d43d ee73 5f3d 2960 e8ba b2fe 97bc
00000150: bfc8 8dbd 4205 b33c df4e 723c 5382 263d
00000160: 8956 783a 75ff 97bd 540a 8cbd 4c3a ca3c
00000170: ce5b e5bc cae6 bc3d 995a 053d d15b 74bd
00000180: 23b6 00bd eb27 9a3d eb77 a33d 4cdc c13d
00000190: 68ee 00bc d433 953b 5064 87bd ddb7 79bd
000001a0: 3080 c9bd 7049 c4bc c736 24bc 78a3 94bc
000001b0: 2027 b13d 74e5 8e3a e165 1d3d e12b 833d
000001c0: 7edd 87bd 3f7c 51bb 3bec 41bc d069 8bbd
000001d0: 3f91 98bd d3c5 85bc 1466 3d3d 2a84 813d
000001e0: 7471 413c 6e5e 14bd a19f 46bc 32d1 e1bd
000001f0: 0d10 3c3d f770 9bba 192d c4bc 3f24 64bd
00000200: 5fc6 69bd 9f3e 2f3d 2f3b a03d 8adb f4bb
00000210: d37e eabc f634 b4bc 8aa7 3ebd ef6b c83c
00000220: e27d 1b3c 732c ebbb 0a44 c4bc 971d 833c
00000230: eaf0 823d 71ca dcbc d52b 3d3d 3026 053d
00000240: 1af0 98bd aa1f 31bc 1a55 bebd 6d5e efbb
00000250: cb39 253d 9f73 833d 411d 0cbd ca09 803b
00000260: 2314 c33c 00fc 11bd e59c 8a3d 385f 983c
00000270: dc81 bdbc 5469 c13d 832f 55bd 8eed 68bd
00000280: 04ea 27bd 2021 4d3d 5619 443d 1ceb 2a3d
00000290: 43a1 863d 5250 c03d 1a38 7bbd 7a9d d6bd
000002a0: e2da 903d b55c 5d3d 55e4 533d dccb fd3c
000002b0: 1ea5 ee3c d416 e43a 6a6e 31bc 3c56 413d
000002c0: a313 65bd 13db 7d3d da79 a5bd 3148 f83b
000002d0: ffb3 ac3d 095d fd3b 3eb1 b1bd 2abc b3bc
000002e0: 5b2a 623d 9f66 a73d a89d 97bd 3cb8 bcbd
000002f0: d07b 04bd b103 4e3d 62e1 863d 06fc 443d
00000300: f9d0 85bd 35bd 463d 5a2a c63c 8957 7a3d
00000310: bb58 08bd c0f5 9dbc 504b b43c 44aa 3bbc
00000320: 2e23 b2bc f328 f2bb fafc 80bc 267e 863d
00000330: f3cc 5a3c 50b0 2fbc f734 a83d 13d6 08bd
00000340: 9dca 4d3c d9b1 053d 7aca b73d d520 29bd
00000350: 8b38 3b3c 98fb 263d 92e4 ae3d df67 62bd
00000360: ec89 34bd 84cb 143c c884 a63d bf29 8ebb
00000370: 41d9 6fbd b11e fb3c 42f5 2b3d f3d7 973d
00000380: fba8 6cbc 8b16 91bd 7bd3 85bd 0b30 c13d
00000390: 17ed 6cbd b10d 2ebd ed21 92bd 22f8 58bd
000003a0: 2e72 943d 396a cfbc b459 e0bc 5fd6 17bd
000003b0: 88ba d53d 5ec3 77bd e2e9 53bc cb08 d1bd
000003c0: 912f a93d 327c 2d3d a42c 9ebc 7de9 7c3d
000003d0: 5f70 1d3c c258 ae3c 99aa fa3c b568 0a3e
000003e0: f9a3 cbbc f6c6 9a3d 70c5 863c b47e edbd
000003f0: 4705 14bb 40b5 a2bd e20c d73b 5281 9bbd
-0.04011671 -0.010263836 -0.06057322 0.02866589 -0.09861034 0.0632834 0.04723374 -0.027721426
0.06735748 0.026342321 0.07211286 0.09719127 0.0130224805 0.021209871 -0.07046952 -0.011975922
0.015335457 0.043357484 -0.024546169 0.09098104 0.098021284 0.063930295 -0.012637992 -0.03165563
-0.02006377 0.022986129 -0.052503925 -0.01722923 -0.060640898 -0.027733838 0.108684935 0.078993775
0.024812136 -0.022792798 0.038952973 0.043824248 0.014820813 -0.04383941 -0.046949036 -0.03739946
-0.007460006 0.084120296 -0.064992025 -0.013811742 -0.0083449995 0.10296305 0.024448818 -0.072489984
0.014440403 -0.011218851 0.001256627 -0.031933807 0.03860642 0.08730702 -0.08741667 -0.03734341
-0.048398733 0.04815646 -0.10045238 -0.070565976 -0.022443516 0.035181563 0.03479958 -0.041230664
0.04631501 0.06704035 -0.08440645 0.091158055 -0.06133931 -0.023961136 -0.016289718 0.047176618
-0.021560181 0.066326566 -0.06770089 -0.066964455 -0.032654654 0.09068682 0.08495829 -0.009975133
0.10353106 0.05455392 -0.0017728853 -0.018554065 -0.06923055 0.021853093 0.014789312 0.04065163
0.0009473344 -0.074217714 -0.068379074 0.024686001 -0.027997877 0.09223707 0.032557104 -0.059657875
-0.0314237 0.07527145 0.07981857 0.094658464 -0.0078693405 0.0045532975 -0.0661093 -0.06096636
-0.09838903 -0.023960799 -0.010022826 -0.018144354 0.086500406 0.0010902123 0.038427237 0.064048536
-0.06634043 -0.0031964926 -0.011836107 -0.068072915 -0.074495785 -0.016329682 0.046239927 0.063240364
0.0118068345 -0.036222868 -0.012123019 -0.11026229 0.045913745 -0.0011859228 -0.023947285 -0.05569863
-0.057073947 0.04278433 0.078237884 -0.00747246 -0.028624928 -0.02199791 -0.046546496 0.02446553
0.009490462 -0.0071769296 -0.023958225 0.01600532 0.06393607 -0.026952 0.04618438 0.03250712
-0.07467671 -0.010810772 -0.092935756 -0.0073049576 0.04033832 0.06418537 -0.034207586 0.003907417
0.023813313 -0.035640717 0.067682065 0.018600091 -0.02313321 0.09443918 -0.052047264 -0.056867175
-0.04099466 0.05008042 0.047875725 0.041728124 0.06573727 0.0939032 -0.0613328 -0.10479255
0.070729986 0.05404349 0.051731426 0.030980997 0.029131468 0.0017401823 -0.010829547 0.04720138
-0.05592693 0.061976504 -0.08079882 0.0075769653 0.08432769 0.007732038 -0.086763844 -0.02194031
0.055216175 0.0817387 -0.074031174 -0.092148274 -0.03234464 0.05029649 0.06585957 0.04809191
-0.06533999 0.048520286 0.024190117 0.061118636 -0.033287745 -0.019282222 0.022008568 -0.011454169
-0.02174529 -0.0073901354 -0.015745629 0.0656703 0.013354528 -0.0107231885 0.08213227 -0.033407282
0.012560514 0.032640312 0.08974166 -0.041291077 0.011427055 0.040767282 0.0853969 -0.05527484
-0.044076845 0.009081725 0.08130795 -0.0043384726 -0.0585568 0.030654283 0.041981943 0.07414236
-0.014444585 -0.07084378 -0.06534477 0.094329916 -0.057843294 -0.042493526 -0.07135377 -0.052971013
0.072483405 -0.025319206 -0.027386524 -0.037069675 0.10435969 -0.06048905 -0.01293418 -0.10206755
0.08261026 0.04235477 -0.019308396 0.06174611 0.009609311 0.021282557 0.030598925 0.13516505
-0.024858462 0.0755748 0.016451567 -0.11596432 -0.0022586153 -0.07944727 0.006562815 -0.07593025

linear3.bias f4 [48]
00000000: 7a97 dbbc 6eec 0abd 55ad 62bc d64b 763d
00000010: 598e 3e3d e384 e03b 3fae c93c c91e 9d3d
00000020: ad21 9e3c 2ceb 92bc b01b 67bd daa6 2ebb
00000030: 5f8b 19bc e711 1abd 7a89 1ebd 83e3 013c
00000040: a4ea 87bd aef9 953d 8787 7c3c 1624 4cbc
00000050: fdb4 bc3d 160a d53c 4ae3 bbbc 7098 35bb
00000060: c5a1 1fbd 3899 963d 5e38 b23d 38d0 13bd
00000070: 413a b7bc ee3c 63bc bb1d a83d d24c 09bc
00000080: 1415 8dbc 75f6 1c3d 0e8b 213d 48eb 413d
00000090: 3847 4f3d d470 88bd 68e7 afbc 86dc 883d
000000a0: 0a8f 883d 4d89 823d 498b 4e3c f78f 85bd
000000b0: f9c7 893d 3c91 633d 7c67 dd3c 0994 93bd
-0.026805628 -0.033916883 -0.013835271 0.060130917 0.046522472 0.006851779 0.02461922 0.076718874
0.019303167 -0.017934404 -0.05642289 -0.0026649744 -0.009371608 -0.03761473 -0.038705327 0.007927778
-0.06636551 0.07323013 0.015413172 -0.012459775 0.09214208 0.026005786 -0.022935528 -0.0027709268
-0.038972635 0.07353443 0.087021574 -0.036087245 -0.022366645 -0.013869507 0.08208796 -0.008380132
-0.017221965 0.038320977 0.039439254 0.047343522 0.05060503 -0.06662145 -0.021472648 0.066826865
0.066679075 0.06373844 0.01260645 -0.065216 0.06727595 0.05555843 0.027026884 -0.0720597
