第二章-回归模型/model_weight/mlp_sigmoid_norm.pth (torch, 146901 bytes, 10 tensors)

linear1.weight f4 [128, 96]
0	0x3d8a98bd	0.06767414
1	0xbd62205f	-0.055206653
2	0xbdc5b4db	-0.09653636
3	0x3d75c624	0.060003415
4	0x3d39315a	0.04521308
5	0x3cf57191	0.02996138
6	0x3ca72aea	0.020406205
7	0x3d252d74	0.04032655
8	0x3d154bcd	0.036449242
9	0xbc12e1d2	-0.008964973
10	0xbd47f823	-0.048820626
11	0x3c996109	0.018723028
12	0x3cd2b2cd	0.025720024
13	0x3dd3000c	0.10302743
14	0x3d50169b	0.05080281
15	0x3d300228	0.042970806
16	0x3cd1714f	0.025566725
17	0x3d2dc70b	0.04242615
18	0xbd822dfa	-0.063564256
19	0xbcda3fc9	-0.026641743
20	0xbc595255	-0.013264258
21	0xbc9b50cc	-0.018959425
22	0xbc31a3f6	-0.010842314
23	0x3cb59cad	0.022169435
24	0xbc638d14	-0.013888616
25	0xbc1d3d5a	-0.009597147
26	0x3d41f075	0.04734846
27	0x3cbe6953	0.023243582
28	0xbc40bdee	-0.011764033
29	0xbd34671f	-0.044043656
30	0x3daac8fb	0.08339115
31	0x3d5e6a9e	0.054300897
32	0x3d246c84	0.04014255
33	0x3cc8ee1f	0.024527607
34	0xbd7ca849	-0.061683927
35	0xbd820607	-0.06348806
36	0xbd8ca860	-0.068680525
37	0x3d647d0a	0.05578331
38	0x3d0838af	0.033257183
39	0xbdb171fb	-0.08664318
40	0x3d17fdba	0.037107207
41	0x3cea885a	0.02862947
42	0x3ca15b76	0.019696932
43	0x3d64f153	0.055894207
44	0xbda8b30b	-0.08237275
45	0xbc891636	-0.016734224
46	0x3dc17b0f	0.094473
47	0x3d4d9e6e	0.05019992
48	0xbd8667aa	-0.06562741
49	0xbc611bf2	-0.013739573
50	0xbc930672	-0.01794741
51	0xbda7c7b4	-0.08192387
52	0x3db4950a	0.088174894
53	0xbc30a29d	-0.0107809575
54	0xbd1407e7	-0.03614035
55	0x3d344cc4	0.044018522
56	0x3d2a8b9b	0.041637044
57	0x3c631273	0.013859379
58	0xbaba0724	-0.0014192802
59	0x3bcc01d9	0.006225806
60	0xbdaea329	-0.08527214
61	0x3bb7e2c2	0.0056117484
62	0x3c50ffc6	0.012756294
63	0xbd8b4b49	-0.06801469
64	0x3b11ec2e	0.0022266018
65	0x3c4ddc9c	0.012564804
66	0xbca65339	-0.020303356
67	0x3d24a3ff	0.04019546
68	0xbd45b5ef	-0.04826921
69	0x3d856894	0.06514087
70	0x3ccada19	0.0247622
71	0xbccdf019	-0.025138902
72	0xbd786235	-0.060640533
73	0xbdd7160d	-0.10502253
74	0xbd5085d5	-0.050908882
75	0xbd8e44d9	-0.069467254
76	0xbcf89587	-0.030344738
77	0xbd3110a0	-0.043228745
78	0x3d275097	0.04084834
79	0xbc792202	-0.015205862
80	0x3d0a453a	0.033757426
81	0x3c72db58	0.014822803
82	0x3d23a3b3	0.039951038
83	0xbd3acafc	-0.045603737
84	0xbd72915d	-0.05922066
85	0xbc989c35	-0.018629173
86	0x3b6c8a45	0.0036093157
87	0xbd946e65	-0.072476186
88	0xbb01f99a	-0.0019832612
89	0x3d593f6d	0.053039003
90	0xbd72ac4f	-0.059246358
91	0x3dd7bc42	0.10533954
92	0x3cb23f3c	0.021758668
93	0x3bfc1fe9	0.0076942337
94	0xbd77fa52	-0.06054146
95	0x3d99da3c	0.07512328
96	0x3d0ee082	0.034882076
97	0xbdae7d8f	-0.08520042
98	0x3dc2bd0f	0.09508716
99	0xbd916cf5	-0.0710086
100	0xbd15a0bd	-0.036530245
101	0x3d58374a	0.052787103
102	0xbd1891a7	-0.03724828
103	0xbdabca7b	-0.083882295
104	0xbd05884c	-0.032600686
105	0x3d95fec0	0.0732398
106	0xbc45c3cc	-0.012070607
107	0xbde7e32f	-0.11322629
108	0x3d921fe2	0.071349874
109	0xbdd999f1	-0.10625065
110	0x3d1ff5cd	0.039052773
111	0xbd72ee3e	-0.059309237
112	0x3db683d5	0.08911864
113	0xbdf2e8fd	-0.11860845
114	0xbd772aa4	-0.0603434
115	0x3da0c6c5	0.07850412
116	0x3c8fdcfa	0.017561425
117	0x3d1d8612	0.038457938
118	0x3daa9f05	0.08331112
119	0x3d81b19c	0.063327044
120	0xbc7c64f4	-0.0154049285
121	0x3d9770f3	0.0739459
122	0x3d6d36a1	0.057913426
123	0xbd71b004	-0.059005752
124	0xbc48d673	-0.01225816
125	0x3d5d9074	0.05409284
126	0x3c75ae40	0.014995158
127	0xbd6f57b4	-0.05843325
128	0xbd1f5afe	-0.038905136
129	0x3d37348c	0.044727847
130	0x3d80729c	0.0627186
131	0xbdd7bcee	-0.10534082
132	0x3d82d6b0	0.06388605
133	0xbd518f9f	-0.05116236
134	0xbdc3495c	-0.095354766
135	0x3ca8d849	0.020610945
136	0xbdb0a9dc	-0.08626148
137	0x3cec1b43	0.028821593
138	0x3a2818d1	0.00064123893
139	0x3ca69f34	0.020339586
140	0x3b1ffb32	0.0024411199
141	0xbcb5acb0	-0.02217707
142	0xbd999505	-0.07499126
143	0xbdc1d154	-0.09463754
144	0xbdb14f27	-0.08657675
145	0x3d20ccc8	0.039257795
146	0x3b9ad3d3	0.0047249584
147	0xbd60831d	-0.05481254
148	0xbd2ec530	-0.04266852
149	0x3dc21dfa	0.09478374
150	0xbda28bdc	-0.07936832
151	0xbda89dc7	-0.08233219
152	0x3cdff056	0.02733628
153	0x3dafb0da	0.08578654
154	0x3c684f89	0.014179119
155	0x3d03f81e	0.032219045
156	0x3d453670	0.04814762
157	0xbaa31a06	-0.0012443669
158	0xbdb65026	-0.08902006
159	0xbd926542	-0.0714822
160	0xbc40bcd7	-0.011763773
161	0x3d2ad380	0.04170561
162	0xbd938a69	-0.07204134
163	0x3d9caefe	0.076505646
164	0xbd2b9058	-0.041885704
165	0xbd6efb28	-0.05834499
166	0xbc3ff4b2	-0.011716055
167	0x3d15d80f	0.036583003
168	0x3dd47b89	0.10375125
169	0xbb10d6d8	-0.0022100713
170	0x3cf5694f	0.029957442
171	0xbda6d62b	-0.08146318
172	0x3c5fc9d7	0.013658962
173	0x3d82eb37	0.0639252
174	0xbda0b6f9	-0.07847399
175	0xbd7a6462	-0.06113089
176	0xbda5a61d	-0.08088324
177	0x3d572806	0.052528404
178	0x3dbd161f	0.09232735
179	0xbdf804b2	-0.121102706
180	0x3cfb1907	0.030651582
181	0xbe09b655	-0.1344846
182	0xbd033826	-0.03203597
183	0x3d4a0244	0.049318567
184	0x3cbccb9c	0.023046307
185	0xbc274a46	-0.010210579
186	0x3c4c62e2	0.012474747
187	0x3d43683f	0.04770684
188	0xbac4e781	-0.0015022607
189	0xbd84ee41	-0.06490756
190	0xbd5d6cdb	-0.05405889
191	0xbc131feb	-0.008979778
192	0xbda2fc81	-0.079583175
193	0xbd3a099b	-0.045419317
194	0xbc615d14	-0.013755102
195	0xbc43083f	-0.0119038215
196	0x3dd0a38e	0.101874456
197	0xbd087ac0	-0.03332019
198	0x3d4b2112	0.049592085
199	0xbc8e514b	-0.017372748
200	0x3c47c5cc	0.012193155
201	0x3d1927b7	0.03739139
202	0x3d73ecb9	0.05955193
203	0x3cbcb0a9	0.023033457
204	0xbd8cebee	-0.068809375
205	0x3d51c91a	0.051217176
206	0x3db2d82f	0.0873264
207	0xbcdfdcc1	-0.027326943
208	0x3d3cf52f	0.046132263
209	0xbc890895	-0.016727725
210	0xbd3c2868	-0.045936972
211	0xbce6c0e1	-0.028168144
212	0xbd98f6e6	-0.07468967
213	0xbc9c9793	-0.019115245
214	0xbda413d1	-0.08011592
215	0xbd8499c3	-0.0647464
216	0xbd8b4b0a	-0.06801422
217	0x3d197605	0.037466068
218	0xbce97970	-0.028500289
219	0xbdab827a	-0.08374496
220	0xbbce9720	-0.0063046366
221	0xbd27bcc1	-0.040951494
222	0xbcc67b1c	-0.024228625
223	0x3d97a1bf	0.074038975
224	0x3c7ecbf3	0.015551555
225	0x3ca4d0f4	0.020119168
226	0xbcced1aa	-0.02524646
227	0xbc2ad0f5	-0.010425796
228	0xbd94a21e	-0.07257484
229	0x3dbfefaf	0.09371888
230	0x3daeab02	0.08528711
231	0xbd58afdc	-0.052902088
232	0x3d3fd272	0.046831556
233	0xbd0eddf4	-0.03487964
234	0x3b593d26	0.003314802
235	0x3d3295b7	0.04359981
236	0x3c9f094d	0.019413615
237	0xbca88fba	-0.020576347
238	0xbd9a2eaa	-0.07528432
239	0x3c96e43b	0.018419376
240	0xbd25ed11	-0.040509287
241	0xbb798f73	-0.0038079887
242	0x3ce519ec	0.027966462
243	0xbd5c4f07	-0.053786304
244	0x3cd8264c	0.026385449
245	0xbd4bb654	-0.04973443
246	0x3db511d4	0.08841291
247	0xbce5b396	-0.028039735
248	0xbd6f7cdf	-0.058468696
249	0x3cf3da1b	0.029767087
250	0x36fa97e5	7.4682634e-06
251	0xbdc66d1c	-0.0968878
252	0xbd4131c5	-0.047166605
253	0x3d58e2c5	0.05295064
254	0xbd8ba883	-0.068192504
255	0x3dbf4ca3	0.09340789

linear1.bias f4 [128]
0	0x3cf330fe	0.029686447
1	0x3bf93a00	0.007605791
2	0xbcd62a7a	-0.026143301
3	0x3d1eeb6b	0.03879873
4	0x3cdc75c5	0.026911626
5	0xbd8f092c	-0.06984171
6	0x3d8b740d	0.06809244
7	0xbddc0595	-0.10743252
8	0xbd17d1a4	-0.037065163
9	0xbda7227e	-0.08160876
10	0xbd0a1070	-0.033707082
11	0x3d9eeb4e	0.077597246
12	0xbc8bcc64	-0.017065234
13	0x3dbd8747	0.09254318
14	0xbdcd3a15	-0.10020844
15	0x3dd5f9db	0.10448047
16	0xbccba1f4	-0.024857499
17	0x3d43d2a5	0.04780831
18	0x3ce3cb7b	0.027806988
19	0x3be23c2c	0.0069041457
20	0x3c8d8516	0.017275374
21	0xbd399a41	-0.045313124
22	0xbd40f32d	-0.04710691
23	0xbcc5aaf8	-0.024129376
24	0xbca23ff2	-0.019805882
25	0x3d3814de	0.044941776
26	0x3d45e8e7	0.048317816
27	0xbdd92366	-0.10602455
28	0xbc8906b3	-0.016726827
29	0xbc7471ef	-0.014919742
30	0xbc55f99d	-0.013060001
31	0x3d2d891e	0.042367093
32	0xbd2ea948	-0.042641908
33	0x3ce9d13c	0.028542154
34	0x3daf9920	0.08574128
35	0x3de4dec7	0.11175304
36	0xbd42fe4e	-0.047605805
37	0x3d5780e8	0.05261317
38	0xbdae1b84	-0.08501342
39	0xbda10b0c	-0.07863435
40	0x3dcb412b	0.09924539
41	0xbdfade3c	-0.12249419
42	0xbd752e8b	-0.05985884
43	0x3c9b52f1	0.018960448
44	0x3da5b199	0.08090515
45	0xbd3738e6	-0.044731997
46	0x3d3aaee0	0.04557693
47	0xbdd01333	-0.10159912
48	0xbc6e2d9f	-0.014537244
49	0x3da68f28	0.08132774
50	0xbc4cb4d0	-0.012494281
51	0x3ddc6b3b	0.1076264
52	0xbd0d137a	-0.034442402
53	0xbc903146	-0.01760162
54	0xbdcf71be	-0.101291165
55	0x3d857916	0.06517236
56	0xbc0ad656	-0.008473953
57	0x3c5d5fa7	0.013511575
58	0x3dc59d78	0.096491754
59	0x3d4051bf	0.04695296
60	0x3d49a2f8	0.049227685
61	0x3bb6f61e	0.0055835387
62	0xbca85577	-0.020548565
63	0x3d8ef32f	0.06979977
64	0x3cd0a776	0.025470477
65	0x3c0275ec	0.007962685
66	0x3d269821	0.040672425
67	0xbd11d5df	-0.035604354
68	0xbdedc58b	-0.11609944
69	0x3d0587ee	0.032600336
70	0xbd78956a	-0.060689367
71	0x3c986189	0.018601196
72	0xbdeb3a8b	-0.114857756
73	0x3d68afce	0.056808285
74	0xbd5adc1d	-0.053432573
75	0x3dbeb6ce	0.09312211
76	0x3d5662bf	0.052340265
77	0xbcf84dfb	-0.030310621
78	0xbd3e04ab	-0.04639117
79	0x3c1ad544	0.009450261
80	0xbdb075be	-0.086162075
81	0x3def2022	0.11676051
82	0x3cc02e0e	0.02345946
83	0x3d7e381e	0.062065236
84	0xbd8bc2a4	-0.06824234
85	0x3cd6b5a2	0.026209656
86	0xbbe429c5	-0.006962987
87	0x3d82fbd3	0.06395688
88	0xbda8abcc	-0.08235893
89	0x3cc6fe85	0.024291286
90	0x3d28dc17	0.04122552
91	0xbc86ade7	-0.016440345
92	0x3cc82b50	0.024434716
93	0x3da133d0	0.078712106
94	0xbd03f9d2	-0.03222067
95	0xba588fdb	-0.0008261182
96	0x3d756fc5	0.059921045
97	0xbdcbf487	-0.09958749
98	0x3d75f590	0.06004864
99	0xbd8b3c04	-0.067985564
100	0xbd62bdfb	-0.05535696
101	0xbd9e9fa8	-0.07745296
102	0x3d2c1913	0.0420161
103	0x3da5113e	0.08059929
104	0xbdad5d6a	-0.08465083
105	0xbce922fb	-0.028459063
106	0x3d83df80	0.064391136
107	0xbc9e27f3	-0.019306159
108	0x3b529d93	0.0032137379
109	0xbd1a2cdf	-0.03764045
110	0x3d828608	0.06373221
111	0xbd093eb0	-0.03350705
112	0x3d0c04ee	0.03418439
113	0x3bda6f03	0.0066660657
114	0xbc89833e	-0.016786214
115	0x3d94ecf5	0.072717585
116	0x3de1cdb5	0.11025564
117	0xbda5f87f	-0.081040375
118	0x3df1f352	0.11813988
119	0xbd706ae1	-0.058695678
120	0x3dab84e5	0.08374957
121	0x3d2862d8	0.04110989
122	0x38e57297	0.00010940915
123	0x3d6b06db	0.057379585
124	0xbc6e8f1d	-0.014560488
125	0x3d818cc6	0.063256785
126	0x3d2fc950	0.042916596
127	0xbccf89ca	-0.025334258

norm1.weight f4 [128]
0	0x3f72c0da	0.9482552
1	0x3f7df51c	0.9920213
2	0x3f7fe841	0.99963766
3	0x3f85d707	1.0456246
4	0x3f7c22a0	0.98490334
5	0x3f7a99bd	0.97890836
6	0x3f80d023	1.0063518
7	0x3f8009bc	1.0002971
8	0x3f83fb67	1.0311097
9	0x3f7e2f20	0.9929066
10	0x3f80a7f9	1.0051261
11	0x3f80b2f3	1.0054611
12	0x3f7ad04e	0.979741
13	0x3f7dfaf1	0.9921103
14	0x3f8186fa	1.0119317
15	0x3f82e2bb	1.0225443
16	0x3f804bff	1.0023192
17	0x3f81dafa	1.0144951
18	0x3f7ee85a	0.9957329
19	0x3f7c332a	0.9851557
20	0x3f83a49b	1.0284609
21	0x3f80081e	1.0002477
22	0x3f80303e	1.0014722
23	0x3f852d64	1.0404477
24	0x3f7cb29c	0.98710036
25	0x3f7a9203	0.97879046
26	0x3f81689e	1.0110052
27	0x3f80fb33	1.007666
28	0x3f80ec5a	1.0072129
29	0x3f80f91f	1.0076026
30	0x3f81b562	1.0133479
31	0x3f820910	1.0159016
32	0x3f7f89ba	0.9981953
33	0x3f7fcea5	0.9992469
34	0x3f807929	1.0036975
35	0x3f810f87	1.0082864
36	0x3f7ae5f3	0.98007125
37	0x3f7acbff	0.97967523
38	0x3f81ea82	1.0149691
39	0x3f792e86	0.97336614
40	0x3f83615b	1.0264086
41	0x3f829ea0	1.0204659
42	0x3f82807e	1.0195463
43	0x3f812639	1.008979
44	0x3f7c76d2	0.98618805
45	0x3f86de4c	1.053659
46	0x3f7f76a7	0.99790424
47	0x3f82750d	1.0191971
48	0x3f806097	1.0029477
49	0x3f80e304	1.006928
50	0x3f81c2f3	1.0137619
51	0x3f82d734	1.0221925
52	0x3f8315fe	1.0241086
53	0x3f7d962c	0.9905727
54	0x3f80218b	1.0010237
55	0x3f7ea12e	0.9946469
56	0x3f80a4e2	1.0050318
57	0x3f8197d5	1.012446
58	0x3f7ef4fc	0.99592566
59	0x3f831477	1.024062
60	0x3f7549b5	0.95815593
61	0x3f807f66	1.0038879
62	0x3f827398	1.0191526
63	0x3f7b025d	0.9805048
64	0x3f7b888a	0.9825522
65	0x3f80736d	1.0035225
66	0x3f8128fa	1.009063
67	0x3f82cbf4	1.0218492
68	0x3f82281e	1.0168493
69	0x3f81cbc7	1.0140313
70	0x3f854145	1.0410544
71	0x3f80b57b	1.0055383
72	0x3f84ea06	1.0383918
73	0x3f78f3e1	0.9724713
74	0x3f81197b	1.0085901
75	0x3f837d53	1.0272621
76	0x3f772084	0.9653399
77	0x3f833d9f	1.025318
78	0x3f827b9b	1.0193971
79	0x3f8169a3	1.0110363
80	0x3f7f6a60	0.9977169
81	0x3f831ec1	1.024376
82	0x3f8214fd	1.0162655
83	0x3f8245d4	1.017756
84	0x3f7b3223	0.9812338
85	0x3f7abf5f	0.9794826
86	0x3f802a8f	1.0012988
87	0x3f872bc0	1.0560226
88	0x3f8041bd	1.0020062
89	0x3f844d19	1.0336028
90	0x3f7f6bf4	0.997741
91	0x3f807098	1.0034361
92	0x3f7faeec	0.99876285
93	0x3f816eba	1.0111916
94	0x3f8211a8	1.0161638
95	0x3f82a436	1.0206363
96	0x3f7ffffb	0.9999997
97	0x3f822b0c	1.0169387
98	0x3f7f27d9	0.9967018
99	0x3f809e77	1.004836
100	0x3f7eadcf	0.9948396
101	0x3f86bb81	1.0525972
102	0x3f804970	1.0022411
103	0x3f80280b	1.001222
104	0x3f81ad84	1.0131078
105	0x3f7ced5d	0.9879969
106	0x3f7d5014	0.98950315
107	0x3f81e8b9	1.0149146
108	0x3f82b12c	1.0210319
109	0x3f7dda86	0.99161565
110	0x3f7e1936	0.9925722
111	0x3f7e012f	0.99220556
112	0x3f83686a	1.026624
113	0x3f7a692c	0.9781673
114	0x3f7d6248	0.9897809
115	0x3f860b54	1.0472207
116	0x3f7eb5f0	0.99496365
117	0x3f7e4807	0.99328655
118	0x3f820aec	1.0159583
119	0x3f7e637a	0.9937054
120	0x3f835a1e	1.0261877
121	0x3f830314	1.0235314
122	0x3f7ab318	0.97929525
123	0x3f82fa71	1.0232679
124	0x3f838190	1.0273914
125	0x3f7f14d1	0.9964114
126	0x3f815463	1.0103878
127	0x3f81e144	1.0146871

norm1.bias f4 [128]
0	0xbb8e247b	-0.004337845
1	0xbb52a7d5	-0.0032143493
2	0xbb9c5bfc	-0.0047717076
3	0x3c181671	0.009282694
4	0xba96bf34	-0.0011501075
5	0xbb8f9209	-0.0043814224
6	0xbc275fef	-0.010215743
7	0x3b77ec7b	0.0037830162
8	0xbbf3f3c9	-0.007444833
9	0xbc1bf021	-0.0095177
10	0xbc0fbd2b	-0.0087731285
11	0xbb3abc71	-0.0028493667
12	0x3a6ad3ab	0.00089579326
13	0x3ab8d9bc	0.0014102976
14	0x3bf3565c	0.0074260663
15	0x3aa14568	0.001230401
16	0xbb82113b	-0.003969339
17	0x3a3cdc37	0.00072044454
18	0xbb6ddd5c	-0.003629527
19	0xbc0ddce2	-0.00865862
20	0xbb2287f0	-0.0024800263
21	0xba8fecff	-0.0010980665
22	0xbb1712a7	-0.002305189
23	0xbb909f44	-0.004413517
24	0x3ad2d114	0.0016084039
25	0xbc881484	-0.016611345
26	0x3bf59c67	0.0074954513
27	0xbb9f04f1	-0.004852884
28	0x3c8e9f0c	0.017409824
29	0x3bf8856a	0.0075842636
30	0xbc42dbbe	-0.011893211
31	0x3c095213	0.008381384
32	0xba986c05	-0.0011628872
33	0x38e9906c	0.000111372065
34	0x39ed1858	0.000452223
35	0xbab3030a	-0.0013657522
36	0xbace7515	-0.0015751446
37	0x3b58096d	0.0032964603
38	0xb90c1097	-0.0001335762
39	0xbba6dbb8	-0.0050921105
40	0x3bcf23ef	0.0063214223
41	0xbc340fc8	-0.010990091
42	0xbb975238	-0.0046179555
43	0xbc1c3d45	-0.009536092
44	0x3b16b107	0.00229937
45	0xbb0f5e3b	-0.0021876234
46	0x3b9afa89	0.004729573
47	0xbc3a38af	-0.0113660535
48	0x3c7a3e9f	0.015273719
49	0xbb91f9c5	-0.0044548237
50	0xbc2de171	-0.010612831
51	0xbb4c41c5	-0.0031167131
52	0xbbb268f9	-0.0054446426
53	0xbbbe9039	-0.0058155325
54	0xbb82d923	-0.00399317
55	0xb98f46ff	-0.00027327982
56	0xbb9088da	-0.004410845
57	0x3c11e969	0.008905747
58	0xbc088b52	-0.008333998
59	0xbb2438cf	-0.0025058275
60	0xbb8b087d	-0.0042429552
61	0x3addb036	0.0016913477
62	0xbbcb5797	-0.00620551
63	0xbc2bba6d	-0.010481459
64	0x38e31e6c	0.0001082987
65	0x3c3920ab	0.011299293
66	0x3c034169	0.0080112
67	0xbc5d3522	-0.013501437
68	0xbb365715	-0.00278229
69	0xbc099c84	-0.008399133
70	0xbbe63b5b	-0.0070261187
71	0x39817511	0.0002469202
72	0xbbebb113	-0.0071927398
73	0xbbfad8f7	-0.0076552588
74	0xbab5bd5e	-0.001386564
75	0xbb21d7fd	-0.002469539
76	0xb9f23342	-0.00046196027
77	0xbc2a169e	-0.010381369
78	0xbc006926	-0.007837569
79	0x3bf8e1d5	0.0075952807
80	0xba008778	-0.0004902999
81	0xbc266a8a	-0.010157237
82	0xbbc2c38b	-0.0059437207
83	0xb9154399	-0.0001423493
84	0xbb1cc54b	-0.0023921307
85	0xbbf1b723	-0.007376568
86	0xbad46598	-0.0016204594
87	0xbc32c664	-0.010911558
88	0x3b77ffb8	0.003784163
89	0xbb057ef2	-0.0020369855
90	0x3b5f0835	0.0034031991
91	0xbc8686eb	-0.016421756
92	0xbc5901c8	-0.013245054
93	0xb9898849	-0.00026232217
94	0xbb4021f6	-0.0029317117
95	0x37cd4539	2.4470139e-05
96	0xbb8ed767	-0.004359174
97	0xba4e5090	-0.0007870281
98	0xbbc9c394	-0.006157348
99	0xba04c37f	-0.00050645316
100	0x3bb9efa9	0.0056743217
101	0xbb4075a9	-0.0029367006
102	0x3b715cbf	0.0036828963
103	0xbb4ecccc	-0.0031555174
104	0xbbc8f005	-0.006132128
105	0x39e09ab3	0.0004283987
106	0xbc2293db	-0.009922947
107	0xbb10a574	-0.0022071274
108	0xbc40e7d5	-0.011774023
109	0x3b08817b	0.002082913
110	0xbba66c5d	-0.005078836
111	0x3bbff9fe	0.005858659
112	0x3c39272a	0.011300841
113	0x3be1913e	0.0068837693
114	0xbb0c4c97	-0.0021407956
115	0xbbd45fa8	-0.0064811297
116	0x3bafa028	0.0053596683
117	0xbc2c3ead	-0.01051299
118	0x3c062962	0.008188577
119	0xbc70b36c	-0.014691215
120	0x3b5d5033	0.0033769726
121	0xbb15f3d2	-0.0022880924
122	0xba635ac2	-0.0008672887
123	0xbba56c84	-0.0050483365
124	0xbc0dfaf3	-0.008665788
125	0xbbb7455a	-0.005592984
126	0x3a834ec1	0.0010017977
127	0x3bb81965	0.0056182616

linear2.weight f4 [128, 128]
0	0xbd860026	-0.06542997
1	0xbd4e392d	-0.050347496
2	0xbca00599	-0.01953392
3	0xbdba5ddb	-0.09099933
4	0xbd099062	-0.03358496
5	0x3be43e04	0.0069654007
6	0xbbe7d9a5	-0.007075506
7	0x3dbf68ea	0.09346183
8	0x3ae8e254	0.0017767646
9	0xbcc21fd5	-0.02369682
10	0xbd1cb73c	-0.038260683
11	0x3ce96d47	0.02849449
12	0x3d4652c6	0.048418783
13	0x3bc1db4d	0.0059160353
14	0x3d9f36f0	0.0777415
15	0xbc8881ca	-0.01666345
16	0xbbc3df74	-0.0059775654
17	0xbd5df8ee	-0.054192476
18	0xbd8fa890	-0.070145726
19	0xbd25316f	-0.040330347
20	0xbbcd213a	-0.0062600644
21	0xbda14190	-0.07873833
22	0xbd9cf676	-0.07664196
23	0xbbfe1841	-0.007754356
24	0xbc68c133	-0.0142062185
25	0x3d2f06e6	0.04273119
26	0x3ce84e84	0.028357752
27	0x3cb00486	0.021486532
28	0x3d542f73	0.051803064
29	0x3d484acb	0.048899453
30	0xbc1c1381	-0.0095261345
31	0xbd016551	-0.031590763
32	0xbd266b4b	-0.040629666
33	0x3d8865e4	0.06660059
34	0x3b4f7c6c	0.0031659855
35	0xbd199a77	-0.037500825
36	0xbc81b86c	-0.01583501
37	0x3d85fc04	0.06542209
38	0x3dbb9101	0.09158517
39	0x3db7c411	0.089729436
40	0xbccff3ce	-0.02538481
41	0x3d9e246b	0.0772179
42	0xbcb06dad	-0.021536672
43	0x3d901738	0.070356786
44	0x3d0f30ff	0.034958836
45	0xbd5da810	-0.054115355
46	0xbb8cf9fd	-0.004302262
47	0x3d1577b0	0.036491096
48	0xbd9379ba	-0.07200952
49	0x3cb8c38d	0.022554183
50	0xbcf6cd71	-0.030127259
51	0x3ce82227	0.028336598
52	0xbd956a6f	-0.07295691
53	0x3ba14ab8	0.0049222372
54	0x3d902e10	0.07040036
55	0x3d4345f9	0.047674153
56	0xbdb91928	-0.09038001
57	0xbc7ef537	-0.015561393
58	0x3cb39f88	0.021926656
59	0xbdbf44dd	-0.093393065
60	0xba2a4845	-0.00064957544
61	0xbd89438f	-0.06702339
62	0xbc4f9407	-0.01266957
63	0x3c90a63c	0.017657392
64	0xbd931bea	-0.071830586
65	0xbdadc2a6	-0.08484392
66	0xbd8be7ec	-0.06831345
67	0xbc2efc45	-0.010680263
68	0x3d7d61a5	0.0618607
69	0x3d661982	0.05617667
70	0x3bb8e00b	0.0056419424
71	0xbd8ab4ab	-0.06772741
72	0x3cd27a6b	0.025693139
73	0x3d965a94	0.07341495
74	0x3cc4f916	0.024044555
75	0x3d5aec54	0.053448036
76	0x3d9ee624	0.077587396
77	0xbc892a6b	-0.01674386
78	0xbccfe079	-0.025375592
79	0xbd88e559	-0.066843696
80	0xbd1710ca	-0.036881246
81	0xbb344924	-0.0027509416
82	0x3d8fccf1	0.07021511
83	0x3c975196	0.01847152
84	0xbcb4e1c2	-0.022080306
85	0xbb9f20ec	-0.0048562195
86	0xbcec4c3a	-0.028844941
87	0x3cf83a55	0.030301252
88	0x3db6274d	0.08894215
89	0xbd8bc6db	-0.06825038
90	0x3ce617f8	0.028087601
91	0x3d1c3a60	0.03814161
92	0xbda950d5	-0.082673706
93	0xbd7ace94	-0.061232165
94	0xbd204571	-0.039128724
95	0x3d03930e	0.032122664
96	0xbcfd6db6	-0.030936103
97	0x3d0475cb	0.0323389
98	0x3d79fd82	0.06103278
99	0x3cd22082	0.025650267
100	0xbc10e81e	-0.008844404
101	0x3c61db6e	0.013785226
102	0xbd709905	-0.05873968
103	0x3d10089b	0.035164457
104	0xbd2bb7e8	-0.041923434
105	0xbd5f2a07	-0.05448344
106	0x3da90b08	0.08254057
107	0xbb8fe0a3	-0.0043907925
108	0x3d3fcb46	0.046824716
109	0xbd54bc11	-0.051937167
110	0x3d101cd6	0.03518375
111	0x3d3a756e	0.045522146
112	0xbce8f74f	-0.028438238
113	0xbd490af3	-0.049082708
114	0xbc159f60	-0.009132236
115	0x3d67db6a	0.056605734
116	0xbd27137d	-0.04079007
117	0x3d21db4f	0.03951579
118	0xbcfe3dff	-0.031035421
119	0x3d677296	0.056505762
120	0x3d0ad59e	0.033895127
121	0xbc89b229	-0.016808586
122	0xbdba8f08	-0.09109312
123	0xbd4cdae7	-0.05001345
124	0xbd9d7ba8	-0.07689601
125	0xbd9a01bc	-0.07519862
126	0x3ce08921	0.027409138
127	0x3ceda6b1	0.029010149
128	0xbcbcf16a	-0.023064334
129	0xbbe333e4	-0.006933676
130	0xbc893844	-0.016750462
131	0x3d2a84d2	0.041630574
132	0xbc175d9d	-0.009238628
133	0x3d45df5c	0.048308715
134	0x3da10458	0.07862157
135	0x3d13e913	0.03611095
136	0xbd202045	-0.039093275
137	0xbcaea09c	-0.021316819
138	0x3d3a48d1	0.0454796
139	0xbd969cd1	-0.07354129
140	0xbc69729e	-0.014248518
141	0x3c0ba794	0.00852384
142	0xbc8733ed	-0.016504252
143	0xbd8e3b27	-0.06944876
144	0xbb96aebb	-0.004598466
145	0xbd3910ed	-0.045182157
146	0x3db2d5bd	0.087321736
147	0x3d7da583	0.061925422
148	0xbd71a3af	-0.05899399
149	0x3da99b79	0.08281607
150	0x3dc02a07	0.09383016
151	0xbd9775bc	-0.07395503
152	0xbd842f9d	-0.06454394
153	0xbbebf79e	-0.007201149
154	0x3cd94550	0.026522309
155	0x3ba657d6	0.005076389
156	0x3cccc918	0.024998233
157	0xbd84aea1	-0.0647862
158	0xbd84bfe3	-0.06481912
159	0xbafa9a68	-0.0019119503
160	0xbda79cce	-0.08184205
161	0x3d46478c	0.048408076
162	0x3da4e598	0.08051604
163	0xbce460ff	-0.027878283
164	0x3d7acce8	0.06123057
165	0xbd9cd36d	-0.07657514
166	0x3d578ebc	0.052626356
167	0x3cb9f085	0.022697696
168	0x3d17a473	0.037022065
169	0xbc5446ed	-0.012956363
170	0x3d002548	0.031285554
171	0xbcc841d1	-0.024445446
172	0x3c71895b	0.014742221
173	0x3d856281	0.06512929
174	0xbd84e993	-0.06489863
175	0xbb025fc5	-0.001989351
176	0x3c989300	0.018624783
177	0xbca5311e	-0.020165022
178	0xbd7daaa7	-0.061930325
179	0x3d312e8d	0.043257285
180	0xbd2e43e4	-0.042545214
181	0x3d16ee21	0.03684819
182	0xbd8db51f	-0.06919312
183	0xbd11d8c6	-0.035607122
184	0x3d995666	0.07487182
185	0xbcafb6e8	-0.021449521
186	0x3d08903b	0.033340674
187	0x3d97f531	0.074198134
188	0x3d8fb533	0.07016983
189	0x3c79b743	0.015241447
190	0x3b4d503f	0.0031328348
191	0xbd42b1e2	-0.047532924
192	0x3d1893dd	0.03725039
193	0x3bd39b21	0.006457702
194	0x3c758b58	0.014986835
195	0xbd798e18	-0.060926527
196	0xbd8d1551	-0.068888314
197	0xbd5ab194	-0.053392008
198	0x3d978074	0.07397547
199	0x3d288bf3	0.04114909
200	0x3d838e17	0.06423586
201	0xbcaff64e	-0.021479752
202	0xbcc35de5	-0.023848483
203	0x3d460aa5	0.048349995
204	0x3d8e5c99	0.06951255
205	0x3b8a44c6	0.004219624
206	0x3d1057e0	0.035240054
207	0xbdb8a66a	-0.09016116
208	0xbd9090cb	-0.07058867
209	0xbd86c101	-0.06579781
210	0xbd4a62eb	-0.04941074
211	0xbd2bdc36	-0.041958056
212	0xbc397354	-0.011319
213	0x3c7a30fd	0.015270469
214	0x3b96d256	0.0046027107
215	0xbba75548	-0.005106602
216	0xbc3286fd	-0.0108964415
217	0xbcc46b50	-0.023976952
218	0xbc106983	-0.008814218
219	0x3d475992	0.048669405
220	0xbd7cda29	-0.06173149
221	0xbd10e80f	-0.03537756
222	0x3cb49c44	0.02204717
223	0x3d536696	0.051611505
224	0x3d9e4494	0.07727924
225	0x3cbdb109	0.023155706
226	0xbd06d0bb	-0.032913905
227	0xbcc8296c	-0.024433814
228	0xbdbc8f1a	-0.09206982
229	0x3c9cb40c	0.019128822
230	0x3c40b686	0.011762267
231	0x3d11c5fd	0.035589207
232	0xbdb01baf	-0.0859903
233	0xbd9cc17f	-0.07654094
234	0xbca28bfc	-0.01984214
235	0xbcfb8730	-0.03070411
236	0x3c7a5b13	0.015280503
237	0x3d2086a9	0.039190922
238	0xbda59145	-0.080843486
239	0xbd7ab380	-0.06120634
240	0xbcabf00d	-0.020988489
241	0x3d859e03	0.06524279
242	0xbd237674	-0.039907888
243	0x3c25b068	0.010112859
244	0xbc837f49	-0.016051905
245	0x3da8adb4	0.08236256
246	0xbda7b1e3	-0.08188226
247	0x3ccc2259	0.024918722
248	0xbca093fe	-0.019601818
249	0x3ca6eaa1	0.020375552
250	0xbd188a62	-0.037241347
251	0xbda383be	-0.07984112
252	0xb95f5766	-0.00021299496
253	0x3d621dc7	0.05520418
254	0x3b913421	0.004431263
255	0xbcc5a61c	-0.024127059

linear2.bias f4 [128]
0	0xbd9d7628	-0.07688552
1	0x3d676886	0.056496166
2	0xbd7f7c13	-0.062374186
3	0x3d846ba9	0.06465847
4	0x3d9f3f14	0.07775703
5	0xbd1c9f31	-0.038237754
6	0xbd9b36f6	-0.07578842
7	0x3d4eaf6a	0.050460257
8	0x3d01399c	0.03154908
9	0xbd1d8114	-0.038453177
10	0x3b96b016	0.004598628
11	0x3c0ed5f3	0.008718002
12	0x3cbe1c76	0.02320693
13	0xbc73cfe3	-0.014881107
14	0xbc880f94	-0.01660899
15	0xbd0b26d2	-0.03397257
16	0x3d2abcb9	0.041683886
17	0xbd078e86	-0.033094905
18	0xbdb0fbe2	-0.08641793
19	0x3dabf93d	0.08397148
20	0xbd14e2f5	-0.036349256
21	0x3d9060e5	0.07049731
22	0xbcb8e652	-0.022570763
23	0x3d8d70e1	0.069062956
24	0x3d3cf293	0.046129774
25	0xbc93fa7b	-0.018063774
26	0xbd92425c	-0.07141563
27	0xbd44c31e	-0.04803764
28	0xbc629609	-0.0138297165
29	0x3d652eb1	0.05595273
30	0xbda5d676	-0.08097546
31	0x3d96aad0	0.07356799
32	0xbd962f9c	-0.073332995
33	0xbd0fdc88	-0.035122424
34	0x3b5359af	0.00322495
35	0x3d2ac1cf	0.041688737
36	0xbb991e31	-0.0046727885
37	0xbbc95d1b	-0.0061451322
38	0xbd8c5a72	-0.068531886
39	0x3d5cc192	0.05389554
40	0x3c76715f	0.015041678
41	0xbd98e287	-0.07465082
42	0x3d9cf902	0.07664682
43	0x3d95912b	0.07303079
44	0xbd774d69	-0.06037656
45	0xbd593209	-0.053026233
46	0xbcd27a7b	-0.025693169
47	0xbc5e21e6	-0.013557887
48	0x3d9f9986	0.07792954
49	0x3b927ee9	0.0044706953
50	0x3c34b7e4	0.011030171
51	0xbb22dd41	-0.0024851116
52	0x3d600fa2	0.05470241
53	0x3d9802b7	0.07422393
54	0x3d7e396f	0.06206649
55	0xbba69582	-0.0050837407
56	0xbc30dd62	-0.010794969
57	0xbd7371eb	-0.059434813
58	0x3d2b3ac5	0.041804094
59	0xbda12335	-0.07868043
60	0xbdac5d3d	-0.08416221
61	0xbd835d61	-0.06414295
62	0xbd8e490d	-0.06947527
63	0x3acd6486	0.0015670217
64	0x3daa0899	0.08302421
65	0xbced2dd2	-0.028952513
66	0xbd85766d	-0.065167286
67	0xbbc7f7c3	-0.0061025335
68	0x3d37b0c7	0.044846322
69	0x3d2d515e	0.042313926
70	0x3ce22641	0.027606132
71	0x3d27e792	0.040992327
72	0x3ca575ec	0.020197831
73	0x3d39fa61	0.045404796
74	0xbda60ee6	-0.081083104
75	0x3da8347a	0.08213134
76	0x3cdc806a	0.026916701
77	0x3d220f42	0.039565332
78	0x3d2736d2	0.040823765
79	0xbc812710	-0.015765697
80	0x3c9825ec	0.01857277
81	0x3da87ee0	0.082273245
82	0xbd27e973	-0.04099412
83	0x3da603e3	0.0810621
84	0x3ce38486	0.027773153
85	0x3cfb559f	0.030680476
86	0xbdb4f0bd	-0.0883498
87	0x3d0d74a0	0.03453505
88	0x3cdd685e	0.027027305
89	0xbdba6a49	-0.091023035
90	0xbb7782f0	-0.0037767254
91	0x3d1ecb9e	0.038768403
92	0x3d512607	0.051061656
93	0xbd28eb8e	-0.041240267
94	0xbd20a9d9	-0.03922448
95	0x3c1d294a	0.009592364
96	0xbd0e57c9	-0.034751687
97	0x3dab12dd	0.08353207
98	0xbd2c738e	-0.04210239
99	0x3d80724d	0.06271801
100	0x3cce60ca	0.025192637
101	0x3d75a8c3	0.059975397
102	0x3d60ae61	0.0548538
103	0xbc90a084	-0.017654665
104	0x3d821615	0.06351868
105	0xbda76440	-0.08173418
106	0xbc1d2a00	-0.009592533
107	0xbc6868f0	-0.014185175
108	0x3d9a9d6d	0.07549558
109	0xbd665ee5	-0.056242842
110	0x3d2313d7	0.039813843
111	0xbd7f3cac	-0.06231372
112	0xbc1df04d	-0.009639812
113	0xbc13fc5d	-0.009032336
114	0xbd41bc0b	-0.047298472
115	0xbccdb8ac	-0.025112472
116	0xbc941262	-0.018075172
117	0xbd3805bd	-0.044927347
118	0xbd808735	-0.06275789
119	0x3c7f1aa8	0.01557032
120	0xbc43c526	-0.011948859
121	0x3cd642ee	0.026154961
122	0xbd1c7a4f	-0.03820258
123	0xbda1290a	-0.07869156
124	0x3d56fc61	0.05248678
125	0x3d2a09ab	0.041513126
126	0x39633734	0.00021668972
127	0xbd4b61c2	-0.049653776

norm2.weight f4 [128]
0	0x3f85d0ac	1.0454307
1	0x3f82f2d8	1.023036
2	0x3f84db97	1.0379514
3	0x3f826455	1.0186869
4	0x3f849e51	1.0360814
5	0x3f830289	1.0235149
6	0x3f807edf	1.0038718
7	0x3f816dba	1.0111611
8	0x3f837da0	1.0272713
9	0x3f8677c1	1.0505296
10	0x3f837f09	1.0273143
11	0x3f815f3e	1.0107191
12	0x3f8559fd	1.0418087
13	0x3f84fb15	1.0389124
14	0x3f80f4cb	1.0074705
15	0x3f85c8a3	1.0451854
16	0x3f82cfbf	1.0219649
17	0x3f818b8e	1.0120714
18	0x3f842e73	1.0326675
19	0x3f75f85b	0.96082085
20	0x3f8673bf	1.0504073
21	0x3f81c40f	1.0137957
22	0x3f8487a7	1.0353898
23	0x3f81c77d	1.0139004
24	0x3f86948e	1.0514085
25	0x3f86b70b	1.052461
26	0x3f81f576	1.0153034
27	0x3f82f402	1.0230715
28	0x3f844bd3	1.033564
29	0x3f84251e	1.0323827
30	0x3f806042	1.0029376
31	0x3f82df72	1.022444
32	0x3f857bc3	1.0428394
33	0x3f84a760	1.0363579
34	0x3f819db5	1.0126253
35	0x3f82ba6d	1.0213143
36	0x3f86e17e	1.0537565
37	0x3f819e3f	1.0126418
38	0x3f83c259	1.0293685
39	0x3f857891	1.0427419
40	0x3f8267b0	1.0187893
41	0x3f81fe93	1.0155815
42	0x3f83036d	1.023542
43	0x3f86566a	1.0495121
44	0x3f815fa9	1.0107318
45	0x3f865f89	1.0497905
46	0x3f8432ff	1.0328063
47	0x3f867dba	1.0507119
48	0x3f81441c	1.009891
49	0x3f8316d9	1.0241348
50	0x3f819e1e	1.0126379
51	0x3f7ea4f7	0.99470466
52	0x3f8016dd	1.0006977
53	0x3f866d18	1.0502043
54	0x3f864d6c	1.0492377
55	0x3f82d17f	1.0220183
56	0x3f866c9f	1.0501899
57	0x3f861d1f	1.0477637
58	0x3f810d29	1.0082141
59	0x3f8157fa	1.0104973
60	0x3f85c10e	1.0449541
61	0x3f83ab29	1.0286609
62	0x3f785351	0.9700213
63	0x3f854559	1.0411788
64	0x3f82d8d7	1.0222424
65	0x3f86b0fd	1.0522763
66	0x3f84ed18	1.0384855
67	0x3f85b22b	1.0444998
68	0x3f8556b1	1.0417081
69	0x3f8052aa	1.0025227
70	0x3f850a60	1.0393791
71	0x3f83d6ed	1.0299965
72	0x3f84594c	1.0339751
73	0x3f80e6e3	1.0070461
74	0x3f848a09	1.0354625
75	0x3f88b541	1.0680314
76	0x3f83744c	1.0269866
77	0x3f84ea1a	1.0383942
78	0x3f837fe5	1.0273405
79	0x3f7a22d9	0.97709423
80	0x3f870151	1.0547277
81	0x3f83583f	1.0261306
82	0x3f856231	1.0420591
83	0x3f897224	1.0737958
84	0x3f84f394	1.0386834
85	0x3f802335	1.0010744
86	0x3f851a82	1.0398715
87	0x3f83210d	1.0244461
88	0x3f81915a	1.0122483
89	0x3f8214f4	1.0162644
90	0x3f83608f	1.0263842
91	0x3f84ff85	1.0390478
92	0x3f7e167b	0.9925305
93	0x3f8420d1	1.0322515
94	0x3f8170d8	1.0112562
95	0x3f85251e	1.0401952
96	0x3f864635	1.0490175
97	0x3f84e63e	1.0382764
98	0x3f815a05	1.0105597
99	0x3f8034c2	1.00161
100	0x3f838792	1.0275748
101	0x3f7e6f35	0.9938844
102	0x3f8395ff	1.028015
103	0x3f7cc41e	0.9873675
104	0x3f863d97	1.0487546
105	0x3f85b1bd	1.0444866
106	0x3f85a913	1.0442222
107	0x3f85c717	1.0451382
108	0x3f863a40	1.0486526
109	0x3f7abfb5	0.9794877
110	0x3f83d7c6	1.0300224
111	0x3f81d599	1.014331
112	0x3f86316c	1.0483832
113	0x3f871df3	1.0556015
114	0x3f852388	1.0401468
115	0x3f84a0b7	1.0361546
116	0x3f81e5d5	1.0148264
117	0x3f824393	1.0176872
118	0x3f844a39	1.0335151
119	0x3f82f533	1.0231079
120	0x3f85529c	1.0415835
121	0x3f826aca	1.018884
122	0x3f848fbb	1.0356363
123	0x3f84eb0d	1.0384232
124	0x3f805251	1.0025121
125	0x3f83f306	1.030854
126	0x3f868370	1.0508862
127	0x3f856a08	1.0422983

norm2.bias f4 [128]
0	0x3c1038ca	0.008802602
1	0x3c374523	0.011185917
2	0x3cc15c53	0.023603594
3	0x3ca3a30e	0.019975211
4	0xbb44d34a	-0.0030033165
5	0xbc07a1d6	-0.008278331
6	0xbbd74143	-0.006569059
7	0xbc4b973a	-0.012426192
8	0xbc15d32e	-0.009144587
9	0xbb1efb30	-0.0024258606
10	0xbbc2a05c	-0.0059395265
11	0x3c9cc484	0.019136675
12	0x3c80e690	0.01573494
13	0x3bd2be78	0.006431397
14	0x3c61e8eb	0.013788442
15	0x3bd5ec3e	0.0065284064
16	0x3a977b11	0.0011557062
17	0xbc85087d	-0.0162394
18	0x38f25ef9	0.00011557149
19	0x3aab1717	0.0013053146
20	0x3c43079e	0.011903672
21	0x3b112672	0.002214816
22	0x3c5b595a	0.013388002
23	0x3c18de51	0.009330348
24	0xbc7f6245	-0.015587394
25	0xbc8b7be4	-0.01702685
26	0x3c87bcd5	0.016569534
27	0x3b86be3f	0.0041120346
28	0x3c61d4a1	0.013783605
29	0x3be6fccc	0.0070491787
30	0x3ce2a310	0.027665645
31	0xbc019502	-0.007909061
32	0x3ca04036	0.019561868
33	0xbbd9c06b	-0.0066452525
34	0xbbd8c554	-0.00661532
35	0x3cfa036c	0.03051921
36	0x3b8804b2	0.0041509503
37	0xbc2ca76e	-0.010537965
38	0xbb930993	-0.0044872253
39	0x3ace7343	0.0015750903
40	0x3c46a334	0.012123872
41	0x3c18d4a0	0.0093280375
42	0x3a93020f	0.0011215823
43	0x3b9f651e	0.004864349
44	0xbb8bba3a	-0.0042641433
45	0xbb8aa03c	-0.004230527
46	0xbc4dc130	-0.0125582665
47	0x3c1cdc97	0.009574077
48	0x390da347	0.00013507633
49	0x3c35d183	0.011097315
50	0x3cb009a2	0.021488968
51	0x3cc19cfa	0.023634423
52	0xbc0ada18	-0.008474849
53	0x3b7d7ccd	0.0038679123
54	0x3c0037b6	0.0078257825
55	0xbc0692a5	-0.008213674
56	0x3c8cc636	0.017184358
57	0x3b2eb46a	0.0026657828
58	0x3cad522c	0.021157347
59	0xbb2f8ee4	-0.002678805
60	0xbb4fbaae	-0.0031696963
61	0xbbf77ec0	-0.0075529516
62	0x3c738746	0.014863795
63	0x3c46e18b	0.012138735
64	0xbc0cab1d	-0.008585718
65	0x3bb23bf1	0.0054392745
66	0xbc2c7243	-0.010525289
67	0xbbf9ded6	-0.007625441
68	0xbbf4e96b	-0.0074741147
69	0xbc6d07c3	-0.014467183
70	0x3c0b83c0	0.008515298
71	0x3c94e9c7	0.01817788
72	0x3c15d373	0.009144652
73	0xbc1ba594	-0.009499926
74	0x3c574bb5	0.013140609
75	0x3c0fa498	0.00876727
76	0xbc48ff05	-0.012267833
77	0x3cab9c40	0.02094853
78	0xba16a108	-0.00057460414
79	0x3c59a24c	0.0132833235
80	0x3c73cde8	0.014880635
81	0xbbc7443e	-0.006081133
82	0x3c824b35	0.015905002
83	0x3c86d455	0.01645867
84	0xbc4a5fd9	-0.012351953
85	0xbb2bc0e9	-0.0026207513
86	0x3c4016fa	0.011724228
87	0xbc46fb55	-0.012144883
88	0x3cc373bc	0.023858897
89	0xbc2de3c9	-0.01061339
90	0xbc15c08a	-0.009140143
91	0xbc0b22d9	-0.008492195
92	0x3bd6d9a0	0.0065567046
93	0x3c752a3b	0.014963682
94	0x3ca20b49	0.019780772
95	0xbc1334e9	-0.008984783
96	0x3c4c28d8	0.01246091
97	0x3cbb44f9	0.022860037
98	0xbc062098	-0.008186482
99	0xbbfaf0e2	-0.00765811
100	0x3c17793b	0.009245212
101	0xbc42fdcf	-0.011901333
102	0xbbe786ac	-0.0070656147
103	0x3cbd05f6	0.023074131
104	0x3cb9c441	0.022676589
105	0xbbe90c4d	-0.007112062
106	0x3ca50037	0.020141704
107	0x3c5d9dae	0.013526363
108	0x3b213d8f	0.0024603342
109	0x3c93d247	0.018044604
110	0x3ba248e5	0.0049525374
111	0xbcae1583	-0.021250492
112	0x3c55674d	0.013025117
113	0xbc37207d	-0.011177179
114	0xbbf8daf4	-0.0075944606
115	0x3bb960c6	0.0056572882
116	0xbc0b55cc	-0.008504342
117	0xbbd0d037	-0.0063724774
118	0x3c5ee041	0.013603271
119	0xbbfb9182	-0.007677258
120	0x3c19d4fd	0.009389159
121	0xbbfc4e13	-0.007699737
122	0xbbb813db	-0.0056176013
123	0xbbb26209	-0.0054438156
124	0xbbd25977	-0.0064193564
125	0x3c832f2f	0.01601371
126	0x3c500e69	0.012698748
127	0xbc266de2	-0.010158034

linear3.weight f4 [48, 128]
0	0xbcbc5b7a	-0.022992838
1	0x3d48f9f7	0.04906651
2	0x3db8c159	0.09021253
3	0xbcb23af7	-0.021756632
4	0x3d9d2474	0.076729685
5	0xbda7e2a1	-0.08197523
6	0x3d8184ac	0.06324133
7	0x3cfd669e	0.03093272
8	0x3ce840df	0.028351245
9	0x3bd4e345	0.006496819
10	0xbda28328	-0.07935172
11	0xbc579c35	-0.013159801
12	0x3d3070e3	0.043076407
13	0xbd463a0c	-0.0483952
14	0x3d9fe4d4	0.078073174
15	0x3ddef52d	0.10886607
16	0x3d59f1e1	0.05320919
17	0x3d625d15	0.05526455
18	0xbd738c5e	-0.059460036
19	0x3dabac93	0.08382525
20	0x3dab8098	0.08374137
21	0x3d028eb8	0.03187439
22	0x3d2f3799	0.04277763
23	0xbcc63997	-0.024197383
24	0xba2ce06f	-0.00065947225
25	0x3c8b5c6b	0.017011842
26	0x3d94e7ab	0.0727075
27	0x3da0ab40	0.07845163
28	0xbcb32830	-0.021869749
29	0xbc8444be	-0.01614606
30	0x3d3b7f3c	0.045775637
31	0x3d90e8c5	0.07075647
32	0xbcc1dcc7	-0.023664845
33	0xbcad7e72	-0.021178458
34	0x3d7506e6	0.059821032
35	0x3d4ea4c3	0.050450098
36	0x3c1c287c	0.009531137
37	0xbd4836be	-0.04888033
38	0xbdd7055d	-0.1049907
39	0x3dad2a35	0.08455316
40	0x3d18f638	0.037344187
41	0xbba170e4	-0.0049267877
42	0x3d4c2deb	0.04984848
43	0xbcd54c97	-0.026037497
44	0x3daa00ee	0.083009586
45	0xbdc56cb0	-0.09639871
46	0x3b6809f6	0.0035406328
47	0x3ca23fa8	0.019805744
48	0xbcd5fcdd	-0.026121551
49	0xbd9a4482	-0.07532598
50	0xbd1c0b98	-0.038096994
51	0xbd1ec34c	-0.03876047
52	0x3d732bb7	0.05936786
53	0x3cc47e10	0.023985893
54	0xbc3e0853	-0.011598664
55	0x3d2a3ed3	0.04156382
56	0x3daf51b6	0.08560507
57	0x3cb558c1	0.022137048
58	0xbd65a78d	-0.056067992
59	0xbda41758	-0.08012265
60	0xbd282395	-0.04104956
61	0xbd6d7a61	-0.057978038
62	0x3d619598	0.055074304
63	0xbc546d82	-0.012965562
64	0xbd9861eb	-0.07440551
65	0xbd4f1cce	-0.05056458
66	0xbb7668c3	-0.0037599064
67	0x3cdea7ca	0.027179617
68	0x3cfcad75	0.03084443
69	0xbdb33deb	-0.08752044
70	0xbd7bdec6	-0.06149175
71	0x3d84505e	0.06460641
72	0x3d9a23f1	0.075263865
73	0xbd638b6d	-0.05555289
74	0x3dbdb98e	0.092639074
75	0x3dc427eb	0.09577926
76	0x3ca7b650	0.020472676
77	0xbce9cede	-0.028541025
78	0x3d9c2ffb	0.07626339
79	0x3d9fe23b	0.07806822
80	0xbd2e6551	-0.04257709
81	0x3cf726bf	0.030169843
82	0xbc9ee79c	-0.01939755
83	0xbc3c0e2a	-0.011477986
84	0x3c854e11	0.016272577
85	0x3d77eb2f	0.060527023
86	0xbb1c3659	-0.0023836105
87	0xbdb52d6a	-0.08846553
88	0x3da3f4ff	0.08005714
89	0xbba4311b	-0.0050107366
90	0x3d56f59a	0.052480318
91	0x3ca5ee4b	0.020255229
92	0xbd81f0ce	-0.06344758
93	0x3ca47890	0.02007702
94	0xbd6881b9	-0.05676434
95	0xbcb8eba0	-0.022573292
96	0xbcb7e28b	-0.022446891
97	0x3d687d24	0.05675997
98	0x3dade971	0.08491791
99	0x3d757f89	0.05993608
100	0x3c8738a4	0.0165065
101	0xbdaa5eec	-0.08318886
102	0xbd15d9af	-0.036584552
103	0x3d640520	0.05566895
104	0xbcab2686	-0.020892393
105	0xbd5c1223	-0.053728234
106	0xbd0b4f94	-0.03401144
107	0xbc11c2f7	-0.008896581
108	0x3bc3a291	0.005970307
109	0x3d98434e	0.07434712
110	0x3daf098d	0.085467435
111	0xbb9accbd	-0.0047241137
112	0x3d52ea52	0.051492997
113	0x3c070b1f	0.008242398
114	0xbda631cd	-0.081149675
115	0xbc162d7b	-0.009166117
116	0xbda1cc0e	-0.079002485
117	0x3d9bc739	0.07606358
118	0x3d979be9	0.074027844
119	0xbd37ca9f	-0.04487097
120	0x3d1467c3	0.036231767
121	0xbd83db3d	-0.06438301
122	0xbdc4140c	-0.09574136
123	0xbd88827a	-0.066655114
124	0x3c8583d9	0.016298221
125	0xbc7312fd	-0.01483607
126	0x3af9fad6	0.0019071947
127	0x3d7ad314	0.061236456
128	0x3cded739	0.027202236
129	0x3d1a06e0	0.037604213
130	0x3dcda0aa	0.1004041
131	0x3d8098d0	0.06279147
132	0x3d454cda	0.048168994
133	0xbd08a26f	-0.033358034
134	0x3d9205ad	0.07129989
135	0xbd5775cf	-0.052602585
136	0x3d845e62	0.064633146
137	0xbd6ee608	-0.058324844
138	0x3d72e719	0.059302423
139	0xbd071721	-0.03298104
140	0x3d06f7a1	0.032951
141	0x3d86a7b5	0.06574956
142	0xbd555b63	-0.052089106
143	0x3dbec447	0.09314781
144	0xbca99c00	-0.02070427
145	0x3d990c90	0.07473099
146	0xbd9beafa	-0.076131776
147	0x3ce9ca21	0.028538765
148	0x3bba47e2	0.0056848386
149	0x3c17d2eb	0.009266595
150	0x3cb4cedd	0.022071296
151	0xbd9475c9	-0.07249028
152	0xbdacc614	-0.08436218
153	0xbd55316d	-0.05204909
154	0xbd50d57a	-0.050984837
155	0x3d823180	0.063570976
156	0xbbee210f	-0.0072671245
157	0x3dab7b34	0.083731085
158	0x3d570cbc	0.05250238
159	0xbc761127	-0.015018738
160	0x3cbe061b	0.02319627
161	0xbdab926a	-0.08377536
162	0xbda2c39c	-0.07947466
163	0x3c978a36	0.018498521
164	0xbd24281c	-0.040077314
165	0xbd6e166a	-0.058126844
166	0x3b012be4	0.0019709999
167	0x3d9c2533	0.07624283
168	0x3d739fa4	0.059478417
169	0x3caab04c	0.020836018
170	0x3da1ae3e	0.07894562
171	0xbd28eb9f	-0.04124033
172	0x3d8325b7	0.06403678
173	0x3c84f992	0.016232286
174	0x3c4de0c4	0.012565795
175	0x372faf3c	1.0471613e-05
176	0xb99aa446	-0.00029495562
177	0xbd947c98	-0.07250327
178	0x3d50a210	0.050935805
179	0x3cf0cb5a	0.02939384
180	0xbd82ce04	-0.063869506
181	0xbd95e967	-0.073199086
182	0xbd34c1dc	-0.04413019
183	0xbceaf0c4	-0.02867926
184	0xbd76a4ad	-0.06021564
185	0xbccd2eb3	-0.025046682
186	0xbc83e9b2	-0.016102646
187	0x3d552389	0.052035842
188	0x3e0306f5	0.12795623
189	0x3c974ca8	0.01846917
190	0xbc9f450e	-0.019442108
191	0xbd425924	-0.047448292
192	0xbd9d0b89	-0.07668216
193	0x3ce48dab	0.027899584
194	0xbda6d9a6	-0.08146982
195	0x3d903b4d	0.07042561
196	0xbda40a1b	-0.0800974
197	0xbcf38c30	-0.029729933
198	0x3a59ac43	0.0008303562
199	0x3d94ff3f	0.07275247
200	0xbc3ba417	-0.011452696
201	0xbae35341	-0.0017343537
202	0x3dbc842b	0.092048965
203	0x3dfb3e70	0.122677684
204	0xbd67e164	-0.056611434
205	0xbab55d66	-0.0013837039
206	0x3d9c960d	0.076458074
207	0xbc0cb893	-0.008588928
208	0x3dc9311e	0.098238215
209	0x3c25e83d	0.010126171
210	0x3d9f4fe0	0.07778907
211	0x3c261f69	0.010139325
212	0x3be4a76c	0.006977966
213	0x3c5c318f	0.01343955
214	0xbd37f8cf	-0.044915017
215	0x3d5c613a	0.05380366
216	0xbd30e386	-0.043185733
217	0xbd5fc90b	-0.05463509
218	0xbdac2cd6	-0.08406989
219	0x3d1f1e51	0.03884727
220	0x3c6847dc	0.014177289
221	0x3ca49202	0.020089153
222	0x3c7c06bf	0.015382468
223	0x3da1c183	0.078982376
224	0xbc85a389	-0.016313331
225	0x3dc3eed1	0.09567035
226	0x3d5e2f6c	0.054244444
227	0x3c14e8f2	0.009088742
228	0x3da5f986	0.081042334
229	0x3c9d8aec	0.019231282
230	0xbd2fd024	-0.042923108
231	0x3daae224	0.08343914
232	0xbbb877be	-0.0056295088
233	0xbde3ae7f	-0.11117267
234	0xbbf9bb7c	-0.007621227
235	0xbd46d8c6	-0.048546575
236	0xbd53ebf1	-0.051738683
237	0xbd020a5c	-0.03174816
238	0x3d7a8b46	0.061167978
239	0x3da77362	0.081763044
240	0xbd3566fa	-0.04428766
241	0xbdb44aca	-0.088033274
242	0x3d06dd76	0.032926045
243	0x3d185509	0.03719047
244	0xbd9b4f7c	-0.0758352
245	0xbcf95e84	-0.030440576
246	0x3dc9805e	0.09838937
247	0xbd97d0f9	-0.07412905
248	0x3d10a08f	0.03530937
249	0xbc84b934	-0.016201593
250	0xbceb047a	-0.028688658
251	0x3d8c749b	0.06858178
252	0x3d4fe22d	0.050752807
253	0xbbfede19	-0.007777941
254	0x3d8d57c1	0.06901503
255	0xbd85e029	-0.06536896

linear3.bias f4 [48]
0	0xbb83abe8	-0.0040182956
1	0x3d82eeaa	0.06393178
2	0x3d2d7866	0.04235115
3	0x3d7ba757	0.061438885
4	0x3c4eb2e2	0.012615891
5	0x3da9ce77	0.08291333
6	0x3ce3ad6a	0.027792651
7	0x3d293044	0.041305795
8	0x3da77206	0.08176045
9	0xbd0a8025	-0.033813614
10	0xbc247fb0	-0.010040209
11	0x3c6949ce	0.014238788
12	0x3dbf65bf	0.093455784
13	0x3c945f9e	0.018112
14	0xbc552900	-0.013010263
15	0xbcf6aa19	-0.030110406
16	0xbd1d6bac	-0.038432762
17	0xbc4424ae	-0.011971636
18	0xbcb6d0fa	-0.022316445
19	0xbd8e1af5	-0.069387354
20	0xbd1fdf03	-0.03903104
21	0xbcd598ed	-0.026073897
22	0x3dc48530	0.09595716
23	0xbcb3ee35	-0.021964172
24	0xbd3db9f7	-0.046319928
25	0xbc9e6592	-0.019335542
26	0x3d98f9bc	0.07469508
27	0xbd5b2998	-0.053506464
28	0x3d9030e8	0.07040578
29	0x3d743daf	0.05962914
30	0x3db405fc	0.08790204
31	0x3d46b4a0	0.0485121
32	0x3d3806e9	0.044928465
33	0xbd897b81	-0.067130096
34	0x3d3ad7ab	0.045615833
35	0xbda282cf	-0.07935106
36	0xbca7560b	-0.02042677
37	0xbd604f0b	-0.05476288
38	0xbd421594	-0.04738386
39	0xbb6a8eab	-0.0035790603
40	0xbd254c05	-0.0403557
41	0xbd11c753	-0.03559048
42	0xbd0f3635	-0.034963805
43	0xbcfc27a4	-0.03078062
44	0xbdacefdf	-0.08444189
45	0xbd3c4c1c	-0.04597102
46	0x3d889221	0.06668497
47	0x3da98467	0.08277207
