第二章-回归模型/model_weight/mlp_leakyrelu.pth (torch, 143645 bytes, 6 tensors)

linear1.weight f4 [128, 96]
00000000: 45a4 4f3c 3464 323c 8448 71bd 4165 95bd
00000010: 5d43 9fbd a5df c2bd a4fd b8bc a734 41bd
00000020: d142 423b 690d 5e3d f7f4 a83c 0861 813b
00000030: 1836 c1bd a109 9fbb 2e90 1bbc 9818 1ebd
00000040: 3ef2 88bd ef25 58bd 6bcc 42bd 4afe a8bd
00000050: f970 46bd cae2 a83d 8200 c33d d440 ab3d
00000060: b80f c5bd ffea b8bd 6e98 25bd 6bff cdbd
00000070: 7f1a 953d 73f4 333d f1cf b43a 16dc f0ba
00000080: 2fc9 0f3d 66cb b53d e158 ef3b 7c4b 0e3d
00000090: 2c14 b43d 7704 993c b4a0 8b3b 2c18 e0bc
000000a0: 9128 863d a0e7 333c e9cb 523d 5f3a 54bd
000000b0: 0644 acbc 06ea b23c 9bf3 6fbd b098 e7bd
000000c0: 8c0d d9bd d448 3cbd f535 763d f9af cdbd
000000d0: 6238 a5bc 0df8 3cbd d867 87bd 9357 1dbd
000000e0: 61bb 2e3c c7cc 203a 2395 b7bd eb57 2cbd
000000f0: 049e 913d 1317 273b 48a0 41bd c81f c7bd
00000100: c49c 9b3d 85da debc c3c9 2d3d f2f2 883d
00000110: 2c84 cb3c a65f d7bd db12 bcbc 3017 bdbd
00000120: 6b89 b8bd 678f e2bd 96dd 03bb c277 9fbd
00000130: 6b17 0dbd bd83 f93c a27a 493d d32e 44bd
00000140: ace8 463d a3ae d6bd 0587 f23c 6f2d 8fbd
00000150: b9ee 5e3c c3ba d5bd bb25 b43d 9ff8 a03d
00000160: ed3a 1f3d 12bb d73c 1a8f 323d 0b16 803d
00000170: 0f22 5cbd f869 ce3c 34ad f2bd 1e0a 69bd
00000180: eacd f2bb dbfc 37bd 4938 753d 0fe6 b03d
00000190: dcd8 133d c155 08bd 6884 dbbc 2555 dbbc
000001a0: 9d1b 4cbc b3fa a93d 6c38 5a3d 0b92 a63d
000001b0: f633 8fbd 3f95 7dbd 9322 2bbc ed6f 96bd
000001c0: eb17 263d c5fe 3dbc 2bf9 b3bc 9c7e 83bd
000001d0: fd40 7bbd 1ef8 05bc eeef 3b3d 5462 0d3d
000001e0: b621 8bbd c916 813d f43f 80bd 4191 973d
000001f0: 364c 6e3c fbd6 3a3c da5f 583d 8141 1a3d
00000200: a6d3 9d3d 1184 03bd 5da8 803d 84ad 39bd
00000210: 4f4a ccbb 7516 d03c dfad dc3d 9368 2f3d
00000220: a612 40bd 4d2c a03c 9d2f bb3d e1a8 86bd
00000230: 8780 88bd ed9c 1abd e075 e23d 549d 67bd
00000240: ede3 9fbd 1442 623c cc0a 23bc 009e 2d3d
00000250: 96f1 be3d 2ef5 113d f73e 8fbd ef37 0bbd
00000260: cabe ef3d d770 9bbd f890 e23b 1ccd 4b3d
00000270: a228 cd3d 3f03 b2bc 7d26 08bc 2a7b 313b
00000280: 116d e7bc dea3 bc3d e66c db3d 8c95 34bc
00000290: e572 32bd e55a 84bc 1eab f0bc 8a83 c0bd
000002a0: 1729 863c fd1f c8bb ea71 b43c 5698 d3bc
000002b0: 06da 533d 4d28 9739 6765 4c3d 8bf3 bd3d
000002c0: 350d 983d e85a 933d d5ed b03d edf5 5f3d
000002d0: fdd0 cf3d 1287 2a3d 301e e23c c62d 6d3c
000002e0: 9c2f f43d 8a33 0fbc d305 f63d 2e8b a73d
000002f0: 4ade 7f3d a716 3c3d 6d26 0a3e d754 a93d
00000300: 3fa6 d13c 9ae4 7a3a 38cc 4cbb c392 33bd
00000310: 8880 23bc 1dce 5cbd efc7 84bd 6e7d 47bd
00000320: 95e6 3d3d 9ae0 bebb 8798 c4bd 4527 563d
00000330: a08e 863d be07 743d 080d 723d 3310 24bd
00000340: a139 2dbd c870 b63b 89d2 a33d f439 4abd
00000350: 3d0c 0fbd 5d33 993d 58c3 abbd 27cf a33d
00000360: 4b6b 98bd 6ab1 d6bc 11f9 f2bc a253 163d
00000370: c896 52bd a38b c1bc 0a25 37bd 4134 eebc
00000380: 1df9 70bd ccc6 88bd a46e 1f3c ec5a babd
00000390: 2ace 713d f740 893d 50bf 3abd eadd c03c
000003a0: ecf4 363d 797c 8c3d f4fd b93d 6368 7cbd
000003b0: ade9 bebc ee87 b0bd e20f 65bc e8fa c6bd
000003c0: 70cb cdbc d59e 84bd 9706 b53d e915 c9bb
000003d0: c88b c53d d3f5 d03d 5ed3 363d 6830 bebd
000003e0: e793 ffbc 9dec 20bc bcf0 86bd dbbc 5c3d
000003f0: 0bf9 473d b6b0 3e3c bc49 ba3d 5c87 7c3d
0.012673442 0.010888148 -0.058907047 -0.07294703 -0.077765204 -0.09515313 -0.022581883 -0.047169354
0.0029641876 0.054212008 0.02062462 0.0039483346 -0.09434146 -0.004853443 -0.009494824 -0.038597673
-0.06686829 -0.05277055 -0.04755823 -0.08251627 -0.048447583 0.082463816 0.09521581 0.08361974
-0.09622139 -0.09029197 -0.04042857 -0.10058483 0.07280444 0.043934297 0.0013794882 -0.0018376138
0.035103973 0.08876686 0.0073042964 0.034739956 0.0879291 0.018678887 0.0042611007 -0.027355276
0.06550706 0.010980517 0.051463995 -0.05181348 -0.02102853 0.021840107 -0.05858193 -0.1130842
-0.10598287 -0.04596789 0.06011005 -0.1004333 -0.020168487 -0.046134997 -0.066116035 -0.038413595
0.010664792 0.000613403 -0.089639924 -0.042076033 0.07110217 0.002549593 -0.047271997 -0.09722859
0.0759826 -0.027203808 0.042428743 0.06686963 0.024843298 -0.1051629 -0.02295821 -0.09232938
-0.090105854 -0.11062508 -0.002012109 -0.07786514 -0.03444616 0.030458326 0.049189217 -0.047896218
0.048561737 -0.10482528 0.029605398 -0.06991088 0.013606721 -0.104360126 0.08796259 0.07859921
0.038874555 0.02633432 0.043593504 0.06254204 -0.05374342 0.025197014 -0.11849442 -0.056894414
-0.007409801 -0.044918876 0.05986813 0.0863763 0.036095485 -0.033284906 -0.026796535 -0.026773999
-0.012457755 0.0829977 0.053276464 0.08133324 -0.06992333 -0.06190991 -0.010445255 -0.07345567
0.040550154 -0.011596386 -0.021969398 -0.06420633 -0.061341275 -0.0081768315 0.04588311 0.0345176
-0.06793539 0.06303174 -0.06262198 0.07400752 0.014544537 0.011403794 0.052825786 0.037660126
0.07706384 -0.03210837 0.06282113 -0.045331493 -0.006234444 0.025401333 0.10775351 0.04282434
-0.046892785 0.019552374 0.09139941 -0.0657518 -0.0666514 -0.037747312 0.11057639 -0.056546524
-0.07807145 0.0138097 -0.009951305 0.04238701 0.093234226 0.035634212 -0.069944315 -0.03398889
0.11706312 -0.07589882 0.0069142543 0.049756154 0.10017516 -0.021730063 -0.008309958 0.0027081468
-0.02825025 0.09210943 0.1071413 -0.011021983 -0.043566603 -0.016156623 -0.02937847 -0.09400089
0.016377015 -0.006107329 0.022026975 -0.025829475 0.051721595 0.0002883099 0.049901392 0.09274968
0.07424394 0.07195073 0.08639113 0.054677892 0.10147283 0.04163272 0.027602285 0.014476245
0.11923143 -0.008740315 0.1201283 0.08180843 0.06246785 0.04592004 0.13491221 0.08268135
0.025591968 0.00095708075 -0.0031249654 -0.043841135 -0.009979375 -0.053907502 -0.06483447 -0.048703603
0.04636248 -0.0058251144 -0.09599405 0.052283544 0.06570172 0.059577696 0.05909446 -0.04005451
-0.042291287 0.005567644 0.07999141 -0.049371675 -0.03492378 0.074805 -0.08386868 0.079984955
-0.074423395 -0.026207644 -0.02965978 0.036700852 -0.051413327 -0.023626154 -0.044713058 -0.029077651
-0.058831323 -0.066785425 0.009730969 -0.09099373 0.059034504 0.06701844 -0.045592606 0.023543317
0.04466717 0.06859679 0.09081641 -0.06162299 -0.023304785 -0.086196765 -0.013980838 -0.09715825
-0.02512142 -0.06475607 0.088391475 -0.006136645 0.09645802 0.10203137 0.04463517 -0.092865765
-0.031198455 -0.009822038 -0.06588885 0.053891044 0.04882149 0.011638811 0.09096095 0.061652526

linear1.bias f4 [128]
00000000: 56f7 ecbd 9325 923d 7021 f03d afa8 cfbd
00000010: e7ed 1c3d c348 a3bc eb1c 003e 6d7f f63b
00000020: 9e0c 8d3d ed42 073d c21b c03d d908 9cbd
00000030: d1de 223e c550 753d 8e4f 9d3d 44e7 413d
00000040: 0fc9 c4bc 0ca2 ff3d 9aa6 f93d 718e 21bd
00000050: 475c 8fbd 5bed 103e e9c2 c6bd 9268 143e
00000060: 1396 41bd c2a7 65bc a8e0 97bd f669 f4bb
00000070: 1149 c73c cc9e 703c 1ac8 f7bd c79f 623d
00000080: 100d f83d e22e e73d 7345 123d f7da 8cbd
00000090: babe 37bc d92e a73c 0425 573d 49d5 9bbd
000000a0: a481 b73b 7539 983d 9fa7 98bd 2cf1 a9bc
000000b0: 2be7 973d 37fd fa3b 673e 3bbd a166 ba3d
000000c0: 9173 dc3d 0c02 153e 236b 703b a2fc f63d
000000d0: 5ad4 633d 7d55 d2bd ae9c 8dbd ba87 84bd
000000e0: 365c 6ebd d32f 36bd 52e3 a93d 4b60 a73c
000000f0: c846 3b3c 06ae 103d 0313 db3d ce0a cf3c
00000100: f883 98bd 10f3 6d3c a984 2aba baa7 1d39
00000110: 049a 533d 6e92 24bd 6880 963d 6ba4 ed3d
00000120: f8b3 a23d 3223 55bd ea3d b73c 53dc 4c3b
00000130: 6c1f 7fbc 1f50 5bbd fcca 1fbd afe9 bb3c
00000140: b2f6 fdbc 5e25 10bc 8a14 8e3d 1700 9bbd
00000150: 8629 283d 7a3f 8bbc 59e0 5c3d 14cc ad3d
00000160: d8bf 92bd 8b6b f73d fc24 b9bd 57e9 b53d
00000170: d1a2 f6bc 36a3 f2bd 5481 61bd 7749 4cbd
00000180: ce0d e73d 8a6b b0bb f606 9fbd 8c9f 7bbd
00000190: c2ad 98bc 3cda ca3d 4688 7dbd bbf6 a53d
000001a0: 23c3 20bd 8c98 d23d 4d69 043e 61e1 a7bd
000001b0: 98cb 2ebc 835b f53d 7aec e1bd e591 2fbd
000001c0: 5e5c 1ebd 308d 323c 313a 343d 3346 143c
000001d0: 4d89 f13d a0ca ca3d bb18 16bd b87e c1bc
000001e0: c238 bfbc 2fd2 fb3b fb06 d53c b58f 683d
000001f0: 265d c0bd 4a48 b7bc 8bee c9bd d53c e13d
-0.11570613 0.07136073 0.11725128 -0.10139596 0.03831282 -0.019932156 0.12511031 0.0075225146
0.06887172 0.03302281 0.093802944 -0.07618875 0.1590531 0.05989148 0.076811895 0.047339693
-0.024021653 0.1248208 0.1218998 -0.039442483 -0.070000224 0.14153044 -0.09705145 0.14493015
-0.047262263 -0.014017047 -0.07415897 -0.0074589206 0.024326833 0.014686298 -0.12098713 0.055328157
0.121118665 0.11288239 0.035710763 -0.06877702 -0.011214906 0.02040808 0.052525535 -0.0760904
0.005600171 0.07432834 -0.07453846 -0.020744883 0.07417139 0.00765958 -0.04571381 0.09101606
0.1076423 0.14551562 0.0036684952 0.12059905 0.055622436 -0.10270212 -0.0691465 -0.064712
-0.058193408 -0.044479202 0.08295311 0.020431658 0.01143045 0.03532221 0.106969856 0.025273707
-0.07447046 0.014523283 -0.0006504753 0.0001503517 0.051660553 -0.04017871 0.0734871 0.11603626
0.079444826 -0.052035518 0.02236839 0.0031259253 -0.015571456 -0.053543206 -0.03901194 0.022938577
-0.031001423 -0.0087979715 0.06937511 -0.075683765 0.041055225 -0.016998041 0.053924892 0.084861904
-0.071654975 0.12081059 -0.09040257 0.08882397 -0.030106934 -0.11847536 -0.055054978 -0.04987475
0.1128193 -0.0053839134 -0.077649996 -0.061431453 -0.018637542 0.09904906 -0.06189754 0.08103701
-0.039248597 0.10283002 0.12930794 -0.081972845 -0.010668658 0.11980345 -0.110314324 -0.042863745
-0.038662307 0.01089792 0.04400081 0.00904994 0.11793766 0.09901929 -0.03664468 -0.023619995
-0.023342494 0.007684968 0.026004305 0.056777675 -0.09392767 -0.022373337 -0.098599516 0.10997931

linear2.weight f4 [128, 128]
00000000: f8d3 ac3d a741 cbbc d71a d3bd 3609 923c
00000010: db71 0fbd 016f d0bc 6421 1abc 441c a6bc
00000020: e680 793c 3782 c43d e8ea 363d 146b b33d
00000030: 8c14 e43d 910e 10bd fe29 523d 492b 8dbd
00000040: 8ec3 cdbd 6360 853c 1dbb 46bd a921 393d
00000050: 1556 c63d f4b2 9f3b b7d0 303d cb56 d4bc
00000060: 408c a1bc e2bd 8cbc c697 cb3d 10b2 a9bd
00000070: 0460 dbbd af70 3e3c cd4e 063c 51c9 063d
00000080: 9722 fdbc 647f c6bc 5ac0 c53a 157e 3ebd
00000090: 732e 2e3c 3e60 3fbd db46 36bd cf3f 893b
000000a0: 427a 55bd 79ca 0a3d 5f74 3fbd 339a 1fbc
000000b0: f36a 40bd 85f4 4f3d d602 e1bd 8b72 a8bc
000000c0: 8ae3 21bd 3a77 443d 998f c4bd 7dce fdbc
000000d0: 349e 663d a715 41bd 8b56 acbc 08c3 65bd
000000e0: 0ab4 2d3d b1f7 eabc 70dc bbbd 9618 503d
000000f0: b33c 93bd feb8 7dbb 864c c63c be3d c43d
00000100: c9ff c9ba 55ca 39bd 3b8f 73bd 2796 c9bd
00000110: 36ce 023b b388 cdbd 82ec 08bc e367 87bd
00000120: 9a37 b6bd fbc3 903d 4122 b0bd 953e d6bc
00000130: 0892 a1bd 0b24 dcbc 8c1b 07bd f8fd 8b3d
00000140: 12a4 a63d 8764 e23c 58a9 493b 1ad2 333d
00000150: 800f 8fbc a4cd 86bd f614 823d b36e 3dbd
00000160: ef47 71bd 107b 0ebd 319a cdbc fc7a 043d
00000170: 2f60 ec3c 98ee 8b3b 0612 6cbb 89a6 b73d
00000180: 28e8 bdbd 6ce0 81bd 9a5e b1bc fa3d 3d3d
00000190: 9616 483d a4cf 0cbd e79e 753d 0995 d13d
000001a0: 5449 723d 863b bd3c 8a21 d4bb 5aeb 70bc
000001b0: 0003 8fbd 6343 76bd 9647 443d 61e9 923d
000001c0: a8a5 12bd 5280 ba3c b6c4 b6bd 7ed1 04bd
000001d0: 90c0 4d3c c86e 86bb 702b 2f3d aed1 debc
000001e0: 82c2 70bd 4c6a 853d 7301 b3bd 9f60 b93d
000001f0: 613a d0bc 7b0e 85bd 0f5a 3bbc 2591 57bd
00000200: 415b 67bd d408 56bd ab3a 55bd c10c a2bc
00000210: 3c31 c9bd ea74 a1bd 344b 61bd 525c 88bd
00000220: 1808 2abd 9414 c5bd cca3 3e3c 39e8 65bc
00000230: 542c d63d 7ca7 1cbd 5d9e 8c3d 5aac 44bd
00000240: 48a4 e8bb a174 9cbc 17b1 99bd fbae 84bc
00000250: 9299 a33d 7e1a 8e3d 43fa 73bd 7a92 8ebb
00000260: 78b4 69bd d60d a03b 9ea4 b93d d15c 2cbd
00000270: d288 03be 1c34 a0bd d675 67bd a3e0 11bc
00000280: 56fb b2bd f5a6 84bd 9962 843d 19f2 923d
00000290: 937e 68bd 2133 5c3d 3db4 19bc 4e7c 90bd
000002a0: 9ba1 e13c f3f0 0dbb ba0d 7bbd 7f09 21bd
000002b0: c633 9ebc 6a3c 0cbd dfce 3e3d 5555 0cbd
000002c0: bf95 173d fd62 a83d b209 91bc b96d 80bb
000002d0: 85bb 80bd 62f8 1eba 2450 3c3d e828 c0bc
000002e0: 2bbd 533d ff55 463c 4482 093d cf1a 743d
000002f0: e9fd 7e3d 4342 2dbc 4095 88bc 7b8e 2e3d
00000300: aeaa 1a3d ef19 4b3c 7d75 edbc bd4e 833d
00000310: c4a4 4bbd e65b d13c fb1c 003d 4742 6ebd
00000320: b36c cb3b 5566 8e3d 5917 aabb 26c7 d3ba
00000330: 491b 483d e634 81bc 3047 6c3d f83b a9bc
00000340: 8472 54bd 57d7 d03c 433c 023e 13ce 603b
00000350: 1c45 cfbd a0cb 5dbd 09ed e43c cf8d a3bc
00000360: eed2 113d 6e63 543d 2574 bb3d 161c 83bd
00000370: 7c8b 16bd b978 fbbb 792e a13b c9bb bbbd
00000380: 5d78 acbc c40c 303b 4fc0 863d aaab 463d
00000390: 8c04 b1bd 701d 293d 33b5 a53d 4ebb 193c
000003a0: 9576 f53c 9e10 8d3d 0483 773d d017 bf3d
000003b0: 2906 12bd 023c 423d a478 8f3d 22ca 22bd
000003c0: bad7 13bd 8ec7 c7bd e2a4 74bd dd43 833d
000003d0: 208e 2dbd dbfc 213d 3089 a5bd adbd 35bc
000003e0: 9c8d 8c3c 9faa 8b3d bdaa 903c e2ef f2bb
000003f0: c42b 95bd 9d81 193d 9529 9e3d 8fec 1d3d
0.08438867 -0.024811579 -0.10307854 0.017826658 -0.03502069 -0.025443556 -0.009407375 -0.02027715
0.015228486 0.09595149 0.044657618 0.08760658 0.111367315 -0.03517014 0.051309578 -0.068930216
-0.10047065 0.016281312 -0.04851829 0.045198116 0.096843876 0.004873628 0.043167796 -0.025920292
-0.019720197 -0.017180387 0.09941058 -0.08285916 -0.10711673 0.011623546 0.0081974985 0.032906834
-0.030900283 -0.024230666 0.0015087232 -0.04650696 0.010631192 -0.046722643 -0.044501167 0.004188515
-0.052118547 0.0338845 -0.04674184 -0.009741354 -0.046976995 0.0507703 -0.10986869 -0.02056243
-0.03952364 0.047965266 -0.095977016 -0.03098225 0.056303218 -0.04713979 -0.02103736 -0.0560942
0.042408027 -0.028682562 -0.091729045 0.050804697 -0.07189312 -0.0038715 0.024206411 0.09582089
-0.0015411313 -0.045358974 -0.059462767 -0.098430924 0.0019959337 -0.10035839 -0.008357169 -0.06611612
-0.08897324 0.0706863 -0.086002834 -0.026152888 -0.078891814 -0.026872655 -0.032985255 0.0683555
0.08136763 0.027635826 0.0030771103 0.04390154 -0.017463446 -0.065821916 0.06351654 -0.04624815
-0.05890649 -0.03478533 -0.025097938 0.03234385 0.028854458 0.004270386 -0.0036021485 0.08967311
-0.09272796 -0.06341633 -0.021651555 0.046201684 0.048849665 -0.03437771 0.059965994 0.10233504
0.059151962 0.023099672 -0.0064737247 -0.01470455 -0.06982994 -0.06012286 0.047919832 0.0717342
-0.035802513 0.022766266 -0.089242384 -0.03242635 0.0125581175 -0.0041025616 0.042766035 -0.027199592
-0.058779247 0.06514415 -0.08740511 0.09051632 -0.025418462 -0.064969026 -0.011435046 -0.052628655
-0.05648351 -0.052254513 -0.052057903 -0.019781472 -0.09823844 -0.07883628 -0.05500336 -0.06658234
-0.041511625 -0.096230656 0.011635732 -0.014032417 0.10457674 -0.038245663 0.06866143 -0.04801593
-0.007099662 -0.019098582 -0.0750448 -0.016196718 0.079882756 0.06938647 -0.05956484 -0.0043509575
-0.057056874 0.004884462 0.09064601 -0.042080704 -0.12845162 -0.07822439 -0.05650886 -0.008903655
-0.08739345 -0.06477157 0.064641185 0.07175083 -0.056761336 0.053759698 -0.009381351 -0.07054959
0.02754288 -0.002165851 -0.061292388 -0.039315697 -0.019311797 -0.034237303 0.046584006 -0.034261066
0.037008043 0.082220055 -0.017704818 -0.00391933 -0.062857665 -0.00060642336 0.045974866 -0.023457006
0.051694077 0.012105464 0.033571497 0.05959588 0.062253866 -0.01057488 -0.01667273 0.04261635
0.03776043 0.01239632 -0.028986687 0.064115025 -0.04971768 0.025556516 0.031277638 -0.058168676
0.0062080263 0.06953112 -0.0051907715 -0.0016157373 0.048854146 -0.015772294 0.057685077 -0.020658478
-0.051867023 0.025493307 0.127183 0.0034302517 -0.101206034 -0.05414927 0.027945058 -0.01996508
0.03560155 0.051852636 0.09153012 -0.06401841 -0.036754116 -0.0076743034 0.00491887 -0.091666766
-0.021053487 0.0026863078 0.06579649 0.048503555 -0.086434454 0.04128784 0.08091202 0.009383036
0.02996377 0.06887935 0.06042768 0.09330714 -0.035650406 0.04742051 0.07005432 -0.03974355
-0.036094405 -0.09754859 -0.059727557 0.06409428 -0.04237187 0.039547782 -0.08082807 -0.0110925855
0.017157368 0.06819653 0.01765954 -0.00741385 -0.07283738 0.037477124 0.07722775 0.038555678

linear2.bias f4 [128]
00000000: ad5f 8bbd d518 01bd 0dde 4e3d 7ee8 c1bc
00000010: 6dc6 31bd 987d 87bc 4610 9e3c 8243 2d3d
00000020: e680 5abd 98f4 843d 2e0d 283d 2c42 b73d
00000030: 96c5 633c d579 ba3c f414 823d c166 84bd
00000040: 7f77 263d 9b63 223d 1736 8cbd 3e0f 4b3c
00000050: bb17 033b 6266 8e3d 7ec7 f23a dc55 40bd
00000060: f357 103d f548 2fbd 0c92 be3c 1a69 c6bc
00000070: 3512 44bd 15c8 a23c 351b 6e3d fd62 963d
00000080: 0797 0a3d 234d 00bd 0036 d23c 0d24 ca3c
00000090: 364d 34bd 5087 513d 553c 803d fd89 8cbc
000000a0: e62f 97bd 9a0d b6bd e86a a0ba 6fdb bc3d
000000b0: db2b f2bc 654b 9d3d c5f8 533b a6a7 4c3d
000000c0: 1636 20bd 1080 b6bc f68f 4bbb b920 543d
000000d0: d62a 9abc 66dd 4d3c 9a76 b03d 293f 8f3d
000000e0: ffc5 2abb b778 9b3c 61da 88bc 7359 cebd
000000f0: a610 2d3d c224 09bd 8fa9 2e3b 3a3e 0ebd
00000100: c03e 0d3d b834 143d 2700 78bd a4c6 d6bd
00000110: c71b 6bbd 1615 f83c 3502 393d 8def 3bbd
00000120: b914 84bc 929d d53d ecef 18bd 760b bc3c
00000130: edf3 c93d bfc7 213d a081 abbd 6212 483c
00000140: 991e 833d 5e2a a23c c409 a1bc 7fe1 a33d
00000150: 1d10 803c 7ff0 d63c 55f7 b43d ffc9 973d
00000160: 155a d63c fa3a 993c 36da 893b 71bc 603d
00000170: 7a8b c23d 619a 92bd 4314 9abd 8c5a 7638
00000180: 16ff 703d d9da 95bd 2bd6 723d 40d9 9d3c
00000190: 0dde 9c3d b781 4c3d 950c 4d3b 2af3 823c
000001a0: 41d8 9fbc 4b46 8a3d f7d4 ac3c f092 86bd
000001b0: 3a68 543d e04a 863d 85d7 9b3d 8efa 043d
000001c0: a449 853d 5408 64bd 675e 8bba c026 58bc
000001d0: 4f49 abbb c39b 983d 72bf 613c 76c3 cfbd
000001e0: 0490 b7bc bf6b 343b 208f a33d e5e2 653c
000001f0: 3236 a63d 2f60 8dbc 7f75 6dbd 211f 5abd
-0.06805358 -0.031517822 0.050504733 -0.023670431 -0.043402124 -0.01653938 0.01929487 0.04230071
-0.053345583 0.06491965 0.041028194 0.08948168 0.013902089 0.022763172 0.06351653 -0.06464911
0.040641304 0.039645772 -0.06846254 0.012393771 0.0020003158 0.06953122 0.0018522588 -0.046956882
0.035240125 -0.042794187 0.023263 -0.024220038 -0.047868926 0.019870797 0.058131415 0.07343099
0.033835437 -0.031323563 0.025660515 0.024675393 -0.044018947 0.051154435 0.062615074 -0.017155642
-0.07382183 -0.08889313 -0.0012238892 0.09221541 -0.029561928 0.07680396 0.0032344323 0.04996457
-0.03911408 -0.022277862 -0.003106115 0.05178902 -0.018819254 0.0125649925 0.086163715 0.06994469
-0.0026057956 0.01897846 -0.016705694 -0.10075655 0.042252205 -0.03348232 0.0026651358 -0.034727313
0.03448367 0.03618309 -0.06054702 -0.104871064 -0.057399537 0.030283492 0.04516812 -0.04588275
-0.016123163 0.10430445 -0.037338182 0.022954684 0.09860978 0.039497133 -0.083743334 0.012211414
0.064023204 0.019795593 -0.019657977 0.08001994 0.015632683 0.026237724 0.08836237 0.074115746
0.026166001 0.01870488 0.004206921 0.05486721 0.09499259 -0.07158352 -0.07523396 5.87353e-05
0.05883702 -0.073171325 0.059286278 0.019268632 0.0765954 0.049928393 0.0031288017 0.01598509
-0.019512298 0.067516886 0.021097643 -0.06570995 0.05185721 0.0655725 0.076094665 0.03246551
0.065081865 -0.055672005 -0.0010632992 -0.0131928325 -0.005227245 0.07451584 0.013778554 -0.10144703
-0.02240754 0.0027530042 0.07986283 0.014031147 0.08115806 -0.017257778 -0.05797338 -0.053252343

linear3.weight f4 [48, 128]
00000000: aebc a83c 7c53 0c3d 332a 2dbd 98eb 21bc
00000010: 19e0 9e3d 2dfa 92bd fc43 fc3c 1ea5 82bd
00000020: 3f1f adbc 6282 673d 5354 91bd b26d 57bc
00000030: 32ec 37bd 7f3c f93b 7eda bb3d abfa c23d
00000040: a2e0 e6bc bfed 883d 2cf5 6cbd ab8c bebc
00000050: 071f c13d ccab 293d bd54 3ebd f8e6 a93b
00000060: d1cc 843c c018 9abd aa3c 8d3b e661 733d
00000070: f7c9 6fbd c85a b53a 41d7 f3bd 3cac c5bc
00000080: de33 0fbd 757d 1d3a 8f67 d9bc f774 13bd
00000090: 08c1 b9bc 37b9 aa3d e17f 593d 3fbe 31bd
000000a0: 5e40 8d3d 3660 aebc 0607 2bbd aa95 493c
000000b0: 54ea 403c 69b9 34bd 5ec9 bcbd a09e 35bd
000000c0: 40b9 803c f27a 61bc 72e4 f1bc cbb3 e4bc
000000d0: b575 4f3d fa12 de3c fe4b 853d 43d4 053d
000000e0: e74e 7fbd 5b1f 8dbc e2e5 553c 987d eebc
000000f0: 6ea5 aabc a004 ac3d bc15 8e3d ac89 85bd
00000100: 1e59 53bd a1d5 d1bc 5e13 f5bc 0b2f 21bd
00000110: 0eaf f8bc 2d9d b7bd 030b 8dbd 5bfe 413d
00000120: c54b e73c e290 92bd 8db8 ffbc 6fa5 6e3d
00000130: d3a4 683d 916a 59bd 6254 573c ba4f a43d
00000140: 4f69 a93d e13f 673d e6e5 8c3d 5fe2 8abd
00000150: 3507 81bb e3db b03d ee3f 99bd 4e29 023d
00000160: e593 963d 27e5 2f3d 3080 08bd 24b9 e63b
00000170: 0069 603d 1dbd cc3d 5011 953d 38b5 d43c
00000180: 554f 2f3d 550b 48bd cf70 a5bc 28cf 93bd
00000190: aa28 563d 5c4b a83c 2758 fcbc 1691 8a3d
000001a0: 6118 733d d0df 203d 67cb ba3c bdeb 883d
000001b0: 8db9 c9bd be71 c63d eb60 bf3c 7085 7a3d
000001c0: 2c79 7c3b 8f8b 863d a24b c0bd 1ed2 a13d
000001d0: 06fa abbb 2b21 af3c a654 0b3d 6285 bebc
000001e0: 77b9 17bd c2fe 39bc d9d3 a4bd 1bff 053d
000001f0: 1d39 093d ae5d a53d 7b00 063c 15ca 61bd
00000200: 1f2f b93d 7a52 43bd 2b78 b8bd 215f 90bd
00000210: 5c3c 1fbc e232 793d dd5d 653c cd5d 663d
00000220: f945 dfba 645e 87bc 81c0 d5b9 00cf 8a3d
00000230: 9f03 be3d 701d ca3d e520 e13c 48b2 813d
00000240: 8701 36bc 464f 20bd 5c3d 33bd 8796 af3d
00000250: a343 0dbd 9cc6 01bb fd96 b9bb ef8c f1bc
00000260: cc77 353d 74f8 003c 7516 bebc 7135 64bd
00000270: 0a95 d6bc 063a 033c 13c7 4fbd 9970 0bbd
00000280: 25f1 743d 8e55 743d da1d 1fbd 9ae7 aabd
00000290: 9bc2 e9bc 0dfa 983c 77af 233c a52e 41bc
000002a0: f65e 67bd 55ca 8c3d 8089 783c 51f7 1bbd
000002b0: 52ed dcbc 249f e1bc 0d85 8cbd 6746 0ebd
000002c0: cf49 9bbd 5696 8bbd f509 923d a0af 90bd
000002d0: 884a 5f3d 65c9 3b3d 470c c93d e45e 7b3c
000002e0: 57fe 3b3d c0c4 12bd 23c6 6ebd 440a b5bd
000002f0: a91f 2ebc 0312 15bd 22a4 2c3b bdea ea3c
00000300: e988 cebc 1ce1 d6bd 8177 b5bd ef42 93bd
00000310: 4d8a 16bd 21dc afbc 01b6 b4bb d3aa 633c
00000320: 2c0a 9cbc 6745 6abd 21e3 cc3d 6ef5 ab3d
00000330: 7834 ac3c 05db 9f3c 58dc 813d 0e21 95bc
00000340: 6995 aabd b672 723d 55d1 0bbd d2aa b63d
00000350: 88b4 ce3a 40db 883d b9cc 03bd d681 bd3d
00000360: ff50 a53d 0404 a9bc 4c29 8ebd 8293 d9bc
00000370: 89a6 abbc 1278 e03d ffff 68bd c4a8 843c
00000380: ac37 50bd 73ff babc 760d de3c 07d6 9ebd
00000390: b404 5cbb acf0 3fbd df1b ebbc 356a 9f3d
000003a0: cfc2 a13d 65af 43bb 1273 5a3d 2ec3 a03d
000003b0: 7c34 cd3c d237 3ebd 4d39 b0bd 4d73 763d
000003c0: 33ec b43d d643 6cbd 8502 46bd 5baf d73d
000003d0: 78ea eebc f4f7 ae3d 8d81 46bc 1ddb bdbd
000003e0: ca4a df3c 6d76 363b 6192 703d b2d3 17bd
000003f0: 50f3 9bbd feed 9d3d 7671 173d bcc1 5a3d
0.020597782 0.034259304 -0.042276572 -0.00988283 0.07757587 -0.071766235 0.030794136 -0.0637915
-0.021133063 0.056520827 -0.07096162 -0.013148712 -0.044902988 0.0076060886 0.091725335 0.09520467
-0.028183285 0.066859715 -0.057851 -0.023260435 0.09429746 0.041423604 -0.04646753 0.0051850043
0.016210945 -0.07524252 0.0043102102 0.059419535 -0.058542218 0.0013836259 -0.11906291 -0.02412998
-0.034961574 0.0006007769 -0.026538638 -0.03600022 -0.022675052 0.08336108 0.05310047 -0.043394323
0.06897043 -0.021286111 -0.041754745 0.012303749 0.011774618 -0.044122133 -0.09218095 -0.04434073
0.015713334 -0.013762223 -0.029527877 -0.027917763 0.050649364 0.027108658 0.06508635 0.03267313
-0.062331107 -0.017226866 0.013055297 -0.029112622 -0.020830836 0.0839932 0.06937739 -0.065203995
-0.05159866 -0.025614562 -0.029916462 -0.039351504 -0.03035691 -0.08965526 -0.06886866 0.047361713
0.028234372 -0.071565405 -0.03121593 0.05826324 0.056797814 -0.053080145 0.013142677 0.08023019
0.08272039 0.056457404 0.06879787 -0.06781458 -0.0039376267 0.0863569 -0.07482897 0.031777672
0.073524274 0.042943146 -0.033325374 0.0070411135 0.054787636 0.09997008 0.07278693 0.025965318
0.042800266 -0.048838932 -0.020195393 -0.07217246 0.052284874 0.020543747 -0.030803753 0.06765954
0.05934942 0.039275944 0.022802068 0.066855885 -0.09849844 0.09689663 0.023361644 0.061162412
0.0038524373 0.065695874 -0.09389426 0.07901405 -0.005248311 0.02137812 0.034016274 -0.023256961
-0.037042107 -0.011352243 -0.08048219 0.03271399 0.033501733 0.080745086 0.0081788255 -0.05512436
0.09042191 -0.047686078 -0.09007295 -0.070493944 -0.009718981 0.06083954 0.0139994295 0.0562418
-0.0017034403 -0.016524501 -0.00040769952 0.06777763 0.092780344 0.09868896 0.027481506 0.063328326
-0.011108763 -0.0391381 -0.04375969 0.08573633 -0.03448833 -0.0019802218 -0.005663751 -0.029486148
0.0443037 0.007871736 -0.023204068 -0.05571503 -0.026194114 0.008009439 -0.05072696 -0.03404293
0.059800286 0.059651904 -0.038846828 -0.08344956 -0.028535178 0.018673921 0.009990565 -0.011790906
-0.056487046 0.06874529 0.015169501 -0.038077656 -0.026968632 -0.027541704 -0.06861315 -0.03473511
-0.07582437 -0.06815784 0.071308054 -0.07064748 0.054514438 0.04584636 0.09816795 0.015342448
0.045896854 -0.035832167 -0.058294427 -0.08839849 -0.010627666 -0.03639413 0.0026342948 0.028676385
-0.025211768 -0.10492155 -0.08860684 -0.07190501 -0.036752988 -0.02146727 -0.0055148606 0.013895708
-0.01904782 -0.057195093 0.10004259 0.083964214 0.021021113 0.019513616 0.06340855 -0.018204238
-0.08329279 0.059191428 -0.03413518 0.089193 0.0015770355 0.066824436 -0.03217766 0.0925328
0.080720894 -0.020631798 -0.069414705 -0.026559595 -0.020953434 0.109604016 -0.056884762 0.016193755
-0.050834343 -0.022826886 0.027106028 -0.07755666 -0.003357214 -0.046860382 -0.028699813 0.07783929
0.07898485 -0.0029859182 0.053332396 0.078497276 0.02504944 -0.046439953 -0.08604679 0.060168553
0.08834114 -0.05768188 -0.048342247 0.10531493 -0.029164538 0.08543387 -0.012115848 -0.09270308
0.027257342 0.0027841583 0.058733348 -0.037067123 -0.076147676 0.07711409 0.03697344 0.053407416

linear3.bias f4 [48]
00000000: f961 403d 83c3 013d d1c4 8cbd 6e83 39bd
00000010: fb9e 84bd 1410 073d 21e2 563c 3b7e 8c3d
00000020: b507 30bc 5461 80bb 906f 4f3d 21f0 71bd
00000030: 75fd 0dbd 1f96 443d e785 4abd 1deb cc3c
00000040: e946 6c3d 3597 71bd f7ef a83d 0d60 8dbd
00000050: 87cf b93d 8602 d63c 025c 21bd 7cc3 e43c
00000060: ae02 b33c ab8f 7a3d 7c53 723d 0c1f 9a3d
00000070: c6ab f83c 9c11 03bd cffa 1cbd 2951 8e3d
00000080: f291 b1bc d348 f5bc cbc9 5b3d 5e5c 50bd
00000090: 503a c43d 7cdc 85bc f7bd 123d 465d ef3c
000000a0: 18fa 5d3c 94aa 603d 785e 883d 4b15 063d
000000b0: 9242 39bc 5592 553d 62c7 92bd 212a 393d
0.046968434 0.031680595 -0.06873477 -0.045291357 -0.064756356 0.032974318 0.013115437 0.06860014
-0.010744025 -0.0039178524 0.050643504 -0.059066895 -0.034665544 0.04799473 -0.049444105 0.025014454
0.057684813 -0.058982093 0.08248895 -0.06903086 0.09072786 0.02612425 -0.039394386 0.027925245
0.021851864 0.06117217 0.05916165 0.07525453 0.030355345 -0.031999215 -0.038325127 0.06949074
-0.021676037 -0.029941952 0.05365924 -0.05086934 0.09581435 -0.016340487 0.035825696 0.02921928
0.0135483965 0.054850176 0.066586435 0.03273515 -0.0113073755 0.052141506 -0.071669355 0.045206193
