第二章-回归模型/model_weight/mlp_relu.pth (torch, 143585 bytes, 6 tensors)

linear1.weight f4 [128, 96]
000000 80 18 9b bb 86 eb 92 3d c4 aa cb 3d c0 df f4 bc
       -0.0047331452 0.07173829 0.0994468 -0.029891849
000010 b6 c1 bc 3d e0 e0 43 bc ce 1b b5 bd b4 6f 9f bd
       0.09216635 -0.01195547 -0.08843194 -0.077849776
000020 23 53 cd bd 7a c3 cc bd f4 0b 7b bd ee 94 92 3d
       -0.10025623 -0.09998222 -0.061290696 0.07157312
000030 c8 88 e5 bc 50 83 b1 3c ac 5d 7a 3d 6c 4c a7 3d
       -0.028019324 0.02166906 0.06112449 0.08168873
000040 cc ba e4 bc 90 a2 9a bc c4 a7 05 bd 78 2a 03 bc
       -0.027921103 -0.018876344 -0.032630697 -0.008005731
000050 1c ca 8b bc fb 60 a8 bd f4 54 b9 3c d6 a2 a5 3d
       -0.017064147 -0.082216226 0.022623517 0.08087699
000060 40 c0 d8 3a 07 50 a9 bd 76 8c be bd 30 a4 35 3c
       0.0016536787 -0.08267217 -0.093041345 0.011086509
000070 30 da d8 bc 78 2a a9 bd 25 7f c6 bd fd 0f 36 bd
       -0.026471227 -0.082600534 -0.0969222 -0.04444884
000080 10 b0 86 bb bc 0b 25 bd c0 a1 42 3c 98 97 df 3c
       -0.0041103438 -0.040294394 0.0118793845 0.027293965
000090 38 95 01 3d 41 eb cf bd c5 65 cb bd 2e 0c c2 3d
       0.031636447 -0.10152293 -0.099315204 0.09474979
0000a0 aa 0a 96 3d 9c a8 65 3d b0 0a b2 bb 40 2c 71 3d
       0.07326253 0.056069 -0.005433403 0.05888009
0000b0 01 14 ad bd 2c a6 8b 3d 08 d6 4b 3c 38 79 d1 3c
       -0.08451081 0.06818804 0.012441166 0.025570497
0000c0 c0 47 43 3d a8 e4 95 3d 6c 90 ee bc e6 cf b0 bd
       0.047675848 0.07319003 -0.0291216 -0.086334035
0000d0 e0 80 01 bb 7a f1 ba bd 84 2e 9f bd 94 84 27 3d
       -0.0019760653 -0.09128089 -0.07772544 0.04089792
0000e0 73 16 a3 bd 40 b3 7c 3b 84 30 b0 bc b4 77 7e 3d
       -0.07963266 0.003855899 -0.021507509 0.062125877
0000f0 fc 76 18 bd f6 1d 67 bd 30 cf 8c 3d 90 e3 22 bc
       -0.037222847 -0.056425057 0.068754554 -0.00994195
000100 c0 73 c5 bb 70 5f 13 bc 98 dc 64 bd eb a5 4c bd
       -0.0060257614 -0.008994922 -0.055874437 -0.04996292
000110 2e 93 a9 3d f4 f5 0b 3d 20 2b 3e bd f0 47 cf 3d
       0.082800254 0.034170106 -0.046427846 0.10121143
000120 e4 88 ed bc cd a0 cc bd 7a c8 a2 bd 00 f7 cd 3b
       -0.028995939 -0.09991608 -0.07948394 0.006285548
000130 1c 32 0f bd 4f e0 cf bd 75 7b 28 bd 52 53 32 bd
       -0.034959897 -0.10150205 -0.041133363 -0.04353649
000140 b8 f6 0f 3c 50 9e 9f bb d8 6a 45 bd b0 eb a5 3d
       0.00878685 -0.0048711672 -0.048197597 0.081015944
000150 b8 93 a9 bc 42 73 75 bd ac e7 60 3d 24 be b3 3d
       -0.02070032 -0.05992437 0.05490844 0.08776501
000160 a6 e3 84 bd 75 2f b7 bd fc 85 7f bd 44 46 9a 3d
       -0.06488733 -0.089445986 -0.062383637 0.07532933
000170 70 05 73 3d e0 48 2b bb f0 29 a7 3c c8 2a 3c 3d
       0.059331357 -0.0026135966 0.02040574 0.045939237
000180 3d 3a 5f bd 1b 6c c0 3d c9 5e 90 3d e2 14 aa bd
       -0.0544989 0.093956195 0.07049329 -0.08304764
000190 c6 3c 7a 3d c7 33 94 3d cb a6 2e bd 67 2d 8c 3d
       0.061093114 0.07236438 -0.042639535 0.06844597
0001a0 bd 2c 5e bd 04 76 58 3d fa 51 1f 3d bb 20 e3 3d
       -0.054241884 0.052846923 0.03889654 0.11090227
0001b0 52 25 c8 bd 7f dc 36 3d 65 5d 80 bd 84 01 98 bd
       -0.09772743 0.044643875 -0.062678136 -0.07422164
0001c0 2b ed 46 bc 0c da 8d 3c 25 0b 8a 3d 4e 8f 10 3c
       -0.012141506 0.017315887 0.06740407 0.008823229
0001d0 7f f8 bb 3b 7c 1b 69 3d db 3e 7b 3d 32 f0 e2 3d
       0.00573641 0.056910977 0.06133924 0.1108097
0001e0 e0 97 0c 3d 19 c1 8a bc 4d 77 8e bd c4 44 36 bd
       0.034324527 -0.01693778 -0.069563486 -0.044499174
0001f0 f7 59 7d 3d 55 00 7b 3c 67 ed 78 bd 0b 13 b2 3d
       0.061853375 0.015319903 -0.06077328 0.086950384
000200 0a f0 9a 3d 54 f0 b1 3d 7a 98 97 3c ba 30 81 bd
       0.07565315 0.08688417 0.018505324 -0.06308122
000210 50 c1 1d bd 52 22 8b 3c 16 1c 3b bd ef c7 a0 bd
       -0.038514435 0.016984139 -0.04568108 -0.07850634
000220 22 cf 6b 3d 69 55 c0 3d cf e1 35 3c 16 a2 70 3d
       0.057570584 0.09391291 0.0111012 0.058748327
000230 05 e9 d0 3d cc af 01 3b 0f 6d ab bd 96 60 85 3d
       0.10200695 0.001978862 -0.08370411 0.06512563
000240 c7 c5 3a 3d b0 36 90 bd 47 5f d4 3d 18 31 9e bd
       0.04559877 -0.07041681 0.10369735 -0.07724208
000250 ab cd 7d bd d0 a8 32 bd 49 fa 90 bd 3c 21 58 bd
       -0.06196372 -0.043618023 -0.07078988 -0.05276607
000260 a8 94 95 3c 96 d5 46 bb a5 dc 2f bd 7c 2a 18 bd
       0.018259361 -0.003033971 -0.042935032 -0.03714989
000270 e5 d0 8a 3d 71 04 ad bc dc c2 9f bc cf f3 ae 3b
       0.06778125 -0.021120282 -0.019502096 0.005339123
000280 97 05 19 bd 7c fb dd bc bb 41 01 bd 14 73 db 3c
       -0.037358847 -0.027097456 -0.031556826 0.026788272
000290 f2 c7 a5 3c 6b e5 71 3c 1a 94 de 3d 57 72 e5 bc
       0.020236943 0.01476417 0.10868092 -0.028008623
0002a0 51 29 ac 3d b2 f7 72 3d e3 bc 4f bd b6 69 18 3b
       0.08406318 0.059318252 -0.050717246 0.0023256368
0002b0 98 60 16 bd e6 d9 d3 bc df da 45 bb ae 0e c0 3c
       -0.036713213 -0.025860738 -0.0030190272 0.0234445
0002c0 30 58 57 bd 4f f2 06 bd 97 05 09 bd 90 59 d1 bc
       -0.052574337 -0.032945927 -0.033452597 -0.025555402
0002d0 27 76 d8 3d bb 53 97 bc 0b 10 86 bc fb 83 b1 bd
       0.10569411 -0.018472543 -0.016365072 -0.086677514
0002e0 c5 7a 13 3b 54 23 86 bd e9 37 05 3e 0a 9d 8e bd
       0.0022503596 -0.06549707 0.1300961 -0.069635466
0002f0 6d 75 9b 3b 0a f2 43 3d 07 f1 0b 3e 14 b9 1c bd
       0.004744223 0.04783825 0.13666163 -0.03826244
000300 c1 9b 32 3d b9 ac d9 bd a5 20 23 3d 31 ac 8d bd
       0.04360557 -0.10628647 0.039826054 -0.069176085
000310 a8 3f d7 bd 21 25 e3 bd 7a 7e 6c bd 5a 7b 21 bb
       -0.10510188 -0.11091066 -0.057737805 -0.0024640174
000320 db a8 2d bd 46 f9 42 3d 3f 27 cf 3c 63 f8 b6 bd
       -0.04239736 0.047601007 0.025287269 -0.08934095
000330 50 8f a2 bc d8 c3 de 3b eb 62 4d bd fd 00 b5 bd
       -0.019843727 0.0067982487 -0.050143164 -0.08838079
000340 09 97 38 bd f8 47 04 bc f3 92 11 bd 95 b1 b7 3d
       -0.045065913 -0.008073799 -0.035540532 0.08969418
000350 80 16 a5 bd c2 d7 b4 bd 15 73 fd bc a3 61 a8 3c
       -0.08060932 -0.08830215 -0.030938664 0.02055437
000360 1e 48 b1 bd 00 30 91 bd 14 4b a1 bd ca 49 69 3d
       -0.086563334 -0.070892334 -0.07875648 0.056955136
000370 1d 4d 9a bd c7 3b d2 3d 2f 78 8f 3d 6d ea de bb
       -0.075342394 0.10265308 0.07005345 -0.006802848
000380 3f 63 21 bc aa f8 ac 3c 4f ad fe 3c 84 83 05 3d
       -0.009850322 0.021114666 0.0310885 0.032596126
000390 ee 8e 3b 3d 82 31 91 bd 11 f0 76 bd 4a 6f d0 3d
       0.045790605 -0.07089521 -0.06028754 0.10177477
0003a0 e5 57 b5 3d ce ee 31 3d 9c e8 26 3b e1 e0 a1 bd
       0.08854655 0.043440633 0.0025468236 -0.0790422
0003b0 ab 5b b7 3d 34 78 9c 3d a3 dc bf 3d 4f 57 22 bd
       0.08953031 0.076401144 0.09368255 -0.039634045
0003c0 89 59 98 3c 4d 7d 4d 3d e1 cd 74 3d 75 5f 94 bd
       0.018597381 0.050168324 0.059766654 -0.072447695
0003d0 2f 67 77 3d a3 59 1f 3d cf c3 8c 3d cb 26 b3 bd
       0.060401138 0.038903844 0.06873285 -0.087476335
0003e0 76 8c f9 bc 27 f9 45 3d 68 db 09 bb a0 93 95 3d
       -0.030462485 0.048333313 -0.0021035317 0.07303548
0003f0 52 3b 52 3d 8a 6e 9b bd 82 dc 26 bd ed 54 8f bb
       0.051326104 -0.07589443 -0.040737636 -0.0043741376

linear1.bias f4 [128]
000000 e2 61 b7 bd 91 88 17 3e df 3c a1 3d 6e 1f 00 be
       -0.089542165 0.1479819 0.07872938 -0.1251199
000010 6d 89 6c 3d 89 ed 71 bd fb 46 eb 3b c7 83 52 bd
       0.057748247 -0.05906442 0.0071800924 -0.051395204
000020 19 f0 1a bd b4 03 82 3d 3f 2c d2 bc 71 3d b2 3d
       -0.03782663 0.063483626 -0.025655864 0.08703125
000030 56 b4 15 bd 5e f6 e6 bb 3d bf 01 3d 4e 4a 1a 3e
       -0.036548935 -0.007048412 0.03167652 0.15067407
000040 87 76 4e bd 8a 74 6b bd 0d fd 7c 3c 93 25 41 bd
       -0.050406005 -0.057484187 0.015441191 -0.047154974
000050 dd 12 64 3d 0c 05 42 bc 08 7f 1c 3d 23 11 ad bd
       0.055682052 -0.011842024 0.038207084 -0.08450534
000060 86 42 d3 3d 7e f1 81 3b ad 1b 68 3d 78 27 61 3d
       0.10315423 0.0039655557 0.05666702 0.05496928
000070 72 e1 5d bd 83 f2 15 3e da 01 02 3c d0 06 f4 bd
       -0.05417008 0.14643292 0.007935012 -0.11915362
000080 b2 9e 5b 3a 0a 58 d6 3d fa f1 5a 3c e3 f5 19 3d
       0.00083778345 0.10466011 0.013363356 0.03758801
000090 35 38 fb 3c 51 ad 54 3d 37 a9 8a 3c 62 f9 f4 3d
       0.03066645 0.0519231 0.016926391 0.119616285
0000a0 86 67 b3 bc 96 fb 4a b7 43 4c a7 bd 44 db d1 3b
       -0.02189995 -1.2098715e-05 -0.08168843 0.0064043123
0000b0 92 ef bb 3d 00 62 fb 3d 36 23 41 3c 3c b3 be 3d
       0.09176554 0.122745514 0.01178818 0.0931153
0000c0 99 59 08 3e d8 a6 b0 bc 3b a7 a1 3d fe 19 08 3d
       0.13315429 -0.021563932 0.07893225 0.033227913
0000d0 04 bf cc 3d 75 b0 d9 3d 65 be 94 3d 7d fe e1 3d
       0.09997371 0.1062936 0.072628774 0.11034868
0000e0 17 b9 ca bc e1 7c f1 3d ec a8 a9 bd a2 c9 00 ba
       -0.02474646 0.11791397 -0.082841724 -0.0004912858
0000f0 b8 bb f7 3d e9 ca d4 3d 3a 60 2f 3e 99 96 ac bd
       0.120963514 0.103902645 0.17126551 -0.08427162
000100 8d c5 83 bd 8f ba 21 bd da f7 15 bd 40 9b 99 3d
       -0.06434164 -0.039484557 -0.036613323 0.07500315
000110 e5 48 45 bd 01 9e bd 3d 29 17 ec 3d 9d 58 b5 bd
       -0.04816522 0.092586525 0.11527855 -0.08854792
000120 e7 5e 80 3d 03 65 70 3d e3 c9 50 3d f0 84 3d 3d
       0.06268101 0.058690082 0.050973784 0.046269357
000130 c5 61 b3 3d 7a 55 56 bd ca b3 54 bd 78 36 82 bd
       0.087588824 -0.05232761 -0.051929273 -0.06358045
000140 96 55 ef 3d b9 3d d3 3d ec 4e dd 3d 5c 8a a7 bc
       0.11686246 0.10314507 0.10806069 -0.020451717
000150 3b 42 56 3c 5a 83 b0 bd d6 32 83 bd f3 48 54 3d
       0.013077314 -0.08618803 -0.064061806 0.051827382
000160 2c d4 f7 3b 67 d9 8b 3d 3b 9b b2 3b fd 70 45 3d
       0.0075631347 0.068285756 0.005450634 0.048203457
000170 b0 08 b8 3c 22 e4 97 3d 61 6b f2 3d 88 7e 6f bd
       0.02246508 0.0741656 0.11836887 -0.05847028
000180 64 0a 2f 3e 80 5f c5 bc 97 a2 48 3d 75 46 ac 3d
       0.17093807 -0.02409339 0.048983183 0.08411876
000190 7a db 16 39 8a dd b7 3d f7 67 97 bd 97 21 46 bd
       0.00014386876 0.08977802 -0.073928766 -0.048371878
0001a0 4e 0e e3 3d 17 ff c3 3d c7 39 02 3e 9a 48 eb 3d
       0.11086713 0.09570139 0.12717353 0.11488457
0001b0 b2 05 7e 3c 89 38 b0 3c 34 27 89 bd 61 9a ae 3d
       0.015504288 0.021511333 -0.066969305 0.08525539
0001c0 ad 39 f3 3d 91 13 8f 3d 5b 82 47 3c f8 cb 75 3d
       0.11876235 0.06986154 0.012177075 0.060008973
0001d0 7a ef cc bd 4d cf 6f 3d 6a 40 b7 3d 07 5d f1 bb
       -0.10006614 0.058547307 0.08947833 -0.007365826
0001e0 13 39 e3 3d 44 0f c3 bd a4 ef b5 3c 03 b3 28 3d
       0.110948704 -0.09524396 0.022208996 0.041186344
0001f0 8f 05 ca bd c3 ef eb 3c 3d e3 d7 bd 3e 8a f2 bc
       -0.098643415 0.02880085 -0.10541389 -0.029606935

linear2.weight f4 [128, 128]
000000 6e ae b4 bd e9 8d 54 3d d8 e4 12 bd ae 50 2d 3c
       -0.08822332 0.05189315 -0.035862774 0.010578318
000010 76 d5 76 3c ba 3f b2 3b 55 b0 17 3e 3b 0a 90 3c
       0.0150655415 0.0054397257 0.14813359 0.017583003
000020 86 66 be bd 8b 80 12 3d b2 db 99 bd e9 53 0c bb
       -0.092968985 0.03576712 -0.07512607 -0.002141232
000030 fb f1 f9 bd ce fa 2a 3d e2 7b c4 bc 7b 7e d1 3c
       -0.12204357 0.041743092 -0.023984853 0.025573006
000040 cc 7f 9b 3c 15 a1 80 3d 3f 73 f1 3b 74 2b 53 bd
       0.018981837 0.06280724 0.0073684747 -0.051555112
000050 4a 21 23 3b 82 e7 35 bd 02 a7 8d bd 2c f2 4a 3c
       0.0024891668 -0.044410236 -0.0691662 0.01238684
000060 54 c7 bf 3d 23 9f 81 bd 06 f8 09 bd 7c 1f c7 bb
       0.09364191 -0.06329181 -0.0336838 -0.0060767513
000070 4b ae 8d 3d 6d b5 f5 bb 96 d5 c3 bd 43 45 f1 3c
       0.06918009 -0.0074984343 -0.09562223 0.029451972
000080 2b 34 a1 bd d6 0c 96 3d 1c 7e b9 bd 81 5e e9 bc
       -0.078712784 0.07326667 -0.090572566 -0.028487446
000090 12 ac f1 bd df 66 82 bd 83 ea a3 3d 57 64 98 bd
       -0.11800398 -0.06367277 0.08003714 -0.07441013
0000a0 e0 5d 52 3d f8 ed 54 3c ca a9 7d bd fc a5 d2 bc
       0.051359057 0.012996189 -0.0619295 -0.025713913
0000b0 11 e1 da 3d 0c 8d ef 3d 8d 26 85 3c bc 00 a0 3c
       0.10687459 0.116968244 0.016253734 0.0195316
0000c0 10 fe f6 bb ab 8c 45 bd 90 dc bd bb 7f 43 af bd
       -0.007537611 -0.048229855 -0.0057941154 -0.08557796
0000d0 fe 80 eb 3d 85 68 4f 3d e1 30 19 3d 90 03 f7 3d
       0.11499213 0.050636787 0.03740013 0.12061226
0000e0 e6 f0 bf bd 1c 00 96 bd 52 5a a3 bc 9b f6 a0 bd
       -0.093721196 -0.073242396 -0.019940529 -0.07859536
0000f0 aa 66 9e 3d fc 40 87 3b 63 1c d1 3c a0 33 c4 bc
       0.07734425 0.00412762 0.025526231 -0.023950398
000100 4f 26 e0 3c 30 04 8a bd f3 e8 49 3d 78 ee 2a 3d
       0.027362017 -0.0673908 0.049294423 0.041731328
000110 51 ff 92 bc d0 49 c9 bd b3 41 0a 3d 61 5e a6 bd
       -0.01794401 -0.09828532 0.033754062 -0.0812347
000120 62 26 d8 bc 18 13 6c 3d 4b 1c 8a bd e2 12 8a 3d
       -0.02638549 0.057635397 -0.06743678 0.06741883
000130 e1 bd 8b 3c 94 52 6f bd 40 04 b5 3b f6 f2 b1 bd
       0.017058315 -0.058428362 0.0055241883 -0.08688919
000140 3d 97 08 3d ef 27 ba 3d 3b f6 ee 3b 26 29 09 bc
       0.033347357 0.09089648 0.0072925366 -0.008371627
000150 15 d7 9c bd b0 57 fe 3c e0 1f f0 3c 6d b6 95 bb
       -0.07658211 0.031047672 0.029312074 -0.004568866
000160 ac 2a 5a bd 85 85 d6 3d 87 6a a6 bc e6 f1 87 bd
       -0.05326335 0.104746856 -0.020314468 -0.06637935
000170 cd c9 50 3d 19 07 ae 3d 5b b1 dd 3b 19 d9 7c bd
       0.050973702 0.084974475 0.006765527 -0.061730478
000180 7a 3e 0f 3d eb 5d 39 3b 92 12 80 3c 45 fa 95 bd
       0.03497169 0.002828474 0.015633855 -0.07323126
000190 ae c6 56 bc 85 0c 40 3d a4 b5 96 bc 7e 9c dc bb
       -0.013108892 0.04688694 -0.01839716 -0.0067325225
0001a0 16 2b 66 3c 2f ed 2f 3d 64 36 b8 3d 7d e4 73 3d
       0.014048358 0.042950805 0.08994749 0.059544075
0001b0 36 b5 ae bd 85 21 d7 3c d9 64 9c 3d 4d 1e a7 3d
       -0.08530657 0.0262611 0.07636423 0.08160076
0001c0 e6 f1 57 bc 87 16 73 3d 68 36 e2 3c 37 d3 d4 ba
       -0.013180232 0.059347656 0.027613834 -0.0016237263
0001d0 ce 79 0f 3d 0b cf ca bd f1 5b d4 3d a1 60 98 bb
       0.03502827 -0.099027716 0.10369099 -0.004650191
0001e0 a1 73 77 3d 6a f8 83 bd 18 5e 7a 3d 19 0e b1 bc
       0.060413007 -0.064438656 0.06112489 -0.021613168
0001f0 de cf fc bc 9b 80 e0 3d 1d 07 b8 bd 8a 51 41 3d
       -0.030860838 0.109620295 -0.08985732 0.047196902
000200 7b a8 ae bd 90 10 5e 3c 46 18 28 bd 79 87 b1 3d
       -0.08528229 0.0135537535 -0.041038774 0.086684175
000210 58 f3 43 3c 90 92 e2 bb a2 9d 48 3d 60 e1 37 3b
       0.011959873 -0.0069144443 0.048978455 0.0028057918
000220 00 14 f9 3a 90 d7 47 bd 80 a2 15 3d 48 aa 67 bd
       0.0019003153 -0.04878956 0.036531925 -0.056558877
000230 20 9e 76 3c 88 09 cc 3c f5 de 9e bd 80 bc bc ba
       0.015052348 0.024906889 -0.077573694 -0.0014399439
000240 be ec 87 bd 02 17 68 3d b0 59 a6 bd 50 52 21 bc
       -0.06636952 0.056662567 -0.08122575 -0.009846285
000250 f2 ac 93 bd ad 6f 3c bd 20 4a 8c bb 8d 9b 81 3d
       -0.07210721 -0.04600494 -0.0042812973 0.06328497
000260 57 c5 65 bd ea da f8 bc 00 f8 32 bc 60 cd a1 bd
       -0.0560964 -0.030377824 -0.010923386 -0.079005
000270 94 94 be bc 52 0a 00 3d 07 65 0d bd 21 b7 59 bd
       -0.023264207 0.031259842 -0.034520175 -0.05315316
000280 96 a9 6e 3d ae b6 68 3d c6 92 2e 3d e0 b4 04 3d
       0.0582672 0.056814842 0.042620443 0.03239906
000290 f9 e0 8f 3d f8 05 2c bd fd 36 8c 3d 1e 40 67 bd
       0.07025332 -0.04199788 0.06846426 -0.05645763
0002a0 8b de 98 3d b4 c2 95 bd 28 6a fc bc a0 05 57 bc
       0.07464322 -0.07312527 -0.030812338 -0.0131239
0002b0 cc 31 a5 bd 83 c9 ac bd 1c 9c a2 bc 58 5a 67 3c
       -0.080661386 -0.08436873 -0.01984983 0.014120661
0002c0 32 5e 48 3d 44 8b 9f 3c d0 da ad bd 20 48 b5 3b
       0.048917957 0.019475587 -0.08489001 0.0055322796
0002d0 38 92 17 bc 10 4a a6 3c d1 a0 a2 bd c7 e6 3e bd
       -0.00925117 0.020298988 -0.079408295 -0.046606805
0002e0 40 8d 48 bb b3 ec 9e 3d aa 51 10 bd 68 c2 1f bc
       -0.003060177 0.077599905 -0.03523413 -0.00975094
0002f0 cb be 83 3d 11 8c 8b 3d f7 4b 8e bd 30 b9 52 3c
       0.06432875 0.06813825 -0.06948083 0.012861535
000300 1a e1 09 3d 73 70 a6 bd 30 34 85 bd 32 f7 71 bd
       0.03366194 -0.08126917 -0.065040946 -0.059073634
000310 00 ec 6d 3c a6 7d 8c bd 07 0e ad bd 90 91 bb 3b
       0.014521599 -0.06859903 -0.08449941 0.0057241395
000320 c2 7c 73 3d 04 25 d2 3c ed cb a7 3d e2 97 79 3d
       0.05944515 0.025652416 0.08193193 0.060935862
000330 d0 b6 51 bc 44 24 04 3d ce 58 1b 3d 90 76 a3 bd
       -0.012799934 0.032261148 0.037926488 -0.079815984
000340 33 4d 5c bd e8 19 d5 3c f0 42 80 3c 00 34 0a 3a
       -0.05378456 0.02601333 0.015656918 0.0005272031
000350 98 76 bd bc ea f4 59 3d bc f3 43 bd 0a 35 89 bd
       -0.023127839 0.053212084 -0.047839865 -0.066995695
000360 fa da 55 3d 7b c7 88 bd 48 82 5d 3c 8d 13 88 3d
       0.052210785 -0.06678673 0.013519831 0.06644354
000370 c7 8f ac bd 18 cf f8 bc 97 40 9e 3d 1e 45 64 3d
       -0.08425861 -0.030372187 0.07727163 0.055729978
000380 e8 5c 78 bd 80 1d 86 3c 40 a2 23 bb 67 b8 13 bd
       -0.060635477 0.016371489 -0.0024968535 -0.03606453
000390 25 27 2f bd 95 53 b1 3d ea a9 25 3d 58 12 b0 bc
       -0.04276194 0.0865852 0.040445246 -0.021493122
0003a0 30 d6 7b bc b4 25 bc 3c 41 28 98 bd 5b ed 0b bd
       -0.0153708905 0.022967197 -0.07429553 -0.034161907
0003b0 c4 9a 86 bd d0 9b d5 3b 7f b3 8f 3d 5c 0e cc bc
       -0.06572488 0.0065188184 0.07016658 -0.02490919
0003c0 d0 be b9 3c 1d 07 9a 3d 23 d6 4b bd 20 25 43 bd
       0.022673994 0.07520888 -0.049764764 -0.047642827
0003d0 99 67 0c bd 24 d6 8a bd d1 c4 b3 bd b6 d4 70 3d
       -0.034278486 -0.06779125 -0.08777774 0.058796607
0003e0 72 22 7d bd 83 51 14 bd 7b fb 8b bd b0 8a e3 bb
       -0.061800428 -0.036210548 -0.068350755 -0.006944023
0003f0 32 98 6a 3d 6e 35 39 bd 6e 26 2c bd 26 95 6a 3d
       0.05727405 -0.04521697 -0.042028837 0.057271145

linear2.bias f4 [128]
000000 11 4c bf 3c 60 9f 6a 3b e3 24 19 3d 30 6e a8 bc
       0.023351701 0.0035800561 0.037388694 -0.020560354
000010 fa 19 57 bd a7 76 1b bd d4 ae 10 bd f9 63 82 3d
       -0.052515008 -0.037954953 -0.03532298 0.063667245
000020 fb 87 e9 3c a7 e8 d5 3b 36 54 be 3d ae d5 d3 3c
       0.028507223 0.0065279785 0.09293406 0.025858726
000030 ec 2b 9a bc 14 d6 78 bd 53 49 79 bd f3 69 45 bd
       -0.018819772 -0.060751036 -0.060860943 -0.048196744
000040 41 99 a0 3d 8a bc 0e 3d 19 48 1c bc 49 9d a0 3d
       0.07841731 0.034847774 -0.009538674 0.078425
000050 db 82 b2 bb 55 bb 69 3c 46 6c 59 bd 49 73 17 3d
       -0.005447728 0.014265855 -0.053081773 0.03697518
000060 31 ed e1 3d 83 0c 65 3d e4 86 44 bd 3c 11 91 bd
       0.11031569 0.055920135 -0.047980204 -0.07083365
000070 49 a8 a1 3d 42 08 0b 3d e0 30 cc 3d 46 e3 9d bd
       0.07893426 0.033943422 0.0997026 -0.077093646
000080 a8 26 c4 3d f0 16 3f bd 3f c3 29 bd a7 0d 8d bd
       0.095776856 -0.046652734 -0.041445967 -0.068873696
000090 04 26 25 bd 63 98 f2 bc 75 d9 a2 3c fe 7a 1b bc
       -0.040319458 -0.02961368 0.019879082 -0.009489773
0000a0 c0 4e 9e 3a 94 53 81 bd 14 44 16 3d 5f e6 af 3b
       0.0012077913 -0.063147694 0.036686018 0.0053680385
0000b0 97 c3 9b 3d c4 f0 8c bd 7a 93 d9 3c d2 b1 b1 bb
       0.07605665 -0.0688186 0.02655958 -0.005422809
0000c0 87 3a 5f 3d 26 88 7c bd 57 57 8b bd aa 30 21 bd
       0.054499175 -0.06165328 -0.06803768 -0.03935305
0000d0 99 c6 99 3d c9 0f d9 3d e2 4f a4 3d 75 1b 22 bd
       0.075085826 0.10598714 0.08023049 -0.039576966
0000e0 c8 6f f1 3d b9 93 53 bd f3 69 a6 3d fa 8b c6 3c
       0.11788899 -0.05165455 0.08125677 0.024236668
0000f0 db b2 b9 bc cb 27 96 bd cf a3 3b bc 60 5b 57 bb
       -0.022668293 -0.07331809 -0.011452629 -0.003286086
000100 c9 60 0d bd 38 4b c4 bc f4 12 c1 3d 03 0f 78 3d
       -0.03451613 -0.023961648 0.09427443 0.06056119
000110 d0 cd 12 3d f9 88 88 bc f3 23 10 3d a6 66 fd bc
       0.03584081 -0.016666876 0.035190534 -0.030932736
000120 af f2 9f 3d 9f 5f a9 3d 80 0b a1 3c 54 db 84 3c
       0.0780996 0.082701914 0.019658804 0.016217865
000130 25 21 61 3d da 01 11 3d b3 68 29 bc 4f a9 a2 3d
       0.05496325 0.035402156 -0.010339904 0.07942449
000140 84 72 ad bc 40 d4 f2 bc ad 2b 50 bd c9 67 15 bd
       -0.02117277 -0.029642224 -0.050822902 -0.03647593
000150 e8 84 c1 3d 7a 4e 98 bd 1e 52 8f bd db ad 94 bc
       0.09449178 -0.07436843 -0.069980845 -0.018149307
000160 89 31 98 3d 59 d8 a0 3d 02 ae b2 ba 4c cf 9e bd
       0.07431323 0.07853765 -0.0013632181 -0.077543825
000170 7c 89 13 bd c8 d5 99 3d 55 15 52 bc 4b b6 71 bd
       -0.036019787 0.07511479 -0.012822469 -0.05901174
000180 2d 1b 5c bc 7b 60 88 3d e7 1d 48 3d c8 6f 17 bd
       -0.013434214 0.06659027 0.048856642 -0.036971837
000190 51 10 7b 3d 5a 6c 6a 3d 32 c3 bc bd 7f dd ce 3c
       0.061294857 0.05723224 -0.09216918 0.025252102
0001a0 aa 92 dd 3c f5 f3 40 bd ff 92 8b 3d ce 1b 83 bc
       0.027047474 -0.047107656 0.06815147 -0.01600447
0001b0 3f 19 66 3d c6 31 62 3c df 7a b9 bc aa b7 04 3d
       0.05617642 0.013805812 -0.022641597 0.03240172
0001c0 5e 5c 10 3d 6d 20 e0 3d 91 52 2f 3d 9e 26 93 3d
       0.03524434 0.10943685 0.04280335 0.071851
0001d0 a8 1b a2 3c 25 dc 19 bd a4 8a 0c 3d f5 3a b9 bb
       0.019788578 -0.03756346 0.034311906 -0.00565278
0001e0 d3 32 30 bd c4 6e ac bc f1 03 47 bd 6f 14 53 3d
       -0.04301722 -0.02104891 -0.048587743 0.05153316
0001f0 48 db c4 3c 58 3e 42 bd 1c a3 c1 3b 9d 98 56 bc
       0.024030343 -0.047422737 0.0059093367 -0.013097909

linear3.weight f4 [48, 128]
000000 d6 c5 b0 bd 3b cb 3f bd 05 62 8e 3d 16 2c dd 3d
       -0.08631484 -0.046824675 0.069522895 0.10799424
000010 1d 96 83 3d 1d 54 e4 bc 07 71 38 3d 60 06 0a 3d
       0.06425116 -0.02787214 0.045029666 0.033697486
000020 33 01 14 bc 14 98 f8 bc d5 26 4f bd 6f e5 87 3c
       -0.009033489 -0.030345954 -0.050574142 0.016588895
000030 14 de be 3b 68 97 3f 3c 4d 62 50 bd e7 3b 79 3d
       0.0058248136 0.011693813 -0.050874997 0.060848143
000040 4b c2 a5 bd e1 35 a2 bc 19 15 af bd 08 50 64 bc
       -0.08093699 -0.019801082 -0.08548946 -0.013935097
000050 71 87 b1 bc 59 17 97 3c e6 18 4a 3d 0a 7d a6 3d
       -0.021671029 0.01844375 0.04934015 0.08129318
000060 73 68 b8 3c f6 41 56 3b e2 f0 4f bd a2 43 ae bd
       0.022510743 0.0032693124 -0.050766833 -0.08508994
000070 f1 52 85 bd ba b5 ca 3d c9 48 e6 bc e4 1d 9b bd
       -0.065099604 0.09897943 -0.028110879 -0.075740606
000080 0f 96 a3 3d 78 3c 22 39 e7 d2 a4 3d 24 81 16 bc
       0.07987606 0.0001547205 0.08048039 -0.009186063
000090 73 9c bf 3d c3 dd a8 3d c0 9a 50 bb 40 fd ca bd
       0.09356012 0.08245423 -0.003183052 -0.09911585
0000a0 60 ad 1a 3c a8 d5 96 bd b7 8e ce 3d 73 2f 19 3d
       0.00944075 -0.073649704 0.100858144 0.037398767
0000b0 13 24 15 3d 5b 67 e8 3b f5 f3 90 ba 04 52 c2 3d
       0.036411356 0.007092399 -0.0011059033 0.094882995
0000c0 4a 9b ba 3d 9c ed 15 bc e0 ad a1 bd a0 8f 50 3d
       0.0911165 -0.009150889 -0.07894492 0.05091822
0000d0 62 0a a2 bc bd da 69 3d 61 e8 2c 3c 61 d1 0d 3d
       -0.019780342 0.05709337 0.01055345 0.034623507
0000e0 af d0 d0 ba 87 5a 8e 3d de a6 0b bd 0f b5 d5 bd
       -0.0015931333 0.069508605 -0.034094684 -0.10434925
0000f0 f4 0d 4f bd 28 f6 81 3d 57 07 6b bd 1a ce 6b bd
       -0.050550416 0.06345779 -0.057380047 -0.0575696
000100 a0 e7 3e 3c 49 66 38 3d 58 b3 0b 3c 3a 52 e8 bc
       0.011651903 0.04501942 0.008526646 -0.028359521
000110 3b a7 67 bc a9 b2 10 3d 75 f6 66 bc c2 13 ae 3d
       -0.014138992 0.035326634 -0.014096846 0.08499862
000120 ef 13 80 3d 00 79 06 3c 7e 32 7e 3d 73 3a 83 3b
       0.06253802 0.00820756 0.06205987 0.0040047704
000130 36 33 8a 3c bd 61 65 3c 6f 00 da 3c 27 3b c4 3b
       0.016870122 0.014000353 0.026611535 0.005988497
000140 f3 68 da 3c 14 f0 f6 3c 80 b7 29 3b 6d 8b 0d bd
       0.026661372 0.030143775 0.0025896728 -0.034556795
000150 a0 c5 82 3d 59 17 1d bd d2 14 5c 3d e0 21 a2 3d
       0.0638535 -0.038352344 0.053730793 0.079166174
000160 a3 09 89 bc b5 24 69 3d 79 f4 e2 3b 90 0a c2 3d
       -0.016728228 0.056919772 0.006926116 0.09474671
000170 a0 92 3c 3c e2 5b 82 3d ac 59 df 3c d1 3d d6 3c
       0.0115095675 0.063651815 0.027264439 0.026152523
000180 4f 64 d3 3b 89 87 16 3d e9 13 bb 3d 3e 0c 24 3d
       0.0064511667 0.03675035 0.09134657 0.040050738
000190 76 43 23 3d 42 f9 a9 3c d0 a6 4f 3d 8f 11 98 bc
       0.039859258 0.020748738 0.050696194 -0.01856306
0001a0 61 6b 5d 3c c1 1f 9b bb 8f c2 8a 3d 53 4d 7f 3d
       0.013514371 -0.00473401 0.0677539 0.0623296
0001b0 f8 5e 8e bd 9d 36 b8 3d 91 46 6f bd 90 c2 7d bb
       -0.069517076 0.08994792 -0.058416907 -0.0038720705
0001c0 91 92 56 bd 9f a9 77 3d a2 06 4f 3d 25 6a aa 3c
       -0.05238587 0.060464498 0.050543435 0.020802567
0001d0 cf 29 9d 3d d8 eb 87 bc 52 62 01 bd 1d 5d a7 3d
       0.0767399 -0.016591951 -0.031587906 0.08172057
0001e0 be 3f ed 3c ba a5 82 bd 30 92 11 bd 83 41 a8 bd
       0.028961059 -0.06379266 -0.035539806 -0.0821562
0001f0 60 34 5a bd 25 90 0f 3d 1c 4e d2 3b 8a b0 91 bd
       -0.053272605 0.035049576 0.006418003 -0.0711375
000200 e0 16 9f bd ab d9 b4 3d cd da ff bc 98 02 9c 3d
       -0.07768035 0.08830579 -0.031232262 0.07617682
000210 40 09 87 bd d0 96 a4 bd 40 c5 eb 3c 6c 22 d6 3c
       -0.06593561 -0.08036578 0.02878058 0.02613946
000220 61 d3 ad bc 20 34 a2 3d 2a 74 2b 3b 4e fb 94 bd
       -0.021218957 0.07920098 0.0026161768 -0.07274495
000230 18 8e 3e bc ac c9 fa 3c cc 01 93 bc dc 7e 85 bd
       -0.0116305575 0.030613743 -0.017945193 -0.06518337
000240 3a ea fc bc 86 00 99 ba 0d ef 31 3b 78 c1 b3 3c
       -0.030873407 -0.001167313 0.0027150542 0.021942839
000250 35 f2 19 3d ec a2 88 3c be 6e b3 3d c2 f7 72 bd
       0.037584502 0.01667925 0.08761357 -0.05931831
000260 7b bd e4 3b 20 bc b7 3d 29 e7 f2 bc 99 46 df 3b
       0.0069805956 0.08971429 -0.029651241 0.006813836
000270 07 3f 99 3c 66 48 70 bd ee 0f 6f 3d 15 22 99 bd
       0.018706812 -0.058662795 0.0583648 -0.07477204
000280 b2 ac 0d b9 e6 2b b4 bc a5 4c 82 3d dc e8 bd bb
       -0.00013511142 -0.021993589 0.06362275 -0.0057955813
000290 b0 98 96 bc 5b 36 17 bc a6 b4 1c bc c3 e3 9d bd
       -0.018383354 -0.009229268 -0.009564554 -0.07709458
0002a0 29 c6 af 3d c5 78 07 3c 9c 66 8c 3d de 4e a8 bd
       0.08582718 0.00826854 0.06855509 -0.08218168
0002b0 f7 21 79 3d 06 31 86 bd 71 30 c1 3d 89 25 30 3d
       0.060823407 -0.06552319 0.094330676 0.043004546
0002c0 3b a0 19 bd f4 fb dc 3d 8e bf 59 3b fd 3e 0d bd
       -0.037506323 0.10790244 0.0033225748 -0.0344839
0002d0 37 ad c9 3d 27 05 46 bc d6 e1 f0 3c 96 7a 65 3d
       0.09847491 -0.012086189 0.029404562 0.05602511
0002e0 ae eb 15 bd 1d 41 a3 3d 1e 70 8c bd 6c d4 ca bc
       -0.036601715 0.07971404 -0.06857322 -0.024759494
0002f0 ca e5 8b bd 30 6c 84 bc d3 5a f5 bc 72 b0 7a bd
       -0.06830938 -0.01616487 -0.029950535 -0.061203428
000300 df c5 96 bd 8e b2 71 3d 85 cf be bc 7a b1 9b bc
       -0.0736196 0.059008174 -0.023292312 -0.019005526
000310 c9 fd e6 3c c5 ae 6b bd 00 b8 7f bc a9 36 09 bd
       0.028197186 -0.05753972 -0.015607834 -0.033499394
000320 62 dc 70 3b 17 26 e5 bc a5 0b 8e bd 9e b2 ab bd
       0.0036752452 -0.027972264 -0.06935815 -0.08383678
000330 4c 55 26 bd be 77 9a 3d cb 7d 62 bd d9 6e 08 3d
       -0.04060869 0.0754237 -0.055295747 0.033308838
000340 d8 67 ae 3d aa 29 7b 3d 67 b3 4d bd 1f 23 1a 3d
       0.085159004 0.06131903 -0.05021992 0.03763115
000350 b6 6a 3a bd d2 96 98 bd d8 b3 0b 3d b9 85 37 bd
       -0.045511924 -0.07450642 0.03410706 -0.044805262
000360 9e 13 da bc 8c 2c 64 3d 05 72 d3 3d 94 1f 8a bc
       -0.026620682 0.055706546 0.10324482 -0.01686076
000370 d2 0e 35 bd 22 a1 68 bd 1e b1 26 bd 82 62 f0 3b
       -0.044203587 -0.056794293 -0.040696256 0.007335962
000380 2c 8f a8 3d a0 b1 78 bd dc 1c e8 bc ed 01 8a 3d
       0.08230433 -0.06071627 -0.028334074 0.067386486
000390 59 d6 ac 3d ba 62 c3 bc 17 39 34 bd 9e f0 88 3d
       0.08439321 -0.023850787 -0.043999758 0.06686519
0003a0 17 8e 56 3d 03 9f 77 3d bd 8d 0c 3c 6a 65 bc 3d
       0.0523816 0.06045438 0.008578715 0.09199031
0003b0 0f 16 9a 3c 26 61 2f 3d c9 60 49 3d 61 d6 3a 3d
       0.018809346 0.042817257 0.049164567 0.045614604
0003c0 27 00 72 bd 26 5e b7 3d de a4 cb 3d f1 e8 80 3d
       -0.059082177 0.08953504 0.09943555 0.0629443
0003d0 23 55 b1 bc 12 be 92 bd 41 0d 86 bd 46 0f bb bb
       -0.021647042 -0.07165159 -0.06545497 -0.005708608
0003e0 35 e8 f9 3c 7c 27 43 3d 52 51 48 3c 69 cc 9e bb
       0.030506233 0.047645077 0.0122264195 -0.004846145
0003f0 e6 56 13 bd 07 2a 87 3c 69 ce 7f 3d 7f a4 7e bd
       -0.035971545 0.016499532 0.062452707 -0.062168594

linear3.bias f4 [48]
000000 bf bd 96 bd 45 9b 73 bd d5 16 04 bd f6 e0 8d 3d
       -0.0736041 -0.05947425 -0.032248337 0.069276735
000010 66 30 5b bd b1 78 25 bd de 75 98 3b 67 e8 a0 bc
       -0.053512953 -0.040398303 0.0046527227 -0.019642068
000020 da 30 3b bd b4 05 2f 3d 78 2e 78 bc a9 d7 9d bc
       -0.045700885 0.04273005 -0.015147798 -0.019267874
000030 db f6 4d bd ec 64 48 3c 44 46 6c bd 62 23 59 3d
       -0.050284248 0.012231093 -0.057684198 0.05301226
000040 61 ea 46 3d 62 02 cd bc d6 03 52 3d fc a2 57 3d
       0.048563365 -0.02502555 0.05127319 0.05264567
000050 03 d4 13 bd 52 51 af bc 10 2a 9e 3c e3 8c 50 bd
       -0.036090862 -0.021401081 0.019307166 -0.05091561
000060 ae c3 24 bd 96 16 7c 3c e3 a7 fb bc 7d 93 9f bc
       -0.040225677 0.015386244 -0.030719703 -0.019479508
000070 82 81 26 3d 63 c7 11 bd b1 ae 80 3d 1e 09 12 3d
       0.040650852 -0.03559054 0.0628332 0.035653226
000080 8e 7c 1e 3d 02 29 33 bd 17 44 8b 3d 89 cd 05 3d
       0.038693003 -0.04374028 0.068000965 0.032666717
000090 2a 47 9d 3d ad b6 94 3d c0 88 c8 3c fb 78 76 3d
       0.07679589 0.07261405 0.02447927 0.06017397
0000a0 08 7f 41 3d fc f1 88 bd 8a bf 77 bd 30 1f 6e bb
       0.047240287 -0.0668678 -0.0604854 -0.0036334507
0000b0 43 cd ee bc 15 0c 9f 3d 73 46 98 3d 45 2d 50 3d
       -0.02915061 0.07765976 0.07435312 0.050824422
