第二章-回归模型/model_weight/mlp_sigmoid.pth (torch, 143152 bytes, 6 tensors)

linear1.weight f4 [128, 96]
000000 5f b1 1f 3d db 25 9f 3d fe af e1 bc f4 92 37 3d
       0.038987514 0.07770892 -0.02754974 0.04481788
000010 e2 f9 ff 3b f5 ba e0 bb 39 e3 2a bd af cb 24 3d
       0.007811771 -0.0068582245 -0.041720603 0.04023331
000020 d7 de b4 3b 16 2a 84 3d 52 5a c6 bd 17 fe d7 3d
       0.0055197286 0.0645334 -0.09685196 0.10546511
000030 ae af c4 bc fd 85 b0 3c 18 4c aa 3d e5 d9 4f bd
       -0.024009552 0.021548266 0.08315295 -0.05074491
000040 9f bc 32 3d 32 a7 32 3d 58 b7 d0 3b d2 19 b8 3d
       0.043636914 0.04361648 0.0063695125 0.089893
000050 b3 4c b4 bc 85 71 69 3d 66 f6 7e bd 2b 77 45 3d
       -0.02200923 0.056993026 -0.062246703 0.04820935
000060 8f d6 e0 bd 50 d0 34 3d f5 30 6d bd 9c fa 12 3e
       -0.10978424 0.044143975 -0.057908017 0.14353412
000070 9f 7c ed bc c3 c2 94 3d 53 4e 0b bd 8c 06 26 bd
       -0.028990088 0.0726371 -0.034010243 -0.040533587
000080 6e b7 a1 bd 48 6f e7 3d a7 6a 8d 3b 62 e2 7b 3d
       -0.078963146 0.11300522 0.0043156925 0.061495192
000090 11 a0 bb bd 69 60 fa 3c 8e 01 3a bd b4 da 0a 3e
       -0.091613896 0.03056355 -0.04541164 0.13559991
0000a0 2e f1 9a bd b1 02 80 3d 7f a1 86 bd b8 ce 30 3d
       -0.075655326 0.06250513 -0.06573772 0.043165892
0000b0 7c cc 98 3c e4 79 1c 3e 10 04 4a bd aa fb 77 3d
       0.018652193 0.15280873 -0.04932028 0.06054274
0000c0 2a 9d 85 3d a0 a5 89 3c 0a 0c 8e bd bd c6 1a 3e
       0.06524117 0.016802609 -0.0693589 0.15114875
0000d0 b2 7a 4a bc 15 10 8f 3d 15 47 23 3c 21 4e 5b 3d
       -0.012358354 0.06985489 0.009965678 0.053541306
0000e0 97 2e f3 3c a2 26 00 3e c7 0a a4 bc b4 e2 85 3d
       0.029685302 0.12514737 -0.02002467 0.06537381
0000f0 f6 58 36 bc b3 4d 29 3d 2a ba c8 bc d5 34 00 3e
       -0.011129608 0.041333865 -0.024502832 0.12520154
000100 ca dc 1e 3d 14 81 bb 3d 9d 65 c1 bc 7a 04 e3 3d
       0.03878478 0.09155479 -0.023608023 0.11084838
000110 15 71 46 bd 5e 0b 22 3e 7f 4a 00 bd e8 61 f0 3d
       -0.048447687 0.15824649 -0.031321045 0.11737424
000120 96 84 82 3d be 67 81 3c 98 1d 3c bc e0 7b 85 3d
       0.06372945 0.015796538 -0.011481665 0.06517768
000130 05 25 7c bd 1d 6f c2 3d 8f 09 46 bc f9 bc 12 3e
       -0.061558742 0.094938494 -0.01208724 0.143299
000140 2d d7 cc 3d fc 6b 22 3e e2 1e 6a bd 89 94 49 3d
       0.10001979 0.15861505 -0.05715836 0.04921392
000150 cc 08 0f bd 20 73 11 3d ef ca a6 3d ab d1 01 3e
       -0.0349205 0.035510182 0.08144175 0.12677638
000160 35 4d cc 3d c8 4c 29 3d 72 d9 00 3e 49 78 20 3e
       0.099756636 0.04133299 0.12582949 0.15670885
000170 05 7f 1f bd 80 86 38 3d 74 2f 60 3c cc 94 12 3e
       -0.038939495 0.045050144 0.013683189 0.14314574
000180 3e 3e a5 3d eb 80 68 3d dd bd f9 3c 7e 7f 90 3d
       0.080685124 0.05676357 0.030486042 0.07055567
000190 96 7c 8e bd ef 72 9c 3d 24 1e 35 3d 23 d1 6d bd
       -0.06957357 0.07639109 0.044218197 -0.058060776
0001a0 d7 57 8f bc e8 e9 b5 3d 64 aa 85 bc fa d4 84 bd
       -0.01749794 0.08882505 -0.0163166 -0.064859346
0001b0 5a 03 9b 3d 6b 35 ea 3b 9c 85 16 3d 05 07 4a bd
       0.07568999 0.007147481 0.036748514 -0.0493231
0001c0 b6 49 71 bd 64 72 30 3c a5 39 67 3c 12 87 41 bb
       -0.058908187 0.01076946 0.014112865 -0.002952997
0001d0 7c a7 94 3c 55 d8 85 3b 6a 9d c2 3d 8f 5c 0a 3e
       0.018146269 0.0040846267 0.095026806 0.13511871
0001e0 b5 64 30 3d ee 9e 21 bd 13 e6 5e bd 3b 42 07 3d
       0.04306479 -0.039458208 -0.054418635 0.033022147
0001f0 93 14 16 bd f2 af 06 3c 1d e4 a3 bd 5b bb 6d 3d
       -0.036640715 0.00822066 -0.080024935 0.058040004
000200 be 8a 90 bd c4 9d 80 3d d0 39 9b bd 51 42 eb 3c
       -0.07057713 0.062800914 -0.07579386 0.028718146
000210 e7 8e 8c 3c 3d ef 7b 3d 9f ab 51 bc 0c de 0a bd
       0.017157985 0.061507452 -0.012797265 -0.033903167
000220 e2 c0 a3 bd d9 7d d9 3d 60 d2 b7 3d 6a a6 22 bc
       -0.07995774 0.10619707 0.08975673 -0.0099273715
000230 af 2a 42 3d ed fe 19 3e 73 5a 03 bd fc 70 8e 3d
       0.047403987 0.15038653 -0.03206868 0.06955144
000240 ff c9 85 3d c9 85 c2 3d 96 e0 ac bd b1 2f b8 3d
       0.06532668 0.09498174 -0.08441274 0.089934714
000250 8a 66 a0 bd e0 36 fa 3d c5 9f 13 bd 28 ec 9d 3d
       -0.07832058 0.12217498 -0.03604104 0.07711059
000260 5e 98 cd 3d d6 10 29 bc c4 13 f1 3c 88 bc 06 3e
       0.10038827 -0.010318955 0.02942837 0.13157856
000270 59 0e d2 3d ca 90 02 3e cf 4c 81 3b 8f b6 71 3d
       0.10256643 0.12750545 0.003945924 0.059011992
000280 d0 8a d6 3d a9 b1 9e 3d ba a1 77 3d 88 18 2f 3e
       0.10475695 0.0774873 0.06045697 0.17099202
000290 29 18 29 3d 3f 18 ff 3d 70 c7 0a 3d 20 26 15 3e
       0.041282807 0.124557965 0.033881605 0.14565325
0002a0 c5 1e 97 bc ad 28 03 3e 26 93 58 3d 68 83 2f 3e
       -0.01844729 0.12808485 0.052874707 0.17139971
0002b0 d1 35 af 3d b1 a0 cc 3d 01 54 55 3d 35 07 8f 3d
       0.085551865 0.09991587 0.052082065 0.069837965
0002c0 1d 12 46 3c 75 7a 33 3d 65 53 dd 3c da 77 ca 3d
       0.0120892795 0.043817956 0.027017305 0.09886141
0002d0 89 60 95 3d 1b 01 4a 3d 8b fe 83 bd 7c 75 14 3e
       0.07293803 0.04931746 -0.064450346 0.14497942
0002e0 b7 01 14 3e 23 d9 0f 3d 59 e1 c2 3d da 61 96 3c
       0.14453779 0.035119187 0.09515638 0.018357206
0002f0 42 65 2e 3b f4 18 b6 3c ce 2c 02 bc 4f ef f3 3d
       0.0026610647 0.022228695 -0.007945253 0.11910879
000300 66 4f b6 bd f8 06 94 3c ec 44 8c 3d c9 46 3b bd
       -0.08901863 0.01806973 0.06849083 -0.045721803
000310 52 0b 92 3d 0a c1 11 bc 24 ff 4b 3c c2 ea af 3c
       0.071310654 -0.008896122 0.012450967 0.021474246
000320 87 81 ae bd 8a 2f b6 bc ef 08 b3 3d ba 2a 33 3d
       -0.08520799 -0.022239465 0.08741938 0.04374192
000330 fa 25 22 3c d2 dc c3 3d 56 d5 9e bd 70 36 dd 3c
       0.00989675 0.095636025 -0.07755534 0.027003497
000340 71 88 43 3d 6a 34 34 3d b7 bc 81 3b d1 42 1d 3d
       0.047737543 0.0439953 0.003959264 0.0383938
000350 9d 19 3a 3c 66 10 de 3c 8c 5e 29 3d ec 03 50 bb
       0.011358646 0.027107429 0.041349933 -0.003174062
000360 49 78 83 bc a1 5d e3 bd c4 3c 14 bd bf 13 49 3d
       -0.016048567 -0.11101843 -0.036190763 0.049091097
000370 85 d1 56 bb 4f 43 bd bd 7b bd 3b 3d 42 41 c3 bd
       -0.0032778692 -0.09241354 0.045835 -0.09533931
000380 52 49 b2 3d 42 c9 63 bd fd b3 d4 3d ae 7b ba bd
       0.08705391 -0.055611856 0.103858925 -0.09105621
000390 b1 7f 25 bd 77 fd 2a bd c2 18 f2 3c 52 bd b6 bd
       -0.04040498 -0.04174563 0.029552821 -0.08922829
0003a0 ca 50 c1 3d 86 d6 11 be 39 42 05 bd 58 bf 5c bb
       0.094392374 -0.1424199 -0.032533858 -0.0033683386
0003b0 37 b5 0a 3e 36 0c bf bd a5 ce f2 3d b1 e3 66 3c
       0.1354569 -0.09328501 0.118558206 0.014092372
0003c0 b6 f6 65 3b 26 fd 48 bc f3 9a c3 bc 5c e6 13 be
       0.0035089678 -0.012267387 -0.023877596 -0.14443344
0003d0 ff 70 86 3d fb ab d6 bd bf dd b6 3b 07 5d a0 bd
       0.06564521 -0.104820214 0.0055806334 -0.078302436
0003e0 07 f3 7a 3d 26 80 0b be f7 d4 eb 3d e8 40 b4 bd
       0.061266925 -0.13623103 0.11515229 -0.088014424
0003f0 07 bc 2d 3e f3 d1 1f be 9e d6 a7 3d f3 60 6f bd
       0.16966258 -0.15607433 0.08195232 -0.058442067

linear1.bias f4 [128]
000000 69 41 c3 bd e4 9f b2 bc 98 b8 92 bd 5d 73 c3 bd
       -0.0953396 -0.021804757 -0.07164115 -0.09543488
000010 04 cb 69 3c a5 f5 13 3e 3d 87 e6 3d d1 92 3e 3e
       0.014269594 0.14449175 0.112562634 0.18610694
000020 ab 80 ac bd a4 4a 6c 3d 50 d8 85 bd 12 1a f8 bc
       -0.08422979 0.05768837 -0.06535399 -0.030285869
000030 e6 d2 1e be 33 e3 d8 3d 67 5c 33 be cb c5 2d 3d
       -0.15510139 0.1059021 -0.17515717 0.04242496
000040 2f 6b aa bc c7 84 4a 3e da 32 7d bd 43 0a 9f 3c
       -0.020803062 0.19777213 -0.061816074 0.019414073
000050 13 2f 18 3d 67 ee e5 bd 3f 0d bf bc 02 f8 b9 bd
       0.03715427 -0.11227112 -0.023321746 -0.09080507
000060 4c 20 20 be 00 e4 33 3d de dc 6a 3b 3f 22 9b bd
       -0.1563732 0.04391861 0.0035837214 -0.07574891
000070 30 48 9e 3c 67 b1 d2 3d f4 34 0b bc 9b 11 ef bd
       0.019321531 0.10287743 -0.008496512 -0.1167328
000080 7e 01 e9 bd 31 ff cf 3d 7b ec 8e 3b 1e 62 d1 3c
       -0.11377238 0.10156096 0.0043616868 0.025559481
000090 c3 38 15 3b 2e ce 8d bd 95 a0 d3 bd 9a f3 b1 bd
       0.0022769428 -0.06924091 -0.10333363 -0.086890414
0000a0 43 a0 20 3c ad f2 1c bd 75 80 49 3d 83 31 57 3d
       0.009803834 -0.03831737 0.04919477 0.052537452
0000b0 bd ef 95 3d 3f 05 df 3d 76 a9 1b 3e ef a4 0a 3e
       0.07321117 0.108896725 0.15201363 0.1353948
0000c0 04 ad 1d be b2 4a 38 3e bb 04 30 3c a7 4e 13 3e
       -0.15398031 0.17997244 0.010743315 0.14385472
0000d0 2b 76 13 3e f8 b9 16 3e 30 d0 de 3d e5 66 9b bb
       0.14400546 0.14719379 0.10879552 -0.0047424906
0000e0 1c f6 20 be c7 9c 62 bd 6a 8e 91 bd 03 27 32 3d
       -0.15718883 -0.055325296 -0.071072415 0.043494236
0000f0 a3 b7 4d bd a0 e5 43 3c cf b5 de bc 50 17 9f bd
       -0.050223958 0.011956602 -0.027186302 -0.077681184
000100 10 44 1b 3c d3 5f 04 be b4 9d 0e bc aa 97 4b 3e
       0.009476677 -0.12927179 -0.008704592 0.19882074
000110 36 16 8a 3c a8 be 9b 3d 30 d0 b4 bb 2b 55 20 3e
       0.016856294 0.07604724 -0.005517982 0.15657489
000120 19 1d 74 bc ed 98 09 3e d4 bc 7e bd ab 57 73 3d
       -0.014899516 0.13437243 -0.0621918 0.05940978
000130 f5 85 1c 3d a2 14 ce bc 59 2c 09 be 1a cf 19 3b
       0.03821369 -0.025156323 -0.13395824 0.002346939
000140 42 83 3a be 1c 41 97 bc 06 08 17 3c 22 32 9b bc
       -0.18214133 -0.018463664 0.0092182215 -0.018944804
000150 42 ba 06 be 83 ff 07 3e b4 5c 1f 3e b1 1c 57 3d
       -0.13156989 0.13281064 0.15562707 0.052517597
000160 a6 68 f1 3b cd 2c 98 bc 8c 32 0c be bf 53 23 3d
       0.0073672114 -0.01857605 -0.13691157 0.03987479
000170 79 cd b6 3d 25 48 11 3e be 4f 6f bc 41 45 53 3c
       0.089259095 0.14187677 -0.014606414 0.012894929
000180 6f 02 fd bd 0f e9 04 bd 1e 99 8e bc 41 78 42 bc
       -0.1235398 -0.032448824 -0.017406996 -0.011869491
000190 b0 9f 8e bd aa dc d9 bd 66 9a 3d 3c e1 8a 31 3e
       -0.06964052 -0.106377915 0.011572456 0.17338134
0001a0 e2 70 2e bd 46 63 90 bc a2 d2 f3 bb 28 be 21 be
       -0.042588122 -0.017625462 -0.007440881 -0.15795195
0001b0 d6 8c 8c 3d b3 b4 c9 bd 66 03 91 bd 7d 67 3c 3e
       0.068628 -0.09848919 -0.07080726 0.18398853
0001c0 1e 8a 25 3e 64 70 8e bc 54 7f 38 bd aa c0 ee 3d
       0.16165969 -0.017387576 -0.045043305 0.116578415
0001d0 ae ad 20 3d f0 a7 0d 3c 67 b4 14 3c 49 da 8b 3c
       0.039228134 0.008645996 0.009076214 0.01707186
0001e0 2b 76 3b 3d 9a 89 10 bd 59 18 2d 3e 99 eb 08 3d
       0.04576699 -0.035287477 0.16903819 0.03342781
0001f0 27 9c 19 3d 13 bb 28 3e 75 6a 34 bd 5d ed 4b be
       0.037502434 0.16477613 -0.044046838 -0.19914766

linear2.weight f4 [128, 128]
000000 6b c6 c3 3d 46 df 18 bd 2f 6d fa bd e4 b0 ed bd
       0.095593296 -0.037322305 -0.12227856 -0.11606005
000010 0c ff 6f 3d c1 16 0c 3d 7f b4 13 3c 5a f5 72 bc
       0.05859284 0.034201387 0.009015202 -0.014829004
000020 d8 f3 a1 3d a5 fe ed bd 01 89 1d be 62 71 9a bd
       0.07907838 -0.11620835 -0.15384294 -0.07541157
000030 f8 fc 34 3c 66 ab 8a 3d 1c 84 cd bd c3 19 27 3e
       0.011046641 0.06770973 -0.100349635 0.16318421
000040 5a e2 85 bd 09 55 21 3d 94 f4 85 bb b2 37 37 bd
       -0.06537314 0.039387736 -0.004087994 -0.04473085
000050 8a 74 1e 3d a6 ba c2 bc 7d 4a 52 3d 51 19 55 3c
       0.03868536 -0.023770642 0.05134057 0.013006524
000060 52 11 de bc 8c a9 ea 3d 8e 9c a3 bd 61 70 a7 3b
       -0.027107868 0.1145812 -0.07988845 0.005109832
000070 3d df c8 bd cb 38 ab 3d fc 0d a8 bc e9 8d 69 3d
       -0.09808204 0.08360442 -0.02051448 0.0570201
000080 32 47 e3 3d f2 17 6b 3d 30 34 7c bd dd 5a b7 3d
       0.11097564 0.057395883 -0.061573207 0.08952878
000090 3f 61 0c 3d 25 b8 e4 bd a1 d4 65 3d 41 b8 c5 bd
       0.03427243 -0.11167935 0.05611098 -0.09654284
0000a0 f6 2e 99 bc d5 e1 d0 3c 3f 14 d9 3d a2 f8 65 3d
       -0.01869915 0.02549831 0.10599565 0.056145318
0000b0 f6 64 0c 3e f6 70 59 3d d3 9f e7 bb 25 9e 46 3d
       0.13710389 0.053086244 -0.007068613 0.048490662
0000c0 1b 6f 1f bd 66 c9 fb 3d 56 bb fe 3c 24 95 11 3e
       -0.038924318 0.12294273 0.031095188 0.14217049
0000d0 a2 59 25 3c 1c 31 19 3d c9 9b fc 3d 8f 8e 16 3d
       0.010092171 0.03740035 0.12334401 0.03675705
0000e0 7b d8 5e 3d ae 89 b9 bc 2d e6 b5 bc e2 7f 94 3d
       0.05440567 -0.022648659 -0.022204483 0.07250954
0000f0 1b 80 bb bc 85 f5 ce bd 4d 86 b3 bd 3a 81 dd 3d
       -0.022888234 -0.10105423 -0.0876585 0.10815664
000100 22 d3 32 bd b8 07 99 3d 98 9c 86 3c 30 9a 30 3d
       -0.043658383 0.07472175 0.016432092 0.043115795
000110 b7 d1 db 3d e3 7b c3 3d 9c 18 c8 bb 6a 43 22 bd
       0.10733359 0.09545114 -0.0061064493 -0.039615072
000120 0e 9a 9c bd c6 4e 9a bc d3 27 59 3c 07 e0 c8 3d
       -0.07646571 -0.01883639 0.013254124 0.09808355
000130 39 bf 88 bd 12 69 88 3b c7 a7 c8 3d fc 74 23 3d
       -0.06677098 0.004162916 0.09797626 0.039906487
000140 93 44 a4 bc 17 85 38 be f1 ff 3e 3d 5e 8c 14 bd
       -0.02005223 -0.1801952 0.046630803 -0.036266677
000150 30 91 c3 3d e1 77 4d bd cd ce 85 3d ef e7 05 3e
       0.09549177 -0.050163154 0.06533585 0.13076757
000160 8f 66 45 bd 47 c1 02 be b8 a4 fe 3c 12 de bf bd
       -0.04819351 -0.12769042 0.031084403 -0.093685284
000170 10 e9 c7 bd ba d2 77 bb b5 fc 9f bd 68 69 ed bc
       -0.0976125 -0.0037814812 -0.07811872 -0.028980926
000180 4f 83 c5 3c 99 d2 f0 3d f5 e2 9d 3d 41 f4 2c bd
       0.024110464 0.11758918 0.07709304 -0.042225126
000190 f9 66 1c 3d 7b 16 22 bc ea e5 a0 bd 6b bd fd bc
       0.03818414 -0.009893055 -0.078563526 -0.03097411
0001a0 d9 35 55 bc ca 7f d5 3c 8e 4d e5 bd a4 31 99 3d
       -0.013013327 0.026061911 -0.11196433 0.07480171
0001b0 ab 9e f4 bd 68 fd df bd 28 62 c2 3c b7 18 09 3d
       -0.11944326 -0.10937005 0.023728445 0.033470836
0001c0 64 e4 8e bc 49 32 b9 3c 79 89 9b 3d 49 04 1d be
       -0.01744289 0.022606986 0.0759458 -0.15333666
0001d0 7c dd fa bc 16 15 a6 3d 5e 47 62 bd 62 43 50 3d
       -0.03062319 0.081094906 -0.055243842 0.05084551
0001e0 e3 cb 61 3c 93 7a 38 bc 7a 08 0c bc d4 32 cf 3d
       0.013781521 -0.011259693 -0.008546943 0.101171166
0001f0 54 88 ba 3c f5 f6 0e 3e 4b 97 a8 3c af 7f c0 bd
       0.022770084 0.13961394 0.020579955 -0.09399354
000200 6d d3 7c bd 56 38 97 bd 3e d5 d3 bc 95 7d 3a 3d
       -0.06172507 -0.07383792 -0.025858518 0.04552992
000210 87 70 06 3e eb ca 1b 3d 51 bb 51 3d 70 96 17 3e
       0.13128863 0.038035315 0.05120403 0.14803481
000220 2c d3 63 bd 6c 8d ba 3d 74 ac 5c bd db 85 a8 bd
       -0.05562131 0.09109005 -0.0538754 -0.08228656
000230 8b 11 45 bd 83 fe 03 3d 65 57 2f 3d c5 05 16 3e
       -0.048112433 0.032225143 0.042807955 0.14650638
000240 45 73 22 bd 05 7b 46 3d 69 10 14 bc c8 12 3e 3d
       -0.03966071 0.048457164 -0.009037116 0.04640463
000250 3b 75 fb 3d 7a d0 bf bd 5f 35 09 bd fb 3a c4 bd
       0.12278219 -0.093659356 -0.033498164 -0.09581562
000260 05 1f 5d bd 0b ae d2 3d 1c 29 8b bd 4b 09 cd 3c
       -0.05398466 0.10287102 -0.0679495 0.025028845
000270 18 59 e2 b6 7d 68 02 3e 5e b7 e9 bb c5 cf a1 bd
       -6.7456967e-06 0.12735172 -0.007132455 -0.07900957
000280 f2 50 92 bd 06 ad 74 3d 01 c8 6b 3d 79 d9 af 3d
       -0.07144345 0.05973532 0.057563785 0.085864015
000290 b4 a2 22 3e a1 fd 4d 3d f0 80 06 3d 59 0c c2 bd
       0.15882379 0.050290707 0.032837808 -0.094750114
0002a0 21 f8 d1 3c c1 08 fe 3d ca 86 13 3e 6f 75 dc 3d
       0.025631012 0.124040134 0.14406887 0.10764586
0002b0 5c ab ef 3d da 71 30 3d ef fc 27 3e 36 fe cd 3d
       0.11702606 0.043077327 0.1640508 0.100582525
0002c0 8d e9 82 bd d2 02 c1 3c 87 3b a5 3c af 43 e8 3d
       -0.063922025 0.023560915 0.020169986 0.113410346
0002d0 e6 fe f3 3d d2 53 16 3e 97 23 0f 3e 14 1e be 3d
       0.119138524 0.14680412 0.1397842 0.09283081
0002e0 8c 12 3a bd ac d4 e9 bc 29 4b 2b 3d 91 26 f2 bb
       -0.045427844 -0.028543793 0.041819725 -0.0073898514
0002f0 e8 86 d4 bc ea 4e 2b bd 24 29 34 bd 0a a1 d1 bc
       -0.025943235 -0.041823305 -0.043984547 -0.025589485
000300 2b 23 5d bb 6b b6 45 bd ee ad 12 3e fb 5e c6 3d
       -0.0033742886 -0.04826967 0.14324161 0.09686085
000310 72 f2 fe 3c d2 5a fc 3c f5 f6 6f bd 75 60 00 bd
       0.031121466 0.030805025 -0.058585126 -0.03134199
000320 0a 77 bd 3d d1 ef 04 3d 68 38 95 3d cc 5e 7c 3d
       0.092512205 0.03245527 0.07286149 0.061613843
000330 8d 57 36 bd a3 7a 04 3e 61 79 88 3c 59 ed 8a bc
       -0.04451709 0.12937407 0.01665944 -0.01695888
000340 30 bd 50 bd e3 8a 78 3d 95 4a 4e 3d ac 73 98 bc
       -0.050961673 0.060679328 0.050364096 -0.018609844
000350 a7 10 a6 bd a6 11 94 3c 43 68 b1 3c 26 7d 36 3d
       -0.08108645 0.018074822 0.021656161 0.044552945
000360 fa 33 50 bd 11 83 a6 bc 77 6f c0 bd 24 29 60 3d
       -0.05083082 -0.02032617 -0.0939626 0.054726735
000370 39 08 f7 bc e1 9d 83 3d 1b 29 24 bc 8b 48 19 3e
       -0.030155288 0.064265974 -0.010019566 0.14969079
000380 8f 8b bf bc 47 18 ea 3c d6 6c 86 bc 86 ec 8d bd
       -0.023381976 0.02857603 -0.016409319 -0.06929879
000390 16 e5 a2 bd da 75 a0 bd b4 44 9c 3d 95 d5 ee 3d
       -0.07953851 -0.078349784 0.076302916 0.11661831
0003a0 eb 75 ab bc 65 45 84 3c f2 b7 51 3d 49 92 76 bd
       -0.020930251 0.016146371 0.051200815 -0.060198102
0003b0 a0 b4 e6 bc 02 47 c4 bd e2 83 a9 bd 6a 31 14 3d
       -0.0281623 -0.09583856 -0.08277108 0.036179937
0003c0 ac de 99 3c d1 3c 92 bc 98 5b a4 bc 65 c9 51 3d
       0.018782936 -0.017851265 -0.020063207 0.051217455
0003d0 a8 a4 53 3d 98 d7 b5 3c 87 9d 5d 3c 7d 87 b4 bd
       0.0516707 0.02219753 0.013526327 -0.08814905
0003e0 59 36 93 bd d9 d0 b9 bb b8 5e 5f 3d f8 21 0f 3e
       -0.071881 -0.0056706485 0.05453369 0.13977802
0003f0 63 c2 84 3c d4 55 dd 3d a6 5c ee 3b 5e d9 dc bd
       0.016205972 0.10807386 0.007274228 -0.10783647

linear2.bias f4 [128]
000000 ad dd a4 3d 6e f4 96 3d 75 91 4c 3d 56 26 2a 3d
       0.08050094 0.0737084 0.049943406 0.041540466
000010 30 c8 67 bb f9 ed aa 3d b3 7c a9 bd 07 ba 7e 3b
       -0.0035367124 0.08346171 -0.082757376 0.0038868205
000020 61 9a db bd 9e 08 79 bd 64 f0 de 3c 46 b3 a4 3d
       -0.10722805 -0.060799234 0.027214237 0.08042006
000030 ee c3 41 3d 20 15 b2 bd b6 bb ae bc 47 43 c7 3c
       0.047305994 -0.086954355 -0.021329742 0.024324073
000040 2c 05 23 bd 5c 20 6f bd c5 88 17 bd 16 50 bc bd
       -0.039799854 -0.05838047 -0.036995668 -0.09194963
000050 eb ae 39 3d 9e 31 5e bd 44 ef b8 bd a8 4f 82 bd
       0.04533283 -0.054246537 -0.09030011 -0.063628495
000060 bf 4c 4e bd 03 ab e0 bd 76 ac bb bc 9f 38 8b 3c
       -0.05036616 -0.10970118 -0.022909384 0.016994772
000070 91 e9 ce bd 3d aa ae ba 0e 10 ed bc f3 9e 3d 3d
       -0.10103143 -0.0013325881 -0.02893832 0.046294164
000080 0c cc df bd 1e 6d 3c 3d 11 36 d8 3c b7 c1 75 bd
       -0.10927591 0.0460025 0.026392968 -0.059999194
000090 39 5f ee 3c 6d 45 72 3d f8 0c 0c 3c 6d ac 6f 3d
       0.02909814 0.05914824 0.008548014 0.058514047
0000a0 66 0e c5 3c 5a 5f 74 3d 86 37 a1 3c fc c0 bc bb
       0.024054717 0.059661247 0.019679796 -0.00576031
0000b0 a4 b7 75 3c 67 29 96 3d 44 88 af bd 76 9d ea 3c
       0.014997397 0.073321156 -0.085709125 0.028639536
0000c0 ae f5 97 3d b0 49 10 bd 71 82 a6 3c cd dc aa 3d
       0.074199066 -0.035226524 0.020325871 0.08342896
0000d0 f4 3d f9 bc 2a 36 a6 3d c7 32 f4 3c b1 5e 96 3d
       -0.03042505 0.081158 0.029809369 0.0734228
0000e0 79 50 6f 3d 1b 00 02 bd ab 9d b7 bd 91 10 88 bd
       0.058426354 -0.03173838 -0.0896562 -0.06643785
0000f0 fe ee 58 bd 9e f7 a0 3d b3 9f ab bc 71 23 95 bc
       -0.052962296 0.07859729 -0.020950174 -0.018205376
000100 e3 d2 e8 3c e8 ae 69 3d 9b c6 94 3d 00 7e 17 3b
       0.028420871 0.05705157 0.072644435 0.0023115873
000110 cd 55 f9 3a 2a d8 7c 39 68 8d 20 3d 5e 34 d6 bd
       0.0019022763 0.0002411312 0.039197356 -0.10459207
000120 d5 ca 5c bd 6f a0 6a bd 58 2c b7 3d 0e d2 5e 3d
       -0.053904373 -0.057281908 0.08944005 0.054399543
000130 48 da ca 3c 33 1e 35 3d f8 7a 77 3d 0e 57 58 bd
       0.024762288 0.044218253 0.060420007 -0.052817397
000140 c7 34 62 3d 14 f0 64 3d 39 db 75 bd 36 57 70 bd
       0.055226114 0.05589302 -0.06002352 -0.05867692
000150 8f 48 84 3d 6c b1 25 3d 8b 51 4c bd 98 a5 48 3c
       0.06459152 0.040452406 -0.049882453 0.012246512
000160 83 b3 78 3c bc 17 df 3c c8 de 01 3b 11 11 5c 3d
       0.015179518 0.027232997 0.0019816626 0.053727213
000170 37 9b 44 bd 8a e9 7b 3d b7 50 35 bd 3f c5 21 bd
       -0.047999587 0.061502017 -0.04426643 -0.03949475
000180 c7 b1 e7 bc d2 f1 14 3b e2 c6 77 3d 93 15 e5 bc
       -0.028283013 0.0022727144 0.060492404 -0.027964389
000190 0b 3b 94 3d 1d a0 9e 3c ec d5 6b bd 35 14 a3 bc
       0.07237824 0.019363457 -0.05757706 -0.019907096
0001a0 23 64 83 bd 54 2c 97 bd 33 75 98 3d 6f 71 4b 3d
       -0.06415584 -0.07381502 0.07444229 0.049668726
0001b0 a2 88 d2 bc bb 18 b0 bc 42 ae 21 3c 7e 54 3e bd
       -0.025699917 -0.021496167 0.009868206 -0.046467297
0001c0 61 c9 c4 b9 ed b0 0d 3d 67 d8 ac bd d5 ea 31 bd
       -0.00037534072 0.034592558 -0.08439713 -0.043436844
0001d0 0d 67 70 3c 01 d1 3c 3d 4a e7 6c bd 76 3a f2 bb
       0.014673007 0.04609776 -0.057837762 -0.007392223
0001e0 fe d0 25 bd 09 b4 98 bd 49 d2 27 3d 90 b5 90 3c
       -0.040482514 -0.07456214 0.040972028 0.0176647
0001f0 01 e1 cf 3b 17 69 7e bd 73 c5 2f 3d ef 43 a7 3d
       0.006343961 -0.06211194 0.04291291 0.08167254

linear3.weight f4 [48, 128]
000000 3d ab d6 3c 55 bb 13 3d 4f b3 ab 3d ed d9 59 bd
       0.0262047 0.036067326 0.0838381 -0.053186346
000010 2b 15 e6 bd cc 3d 74 bd 6d 5e 69 bd d3 10 3e bd
       -0.11234506 -0.059629247 -0.056974817 -0.046402764
000020 db 86 51 bc ec 35 68 3d 69 e7 b0 bd de 51 9f bd
       -0.0127885 0.05669205 -0.08637888 -0.07779287
000030 1e 44 fa 3c de 1d ce 3d 3b 89 87 bb 82 53 ca 3c
       0.030550059 0.100642905 -0.004136232 0.024698023
000040 87 ab 1e bd 0f 34 48 bd 7b ef 68 bb ac 52 09 bb
       -0.0387378 -0.048877772 -0.0035543132 -0.0020953817
000050 55 66 9c 3d af 2b be bc 84 01 c1 3d dd f2 80 3d
       0.07636706 -0.02321419 0.09424117 0.062963225
000060 8d 6d ba bd ab 09 e1 3c fa 01 13 bd 10 b9 f3 bc
       -0.091029264 0.02747043 -0.035890557 -0.02975133
000070 77 72 3a bd d0 f1 5d bd ee 16 42 3d 7d b3 8d bc
       -0.04551932 -0.05418569 0.04738515 -0.0172975
000080 45 d7 b7 3d 35 c5 3c 3c f6 93 d3 bd a2 2a 3d bc
       0.08976606 0.011521627 -0.10330956 -0.011545809
000090 eb e5 09 3d ad b9 9f 3d 1c 4c 92 3d f5 c8 c2 bd
       0.033666532 0.07799087 0.07143423 -0.09510986
0000a0 92 58 f0 3c fb 8b 42 3d 93 6f 5e 3c cc 25 2b bc
       0.029339109 0.047496777 0.013576406 -0.010446023
0000b0 24 21 af 3d de 00 5d bc 95 b2 a7 3d bd 1d 9e 3d
       0.08551243 -0.013488976 0.08188359 0.07720516
0000c0 ef f6 f0 bb 6e 45 1f 3c b7 08 1e 3d d0 5b bb bc
       -0.0073536555 0.009721143 0.03858253 -0.022870928
0000d0 46 57 c5 bd ef 4b c0 bc 99 33 9f bc 87 23 f0 3c
       -0.09635787 -0.023473708 -0.019433783 0.029313816
0000e0 8f 04 b1 3d c5 66 0f bd ad 8b 98 3d ac 1d 56 bc
       0.086434476 -0.035010118 0.07448516 -0.013068598
0000f0 7e 77 43 3d 57 25 1c bd b1 6f f2 3d 32 32 e9 bd
       0.04772138 -0.038121548 0.1183771 -0.11386527
000100 af fa 42 3d de 26 44 3d 0c bf f7 bc 98 31 ca bd
       0.04760235 0.04788863 -0.030242465 -0.098727405
000110 9b c5 96 bd 43 97 41 3d 0f 04 d5 3d ad aa 0e 3d
       -0.07361909 0.047263395 0.10401165 0.034830738
000120 be ea 40 bc 50 3a f3 3a 2e c6 e7 3c f3 f6 14 bd
       -0.011774717 0.0018556807 0.028292742 -0.03636832
000130 e3 15 45 3d 79 14 3d 3d b2 5c 3b bc 17 84 b5 bd
       0.048116576 0.046162102 -0.0114356745 -0.08863085
000140 08 f2 f6 3c 9e ac 4b bd d3 29 93 3d 60 90 74 3d
       0.030144706 -0.049725167 0.07185712 0.059708
000150 ac 0a 70 3b ba cf 87 3d e0 ee 8e bd bd 71 07 3d
       0.0036627455 0.066314176 -0.069791555 0.033067454
000160 16 2a 30 3d 67 82 93 bd 12 ec 4e bd ba 2d a3 3c
       0.043008886 -0.07202607 -0.050518103 0.019919265
000170 52 67 1c 3d f7 ed c6 3c 0c 56 8b bd d3 1b a1 bd
       0.03818447 0.024283392 -0.068035215 -0.07866635
000180 9e d8 43 bd 7c c8 70 3c f7 9e 91 bb 21 d4 84 3d
       -0.047814004 0.014696237 -0.004443999 0.06485773
000190 f6 50 04 3d 5b 08 83 bd c7 86 06 bd 0c 9b 77 3c
       0.032303773 -0.06398078 -0.032843377 0.01511265
0001a0 65 1a 8d bd f5 5b b3 3d 9e 4a da bc f8 91 91 3d
       -0.068898 0.08757774 -0.026646908 0.071079195
0001b0 41 c8 2f bd 3f c7 ca bd 7e d4 af 3d bb e0 be bd
       -0.042915586 -0.099012844 0.085854515 -0.09320208
0001c0 76 88 de bb 85 8d c8 bc dc 2c da 3d ed 7e be bd
       -0.0067911698 -0.024481544 0.106530875 -0.09301553
0001d0 04 36 d3 bd b7 e6 6d bd a7 69 9a 3c e9 1f e4 3c
       -0.10313037 -0.058081355 0.018849207 0.027847247
0001e0 9b 11 94 3d 25 55 1f 3d f7 ed dc 3d 47 dc 7c 3d
       0.072299205 0.03889956 0.10787576 0.06173351
0001f0 49 0d 63 3c 5d 8e ac 3d 2a ae 08 bd d8 9f b0 3c
       0.013858148 0.08425591 -0.03336922 0.021560594
000200 1d ef 39 bc 98 1a 8b bd 0a af 3d bc b1 ba 7b bd
       -0.011348513 -0.06792182 -0.011577377 -0.06145734
000210 a6 0d 5a 3d e5 5f c1 bd 8d 9c 77 3d b5 ff a0 bd
       0.053235672 -0.094421186 0.060452033 -0.07861272
000220 45 35 80 bc fa d5 83 bd 39 06 88 3d 06 a1 2a 3d
       -0.0156504 -0.06437297 0.06641812 0.04165747
000230 e3 46 96 3d aa 41 7b bc f1 5a 41 bd c4 b5 1e 3c
       0.07337739 -0.01533548 -0.04720587 0.009686891
000240 b5 0d 13 3d ec 81 06 3d e0 2e 3b bd 0a ce a6 bd
       0.035901744 0.032838747 -0.045699 -0.081447676
000250 48 2e 1e 3d 75 73 e1 bc 7d d4 25 3d 7b 74 00 3d
       0.038618356 -0.027520875 0.040485848 0.031361084
000260 e9 f5 a2 bd f2 38 d4 3d 4c b6 11 3d 68 d4 81 bd
       -0.0795706 0.10362424 0.035574242 -0.063393414
000270 83 0c 82 3d 7a c4 40 3d ed 3a 2f bc 60 16 cd bd
       0.06350043 0.047062375 -0.010695201 -0.10014033
000280 2d 5e 39 bd aa 71 f2 bc fd 34 cb bb 23 9c 32 bd
       -0.04525583 -0.029595215 -0.006201385 -0.043605935
000290 16 64 fc 3c 09 68 a8 3c 35 f5 85 3d e2 d5 40 3d
       0.030809443 0.02055742 0.0654091 0.047078975
0002a0 98 60 c7 bd 22 81 b1 3d 5f 9e a2 3d fc 6e 7a bc
       -0.09735221 0.08667208 0.07940363 -0.01528525
0002b0 69 70 b6 3d 6c 3c b2 3d dd 13 82 bd 6b b8 3f bd
       0.08908159 0.08702931 -0.06351445 -0.046806734
0002c0 5d 82 c1 bb 5e 2b 1e 3c 29 a0 bb bd 10 0e c5 bd
       -0.005905433 0.009653894 -0.091614075 -0.09621823
0002d0 75 00 3e bc de b1 18 bd 0a 65 8e 3d ca dc 55 bd
       -0.011596789 -0.037279002 0.069528654 -0.052212514
0002e0 6c b0 ae 3b 01 22 4d 3d e6 f2 ff 3c 96 be 5c 3d
       0.0053310897 0.050081257 0.031243753 0.053892694
0002f0 30 39 b0 3d fd 29 c6 bd 7b de 86 3d 57 42 e6 bd
       0.08604658 -0.096759774 0.065854035 -0.11243122
000300 bd 3c 84 ba 87 9b 70 3d d4 a3 cd bc fd 89 5f bd
       -0.0010088902 0.058742072 -0.025102533 -0.054574955
000310 05 a4 c9 bc 7d 41 6c 3d 1e bb 89 3d 20 fe dd bc
       -0.024614343 0.057679642 0.06725143 -0.027098715
000320 83 ba 83 bd 85 79 75 ba 0e dd 49 bd 2c a6 0b bc
       -0.06432059 -0.0009364116 -0.04928308 -0.008523505
000330 7a e3 d4 bd 9f 0c 39 3d 4b e8 14 3d ba 14 cd bd
       -0.1039495 0.045178052 0.036354344 -0.10013719
000340 d2 0b 19 bd 65 bc 93 bd fd 0e d3 bd 7c d9 61 3d
       -0.03736479 -0.07213668 -0.10305593 0.05513905
000350 5d 0b 7b 3d 45 f6 0d 3d 89 67 59 3d 45 24 75 3d
       0.061290134 0.03465869 0.053077254 0.059849042
000360 79 d1 5f 3b cf 46 2a bd 12 bf 94 bd 38 98 a8 3d
       0.0034151955 -0.041571435 -0.07263006 0.082321584
000370 7d 51 89 3d b5 1c 68 bb 07 12 a1 bd fd f4 88 bc
       0.06704996 -0.0035417501 -0.078647666 -0.016718382
000380 de 7e 68 3d 8f d9 8e 3b 90 31 9f 3d 04 9d 18 3d
       0.056761615 0.004359431 0.07773125 0.037259117
000390 e7 fa c6 bc 4a e8 99 3c 0b 95 32 bd 7f a4 31 3d
       -0.024289561 0.018787522 -0.04359917 0.043369766
0003a0 8a 20 9a bc 81 0b da 3d b4 f1 b2 3d 09 13 a3 3d
       -0.018814344 0.106467254 0.087375075 0.07962615
0003b0 b6 f5 a7 3d 68 64 51 3c 9b 4f 0b 3d 85 e1 df 3c
       0.082011625 0.012780286 0.034011465 0.027329216
0003c0 99 53 e1 bd 96 9b 81 3d ea 48 a3 3d b9 62 49 bc
       -0.11002273 0.06328504 0.07972892 -0.012291604
0003d0 d4 0c 98 bc 52 a8 0c 3d ea ee b7 bd 8f fa 72 bd
       -0.018560804 0.03434021 -0.08981116 -0.059320983
0003e0 a1 02 f2 3c 83 dc a6 bd a9 29 19 3d 34 39 26 bc
       0.02954227 -0.08147528 0.037393246 -0.010145474
0003f0 ed 1a 3b 3d c8 3b b5 3d b8 2c 8b 3d 30 27 36 3d
       0.045679975 0.08849293 0.06795639 0.044470966

linear3.bias f4 [48]
000000 73 bf 61 bd 68 7d 0c bd 59 e0 3c bd d9 5e bf 3d
       -0.05511422 -0.034299284 -0.046112392 0.09344263
000010 62 9e d6 3c 44 73 88 3c 39 d6 7a bd e1 51 a7 ba
       0.02619857 0.016656525 -0.061239455 -0.0012765491
000020 4f f9 79 bd 2b 49 03 3b 07 1a 7c 3b 3d 0b dd 3c
       -0.061028775 0.0020032625 0.0038467662 0.026982898
000030 89 6c 58 bd d5 45 a7 3c d8 6c 99 3d d3 c1 a8 bd
       -0.052837882 0.02041904 0.074914634 -0.08240094
000040 6f e2 1b 3d 99 fe 05 3d 05 f2 d3 3c 6c 0c 63 bc
       0.03805774 0.032713506 0.02587224 -0.013857942
000050 02 9f c7 3c 7a 62 23 bd 79 53 9f 3d 3d de b8 3d
       0.024367813 -0.039888836 0.07779593 0.090267636
000060 27 49 8a bd 2b 03 87 bd 9e a0 9a bd bb c8 4e bc
       -0.06752234 -0.06592401 -0.075501665 -0.0126211
000070 a7 b2 9c bd fc 3f db 3c 29 df ac 3b b6 a6 18 3d
       -0.07651263 0.026763909 0.005275626 0.037268363
000080 cc 5f 85 3c 56 ff 98 3d f6 5a 2c 3d 91 fc 06 3d
       0.016281031 0.074705765 0.042078935 0.03295571
000090 1b b1 4e 3d 8b 35 c6 3c 1f 1b 38 bd 76 0e b4 bb
       0.05046187 0.024195453 -0.04494774 -0.005494888
0000a0 46 8d 6f bd dc a1 36 bd 6a ae 86 3d 1f d7 94 3b
       -0.05848434 -0.044587955 0.065762356 0.004542246
0000b0 61 7c 72 3c 0f f7 8c 3d 1b d1 b7 3c fb 4f ae bb
       0.014800162 0.0688306 0.022438576 -0.005319593
