第二章-回归模型/model_weight/mlp_sigmoid_norm.pth (torch, 146358 bytes, 10 tensors)

linear1.weight f4 [128, 96]
0	0x3d8a98bb	0.06767412
1	0xbd62205c	-0.05520664
2	0xbdc5b4db	-0.09653636
3	0x3d75c61f	0.060003396
4	0x3d393154	0.04521306
5	0x3cf57196	0.029961389
6	0x3ca72ae7	0.0204062
7	0x3d252d77	0.04032656
8	0x3d154bd5	0.036449272
9	0xbc12e1d2	-0.008964973
10	0xbd47f820	-0.048820615
11	0x3c996101	0.018723013
12	0x3cd2b2c7	0.025720013
13	0x3dd30009	0.10302741
14	0x3d50169e	0.05080282
15	0x3d300223	0.042970788
16	0x3cd17151	0.025566729
17	0x3d2dc70a	0.042426147
18	0xbd822dfa	-0.063564256
19	0xbcda3fc0	-0.026641726
20	0xbc595256	-0.013264259
21	0xbc9b50d2	-0.018959437
22	0xbc31a3e1	-0.010842294
23	0x3cb59cba	0.02216946
24	0xbc638d28	-0.013888635
25	0xbc1d3d5d	-0.00959715
26	0x3d41f077	0.047348466
27	0x3cbe6958	0.023243591
28	0xbc40bdf1	-0.011764036
29	0xbd346721	-0.044043664
30	0x3daac8fd	0.08339117
31	0x3d5e6aa0	0.054300904
32	0x3d246c83	0.040142547
33	0x3cc8ee1e	0.024527606
34	0xbd7ca846	-0.061683916
35	0xbd820607	-0.06348806
36	0xbd8ca862	-0.06868054
37	0x3d647d04	0.055783287
38	0x3d0838b4	0.0332572
39	0xbdb171fc	-0.08664319
40	0x3d17fdb6	0.037107192
41	0x3cea8861	0.028629484
42	0x3ca15b83	0.019696957
43	0x3d64f142	0.055894144
44	0xbda8b304	-0.082372695
45	0xbc89163a	-0.016734231
46	0x3dc17b0d	0.09447298
47	0x3d4d9e70	0.050199926
48	0xbd8667ad	-0.06562743
49	0xbc611bea	-0.013739565
50	0xbc93066b	-0.017947396
51	0xbda7c7b8	-0.0819239
52	0x3db49507	0.08817487
53	0xbc30a2a2	-0.010780962
54	0xbd1407e4	-0.036140338
55	0x3d344cbf	0.044018503
56	0x3d2a8b9a	0.04163704
57	0x3c63126d	0.0138593735
58	0xbaba06ed	-0.0014192738
59	0x3bcc01d5	0.0062258043
60	0xbdaea326	-0.08527212
61	0x3bb7e2d5	0.0056117573
62	0x3c50ffbe	0.012756286
63	0xbd8b4b46	-0.06801467
64	0x3b11ec3a	0.0022266046
65	0x3c4ddca3	0.012564811
66	0xbca65336	-0.02030335
67	0x3d24a3fd	0.040195454
68	0xbd45b5ef	-0.04826921
69	0x3d856897	0.065140896
70	0x3ccada1f	0.024762211
71	0xbccdf00d	-0.02513888
72	0xbd78622f	-0.06064051
73	0xbdd7160e	-0.105022535
74	0xbd5085cf	-0.05090886
75	0xbd8e44d3	-0.06946721
76	0xbcf89588	-0.03034474
77	0xbd311098	-0.043228716
78	0x3d275094	0.04084833
79	0xbc7921f1	-0.015205846
80	0x3d0a4536	0.03375741
81	0x3c72db5b	0.014822806
82	0x3d23a3b5	0.039951045
83	0xbd3acafa	-0.04560373
84	0xbd729161	-0.059220675
85	0xbc989c30	-0.018629164
86	0x3b6c8a5b	0.0036093208
87	0xbd946e61	-0.072476156
88	0xbb01f97e	-0.0019832547
89	0x3d593f79	0.053039048
90	0xbd72ac53	-0.059246372
91	0x3dd7bc3c	0.1053395
92	0x3cb23f35	0.021758655
93	0x3bfc1ff0	0.007694237
94	0xbd77fa4c	-0.060541436
95	0x3d99da3b	0.07512327
96	0x3d0ee07f	0.034882065
97	0xbdae7d8e	-0.085200414
98	0x3dc2bd0d	0.09508715
99	0xbd916cf1	-0.07100857
100	0xbd15a0b6	-0.03653022
101	0x3d58374c	0.05278711
102	0xbd1891a7	-0.03724828
103	0xbdabca7d	-0.08388231
104	0xbd05884a	-0.03260068
105	0x3d95fec0	0.0732398
106	0xbc45c3ce	-0.012070609
107	0xbde7e330	-0.113226295
108	0x3d921fe0	0.07134986
109	0xbdd999f5	-0.10625068
110	0x3d1ff5cd	0.039052773
111	0xbd72ee3a	-0.05930922
112	0x3db683d5	0.08911864
113	0xbdf2e8fe	-0.11860846
114	0xbd772aa9	-0.06034342
115	0x3da0c6c6	0.07850413
116	0x3c8fdcff	0.017561434
117	0x3d1d8614	0.038457945
118	0x3daa9f07	0.08331113
119	0x3d81b196	0.063327
120	0xbc7c64ef	-0.015404924
121	0x3d9770f3	0.0739459
122	0x3d6d36a5	0.05791344
123	0xbd71b00e	-0.05900579
124	0xbc48d67e	-0.01225817
125	0x3d5d9073	0.054092836
126	0x3c75ae4c	0.014995169
127	0xbd6f57aa	-0.058433212
128	0xbd1f5afe	-0.038905136
129	0x3d37348f	0.04472786
130	0x3d8072a0	0.06271863
131	0xbdd7bce9	-0.10534079
132	0x3d82d6b4	0.063886076
133	0xbd518f9b	-0.051162343
134	0xbdc3495c	-0.095354766
135	0x3ca8d844	0.020610936
136	0xbdb0a9e3	-0.08626153
137	0x3cec1b49	0.028821604
138	0x3a2818cc	0.00064123864
139	0x3ca69f31	0.02033958
140	0x3b1ffb1a	0.0024411143
141	0xbcb5aca9	-0.022177057
142	0xbd999503	-0.07499125
143	0xbdc1d14f	-0.094637506
144	0xbdb14f24	-0.08657673
145	0x3d20ccc7	0.03925779
146	0x3b9ad3d2	0.004724958
147	0xbd60832a	-0.054812588
148	0xbd2ec52f	-0.042668518
149	0x3dc21dfb	0.094783746
150	0xbda28bdd	-0.07936833
151	0xbda89dc2	-0.08233215
152	0x3cdff052	0.027336273
153	0x3dafb0d8	0.08578652
154	0x3c684f94	0.014179129
155	0x3d03f820	0.032219052
156	0x3d453672	0.048147626
157	0xbaa31a1b	-0.0012443693
158	0xbdb65024	-0.08902004
159	0xbd92653e	-0.07148217
160	0xbc40bce4	-0.011763785
161	0x3d2ad387	0.041705634
162	0xbd938a69	-0.07204134
163	0x3d9caefb	0.076505624
164	0xbd2b905e	-0.041885726
165	0xbd6efb26	-0.058344983
166	0xbc3ff4be	-0.011716066
167	0x3d15d811	0.03658301
168	0x3dd47b87	0.103751235
169	0xbb10d71a	-0.0022100867
170	0x3cf56957	0.029957457
171	0xbda6d62b	-0.08146318
172	0x3c5fc9ce	0.013658954
173	0x3d82eb35	0.063925184
174	0xbda0b6fb	-0.07847401
175	0xbd7a645f	-0.061130878
176	0xbda5a621	-0.08088327
177	0x3d572804	0.052528396
178	0x3dbd161f	0.09232735
179	0xbdf804b3	-0.12110271
180	0x3cfb190d	0.030651594
181	0xbe09b658	-0.13448465
182	0xbd033825	-0.032035965
183	0x3d4a0244	0.049318567
184	0x3cbccb9e	0.023046311
185	0xbc274a45	-0.010210578
186	0x3c4c62db	0.012474741
187	0x3d436848	0.047706872
188	0xbac4e7ae	-0.0015022659
189	0xbd84ee44	-0.06490758
190	0xbd5d6cd7	-0.054058876
191	0xbc131fef	-0.0089797815
192	0xbda2fc83	-0.07958319
193	0xbd3a09a1	-0.04541934
194	0xbc615d13	-0.013755101
195	0xbc43083b	-0.011903818
196	0x3dd0a38c	0.10187444
197	0xbd087abd	-0.033320177
198	0x3d4b2113	0.04959209
199	0xbc8e514d	-0.017372752
200	0x3c47c5c7	0.01219315
201	0x3d1927b3	0.037391376
202	0x3d73ecb5	0.059551913
203	0x3cbcb0aa	0.023033459
204	0xbd8cebf1	-0.0688094
205	0x3d51c921	0.051217202
206	0x3db2d82e	0.08732639
207	0xbcdfdcbd	-0.027326936
208	0x3d3cf530	0.046132267
209	0xbc890899	-0.016727732
210	0xbd3c2865	-0.04593696
211	0xbce6c0e2	-0.028168146
212	0xbd98f6e1	-0.074689634
213	0xbc9c978e	-0.019115236
214	0xbda413ce	-0.0801159
215	0xbd8499c3	-0.0647464
216	0xbd8b4b05	-0.06801418
217	0x3d197601	0.037466053
218	0xbce9796d	-0.028500283
219	0xbdab8277	-0.083744936
220	0xbbce9725	-0.006304639
221	0xbd27bcc1	-0.040951494
222	0xbcc67b1e	-0.024228629
223	0x3d97a1c0	0.07403898
224	0x3c7ecbf1	0.015551553
225	0x3ca4d0f5	0.02011917
226	0xbcced1a4	-0.025246449
227	0xbc2ad0f5	-0.010425796
228	0xbd94a21a	-0.07257481
229	0x3dbfefb1	0.093718894
230	0x3daeab03	0.08528712
231	0xbd58afdd	-0.05290209
232	0x3d3fd271	0.046831552
233	0xbd0eddf3	-0.034879636
234	0x3b593d17	0.0033147985
235	0x3d3295bf	0.04359984
236	0x3c9f0957	0.019413633
237	0xbca88fb8	-0.020576343
238	0xbd9a2ea9	-0.07528431
239	0x3c96e42b	0.018419346
240	0xbd25ed11	-0.040509287
241	0xbb798f73	-0.0038079887
242	0x3ce519ef	0.027966468
243	0xbd5c4f06	-0.0537863
244	0x3cd82649	0.026385443
245	0xbd4bb654	-0.04973443
246	0x3db511d2	0.088412896
247	0xbce5b39a	-0.028039742
248	0xbd6f7ce4	-0.058468714
249	0x3cf3da1a	0.029767085
250	0x36fabe42	7.4727295e-06
251	0xbdc66d1c	-0.0968878
252	0xbd4131c2	-0.047166593
253	0x3d58e2c3	0.05295063
254	0xbd8ba882	-0.0681925
255	0x3dbf4ca3	0.09340789

linear1.bias f4 [128]
0	0x3cf330fa	0.02968644
1	0x3bf93a0c	0.0076057967
2	0xbcd62a7b	-0.026143303
3	0x3d1eeb6a	0.038798727
4	0x3cdc75c3	0.026911622
5	0xbd8f092a	-0.0698417
6	0x3d8b740c	0.068092436
7	0xbddc0591	-0.10743249
8	0xbd17d1a6	-0.03706517
9	0xbda72282	-0.08160879
10	0xbd0a1071	-0.033707086
11	0x3d9eeb50	0.07759726
12	0xbc8bcc68	-0.017065242
13	0x3dbd8745	0.09254316
14	0xbdcd3a16	-0.10020845
15	0x3dd5f9de	0.10448049
16	0xbccba1f7	-0.024857504
17	0x3d43d2a7	0.047808316
18	0x3ce3cb7a	0.027806986
19	0x3be23c29	0.0069041443
20	0x3c8d8517	0.017275376
21	0xbd399a47	-0.045313146
22	0xbd40f328	-0.047106892
23	0xbcc5aaf6	-0.024129372
24	0xbca23ff0	-0.019805878
25	0x3d3814e0	0.044941783
26	0x3d45e8e2	0.048317797
27	0xbdd92367	-0.106024556
28	0xbc8906aa	-0.01672681
29	0xbc7471e0	-0.014919728
30	0xbc55f99e	-0.013060002
31	0x3d2d891d	0.04236709
32	0xbd2ea94a	-0.042641915
33	0x3ce9d13a	0.02854215
34	0x3daf991f	0.085741274
35	0x3de4dec6	0.11175303
36	0xbd42fe4c	-0.047605798
37	0x3d5780e2	0.052613147
38	0xbdae1b84	-0.08501342
39	0xbda10b0e	-0.07863437
40	0x3dcb4129	0.09924538
41	0xbdfade3c	-0.12249419
42	0xbd752e89	-0.059858833
43	0x3c9b52ed	0.01896044
44	0x3da5b198	0.08090514
45	0xbd3738e6	-0.044731997
46	0x3d3aaede	0.045576923
47	0xbdd01336	-0.10159914
48	0xbc6e2d9b	-0.01453724
49	0x3da68f24	0.08132771
50	0xbc4cb4cf	-0.01249428
51	0x3ddc6b3c	0.10762641
52	0xbd0d137c	-0.03444241
53	0xbc903146	-0.01760162
54	0xbdcf71bf	-0.10129117
55	0x3d857919	0.06517238
56	0xbc0ad65a	-0.008473957
57	0x3c5d5fa0	0.013511568
58	0x3dc59d7c	0.096491784
59	0x3d4051c1	0.046952967
60	0x3d49a2fa	0.049227692
61	0x3bb6f642	0.0055835554
62	0xbca8557b	-0.020548573
63	0x3d8ef331	0.06979979
64	0x3cd0a778	0.02547048
65	0x3c0275f0	0.007962689
66	0x3d269821	0.040672425
67	0xbd11d5df	-0.035604354
68	0xbdedc589	-0.116099425
69	0x3d0587f4	0.032600358
70	0xbd78956b	-0.06068937
71	0x3c986188	0.018601194
72	0xbdeb3a86	-0.11485772
73	0x3d68afd0	0.056808293
74	0xbd5adc1e	-0.053432576
75	0x3dbeb6c9	0.09312207
76	0x3d5662c4	0.052340284
77	0xbcf84dfa	-0.03031062
78	0xbd3e04a7	-0.046391156
79	0x3c1ad540	0.009450257
80	0xbdb075c1	-0.0861621
81	0x3def201e	0.11676048
82	0x3cc02e0c	0.023459457
83	0x3d7e3824	0.06206526
84	0xbd8bc2a4	-0.06824234
85	0x3cd6b5a8	0.026209667
86	0xbbe429c0	-0.006962985
87	0x3d82fbd3	0.06395688
88	0xbda8abcb	-0.08235892
89	0x3cc6fe82	0.02429128
90	0x3d28dc16	0.041225515
91	0xbc86ade6	-0.016440343
92	0x3cc82b57	0.024434729
93	0x3da133ce	0.07871209
94	0xbd03f9d2	-0.03222067
95	0xba589030	-0.00082612317
96	0x3d756fc4	0.05992104
97	0xbdcbf48a	-0.099587515
98	0x3d75f592	0.060048647
99	0xbd8b3c06	-0.06798558
100	0xbd62bdfd	-0.05535697
101	0xbd9e9fa6	-0.07745294
102	0x3d2c190b	0.04201607
103	0x3da5113e	0.08059929
104	0xbdad5d69	-0.08465082
105	0xbce92300	-0.028459072
106	0x3d83df86	0.06439118
107	0xbc9e27f8	-0.019306168
108	0x3b529d9a	0.0032137395
109	0xbd1a2cdd	-0.03764044
110	0x3d828608	0.06373221
111	0xbd093eb4	-0.033507064
112	0x3d0c04ed	0.034184385
113	0x3bda6f08	0.006666068
114	0xbc89833a	-0.016786207
115	0x3d94ecef	0.07271754
116	0x3de1cdb8	0.11025566
117	0xbda5f87d	-0.08104036
118	0x3df1f34e	0.11813985
119	0xbd706ae1	-0.058695678
120	0x3dab84e6	0.08374958
121	0x3d2862d6	0.041109882
122	0x38e570ac	0.00010940558
123	0x3d6b06dd	0.057379592
124	0xbc6e8f0f	-0.014560475
125	0x3d818ccb	0.06325682
126	0x3d2fc94d	0.042916585
127	0xbccf89ce	-0.025334265

norm1.weight f4 [128]
0	0x3f72c0d9	0.9482551
1	0x3f7df51c	0.9920213
2	0x3f7fe842	0.9996377
3	0x3f85d707	1.0456246
4	0x3f7c229e	0.9849032
5	0x3f7a99bd	0.97890836
6	0x3f80d023	1.0063518
7	0x3f8009bc	1.0002971
8	0x3f83fb67	1.0311097
9	0x3f7e2f21	0.99290663
10	0x3f80a7f9	1.0051261
11	0x3f80b2f3	1.0054611
12	0x3f7ad04e	0.979741
13	0x3f7dfaef	0.9921102
14	0x3f8186fb	1.0119318
15	0x3f82e2bb	1.0225443
16	0x3f804bff	1.0023192
17	0x3f81dafa	1.0144951
18	0x3f7ee859	0.99573284
19	0x3f7c3329	0.98515564
20	0x3f83a49c	1.028461
21	0x3f80081f	1.0002478
22	0x3f80303e	1.0014722
23	0x3f852d64	1.0404477
24	0x3f7cb29b	0.9871003
25	0x3f7a9201	0.97879034
26	0x3f81689e	1.0110052
27	0x3f80fb35	1.0076662
28	0x3f80ec59	1.0072128
29	0x3f80f91f	1.0076026
30	0x3f81b562	1.0133479
31	0x3f820911	1.0159017
32	0x3f7f89ba	0.9981953
33	0x3f7fcea4	0.99924684
34	0x3f807929	1.0036975
35	0x3f810f87	1.0082864
36	0x3f7ae5f4	0.9800713
37	0x3f7acbff	0.97967523
38	0x3f81ea83	1.0149692
39	0x3f792e87	0.9733662
40	0x3f83615b	1.0264086
41	0x3f829e9f	1.0204657
42	0x3f82807e	1.0195463
43	0x3f812639	1.008979
44	0x3f7c76d2	0.98618805
45	0x3f86de4d	1.0536591
46	0x3f7f76a7	0.99790424
47	0x3f82750d	1.0191971
48	0x3f806097	1.0029477
49	0x3f80e304	1.006928
50	0x3f81c2f3	1.0137619
51	0x3f82d733	1.0221924
52	0x3f8315fe	1.0241086
53	0x3f7d962d	0.99057275
54	0x3f80218b	1.0010237
55	0x3f7ea12e	0.9946469
56	0x3f80a4e3	1.005032
57	0x3f8197d6	1.0124462
58	0x3f7ef4fd	0.9959257
59	0x3f831476	1.0240619
60	0x3f7549b6	0.958156
61	0x3f807f66	1.0038879
62	0x3f827397	1.0191525
63	0x3f7b025e	0.9805049
64	0x3f7b8887	0.982552
65	0x3f80736d	1.0035225
66	0x3f8128fa	1.009063
67	0x3f82cbf4	1.0218492
68	0x3f82281d	1.0168492
69	0x3f81cbc7	1.0140313
70	0x3f854146	1.0410545
71	0x3f80b57b	1.0055383
72	0x3f84ea06	1.0383918
73	0x3f78f3e1	0.9724713
74	0x3f81197b	1.0085901
75	0x3f837d52	1.027262
76	0x3f772085	0.96533996
77	0x3f833d9f	1.025318
78	0x3f827b99	1.0193969
79	0x3f8169a3	1.0110363
80	0x3f7f6a60	0.9977169
81	0x3f831ec2	1.0243762
82	0x3f8214fc	1.0162654
83	0x3f8245d4	1.017756
84	0x3f7b3224	0.98123384
85	0x3f7abf60	0.97948265
86	0x3f802a90	1.0012989
87	0x3f872bbf	1.0560225
88	0x3f8041bd	1.0020062
89	0x3f844d1a	1.033603
90	0x3f7f6bf4	0.997741
91	0x3f807098	1.0034361
92	0x3f7faeec	0.99876285
93	0x3f816eba	1.0111916
94	0x3f8211a8	1.0161638
95	0x3f82a436	1.0206363
96	0x3f7ffffd	0.9999998
97	0x3f822b0d	1.0169388
98	0x3f7f27da	0.99670184
99	0x3f809e77	1.004836
100	0x3f7eadcf	0.9948396
101	0x3f86bb82	1.0525973
102	0x3f804970	1.0022411
103	0x3f80280b	1.001222
104	0x3f81ad84	1.0131078
105	0x3f7ced5d	0.9879969
106	0x3f7d5013	0.9895031
107	0x3f81e8ba	1.0149148
108	0x3f82b12c	1.0210319
109	0x3f7dda86	0.99161565
110	0x3f7e1937	0.99257225
111	0x3f7e012f	0.99220556
112	0x3f83686a	1.026624
113	0x3f7a692b	0.97816724
114	0x3f7d6249	0.98978096
115	0x3f860b55	1.0472208
116	0x3f7eb5f0	0.99496365
117	0x3f7e4807	0.99328655
118	0x3f820aec	1.0159583
119	0x3f7e637a	0.9937054
120	0x3f835a1e	1.0261877
121	0x3f830314	1.0235314
122	0x3f7ab318	0.97929525
123	0x3f82fa71	1.0232679
124	0x3f838191	1.0273916
125	0x3f7f14d0	0.9964113
126	0x3f815463	1.0103878
127	0x3f81e145	1.0146872

norm1.bias f4 [128]
0	0xbb8e247c	-0.0043378454
1	0xbb52a7d7	-0.0032143497
2	0xbb9c5bfc	-0.0047717076
3	0x3c181676	0.009282699
4	0xba96bf15	-0.0011501039
5	0xbb8f9204	-0.00438142
6	0xbc275ff0	-0.010215744
7	0x3b77ec69	0.003783012
8	0xbbf3f3cc	-0.0074448343
9	0xbc1bf018	-0.009517692
10	0xbc0fbd32	-0.008773135
11	0xbb3abc78	-0.0028493684
12	0x3a6ad372	0.00089578994
13	0x3ab8d9cc	0.0014102994
14	0x3bf35654	0.0074260626
15	0x3aa14573	0.0012304023
16	0xbb82113c	-0.0039693397
17	0x3a3cdc33	0.0007204443
18	0xbb6ddd66	-0.0036295294
19	0xbc0ddce9	-0.008658626
20	0xbb2287e1	-0.0024800228
21	0xba8fecf1	-0.0010980648
22	0xbb17129a	-0.002305186
23	0xbb909f4a	-0.00441352
24	0x3ad2d12f	0.001608407
25	0xbc881481	-0.01661134
26	0x3bf59c72	0.0074954564
27	0xbb9f04ef	-0.004852883
28	0x3c8e9f04	0.017409809
29	0x3bf8856c	0.0075842645
30	0xbc42dbbd	-0.01189321
31	0x3c095214	0.008381385
32	0xba986c10	-0.0011628885
33	0x38e993ef	0.000111378606
34	0x39ed17f3	0.00045222006
35	0xbab3030e	-0.0013657527
36	0xbace751d	-0.0015751455
37	0x3b580966	0.0032964586
38	0xb90c118d	-0.00013357979
39	0xbba6dbc7	-0.0050921175
40	0x3bcf23d6	0.0063214106
41	0xbc340fc9	-0.010990092
42	0xbb975238	-0.0046179555
43	0xbc1c3d3d	-0.009536085
44	0x3b16b113	0.0022993728
45	0xbb0f5e3c	-0.0021876236
46	0x3b9afa8b	0.004729574
47	0xbc3a38b0	-0.011366054
48	0x3c7a3e9c	0.015273716
49	0xbb91f9bb	-0.004454819
50	0xbc2de170	-0.0106128305
51	0xbb4c41d8	-0.0031167176
52	0xbbb268f9	-0.0054446426
53	0xbbbe903c	-0.005815534
54	0xbb82d92b	-0.0039931736
55	0xb98f4783	-0.00027328366
56	0xbb9088e2	-0.004410849
57	0x3c11e960	0.008905739
58	0xbc088b45	-0.008333986
59	0xbb2438d0	-0.0025058277
60	0xbb8b0884	-0.0042429585
61	0x3addb052	0.001691351
62	0xbbcb57a4	-0.006205516
63	0xbc2bba73	-0.010481465
64	0x38e31fbf	0.00010830117
65	0x3c3920a4	0.011299286
66	0x3c034166	0.008011198
67	0xbc5d352d	-0.013501448
68	0xbb36572a	-0.002782295
69	0xbc099c89	-0.008399137
70	0xbbe63b45	-0.0070261084
71	0x398174ce	0.00024691824
72	0xbbebb119	-0.0071927425
73	0xbbfad90a	-0.0076552676
74	0xbab5bd7a	-0.0013865673
75	0xbb21d802	-0.00246954
76	0xb9f23377	-0.0004619618
77	0xbc2a169f	-0.01038137
78	0xbc006920	-0.007837564
79	0x3bf8e1e6	0.0075952886
80	0xba00877d	-0.0004903002
81	0xbc266a86	-0.010157233
82	0xbbc2c39b	-0.005943728
83	0xb91542cb	-0.0001423463
84	0xbb1cc53c	-0.0023921272
85	0xbbf1b71f	-0.007376566
86	0xbad465a4	-0.0016204608
87	0xbc32c654	-0.010911543
88	0x3b77ffb2	0.0037841615
89	0xbb057f06	-0.0020369901
90	0x3b5f082c	0.003403197
91	0xbc8686f0	-0.016421765
92	0xbc5901cc	-0.013245057
93	0xb98987ed	-0.0002623195
94	0xbb4021e2	-0.002931707
95	0x37cd4886	2.4471676e-05
96	0xbb8ed76f	-0.004359178
97	0xba4e5070	-0.00078702625
98	0xbbc9c39c	-0.0061573517
99	0xba04c312	-0.0005064468
100	0x3bb9efa5	0.00567432
101	0xbb4075ac	-0.0029367013
102	0x3b715cb8	0.0036828946
103	0xbb4eccc1	-0.0031555148
104	0xbbc8f016	-0.006132136
105	0x39e09ae9	0.00042840026
106	0xbc2293da	-0.009922946
107	0xbb10a578	-0.0022071283
108	0xbc40e7dc	-0.01177403
109	0x3b088187	0.0020829157
110	0xbba66c50	-0.00507883
111	0x3bbff9e0	0.005858645
112	0x3c392729	0.01130084
113	0x3be19137	0.006883766
114	0xbb0c4c90	-0.002140794
115	0xbbd45fa5	-0.0064811283
116	0x3bafa02d	0.0053596706
117	0xbc2c3eb6	-0.010512998
118	0x3c062957	0.008188567
119	0xbc70b36a	-0.014691213
120	0x3b5d5037	0.0033769736
121	0xbb15f3c3	-0.002288089
122	0xba635b07	-0.0008672927
123	0xbba56c7a	-0.005048332
124	0xbc0dfaf8	-0.008665793
125	0xbbb74549	-0.005592976
126	0x3a834eaa	0.001001795
127	0x3bb81964	0.005618261

linear2.weight f4 [128, 128]
0	0xbd860026	-0.06542997
1	0xbd4e392c	-0.050347492
2	0xbca00595	-0.019533912
3	0xbdba5ddd	-0.09099934
4	0xbd099064	-0.033584967
5	0x3be43dfd	0.0069653974
6	0xbbe7d9a0	-0.0070755035
7	0x3dbf68ef	0.09346186
8	0x3ae8e279	0.001776769
9	0xbcc21fd6	-0.023696821
10	0xbd1cb73f	-0.038260695
11	0x3ce96d46	0.028494488
12	0x3d4652c6	0.048418783
13	0x3bc1db47	0.0059160325
14	0x3d9f36ef	0.077741496
15	0xbc8881c9	-0.016663449
16	0xbbc3df7a	-0.005977568
17	0xbd5df8f3	-0.054192495
18	0xbd8fa88f	-0.07014572
19	0xbd253173	-0.04033036
20	0xbbcd2134	-0.0062600616
21	0xbda1418d	-0.07873831
22	0xbd9cf673	-0.07664194
23	0xbbfe182b	-0.007754346
24	0xbc68c133	-0.0142062185
25	0x3d2f06e8	0.042731196
26	0x3ce84e7d	0.028357739
27	0x3cb00489	0.021486538
28	0x3d542f75	0.05180307
29	0x3d484acc	0.048899457
30	0xbc1c1381	-0.0095261345
31	0xbd016551	-0.031590763
32	0xbd266b48	-0.040629655
33	0x3d8865e4	0.06660059
34	0x3b4f7c6c	0.0031659855
35	0xbd199a73	-0.03750081
36	0xbc81b86e	-0.015835013
37	0x3d85fc06	0.0654221
38	0x3dbb9102	0.091585174
39	0x3db7c410	0.08972943
40	0xbccff3d2	-0.025384817
41	0x3d9e246a	0.07721789
42	0xbcb06dac	-0.02153667
43	0x3d901738	0.070356786
44	0x3d0f30fa	0.034958817
45	0xbd5da80f	-0.05411535
46	0xbb8cf9ff	-0.004302263
47	0x3d1577ad	0.036491085
48	0xbd9379b7	-0.0720095
49	0x3cb8c38a	0.022554178
50	0xbcf6cd72	-0.03012726
51	0x3ce8222a	0.028336603
52	0xbd956a6f	-0.07295691
53	0x3ba14ab7	0.004922237
54	0x3d902e0f	0.07040035
55	0x3d4345f4	0.047674134
56	0xbdb91929	-0.09038002
57	0xbc7ef53a	-0.015561396
58	0x3cb39f8c	0.021926664
59	0xbdbf44df	-0.09339308
60	0xba2a483f	-0.0006495751
61	0xbd89438d	-0.067023374
62	0xbc4f9404	-0.012669567
63	0x3c90a641	0.017657401
64	0xbd931beb	-0.07183059
65	0xbdadc2ab	-0.084843956
66	0xbd8be7ec	-0.06831345
67	0xbc2efc4d	-0.01068027
68	0x3d7d61a8	0.06186071
69	0x3d661981	0.056176666
70	0x3bb8e003	0.0056419387
71	0xbd8ab4ad	-0.067727424
72	0x3cd27a60	0.025693119
73	0x3d965a95	0.07341496
74	0x3cc4f918	0.024044558
75	0x3d5aec53	0.053448033
76	0x3d9ee624	0.077587396
77	0xbc892a6d	-0.016743863
78	0xbccfe076	-0.025375586
79	0xbd88e559	-0.066843696
80	0xbd1710c7	-0.036881234
81	0xbb344931	-0.0027509446
82	0x3d8fccf3	0.07021513
83	0x3c97518f	0.018471507
84	0xbcb4e1bf	-0.0220803
85	0xbb9f20ed	-0.00485622
86	0xbcec4c42	-0.028844956
87	0x3cf83a4e	0.03030124
88	0x3db6274c	0.08894214
89	0xbd8bc6da	-0.06825037
90	0x3ce617ff	0.028087614
91	0x3d1c3a5e	0.0381416
92	0xbda950d5	-0.082673706
93	0xbd7ace96	-0.061232172
94	0xbd204574	-0.039128736
95	0x3d039308	0.03212264
96	0xbcfd6db1	-0.030936094
97	0x3d0475c4	0.032338873
98	0x3d79fd80	0.061032772
99	0x3cd2207c	0.025650255
100	0xbc10e819	-0.008844399
101	0x3c61db69	0.013785222
102	0xbd709906	-0.058739685
103	0x3d100899	0.03516445
104	0xbd2bb7ec	-0.04192345
105	0xbd5f2a01	-0.054483417
106	0x3da90b09	0.08254058
107	0xbb8fe0a0	-0.004390791
108	0x3d3fcb48	0.046824723
109	0xbd54bc0d	-0.05193715
110	0x3d101cd3	0.03518374
111	0x3d3a756d	0.045522142
112	0xbce8f74f	-0.028438238
113	0xbd490aed	-0.049082685
114	0xbc159f5c	-0.0091322325
115	0x3d67db69	0.05660573
116	0xbd27137e	-0.040790074
117	0x3d21db52	0.0395158
118	0xbcfe3df7	-0.031035407
119	0x3d67729d	0.056505788
120	0x3d0ad59d	0.033895124
121	0xbc89b22c	-0.016808592
122	0xbdba8f07	-0.091093116
123	0xbd4cdae5	-0.05001344
124	0xbd9d7ba7	-0.076896004
125	0xbd9a01be	-0.075198635
126	0x3ce08919	0.027409123
127	0x3ceda6b4	0.029010154
128	0xbcbcf168	-0.02306433
129	0xbbe333de	-0.0069336733
130	0xbc893842	-0.016750459
131	0x3d2a84d3	0.041630577
132	0xbc175da2	-0.009238632
133	0x3d45df5b	0.04830871
134	0x3da1045a	0.07862158
135	0x3d13e915	0.036110956
136	0xbd20204b	-0.039093297
137	0xbcaea09f	-0.021316824
138	0x3d3a48d4	0.04547961
139	0xbd969cd3	-0.073541306
140	0xbc697298	-0.014248513
141	0x3c0ba797	0.008523843
142	0xbc8733f2	-0.016504262
143	0xbd8e3b2a	-0.069448784
144	0xbb96aec5	-0.004598471
145	0xbd3910ed	-0.045182157
146	0x3db2d5bd	0.087321736
147	0x3d7da584	0.061925426
148	0xbd71a3aa	-0.058993973
149	0x3da99b7a	0.08281608
150	0x3dc02a03	0.09383013
151	0xbd9775bc	-0.07395503
152	0xbd842f9c	-0.06454393
153	0xbbebf79b	-0.0072011477
154	0x3cd9454d	0.026522303
155	0x3ba657d8	0.0050763898
156	0x3cccc917	0.02499823
157	0xbd84ae9c	-0.064786166
158	0xbd84bfe4	-0.06481913
159	0xbafa9a74	-0.0019119517
160	0xbda79ccf	-0.08184206
161	0x3d46478b	0.048408072
162	0x3da4e596	0.080516025
163	0xbce46101	-0.027878286
164	0x3d7acceb	0.06123058
165	0xbd9cd373	-0.07657518
166	0x3d578ebb	0.052626353
167	0x3cb9f089	0.022697704
168	0x3d17a471	0.037022058
169	0xbc5446f0	-0.012956366
170	0x3d00254a	0.03128556
171	0xbcc841d4	-0.024445452
172	0x3c718965	0.01474223
173	0x3d856283	0.0651293
174	0xbd84e992	-0.064898625
175	0xbb025fbd	-0.001989349
176	0x3c989303	0.018624788
177	0xbca53121	-0.020165028
178	0xbd7daaa9	-0.061930332
179	0x3d312e8c	0.04325728
180	0xbd2e43e1	-0.042545203
181	0x3d16ee1e	0.03684818
182	0xbd8db51e	-0.06919311
183	0xbd11d8c4	-0.035607114
184	0x3d995666	0.07487182
185	0xbcafb6eb	-0.021449527
186	0x3d08903c	0.033340678
187	0x3d97f531	0.074198134
188	0x3d8fb533	0.07016983
189	0x3c79b742	0.015241446
190	0x3b4d503e	0.0031328346
191	0xbd42b1e1	-0.04753292
192	0x3d1893df	0.037250396
193	0x3bd39b20	0.0064577013
194	0x3c758b5c	0.014986839
195	0xbd798e15	-0.060926516
196	0xbd8d1554	-0.06888834
197	0xbd5ab18f	-0.05339199
198	0x3d978076	0.07397549
199	0x3d288bf2	0.041149087
200	0x3d838e19	0.06423587
201	0xbcaff64e	-0.021479752
202	0xbcc35ddf	-0.023848472
203	0x3d460aa6	0.04835
204	0x3d8e5c99	0.06951255
205	0x3b8a44c8	0.004219625
206	0x3d1057dc	0.03524004
207	0xbdb8a66a	-0.09016116
208	0xbd9090ce	-0.07058869
209	0xbd86c100	-0.065797806
210	0xbd4a62ec	-0.049410746
211	0xbd2bdc30	-0.041958034
212	0xbc397358	-0.011319004
213	0x3c7a310c	0.015270483
214	0x3b96d248	0.004602704
215	0xbba75545	-0.0051066005
216	0xbc3286fa	-0.010896439
217	0xbcc46b4a	-0.02397694
218	0xbc10697f	-0.008814215
219	0x3d475990	0.048669398
220	0xbd7cda2b	-0.0617315
221	0xbd10e80d	-0.03537755
222	0x3cb49c46	0.022047173
223	0x3d536697	0.05161151
224	0x3d9e4491	0.07727922
225	0x3cbdb107	0.023155702
226	0xbd06d0b8	-0.032913893
227	0xbcc82970	-0.024433821
228	0xbdbc8f14	-0.092069775
229	0x3c9cb404	0.019128807
230	0x3c40b683	0.011762264
231	0x3d11c5fe	0.03558921
232	0xbdb01baf	-0.0859903
233	0xbd9cc180	-0.07654095
234	0xbca28bf9	-0.019842135
235	0xbcfb873b	-0.030704131
236	0x3c7a5b1f	0.015280514
237	0x3d2086a6	0.03919091
238	0xbda5914c	-0.08084354
239	0xbd7ab382	-0.06120635
240	0xbcabf010	-0.020988494
241	0x3d859e07	0.06524282
242	0xbd237672	-0.03990788
243	0x3c25b061	0.010112853
244	0xbc837f4c	-0.01605191
245	0x3da8adb1	0.08236254
246	0xbda7b1df	-0.08188223
247	0x3ccc225d	0.02491873
248	0xbca09401	-0.019601824
249	0x3ca6eaa0	0.02037555
250	0xbd188a63	-0.03724135
251	0xbda383c1	-0.079841144
252	0xb95f57f3	-0.00021299701
253	0x3d621dc5	0.05520417
254	0x3b913417	0.0044312584
255	0xbcc5a620	-0.024127066

linear2.bias f4 [128]
0	0xbd9d7629	-0.07688553
1	0x3d676881	0.056496147
2	0xbd7f7c12	-0.062374182
3	0x3d846bad	0.0646585
4	0x3d9f3f19	0.07775707
5	0xbd1c9f2c	-0.038237736
6	0xbd9b36f4	-0.07578841
7	0x3d4eaf6b	0.05046026
8	0x3d013999	0.03154907
9	0xbd1d8117	-0.038453188
10	0x3b96b01a	0.0045986297
11	0x3c0ed5f3	0.008718002
12	0x3cbe1c79	0.023206936
13	0xbc73cfe3	-0.014881107
14	0xbc880f8f	-0.016608981
15	0xbd0b26d6	-0.033972584
16	0x3d2abcbd	0.0416839
17	0xbd078e86	-0.033094905
18	0xbdb0fbdf	-0.086417906
19	0x3dabf93c	0.08397147
20	0xbd14e2f5	-0.036349256
21	0x3d9060e6	0.07049732
22	0xbcb8e651	-0.02257076
23	0x3d8d70e2	0.06906296
24	0x3d3cf298	0.046129793
25	0xbc93fa7b	-0.018063774
26	0xbd92425b	-0.071415626
27	0xbd44c31b	-0.04803763
28	0xbc62960b	-0.013829718
29	0x3d652eb2	0.055952735
30	0xbda5d674	-0.08097544
31	0x3d96aacf	0.07356798
32	0xbd962f9a	-0.07333298
33	0xbd0fdc88	-0.035122424
34	0x3b5359be	0.0032249535
35	0x3d2ac1c7	0.041688707
36	0xbb991e35	-0.0046727904
37	0xbbc95d24	-0.0061451364
38	0xbd8c5a76	-0.068531916
39	0x3d5cc192	0.05389554
40	0x3c767162	0.015041681
41	0xbd98e289	-0.07465083
42	0x3d9cf8fe	0.07664679
43	0x3d959130	0.07303083
44	0xbd774d63	-0.060376536
45	0xbd593205	-0.053026218
46	0xbcd27a7b	-0.025693169
47	0xbc5e21e8	-0.013557889
48	0x3d9f9987	0.07792955
49	0x3b927ee1	0.0044706916
50	0x3c34b7db	0.011030163
51	0xbb22dd32	-0.002485108
52	0x3d600fa3	0.054702412
53	0x3d9802bc	0.074223965
54	0x3d7e396b	0.062066477
55	0xbba69580	-0.0050837398
56	0xbc30dd5a	-0.010794962
57	0xbd7371ea	-0.05943481
58	0x3d2b3ac0	0.041804075
59	0xbda12336	-0.07868044
60	0xbdac5d3b	-0.0841622
61	0xbd835d61	-0.06414295
62	0xbd8e4909	-0.06947524
63	0x3acd649e	0.0015670245
64	0x3daa0899	0.08302421
65	0xbced2dd0	-0.02895251
66	0xbd85766c	-0.06516728
67	0xbbc7f7c2	-0.006102533
68	0x3d37b0c8	0.044846326
69	0x3d2d515b	0.042313915
70	0x3ce22636	0.027606111
71	0x3d27e796	0.040992342
72	0x3ca575ed	0.020197833
73	0x3d39fa64	0.045404807
74	0xbda60ee9	-0.08108313
75	0x3da83479	0.08213133
76	0x3cdc806e	0.026916709
77	0x3d220f43	0.039565336
78	0x3d2736d2	0.040823765
79	0xbc812706	-0.015765678
80	0x3c9825ec	0.01857277
81	0x3da87edd	0.08227322
82	0xbd27e973	-0.04099412
83	0x3da603e5	0.081062116
84	0x3ce38480	0.027773142
85	0x3cfb559c	0.03068047
86	0xbdb4f0bd	-0.0883498
87	0x3d0d74a0	0.03453505
88	0x3cdd685c	0.027027301
89	0xbdba6a46	-0.09102301
90	0xbb7782cd	-0.0037767172
91	0x3d1ecb9c	0.038768396
92	0x3d512605	0.05106165
93	0xbd28eb8b	-0.041240256
94	0xbd20a9de	-0.039224498
95	0x3c1d2950	0.009592369
96	0xbd0e57c7	-0.03475168
97	0x3dab12da	0.08353205
98	0xbd2c738c	-0.04210238
99	0x3d807250	0.062718034
100	0x3cce60c7	0.025192631
101	0x3d75a8c2	0.059975393
102	0x3d60ae5c	0.054853782
103	0xbc90a089	-0.017654674
104	0x3d821612	0.06351866
105	0xbda76445	-0.08173422
106	0xbc1d2a05	-0.009592538
107	0xbc6868f8	-0.014185183
108	0x3d9a9d6e	0.075495586
109	0xbd665ede	-0.056242816
110	0x3d2313d5	0.039813835
111	0xbd7f3cac	-0.06231372
112	0xbc1df04d	-0.009639812
113	0xbc13fc5d	-0.009032336
114	0xbd41bc0a	-0.04729847
115	0xbccdb8b5	-0.02511249
116	0xbc941265	-0.018075177
117	0xbd3805be	-0.04492735
118	0xbd808733	-0.06275787
119	0x3c7f1a9c	0.015570309
120	0xbc43c524	-0.011948857
121	0x3cd642ef	0.026154963
122	0xbd1c7a4e	-0.038202576
123	0xbda1290a	-0.07869156
124	0x3d56fc64	0.052486792
125	0x3d2a09a6	0.041513108
126	0x39633777	0.00021669069
127	0xbd4b61c6	-0.04965379

norm2.weight f4 [128]
0	0x3f85d0ac	1.0454307
1	0x3f82f2d8	1.023036
2	0x3f84db97	1.0379514
3	0x3f826455	1.0186869
4	0x3f849e50	1.0360813
5	0x3f830289	1.0235149
6	0x3f807edf	1.0038718
7	0x3f816dba	1.0111611
8	0x3f837da0	1.0272713
9	0x3f8677c2	1.0505297
10	0x3f837f09	1.0273143
11	0x3f815f3e	1.0107191
12	0x3f8559ff	1.041809
13	0x3f84fb15	1.0389124
14	0x3f80f4cb	1.0074705
15	0x3f85c8a2	1.0451853
16	0x3f82cfbf	1.0219649
17	0x3f818b8e	1.0120714
18	0x3f842e74	1.0326676
19	0x3f75f85b	0.96082085
20	0x3f8673c0	1.0504074
21	0x3f81c40f	1.0137957
22	0x3f8487a7	1.0353898
23	0x3f81c77c	1.0139003
24	0x3f86948e	1.0514085
25	0x3f86b70b	1.052461
26	0x3f81f576	1.0153034
27	0x3f82f402	1.0230715
28	0x3f844bd3	1.033564
29	0x3f84251e	1.0323827
30	0x3f806042	1.0029376
31	0x3f82df72	1.022444
32	0x3f857bc3	1.0428394
33	0x3f84a75f	1.0363578
34	0x3f819db5	1.0126253
35	0x3f82ba6d	1.0213143
36	0x3f86e17d	1.0537564
37	0x3f819e40	1.0126419
38	0x3f83c259	1.0293685
39	0x3f857890	1.0427418
40	0x3f8267b0	1.0187893
41	0x3f81fe93	1.0155815
42	0x3f83036d	1.023542
43	0x3f865669	1.049512
44	0x3f815fa9	1.0107318
45	0x3f865f89	1.0497905
46	0x3f8432fe	1.0328062
47	0x3f867dba	1.0507119
48	0x3f81441d	1.0098912
49	0x3f8316d9	1.0241348
50	0x3f819e1b	1.0126375
51	0x3f7ea4f6	0.9947046
52	0x3f8016dd	1.0006977
53	0x3f866d18	1.0502043
54	0x3f864d6c	1.0492377
55	0x3f82d17e	1.0220182
56	0x3f866c9f	1.0501899
57	0x3f861d1f	1.0477637
58	0x3f810d2a	1.0082142
59	0x3f8157fc	1.0104976
60	0x3f85c10f	1.0449542
61	0x3f83ab29	1.0286609
62	0x3f785350	0.97002125
63	0x3f85455a	1.041179
64	0x3f82d8d7	1.0222424
65	0x3f86b0fd	1.0522763
66	0x3f84ed18	1.0384855
67	0x3f85b22b	1.0444998
68	0x3f8556b1	1.0417081
69	0x3f8052aa	1.0025227
70	0x3f850a60	1.0393791
71	0x3f83d6ed	1.0299965
72	0x3f84594d	1.0339752
73	0x3f80e6e3	1.0070461
74	0x3f848a09	1.0354625
75	0x3f88b540	1.0680313
76	0x3f83744c	1.0269866
77	0x3f84ea1a	1.0383942
78	0x3f837fe5	1.0273405
79	0x3f7a22d9	0.97709423
80	0x3f870151	1.0547277
81	0x3f83583f	1.0261306
82	0x3f856231	1.0420591
83	0x3f897224	1.0737958
84	0x3f84f394	1.0386834
85	0x3f802335	1.0010744
86	0x3f851a82	1.0398715
87	0x3f83210d	1.0244461
88	0x3f81915a	1.0122483
89	0x3f8214f4	1.0162644
90	0x3f83608f	1.0263842
91	0x3f84ff85	1.0390478
92	0x3f7e167a	0.99253047
93	0x3f8420d1	1.0322515
94	0x3f8170da	1.0112565
95	0x3f85251d	1.0401951
96	0x3f864635	1.0490175
97	0x3f84e63e	1.0382764
98	0x3f815a05	1.0105597
99	0x3f8034c2	1.00161
100	0x3f838792	1.0275748
101	0x3f7e6f35	0.9938844
102	0x3f8395ff	1.028015
103	0x3f7cc41f	0.9873676
104	0x3f863d97	1.0487546
105	0x3f85b1bc	1.0444865
106	0x3f85a913	1.0442222
107	0x3f85c718	1.0451384
108	0x3f863a40	1.0486526
109	0x3f7abfb5	0.9794877
110	0x3f83d7c6	1.0300224
111	0x3f81d598	1.0143309
112	0x3f86316c	1.0483832
113	0x3f871df3	1.0556015
114	0x3f852388	1.0401468
115	0x3f84a0b7	1.0361546
116	0x3f81e5d5	1.0148264
117	0x3f824393	1.0176872
118	0x3f844a39	1.0335151
119	0x3f82f533	1.0231079
120	0x3f85529c	1.0415835
121	0x3f826aca	1.018884
122	0x3f848fbb	1.0356363
123	0x3f84eb0d	1.0384232
124	0x3f805250	1.002512
125	0x3f83f305	1.0308539
126	0x3f868370	1.0508862
127	0x3f856a08	1.0422983

norm2.bias f4 [128]
0	0x3c1038c3	0.008802596
1	0x3c374520	0.011185914
2	0x3cc15c4e	0.023603585
3	0x3ca3a310	0.019975215
4	0xbb44d35f	-0.0030033214
5	0xbc07a1d7	-0.008278332
6	0xbbd74146	-0.0065690605
7	0xbc4b973d	-0.012426195
8	0xbc15d32e	-0.009144587
9	0xbb1efb00	-0.0024258494
10	0xbbc2a066	-0.005939531
11	0x3c9cc48a	0.019136686
12	0x3c80e690	0.01573494
13	0x3bd2be80	0.006431401
14	0x3c61e8e6	0.0137884375
15	0x3bd5ec40	0.0065284073
16	0x3a977b0b	0.0011557055
17	0xbc85087d	-0.0162394
18	0x38f25f41	0.00011557202
19	0x3aab16e8	0.0013053091
20	0x3c430797	0.011903665
21	0x3b11266c	0.0022148145
22	0x3c5b5954	0.013387997
23	0x3c18de56	0.009330353
24	0xbc7f6249	-0.015587398
25	0xbc8b7be6	-0.017026853
26	0x3c87bcd5	0.016569534
27	0x3b86be3b	0.0041120327
28	0x3c61d4a5	0.013783609
29	0x3be6fcc3	0.0070491745
30	0x3ce2a310	0.027665645
31	0xbc0194ff	-0.007909059
32	0x3ca04033	0.019561863
33	0xbbd9c083	-0.0066452636
34	0xbbd8c54d	-0.006615317
35	0x3cfa036a	0.030519206
36	0x3b8804b7	0.0041509527
37	0xbc2ca76c	-0.010537963
38	0xbb930999	-0.004487228
39	0x3ace734e	0.0015750916
40	0x3c46a32b	0.012123863
41	0x3c18d4a1	0.009328038
42	0x3a9301f3	0.0011215791
43	0x3b9f651b	0.0048643476
44	0xbb8bba45	-0.0042641484
45	0xbb8aa03a	-0.0042305263
46	0xbc4dc133	-0.012558269
47	0x3c1cdc8e	0.009574069
48	0x390da38b	0.00013507732
49	0x3c35d18f	0.011097326
50	0x3cb009a2	0.021488968
51	0x3cc19d00	0.023634434
52	0xbc0ada1d	-0.008474854
53	0x3b7d7cc5	0.0038679105
54	0x3c0037b2	0.007825779
55	0xbc0692a4	-0.008213673
56	0x3c8cc636	0.017184358
57	0x3b2eb458	0.0026657786
58	0x3cad522b	0.021157345
59	0xbb2f8ef6	-0.0026788092
60	0xbb4fbac0	-0.0031697005
61	0xbbf77ec3	-0.007552953
62	0x3c738741	0.01486379
63	0x3c46e189	0.012138733
64	0xbc0cab21	-0.008585722
65	0x3bb23bf4	0.005439276
66	0xbc2c723e	-0.010525284
67	0xbbf9ded3	-0.0076254397
68	0xbbf4e962	-0.0074741105
69	0xbc6d07c3	-0.014467183
70	0x3c0b83c4	0.008515302
71	0x3c94e9c9	0.018177884
72	0x3c15d36c	0.009144645
73	0xbc1ba58c	-0.009499919
74	0x3c574baf	0.013140603
75	0x3c0fa49b	0.008767272
76	0xbc48ff08	-0.012267835
77	0x3cab9c3e	0.020948526
78	0xba16a14a	-0.000574608
79	0x3c59a250	0.013283327
80	0x3c73cddf	0.014880626
81	0xbbc7443d	-0.0060811327
82	0x3c824b34	0.015905
83	0x3c86d44e	0.016458657
84	0xbc4a5fdb	-0.012351955
85	0xbb2bc0da	-0.0026207478
86	0x3c4016f5	0.011724223
87	0xbc46fb52	-0.01214488
88	0x3cc373b3	0.02385888
89	0xbc2de3ca	-0.010613391
90	0xbc15c091	-0.00914015
91	0xbc0b22d8	-0.008492194
92	0x3bd6d9b3	0.0065567135
93	0x3c752a41	0.014963687
94	0x3ca20b4b	0.019780776
95	0xbc1334f1	-0.00898479
96	0x3c4c28e1	0.012460918
97	0x3cbb44fb	0.02286004
98	0xbc062095	-0.008186479
99	0xbbfaf0c2	-0.007658095
100	0x3c177938	0.009245209
101	0xbc42fdc8	-0.0119013265
102	0xbbe786ae	-0.0070656156
103	0x3cbd05fa	0.023074139
104	0x3cb9c43e	0.022676583
105	0xbbe90c50	-0.0071120635
106	0x3ca5003c	0.020141713
107	0x3c5d9da7	0.013526357
108	0x3b213d96	0.0024603358
109	0x3c93d248	0.018044606
110	0x3ba248dc	0.004952533
111	0xbcae1587	-0.0212505
112	0x3c55674c	0.013025116
113	0xbc37207d	-0.011177179
114	0xbbf8daf3	-0.00759446
115	0x3bb960bc	0.0056572836
116	0xbc0b55cd	-0.008504343
117	0xbbd0d039	-0.0063724783
118	0x3c5ee049	0.013603278
119	0xbbfb9180	-0.007677257
120	0x3c19d4fa	0.0093891565
121	0xbbfc4e1b	-0.0076997406
122	0xbbb813d8	-0.0056176
123	0xbbb2620c	-0.005443817
124	0xbbd2596f	-0.0064193527
125	0x3c832f2d	0.016013706
126	0x3c500e77	0.012698761
127	0xbc266de6	-0.010158038

linear3.weight f4 [48, 128]
0	0xbcbc5b7b	-0.02299284
1	0x3d48f9f7	0.04906651
2	0x3db8c15c	0.090212554
3	0xbcb23b00	-0.021756649
4	0x3d9d2476	0.0767297
5	0xbda7e298	-0.08197516
6	0x3d8184ac	0.06324133
7	0x3cfd66a2	0.030932728
8	0x3ce840e4	0.028351255
9	0x3bd4e346	0.0064968197
10	0xbda28326	-0.07935171
11	0xbc579c3e	-0.01315981
12	0x3d3070e6	0.04307642
13	0xbd463a09	-0.04839519
14	0x3d9fe4d5	0.07807318
15	0x3ddef52f	0.10886609
16	0x3d59f1e2	0.053209193
17	0x3d625d0f	0.05526453
18	0xbd738c5f	-0.05946004
19	0x3dabac93	0.08382525
20	0x3dab8096	0.08374135
21	0x3d028eb7	0.031874385
22	0x3d2f3795	0.042777617
23	0xbcc63997	-0.024197383
24	0xba2ce0db	-0.00065947854
25	0x3c8b5c6c	0.017011844
26	0x3d94e7a9	0.07270748
27	0x3da0ab40	0.07845163
28	0xbcb32838	-0.021869764
29	0xbc8444be	-0.01614606
30	0x3d3b7f3d	0.04577564
31	0x3d90e8c4	0.070756465
32	0xbcc1dcc3	-0.023664838
33	0xbcad7e71	-0.021178456
34	0x3d7506e7	0.059821036
35	0x3d4ea4bf	0.050450083
36	0x3c1c2884	0.009531144
37	0xbd4836bf	-0.048880335
38	0xbdd7055c	-0.10499069
39	0x3dad2a36	0.08455317
40	0x3d18f639	0.03734419
41	0xbba170e8	-0.0049267896
42	0x3d4c2ded	0.049848486
43	0xbcd54c97	-0.026037497
44	0x3daa00ed	0.08300958
45	0xbdc56caf	-0.096398704
46	0x3b6809fe	0.0035406346
47	0x3ca23faa	0.019805748
48	0xbcd5fcdb	-0.026121547
49	0xbd9a4480	-0.075325966
50	0xbd1c0b96	-0.038096987
51	0xbd1ec34c	-0.03876047
52	0x3d732bb9	0.05936787
53	0x3cc47e15	0.023985902
54	0xbc3e085a	-0.011598671
55	0x3d2a3ed7	0.041563835
56	0x3daf51b3	0.08560505
57	0x3cb558c3	0.022137051
58	0xbd65a789	-0.056067977
59	0xbda41758	-0.08012265
60	0xbd282392	-0.041049547
61	0xbd6d7a62	-0.05797804
62	0x3d619598	0.055074304
63	0xbc546d81	-0.012965561
64	0xbd9861ec	-0.07440552
65	0xbd4f1cce	-0.05056458
66	0xbb7668d1	-0.0037599097
67	0x3cdea7c6	0.02717961
68	0x3cfcad7a	0.030844439
69	0xbdb33df1	-0.08752049
70	0xbd7bdec6	-0.06149175
71	0x3d845060	0.06460643
72	0x3d9a23f2	0.07526387
73	0xbd638b67	-0.055552866
74	0x3dbdb98c	0.09263906
75	0x3dc427ea	0.095779255
76	0x3ca7b64d	0.02047267
77	0xbce9cee0	-0.028541028
78	0x3d9c2ffa	0.07626338
79	0x3d9fe23c	0.07806823
80	0xbd2e6554	-0.042577103
81	0x3cf726c7	0.030169858
82	0xbc9ee79e	-0.019397553
83	0xbc3c0e2c	-0.011477988
84	0x3c854e0f	0.016272573
85	0x3d77eb2e	0.06052702
86	0xbb1c3658	-0.0023836102
87	0xbdb52d68	-0.08846551
88	0x3da3f4fb	0.08005711
89	0xbba43129	-0.005010743
90	0x3d56f595	0.0524803
91	0x3ca5ee48	0.020255223
92	0xbd81f0c9	-0.06344754
93	0x3ca47892	0.020077024
94	0xbd6881c0	-0.056764364
95	0xbcb8eba1	-0.022573294
96	0xbcb7e28a	-0.02244689
97	0x3d687d24	0.05675997
98	0x3dade971	0.08491791
99	0x3d757f86	0.05993607
100	0x3c8738a0	0.016506493
101	0xbdaa5eef	-0.083188884
102	0xbd15d9ab	-0.036584537
103	0x3d64051b	0.05566893
104	0xbcab268d	-0.020892406
105	0xbd5c1227	-0.05372825
106	0xbd0b4f92	-0.03401143
107	0xbc11c2f8	-0.008896582
108	0x3bc3a281	0.0059702997
109	0x3d98434d	0.074347116
110	0x3daf098c	0.08546743
111	0xbb9accc7	-0.0047241184
112	0x3d52ea58	0.05149302
113	0x3c070b14	0.008242387
114	0xbda631ce	-0.08114968
115	0xbc162d7e	-0.00916612
116	0xbda1cc0c	-0.07900247
117	0x3d9bc73b	0.076063596
118	0x3d979be8	0.07402784
119	0xbd37caa0	-0.044870973
120	0x3d1467c0	0.036231756
121	0xbd83db3f	-0.06438302
122	0xbdc41410	-0.09574139
123	0xbd888277	-0.06665509
124	0x3c8583d5	0.016298214
125	0xbc731301	-0.014836074
126	0x3af9fac3	0.0019071925
127	0x3d7ad321	0.061236504
128	0x3cded72e	0.027202215
129	0x3d1a06e9	0.037604246
130	0x3dcda0aa	0.1004041
131	0x3d8098cf	0.06279146
132	0x3d454cda	0.048168994
133	0xbd08a26e	-0.03335803
134	0x3d9205ae	0.071299896
135	0xbd5775cb	-0.05260257
136	0x3d845e5f	0.06463312
137	0xbd6ee605	-0.058324832
138	0x3d72e71c	0.059302434
139	0xbd07171d	-0.032981027
140	0x3d06f7a4	0.032951012
141	0x3d86a7b3	0.06574955
142	0xbd555b61	-0.0520891
143	0x3dbec444	0.093147784
144	0xbca99bfc	-0.020704262
145	0x3d990c8c	0.07473096
146	0xbd9beafc	-0.07613179
147	0x3ce9ca26	0.028538775
148	0x3bba47e7	0.005684841
149	0x3c17d2ec	0.009266596
150	0x3cb4cee0	0.022071302
151	0xbd9475cc	-0.072490305
152	0xbdacc616	-0.084362194
153	0xbd55316a	-0.052049078
154	0xbd50d579	-0.050984833
155	0x3d82317e	0.06357096
156	0xbbee2107	-0.0072671208
157	0x3dab7b33	0.08373108
158	0x3d570cb5	0.052502353
159	0xbc761128	-0.015018739
160	0x3cbe061c	0.023196273
161	0xbdab9269	-0.08377535
162	0xbda2c39c	-0.07947466
163	0x3c978a35	0.01849852
164	0xbd24281d	-0.040077318
165	0xbd6e166b	-0.05812685
166	0x3b012bc7	0.0019709931
167	0x3d9c2534	0.076242834
168	0x3d739fa5	0.05947842
169	0x3caab056	0.020836037
170	0x3da1ae3e	0.07894562
171	0xbd28eba1	-0.04124034
172	0x3d8325b8	0.06403679
173	0x3c84f98e	0.016232278
174	0x3c4de0c7	0.012565798
175	0x372faa08	1.0470401e-05
176	0xb99aa3e9	-0.00029495292
177	0xbd947c9a	-0.07250328
178	0x3d50a20f	0.0509358
179	0x3cf0cb5b	0.029393842
180	0xbd82ce05	-0.06386951
181	0xbd95e968	-0.07319909
182	0xbd34c1e0	-0.044130206
183	0xbceaf0c2	-0.028679255
184	0xbd76a4af	-0.06021565
185	0xbccd2ead	-0.02504667
186	0xbc83e9b5	-0.016102651
187	0x3d55238a	0.052035846
188	0x3e0306f6	0.12795624
189	0x3c974ca5	0.018469164
190	0xbc9f4506	-0.019442093
191	0xbd42591f	-0.047448274
192	0xbd9d0b88	-0.07668215
193	0x3ce48dae	0.02789959
194	0xbda6d9a6	-0.08146982
195	0x3d903b4f	0.07042562
196	0xbda40a19	-0.080097385
197	0xbcf38c33	-0.029729938
198	0x3a59ac93	0.00083036086
199	0x3d94ff3d	0.07275245
200	0xbc3ba423	-0.011452707
201	0xbae35337	-0.0017343526
202	0x3dbc842a	0.09204896
203	0x3dfb3e72	0.1226777
204	0xbd67e168	-0.05661145
205	0xbab55d5c	-0.0013837027
206	0x3d9c960c	0.07645807
207	0xbc0cb894	-0.008588929
208	0x3dc9311b	0.09823819
209	0x3c25e83b	0.010126169
210	0x3d9f4fe0	0.07778907
211	0x3c261f62	0.010139318
212	0x3be4a77d	0.006977974
213	0x3c5c3184	0.01343954
214	0xbd37f8cb	-0.044915
215	0x3d5c613b	0.053803664
216	0xbd30e387	-0.043185737
217	0xbd5fc90e	-0.0546351
218	0xbdac2cd8	-0.08406991
219	0x3d1f1e53	0.03884728
220	0x3c6847dd	0.01417729
221	0x3ca49206	0.02008916
222	0x3c7c06c6	0.015382474
223	0x3da1c182	0.07898237
224	0xbc85a388	-0.01631333
225	0x3dc3eed5	0.09567038
226	0x3d5e2f64	0.054244414
227	0x3c14e8f7	0.009088746
228	0x3da5f987	0.08104234
229	0x3c9d8ae1	0.019231262
230	0xbd2fd025	-0.04292311
231	0x3daae225	0.08343915
232	0xbbb877b4	-0.005629504
233	0xbde3ae7f	-0.11117267
234	0xbbf9bb81	-0.007621229
235	0xbd46d8c5	-0.04854657
236	0xbd53ebee	-0.051738672
237	0xbd020a5b	-0.031748157
238	0x3d7a8b42	0.061167963
239	0x3da77364	0.08176306
240	0xbd3566f3	-0.044287633
241	0xbdb44acc	-0.08803329
242	0x3d06dd78	0.032926053
243	0x3d185507	0.037190463
244	0xbd9b4f7c	-0.0758352
245	0xbcf95e7e	-0.030440565
246	0x3dc9805e	0.09838937
247	0xbd97d0fa	-0.07412906
248	0x3d10a08b	0.035309356
249	0xbc84b938	-0.0162016
250	0xbceb047c	-0.028688662
251	0x3d8c749c	0.06858179
252	0x3d4fe22a	0.050752796
253	0xbbfede14	-0.0077779386
254	0x3d8d57be	0.06901501
255	0xbd85e026	-0.065368935

linear3.bias f4 [48]
0	0xbb83abe7	-0.004018295
1	0x3d82eea9	0.06393177
2	0x3d2d7864	0.04235114
3	0x3d7ba758	0.06143889
4	0x3c4eb2db	0.012615885
5	0x3da9ce78	0.08291334
6	0x3ce3ad68	0.027792647
7	0x3d293044	0.041305795
8	0x3da77206	0.08176045
9	0xbd0a8025	-0.033813614
10	0xbc247fb4	-0.010040212
11	0x3c6949c7	0.014238781
12	0x3dbf65bb	0.093455754
13	0x3c945f9b	0.018111994
14	0xbc552902	-0.013010265
15	0xbcf6aa16	-0.0301104
16	0xbd1d6bad	-0.038432766
17	0xbc4424aa	-0.011971632
18	0xbcb6d0ff	-0.022316454
19	0xbd8e1af5	-0.069387354
20	0xbd1fdf02	-0.039031036
21	0xbcd598ee	-0.0260739
22	0x3dc4852e	0.095957145
23	0xbcb3ee38	-0.021964177
24	0xbd3db9f7	-0.046319928
25	0xbc9e6592	-0.019335542
26	0x3d98f9be	0.074695095
27	0xbd5b299c	-0.05350648
28	0x3d9030e8	0.07040578
29	0x3d743db2	0.05962915
30	0x3db405fc	0.08790204
31	0x3d46b49e	0.048512094
32	0x3d3806ec	0.044928476
33	0xbd897b7f	-0.06713008
34	0x3d3ad7b0	0.045615852
35	0xbda282d0	-0.07935107
36	0xbca75610	-0.02042678
37	0xbd604f0c	-0.054762885
38	0xbd42159e	-0.047383897
39	0xbb6a8ea3	-0.0035790585
40	0xbd254c0a	-0.04035572
41	0xbd11c757	-0.035590496
42	0xbd0f3636	-0.03496381
43	0xbcfc27a8	-0.030780628
44	0xbdacefe0	-0.0844419
45	0xbd3c4c1f	-0.045971032
46	0x3d889221	0.06668497
47	0x3da98468	0.082772076
