第二章-回归模型/model_weight/mlp_tanh.pth (torch, 143585 bytes, 6 tensors)

linear1.weight f4 [128, 96]
000000 4c 4e 80 3d f8 02 d2 3d a9 5e b0 bd e7 24 9e 3c
       0.06264934 0.102544725 -0.08611805 0.019304706
000010 b5 a1 9d bd 01 a2 d7 3c a3 57 ae bd 99 93 9e bd
       -0.07696859 0.026322367 -0.08512809 -0.07742996
000020 cf 6d 2d 3b 6f dd a4 3d 82 f1 d0 bd ca c3 a5 bd
       0.0026463156 0.080500476 -0.10202314 -0.080939844
000030 b4 74 d5 3b b2 e2 dc 3d 54 b3 10 bd cd d2 cd 3d
       0.0065141562 0.10785426 -0.03532727 0.10049973
000040 fd 95 b8 3d 7d 7b 18 bd 3c 75 be 3c e8 c0 8f 3d
       0.09012983 -0.037227143 0.023249261 0.07019216
000050 5f 32 bb bd 35 56 41 3d 02 ae 2e 3d b7 81 93 3b
       -0.09140467 0.047201354 0.042646416 0.004501547
000060 ab 2a d1 bd d4 f6 35 bc e4 97 a4 bd 0d e1 1b 3a
       -0.102132164 -0.011106212 -0.08036783 0.0005946316
000070 f4 1b 0f 3b 93 64 62 bd d2 4e b6 3d 4a 7d 8c bd
       0.002183673 -0.055271696 0.089017525 -0.068598345
000080 b4 ff 8a 3d 69 39 80 3d 41 77 c5 3d fd 5a d4 3c
       0.06787053 0.0626095 0.096418865 0.025922293
000090 4f 1d 88 3d f5 11 25 bd 2c b7 12 3d 90 8c ad 3d
       0.06646215 -0.04030033 0.035819218 0.08474076
0000a0 c5 88 ca bd 57 99 a7 bd 97 a0 01 3d 4e 0d 0c bd
       -0.09889368 -0.08183544 0.03164729 -0.034192376
0000b0 c0 51 84 bc 7f 0b 91 bd 34 b3 d1 3a 87 30 32 bd
       -0.016152263 -0.07082271 0.0015998841 -0.04350331
0000c0 88 46 cb 3d 2d 7e 50 3d 8d 01 e1 3c 8b fd f2 3c
       0.09925562 0.05090158 0.02746656 0.029661914
0000d0 4e 9c 24 bd cc e8 1f bd cd 4d 80 3d f2 dc 99 3d
       -0.040188126 -0.03904037 0.06264839 0.07512845
0000e0 f0 1e ac bc c6 67 d3 bd da bf 6e ba a9 8d 3e 3d
       -0.021010846 -0.103225276 -0.00091075676 0.046521816
0000f0 13 5d a9 3b b3 3f e8 bd 8a 13 5e 3c 26 cb 92 bd
       0.005168566 -0.11340275 0.013554463 -0.07167654
000100 4b 21 34 3d 22 4d 8a 3d 68 27 80 3d 81 96 cc bd
       0.043977063 0.06752993 0.06257516 -0.09989644
000110 ea 44 cd 3c 7a 50 c7 bc cc bb b8 3c aa 3f 8d bd
       0.025057275 -0.024330366 0.022550486 -0.068969086
000120 84 d5 a6 bd 7b 54 8b bd 14 51 dd 3b 55 3d 1b 3d
       -0.081461936 -0.06803223 0.00675405 0.037900288
000130 3e 2c b3 bd 53 4e 09 3d aa e5 ca 3d 66 89 d0 bd
       -0.08748673 0.03352196 0.09907086 -0.10182457
000140 a0 f6 8c bd 10 4b 9b 3b 5b 18 72 bd e4 5a 6a 3b
       -0.068829775 0.0047391728 -0.05910526 0.0035759741
000150 7a d8 be bd e0 30 c1 bc 40 46 b9 3d 82 c6 78 3d
       -0.093186334 -0.023582876 0.09046602 0.060736187
000160 c9 2a 3c 3c 0e e4 ee 3c 1e 19 ad 3d 71 d6 c6 bd
       0.01148481 0.02916148 0.08452056 -0.0970887
000170 ca 56 8a 3d 29 5f c6 3c e1 a6 c7 bd 9e 5e 2b 3d
       0.06754835 0.024215298 -0.097486265 0.04183828
000180 3d e1 df 3c f9 9e ef bd c6 a1 22 bd 0d 3a b5 bc
       0.027329082 -0.117002435 -0.03970506 -0.022122407
000190 74 f6 c6 3c df c5 b5 bb 0a 8a b6 3d 53 1e 5d 3d
       0.02428744 -0.0055472697 0.089130476 0.053983998
0001a0 0b 4f 50 3d cb 3e a1 bc cc ab 5e 3c 58 8b 7d 3d
       0.05085663 -0.019683262 0.013590764 0.061900467
0001b0 cf e1 92 3c 75 72 c5 bd 43 49 10 bd 67 d6 03 be
       0.01792994 -0.096409716 -0.035226118 -0.12874757
0001c0 d3 73 6f bd 8a 01 8d 3d 55 a5 8f bd 59 d0 4b bd
       -0.058460068 0.06885059 -0.070139565 -0.049759243
0001d0 b2 9c b6 bd 34 6d 07 3d 47 6c 14 bd c8 47 9f 3d
       -0.08916606 0.03306313 -0.036236074 0.07777363
0001e0 76 f2 9d 3d a5 48 8a bd da 8c 0e bd 83 9f 28 bd
       0.077122614 -0.06752137 -0.034802295 -0.041167747
0001f0 6e ad b5 bc 33 34 e5 bd 85 39 48 3c a9 ce b5 bd
       -0.022177424 -0.11191597 0.012220745 -0.08877308
000200 a1 03 84 bd 12 e7 7d 3c e6 a4 4e 3d a9 fb df bd
       -0.06446005 0.015496986 0.05045023 -0.10936672
000210 7a 7e a6 3c d9 1f 91 3d 9a f9 19 3d dc 43 a3 bd
       0.02032398 0.070861526 0.037591554 -0.079719275
000220 5f 48 c4 bd 14 51 29 bc 5f 86 91 3d 05 df 66 bb
       -0.09584116 -0.010334272 0.071057074 -0.0035228145
000230 f8 82 c4 bd 7c 88 d3 3d a1 3b 9e bd f5 7f 17 3d
       -0.09595293 0.10328767 -0.07726217 0.036987264
000240 7b 93 81 bd 53 b3 ca 3c f6 73 cc bc ff 81 06 bc
       -0.06326958 0.024743712 -0.024957638 -0.008209704
000250 6e 2c d4 bc 96 25 ad 3d b6 9a 60 bd 29 03 da bc
       -0.025900092 0.084544346 -0.054835044 -0.026612835
000260 21 2c 9d bd 60 42 52 bd 7b a7 c1 bc f3 10 8d bd
       -0.076744325 -0.05133283 -0.023639431 -0.068879984
000270 18 12 3d bd 3b 95 27 3b ef b0 a2 bd 6b a1 22 3d
       -0.046159834 0.0025571126 -0.07943904 0.03970472
000280 37 c2 85 3b 06 e0 22 3d dd 75 ae 3d 01 84 32 bd
       0.00408199 0.039764427 0.085185744 -0.04358292
000290 5a 25 06 bd 0c 3a 87 bc 0d 7f bd bd 95 c4 36 bb
       -0.032750465 -0.016507171 -0.09252749 -0.0027888168
0002a0 84 ec 48 3c c9 e4 46 3d 0c 2b be bc 82 a1 c8 3d
       0.012263421 0.04855803 -0.023213886 0.0979643
0002b0 28 05 5f 3d f5 22 d7 3d 66 61 67 3d 23 b9 e4 3c
       0.054448277 0.105047144 0.05648937 0.027920311
0002c0 17 c3 be bc d6 75 d0 3d b2 02 dd bb 5e 03 e5 3d
       -0.023286385 0.101787254 -0.006744706 0.11182283
0002d0 32 95 70 bc f4 47 5c bd aa 8e b5 bd 98 3b 8c 3d
       -0.014684008 -0.053779557 -0.08865102 0.06847304
0002e0 68 44 38 3d 8f 3c 55 3d 4f 4f 75 3d 3e 3f e1 3d
       0.044987112 0.052059706 0.059890088 0.109983906
0002f0 51 12 83 bd 14 2f 2b 3d 8d 6e 1e bb 94 1f 01 b8
       -0.06399978 0.041792944 -0.002417478 -3.0785406e-05
000300 5a 02 9a bd fe d7 bb bd 4a e9 63 3d 01 6a 4f bd
       -0.0751998 -0.091720566 0.055642404 -0.050638203
000310 c8 6e f3 bc c2 c1 7b bd 4a 98 09 bd 7f a3 35 3d
       -0.02971591 -0.06146408 -0.0335925 0.044345375
000320 9f de 8b bd 5c 0a 38 3d 3d 44 5e bb 4f d5 6a 3d
       -0.06829571 0.044931754 -0.0033915185 0.057332333
000330 fc 85 4f bd 6c 14 24 3d 3a ee b2 3c 80 a3 9f 3d
       -0.050664887 0.04005854 0.02184211 0.07794857
000340 fa d8 81 3d 78 12 11 3c 9e 7c b5 3d 6e 86 9c bd
       0.06340213 0.008854501 0.088616595 -0.07642828
000350 8e 40 10 bd b5 17 29 3d ec d8 5e 3d de 0b a1 bd
       -0.035217814 0.041282374 0.05440609 -0.078635916
000360 d8 6a 0e bd 04 0e 99 3d 26 b8 b9 bd 18 3c 25 3d
       -0.034769863 0.074733764 -0.09068327 0.040340513
000370 64 a2 c8 3d 76 85 12 bd 6c d4 83 bc ed 7a cc 3c
       0.097965986 -0.03577181 -0.016092502 0.02496096
000380 58 e0 26 3d 04 d1 90 bc 16 42 be bd 36 25 f5 bb
       0.040741295 -0.017677791 -0.09289949 -0.0074812425
000390 8d 83 f5 3b 24 89 88 3d f2 6c 37 3c 3d c4 a0 3d
       0.0074924887 0.066667825 0.011195408 0.078499295
0003a0 64 a5 46 bd f6 a5 4f bc 09 be b2 3c ad 3e a6 3d
       -0.048497573 -0.0126738455 0.021819131 0.08117423
0003b0 7d 06 0b 3d 81 81 c3 3d 81 01 ca 3c e1 23 50 3d
       0.033941735 0.09546185 0.02465892 0.050815467
0003c0 06 db 4a 3c 0d d1 ae 3d 58 ba 93 3d 7d 0a 87 3d
       0.012381321 0.08535967 0.072132766 0.06593797
0003d0 00 3b bc bd d1 89 3b bc b8 d7 2e bd f9 77 74 bc
       -0.09190941 -0.011446432 -0.042686194 -0.014921182
0003e0 56 30 82 3d dd 0f 90 bd a4 ef 7c bd 97 47 3d bd
       0.063568756 -0.07034276 -0.061751977 -0.04621085
0003f0 d1 39 05 39 78 94 74 bd 40 62 59 3c be 29 bc bd
       0.00012705407 -0.059711903 0.0132680535 -0.09187649

linear1.bias f4 [128]
000000 6e 9c 92 bc ae c2 e6 bb 70 60 98 3c 30 30 85 3d
       -0.017896857 -0.0070422506 0.018600672 0.06503332
000010 16 42 e7 bc 1d 6a 0d bd c8 ab 8d bc b7 09 b2 3c
       -0.028229754 -0.034525026 -0.017293826 0.021733148
000020 62 79 1f 3d 82 95 94 bd 4d 50 1b 3c aa e3 ac 3d
       0.03893412 -0.07255079 0.009479594 0.08441861
000030 0f 40 07 bd 1a 5b 6e 3c 6c 48 b0 bc d8 2b b2 3d
       -0.033020075 0.0145480875 -0.021518908 0.08699769
000040 5b 6c ca bd b2 d0 f6 3c f2 b0 ed 3c 57 d5 48 3c
       -0.098839484 0.03012881 0.029015038 0.012257895
000050 1d dc 99 3d 60 00 af 3d c1 06 c3 bd 55 98 52 bd
       0.075126864 0.085449934 -0.095227726 -0.051414806
000060 07 a1 37 bd 03 41 16 bd 72 f4 9b bd 6d 0a 80 3d
       -0.044831302 -0.036683094 -0.076149836 0.062519886
000070 77 f0 b9 bd c7 eb bd bc 5f 9c e1 bd 8b 0d 0e 3d
       -0.09079068 -0.023183716 -0.110161535 0.034680884
000080 b9 5d b7 3d 68 63 21 bd be 83 31 bd a7 9e 78 bc
       0.08953423 -0.03940144 -0.04333853 -0.015174544
000090 b5 40 4e bd 78 0f 85 bc 3e 02 df 3c f9 ec 43 bd
       -0.05035468 -0.016242728 0.027222749 -0.047833417
0000a0 5a a9 eb bc d3 fe c2 bd 94 01 a9 3d 97 3a 7c 3c
       -0.028767277 -0.0952126 0.08252254 0.015394828
0000b0 f8 8a ea 3c e7 d2 bb 3b 2b 41 d5 3d 24 96 c4 3d
       0.028630719 0.0057319286 0.104128204 0.095989496
0000c0 73 60 9c 3d 03 75 5f bd 4c 05 cb 3d e3 0c 8e 3d
       0.07635584 -0.05455495 0.0991312 0.06936052
0000d0 8f dc a8 bd 2a ed b5 bd ef 4b ca bd 45 62 91 bc
       -0.08245193 -0.08883126 -0.098777644 -0.017747054
0000e0 fe bb bf bd 1f 3e 64 bd e6 64 6f bd a2 0b af 3d
       -0.093620285 -0.055723306 -0.058445834 0.08547141
0000f0 b1 99 2d bd 12 af 95 3b 37 ef c8 3d 40 ee e8 3c
       -0.0423829 0.004567989 0.098112516 0.028433919
000100 b7 05 34 3c d5 90 49 bd 28 3c 8d 3d 30 34 7e bd
       0.010987691 -0.04921039 0.068962395 -0.06206149
000110 23 40 12 3d bb a3 68 3c 38 8e 7e 3d c1 20 6b bd
       0.035705697 0.014199193 0.06214735 -0.057404283
000120 6e b4 7f 3d 71 63 5a 3d 24 66 94 bd e3 62 ab 3d
       0.06242793 0.05331749 -0.07246044 0.083684705
000130 4e 93 71 bc 41 6a 3e 3d a9 c6 60 bd f8 16 84 3c
       -0.014744593 0.04648805 -0.054876957 0.016124234
000140 4a 69 98 bd 24 21 7a bd bd ef e6 ba 00 08 65 3d
       -0.07441957 -0.06106676 -0.0017619055 0.055915833
000150 ec 23 b8 3d 5e a2 01 be 80 51 7f 3d fc ba 21 3d
       0.089912266 -0.12659594 0.062333584 0.039484963
000160 97 ff da 3d da 9c 7b bc 48 a9 9b bb d4 37 d2 bd
       0.10693281 -0.015357221 -0.0047504045 -0.102645546
000170 9b 04 39 3d 97 9a 23 bd 19 55 1a bd b2 c7 c1 bc
       0.045170408 -0.03994235 -0.03767881 -0.023654792
000180 1c 4a 8e bd 4a f3 db bc 8b f8 80 3c 1a 4c 59 3d
       -0.06947729 -0.026849408 0.015743515 0.05305109
000190 8b 33 b0 bd 43 16 ba bd bc 9f e3 3b 97 44 9f 3d
       -0.08603581 -0.09086277 0.006946532 0.07776754
0001a0 84 fb d1 bb 90 36 d9 bc 03 b5 99 bd 6e 38 cc bc
       -0.006408157 -0.026515275 -0.07505228 -0.024929252
0001b0 cf 0d 81 bd 42 22 5e 3d f2 3c e5 3b 16 4a 3f bb
       -0.06301462 0.05423189 0.0069957906 -0.0029188446
0001c0 2a 48 54 bd 46 c2 62 3d 28 ef 9e bd 9c 92 ae 3d
       -0.051826634 0.055361055 -0.07760459 0.08524057
0001d0 07 36 21 bd 8f 32 6a bd 39 13 e2 3b 83 9e 9e 3d
       -0.039358165 -0.057177123 0.006899264 0.077450775
0001e0 df 4a 15 bd 76 a6 5d 3d 88 55 06 bc 83 8c ae bd
       -0.036448356 0.054113828 -0.008199103 -0.08522894
0001f0 b5 d5 fe ba 7c 7a b1 3c 90 f2 8c 3d 5f db 8d bc
       -0.0019442352 0.02166485 0.068822026 -0.017316518

linear2.weight f4 [128, 128]
000000 1c 89 40 bd cb f7 9c bc 07 f4 13 3d 14 00 38 3c
       -0.047005758 -0.019161126 0.036121394 0.011230487
000010 dc 95 0c bd 4a 00 c8 3c 78 56 82 bd a5 fd df 3b
       -0.034322605 0.0244142 -0.06364149 0.0068356567
000020 11 ce 91 3c 99 63 3a 3c ae 82 26 3d bb 87 a8 bd
       0.017798455 0.011376285 0.04065197 -0.082290135
000030 aa 79 8f 3d e9 f0 c9 3c 72 ba 8c bd b3 f5 b6 bb
       0.070056275 0.024651008 -0.06871499 -0.005583489
000040 88 03 84 bd f2 8b 14 bd e3 b4 63 3b 01 31 85 3c
       -0.06445986 -0.036266275 0.0034745268 0.016258718
000050 0e 12 9f bd 03 68 b0 3d e1 0f 47 bb 70 f0 df 3c
       -0.077671155 0.08613589 -0.0030374455 0.02733633
000060 af 23 dc bc 23 10 28 3d 3c 48 0f bd 0b 2f 59 3d
       -0.026872484 0.041031014 -0.034980997 0.05302338
000070 1d 8d 9e 3c a6 97 40 bd 70 94 8b bc fa 5e 41 bd
       0.019354397 -0.047019623 -0.017038554 -0.047209717
000080 15 d6 95 3d 39 69 70 bd d0 78 31 bd 05 63 57 3d
       0.073162235 -0.0586941 -0.043328106 0.052584667
000090 68 62 5d 3b 8b 02 39 3d 1b 8f 53 bc 47 42 a3 3d
       0.0033780579 0.04516844 -0.012912537 0.07971626
0000a0 6e c9 54 bc 7b 24 73 3b 77 0b 4f 3d 92 6d 17 3d
       -0.012987478 0.0037100601 0.050548043 0.03696973
0000b0 d7 12 02 3d bb 14 43 3d 8a e5 9d bd 04 1f 91 3d
       0.03175625 0.047627192 -0.07709797 0.07085994
0000c0 e9 1e 34 3d 2c 93 a6 bc e6 52 8e bc ad d9 64 bd
       0.04397479 -0.020333849 -0.017373513 -0.055871654
0000d0 2a d4 88 3c 8c 9a 38 3d 5a 0c 1d bd 30 bb d4 bc
       0.01670273 0.045069262 -0.038341857 -0.025968164
0000e0 93 0a 36 3d ac f8 84 bd 08 e5 de bb d9 b9 87 3d
       0.044443678 -0.06492743 -0.006802205 0.066272445
0000f0 53 e5 3f 3a e0 f7 89 3d c0 68 ba bb 6f ca ca 3d
       0.0007320244 0.067367315 -0.0056887567 0.099018924
000100 8b bc 4e bd 1a e1 c3 bd cc 92 46 bd 51 a3 c8 bc
       -0.050472777 -0.09564419 -0.04847984 -0.024491938
000110 22 9a 9f bc 32 98 ab bc d9 73 13 3c ea 63 07 3d
       -0.019482676 -0.020946596 0.008999788 0.03305427
000120 78 8a ae bd 68 f6 43 bc 23 30 82 bb 1d 1b 06 3d
       -0.085225046 -0.011960603 -0.0039730235 0.0327407
000130 d4 aa b7 3d 81 87 77 bd ef e6 19 bd a4 8c a9 bd
       0.0896813 -0.06043196 -0.03757375 -0.08278778
000140 ae ef 5d bd 3c 6e d0 bc b2 c2 8e bd c1 e8 3b 3d
       -0.054183654 -0.025443189 -0.06970729 0.04587627
000150 3e 97 6b bd 7a 09 92 bd 02 5c 25 3d 7c 51 3b 3d
       -0.057517283 -0.07130714 0.04037095 0.045732006
000160 37 75 29 3c 57 93 ad 3c 4c eb dd bc 26 3d 72 3d
       0.010342888 0.021188421 -0.027089737 0.059140347
000170 52 e4 48 bd a2 b5 c9 bc 8c f4 88 bd 80 34 64 bd
       -0.04904587 -0.024622742 -0.066872686 -0.05571413
000180 38 e5 bc 3d 2f 9c 20 3d f8 b7 29 3b 38 00 b6 bd
       0.092234075 0.03921145 0.0025897007 -0.088867605
000190 4c dd 7a 3d 5f 10 74 bd ec 7f 6a bc bb 07 84 3c
       0.0612462 -0.059585925 -0.0143127255 0.016116967
0001a0 f7 96 06 bd 39 33 5c 3c 7a 35 47 bd ae a8 a0 3d
       -0.032858815 0.013439947 -0.048634984 0.07844673
0001b0 e1 90 9c bd 9b 7d a5 3d 5c 8b 62 3c 1a c5 0c bd
       -0.07644821 0.08080598 0.013827171 -0.03436766
0001c0 c4 2b 57 3d e9 c7 74 bc 17 5c 86 bc f9 a3 b5 3d
       0.052531973 -0.01494024 -0.016401334 0.08869166
0001d0 59 af 9e 3d 79 64 7f bd bb ef 75 bd fc 0d 74 3d
       0.07748289 -0.062351678 -0.060043078 0.05958365
0001e0 c9 9c 7a 3d 90 4f cc 3c 8d 93 c6 bc a6 9f 8b bd
       0.06118468 0.024940282 -0.02424028 -0.0681756
0001f0 af f2 d3 3c 7d d8 c2 bb 0c eb a0 3d 76 e6 99 3d
       0.025872556 -0.0059462176 0.07857332 0.0751466
000200 8d b6 7c 3d b2 71 19 bd cf 0f bc 3d b1 4f 2c bd
       0.06169753 -0.037461944 0.09182703 -0.042068187
000210 8c 62 30 3d 2a a2 8e 3c e0 c3 c4 3d 31 c9 14 bd
       0.04306273 0.01741131 0.09607673 -0.036324684
000220 91 69 7c 3d 0a 9b 34 3c 25 36 71 bb a7 a9 22 bd
       0.061624113 0.011023292 -0.0036805954 -0.039712574
000230 ca b5 c0 3d fc ac 4a 3d cf 6d e1 3a a8 ab a8 3d
       0.094096735 0.049481377 0.0017198863 0.08235866
000240 e3 97 d3 3b 88 ab 4f bd e6 d7 82 bc f9 9b 55 3d
       0.0064573153 -0.050700694 -0.015972089 0.0521507
000250 2d 22 8e 3d 04 34 ae bc 12 7d a6 3d 36 da aa 3d
       0.06940112 -0.021265037 0.08129324 0.08342402
000260 99 15 a9 bd a8 2e 8f bd 3a 48 96 3d 28 bb 63 3d
       -0.082560726 -0.06991321 0.07337995 0.055598408
000270 6a 43 b8 3d 3c a3 b0 3b 6d bd ae 3b 7f 16 7f bd
       0.08997233 0.005390553 0.00533264 -0.062277313
000280 f5 86 2b bd eb cd eb 3b 1d 2f ac bd dd 18 33 3d
       -0.041876752 0.007196178 -0.08407424 0.043724883
000290 f2 8a ab bc d9 f3 95 3d 20 60 8f 3d 1a b0 73 bd
       -0.020940278 0.07321901 0.07000756 -0.059494115
0002a0 d7 4e 8d ba fc 4e cb 3d 99 18 3e 38 a8 a5 9f bd
       -0.0010780942 0.099271744 4.532244e-05 -0.07795268
0002b0 ca 55 ba 3b b0 b8 aa bd cc cd be bd 3a f6 82 3d
       0.0056864964 -0.083360076 -0.093165964 0.0639462
0002c0 f7 cf e8 bb bc 51 79 3d e2 7a 4d 3d ba a6 9e 3d
       -0.0071048695 0.060868964 0.05016602 0.07746644
0002d0 d6 de a1 bb 71 0e 82 3d d9 1c 84 3d 7b 39 ed 3c
       -0.004939894 0.06350411 0.06450815 0.028958073
0002e0 fc b1 c8 3d 30 91 7a bb b6 08 26 3d 60 30 9d 3c
       0.09799573 -0.003823351 0.04053565 0.019188106
0002f0 b8 a1 ab 3d ac 41 18 bb b7 6f 94 3d 75 9e 29 3c
       0.08380455 -0.0023232503 0.072478704 0.0103527205
000300 ca d9 ab 3d 4a 79 42 bd d2 c1 9c bd 9d 30 a9 bd
       0.08391149 -0.04747895 -0.07654156 -0.082612254
000310 87 2c 21 3d 40 19 e3 bc f9 7b 1e bd 40 94 89 3c
       0.039349105 -0.027722001 -0.03869245 0.016794324
000320 30 05 99 bd a7 d5 54 bc dd 4c 4f bd bc 9e b8 3d
       -0.074716926 -0.012990392 -0.050610412 0.09014651
000330 e9 c2 30 bd 41 76 59 bd 87 d7 02 3c b8 9f 83 3c
       -0.04315463 -0.05309129 0.007985956 0.01606737
000340 23 f1 95 3d 6c 85 6f 39 01 1f 55 bd 0c ea f2 bb
       0.07321384 0.0002284252 -0.05203152 -0.0074131545
000350 be c3 15 bd c9 15 8b 3c 29 41 9a 3d fb ec a5 bd
       -0.036563627 0.016978161 0.075319596 -0.08101841
000360 5c c4 05 bc 56 53 a8 3c 0e a8 a0 bd 1d cd 51 bd
       -0.0081644915 0.02054755 -0.07844554 -0.051221002
000370 45 0a 38 bc f2 68 af bd 34 71 0f bd d8 96 95 bb
       -0.011232917 -0.085649386 -0.03502007 -0.004565101
000380 b8 4c bc 3d ca ee 51 bb 28 ab 4f 3d a2 d8 53 3c
       0.091943204 -0.0032033199 0.050700337 0.012930067
000390 9c 8d 66 bd 71 b8 2d bd 72 cb 50 3d e2 79 66 3d
       -0.056287393 -0.042412225 0.05097527 0.05626858
0003a0 4e 85 68 3d 00 8e 97 3d 25 14 9a bd d9 db 1a 3d
       0.056767754 0.07400131 -0.075233735 0.03780732
0003b0 01 8a 69 3b dc 76 0c bc fd c5 22 3d 01 ed 9a 3d
       0.0035635235 -0.00857326 0.039739598 0.07564736
0003c0 e4 c0 bb 3c 3d 3f a7 3d c2 c0 37 bd 46 e8 53 bd
       0.022919126 0.081663586 -0.044861563 -0.051735185
0003d0 51 cf 88 3d 44 be 9e 3d d3 19 8a 3d ec 11 b4 3c
       0.066801675 0.07751134 0.06743207 0.021981202
0003e0 6c 70 81 3b f7 64 b0 ba 83 58 d8 3b 7a 4f d8 3c
       0.0039501693 -0.0013457824 0.0066023483 0.026405085
0003f0 ad fd 3b 3d 60 c3 6d 3d 57 0c 32 3c 5c a6 88 3d
       0.04589622 0.058047652 0.0108672 0.066723555

linear2.bias f4 [128]
000000 4c 23 20 3d a3 95 91 bd 5e fd 80 3d 61 d4 6c 3d
       0.03909616 -0.07108619 0.06298326 0.057819728
000010 a1 e4 52 bd 57 d9 ad bc 59 c6 2b 3d 3a c4 a1 3d
       -0.05148757 -0.0212218 0.041937206 0.07898755
000020 4d 86 4d 3d 9a 53 f2 3c 45 3e b0 bc 73 b6 98 3d
       0.050176907 0.02958088 -0.021514067 0.074566744
000030 f9 d4 a6 3d 61 62 78 3d 67 f9 a1 3c 0f f2 eb 3c
       0.0814609 0.060640696 0.019772245 0.028801946
000040 b4 8c 19 3d 93 4d 35 3d 77 ae 23 bd 03 7e a0 3d
       0.0374877 0.044263434 -0.039961305 0.07836535
000050 a4 a0 64 3d 5d b8 42 3d e4 20 67 bd 33 b5 4f bd
       0.05581726 0.047539104 -0.05642785 -0.050709914
000060 e6 b2 72 3d 21 b0 fe 3c 93 5a 32 3d 86 03 81 bd
       0.059252642 0.031089844 0.04354341 -0.062995
000070 52 af e0 3d da c4 8c 3d 66 bf 06 3c 9d f3 5d 3d
       0.1097094 0.06873484 0.008224344 0.054187406
000080 e7 ed 50 bd ae 2a a4 3d 4f a6 1c bd 28 3e c8 bb
       -0.05100813 0.08015953 -0.03824454 -0.006110925
000090 bc 5f 53 bd bc b5 83 bd 11 59 73 bb f6 6c 75 3d
       -0.05160497 -0.064311475 -0.0037131945 0.059918366
0000a0 52 be c5 bc 43 0d 8c bd 3f 63 e2 3d 2e 5f 00 bd
       -0.024138603 -0.06838467 0.11054086 -0.03134077
0000b0 88 4f ad 3d 32 fa da 3c 99 63 39 bd 50 00 5b 3d
       0.08462435 0.02673063 -0.045261 0.053467095
0000c0 1c 5f bd bc 87 a2 30 bc a7 42 4a 3d 5f bf 8b bd
       -0.02311664 -0.010780937 0.04937997 -0.068236105
0000d0 00 84 b8 bc b4 cd e6 3c bb 06 9a bd c4 1a 97 bd
       -0.02252388 0.028174259 -0.07520815 -0.07378152
0000e0 21 81 8a 3d 7e 8e 2b bd 9e 05 c3 bd 89 11 9d 3d
       0.06762911 -0.041883938 -0.09522556 0.0766936
0000f0 e0 81 f7 3c 2b e7 11 3d d4 3b 89 bd 3d 83 4a bd
       0.030213296 0.03562085 -0.067008644 -0.049441565
000100 a4 72 1f 3d 56 ff a9 bb 28 de c4 3d 2c 09 92 3d
       0.03892769 -0.005187909 0.096126854 0.07130656
000110 dd 0e 52 3c 99 6e 5b 3d 59 6f 33 3d a6 df 29 3d
       0.0128209265 0.05357227 0.04380736 0.041473053
000120 8b a8 48 bb a9 04 06 bd 8c 6a d4 bc 45 09 e7 ba
       -0.0030618038 -0.032719288 -0.025929712 -0.0017626664
000130 b9 21 d1 bd c3 a9 59 3d 12 e0 7f bd 9b 8b 84 bd
       -0.1021151 0.053140413 -0.06246955 -0.0647194
000140 c0 65 9a 3c a5 fc b0 bd 66 67 3f 3c 44 70 51 3c
       0.018847346 -0.08641938 0.011682367 0.012783114
000150 6b a2 b8 3d a2 c5 56 3c 4c 72 2a 3d d3 3f 30 bc
       0.09015354 0.013108643 0.04161291 -0.010757404
000160 72 85 92 bd 22 2e 73 3d ab 18 a2 bd 56 53 92 3c
       -0.07154359 0.059370168 -0.07914861 0.017862003
000170 94 7a 76 bd 29 59 2e 3d 6b e7 26 3d fe a1 3d bd
       -0.060175493 0.0425655 0.04074804 -0.046297066
000180 17 70 42 bd ef e6 52 3c 7c f7 a2 3d dd 7a d9 bb
       -0.04747018 0.012872442 0.0795736 -0.006636961
000190 72 8d 79 bd ce 51 af 3d e5 44 88 bd 6b 5c 7d 3d
       -0.06092591 0.08560525 -0.066537656 0.061855715
0001a0 7f 6a 3c bd 26 19 f4 3c 76 d2 b5 3b 6c ff a2 3d
       -0.046 0.029797148 0.0055487705 0.07958874
0001b0 ae 5e f1 bc 67 9a 9b bd af a4 45 bc 6f 46 67 bd
       -0.029464092 -0.07597809 -0.012063189 -0.056463655
0001c0 2f 09 9b 3d e3 27 71 3d 05 41 55 bd 05 11 cd bb
       0.07570111 0.05887593 -0.05206396 -0.0062581324
0001d0 68 ef 39 bc ec ea 44 3c 12 a3 bd 3d f9 cf 62 3d
       -0.011348583 0.0120189 0.09259619 0.05537412
0001e0 90 9f 72 bd c6 05 b2 3d f2 1f 79 3d 9d 9f 4d bc
       -0.059234202 0.086925074 0.06082148 -0.012550262
0001f0 f2 49 21 bd 80 fc 8e bd 82 fa 86 bd 17 98 79 bd
       -0.03937716 -0.06981754 -0.06590749 -0.06093606

linear3.weight f4 [48, 128]
000000 f8 79 02 3c f4 32 60 bd 68 e5 4e 3d 9e 37 46 bd
       0.00796365 -0.054736093 0.050511748 -0.048392884
000010 81 38 96 3b a3 0d ac 3d 6a 5d 0b bd e8 2d b5 3c
       0.0045843725 0.084010385 -0.034024633 0.022116616
000020 27 46 4b bd 3a c0 8c bd 96 4e 9d 3d 77 82 19 bd
       -0.04962745 -0.06872602 0.07681005 -0.037477937
000030 99 16 92 bd 68 1a 1b 3d 69 95 b0 bc 4f 94 b7 3d
       -0.071332164 0.03786698 -0.02155562 0.089638345
000040 24 73 44 3d 43 53 f8 3c ed 70 84 bd fa dd 63 3d
       0.04796137 0.03031314 -0.064668514 0.055631615
000050 90 2a f7 3b c2 fa c5 bd a2 0e 4a 3d 31 7e 80 3d
       0.0075429156 -0.09666969 0.04933036 0.06274069
000060 6b 91 73 3d 97 73 8a 3d 78 07 09 bd 8c bc 55 3d
       0.059464853 0.06760328 -0.03345439 0.052181765
000070 7e 67 ab 3d 61 7a 9a 3c 17 68 08 bc c5 ad ae 3d
       0.08369349 0.018857183 -0.008325598 0.08529238
000080 00 5f 10 bd 8b 63 99 3d 32 79 83 bd 23 02 a0 3d
       -0.03524685 0.074896894 -0.064196005 0.078129075
000090 84 ea cd 3c 0e 0d 32 bd f2 f8 36 3c 46 61 ac bd
       0.02513624 -0.04346948 0.011167752 -0.08416991
0000a0 44 ed f8 3c 02 67 a8 bd 46 97 3a bc 62 dd 57 bd
       0.030386575 -0.08222772 -0.011388605 -0.05270136
0000b0 ab f8 86 3b f7 45 9a bd a8 90 9f 3d dc 81 c5 bc
       0.004118999 -0.07532876 0.07791263 -0.024109773
0000c0 fc 2a 8f 3a 3d a2 37 3d b7 23 b4 3c db 2b c1 bd
       0.0010922845 0.044832457 0.021989686 -0.09432193
0000d0 0c 80 f5 bc 9e ff b6 3d 60 23 74 bc be f1 8a bd
       -0.029968284 0.08935474 -0.014901012 -0.0678439
0000e0 cd 28 8a 3d 50 e2 b6 bd 4d 61 64 bd 6b d2 09 3d
       0.067460634 -0.089298844 -0.055756856 0.033647936
0000f0 09 b4 1c bd c2 a5 21 3d 75 a7 f0 bb 18 75 df bc
       -0.038257632 0.03946472 -0.007344181 -0.027277514
000100 58 6a 57 bd 2d 68 1c 3d f2 30 97 3c 36 51 3e bd
       -0.05259165 0.038185287 0.018455956 -0.046464168
000110 cc ac d2 3c c0 a0 19 bd 6d ac 5d 3d bd 2d 12 3d
       0.025717162 -0.03750682 0.054119516 0.03568815
000120 32 95 fc bc c1 55 53 3d 63 cd 6b bd c4 9f 0a bd
       -0.03083286 0.051595453 -0.05756892 -0.03384377
000130 1a 30 92 bd 33 da 6f 3d 90 47 d9 3c 83 73 c4 3c
       -0.07138081 0.0585577 0.026523381 0.023980862
000140 08 da 80 3c 7e 3f 0e 3d 8e 33 54 3c 57 64 f4 3a
       0.015728965 0.03472852 0.012951745 0.0018645626
000150 42 80 12 bd 89 ae 8f 3d a1 79 3d 3d 72 c8 f6 3c
       -0.035766847 0.07015712 0.046258572 0.030124877
000160 92 6f 1c 3d 78 8f 62 bc 90 2b 6a bd 45 4f e9 bb
       0.03819234 -0.013828151 -0.05717045 -0.0071200454
000170 f3 58 0c 3d b0 79 6e bc 93 83 0c bd a7 3c ba bd
       0.034264516 -0.01455538 -0.034305166 -0.090936
000180 06 9e 85 3c 5b 6d 7f 38 00 11 56 3d 1d 25 8f bd
       0.016310703 6.0898583e-05 0.052262306 -0.06989501
000190 9e 91 51 bc c3 8e 17 3c 00 b2 9f bd 8c da 4f bd
       -0.0127910655 0.009250346 -0.07797623 -0.050745532
0001a0 06 a0 57 bd 1c 95 a5 3d 79 2a 9f bd b9 57 a9 bd
       -0.052642845 0.08085081 -0.07771773 -0.08268685
0001b0 75 a2 ae 3c 39 8f 8f bd 7a 6b 5e bc 4d 7e 65 3d
       0.0213177 -0.070097394 -0.013575429 0.056028653
0001c0 c7 71 58 bd 81 2e 35 bd 9f 86 45 3c 31 c1 72 3c
       -0.05284288 -0.044233803 0.012056022 0.014816568
0001d0 3d 1e 5d bd cf 94 6d bc 88 d8 90 3d d9 c8 b5 3d
       -0.053983916 -0.014500811 0.0707255 0.08876199
0001e0 09 dd 86 bc 31 57 17 bc c4 bf 9a 3d ce c3 3a bd
       -0.01646282 -0.009237097 0.07556108 -0.04559689
0001f0 e2 11 42 bd 67 ed cd bc 20 85 95 3d 14 6b 3e 3d
       -0.047380336 -0.025137616 0.07300782 0.046488836
000200 96 c0 a3 bd 77 ae 15 bd a7 39 77 bd b8 e4 54 ba
       -0.07995717 -0.036543336 -0.060357716 -0.000812124
000210 91 5c d1 bc 6e f9 c6 3c e3 af 08 bd 07 c1 51 bd
       -0.025556834 0.02428886 -0.033370864 -0.051209476
000220 b6 53 bc 3d 2a 0a bf 3c 58 a4 bc 3b 57 62 12 3d
       0.09195654 0.023320276 0.005756896 0.035738315
000230 33 35 bc 3d aa ee 5e 3d c9 39 ea 3c da c0 03 bd
       0.091898344 0.054426827 0.028592007 -0.03216634
000240 17 fc 0f 3d 3f 73 6f bd ed bf 8a bd 9d 6e c3 3d
       0.03515252 -0.058459517 -0.06774888 0.09542582
000250 48 d4 c9 bd ac 85 9a bd 20 82 2d 3c 8a e6 9a 3a
       -0.098549426 -0.07545027 0.010590106 0.0011817974
000260 05 46 31 3d 6f 56 e5 bc e4 cb a8 3d da b1 16 bd
       0.043279666 -0.027995316 0.08242014 -0.036790706
000270 a6 a9 01 bd e7 fc 5b 3d e2 66 c4 3d a9 ed 7f bc
       -0.03165593 0.053707983 0.09589936 -0.015620627
000280 99 db 48 bc 44 ca 48 3b 6d 81 0b bd 12 19 59 bd
       -0.012259387 0.0030638138 -0.034058977 -0.053002425
000290 6a c0 b2 bd 05 00 3b bc 7b d5 be bc 71 ce 97 bd
       -0.08728106 -0.011413579 -0.023295155 -0.074124224
0002a0 93 06 a1 3d f3 5c 6a 3d 99 b9 8c 3d 14 13 ba 3d
       0.07862582 0.05721755 0.068713374 0.0908567
0002b0 f2 26 76 bd 28 46 b1 3c b3 f7 2d bb 57 69 39 bc
       -0.060095735 0.021639898 -0.0026545345 -0.011316619
0002c0 d8 42 b8 bc 64 73 08 3d 17 2d 9c bd 0f 04 a0 bd
       -0.022492811 0.03331317 -0.07625788 -0.07813274
0002d0 ce 7f 35 bd c1 09 85 3d 81 62 07 3d df 37 6a bd
       -0.044311337 0.06496001 0.033052925 -0.05718219
0002e0 26 5c c3 bd 70 a8 d0 3c bc de fd bc 23 71 d9 bc
       -0.0953906 0.025470942 -0.030989997 -0.026543206
0002f0 64 78 9e 3d 70 15 1d 3d ef 13 bb 3b 1d 7a 6c 3d
       0.077378064 0.038350523 0.0057091634 0.057733644
000300 e9 dc 61 3d 4a 3d f9 bc 00 96 b8 3d f7 c8 a4 bd
       0.055142317 -0.030424733 0.09012985 -0.080461435
000310 c1 9f d0 3d 78 bd cd bd 1a 5f 44 3d ee 30 2a bd
       0.10186721 -0.10045904 0.04794226 -0.04155057
000320 c6 bb 65 3d 88 09 9b bc fc 61 0c 3d 96 63 e2 3b
       0.056087278 -0.018925443 0.034273133 0.006908844
000330 d7 f7 d3 bd 72 06 65 3d 39 57 c2 bc 38 c5 68 3c
       -0.10350006 0.05591435 -0.023723232 0.014207177
000340 28 1f a5 bb 79 49 bb bd ae 8f 94 bd f7 04 6d bd
       -0.0050391145 -0.09144873 -0.07253967 -0.057866063
000350 21 03 53 3d c2 8b 96 3d 53 99 d0 bc 2e 7b 82 bc
       0.051516656 0.073508754 -0.025463736 -0.015927877
000360 10 5c a2 3d 81 bf 5f bd 83 27 7e 3d fd 53 4a 3d
       0.07927716 -0.05462599 0.0620494 0.049396504
000370 1a 8c 55 3d 7b f7 87 bb 96 81 53 3d e7 36 a3 3d
       0.052135564 -0.004149375 0.051637255 0.07969456
000380 66 54 af 3d b3 45 85 bd 86 91 19 bb ed a1 ac 3d
       0.085610196 -0.06507435 -0.0023432686 0.084293224
000390 f5 4c b0 bd 80 82 84 3c 05 ff a0 bd 76 53 50 3d
       -0.086084284 0.016175508 -0.07861141 0.050860845
0003a0 c5 87 3d bd 5d 22 2a bc 44 e2 a5 3c 44 da d4 bc
       -0.046272058 -0.010384169 0.020249493 -0.025982983
0003b0 08 dd 68 bd 46 3c 19 3d 4e 42 93 bb d5 18 aa 3d
       -0.056851417 0.037410997 -0.004493988 0.083055176
0003c0 d5 9f b6 bd ed 00 5e bd 87 24 8c 3d 49 3e b0 bd
       -0.08917204 -0.0542001 0.068429045 -0.0860563
0003d0 3d 54 30 bd c2 3a 97 3d 38 1d 5a bd e9 04 42 bd
       -0.043049086 0.07384254 -0.05325052 -0.047367964
0003e0 ec ad 5b bb 0d 1b 83 3c e4 19 d0 bc 4f 0f 3c 3c
       -0.0033520414 0.01600411 -0.02540297 0.011478259
0003f0 ea 15 8c bc ac 8a 6b bc 1e 22 5d bd e9 77 4d 3c
       -0.017100293 -0.014376324 -0.053987615 0.012540796

linear3.bias f4 [48]
000000 bc 6d 4a bd 27 0b 10 3d f2 a3 38 3d 60 cd 06 bd
       -0.049421057 0.035166886 0.045078225 -0.032910705
000010 c8 97 cd 3b ae 4c 26 bc 64 c9 4f bd bb af 15 3c
       0.0062741973 -0.010150118 -0.05072917 0.009136136
000020 bf 1e b9 3c e5 bb 7e 3d 81 b8 9a 3d 1c cc 20 bd
       0.022597669 0.06219091 0.075547226 -0.039257154
000030 f8 bb 62 bc 73 bf 7d bc 91 b6 48 bd b5 89 4f 3d
       -0.013838761 -0.01548754 -0.049002234 0.050668437
000040 24 d9 b9 3c c5 77 45 bc 07 61 4f 3d 97 53 be bb
       0.022686549 -0.012052481 0.05062964 -0.0058083045
000050 e5 2b 05 3d 8a aa 21 3d a3 ba 8e bd 42 d4 fc ba
       0.032512564 0.03946928 -0.06969192 -0.0019289332
000060 c7 86 23 3d df 73 99 bc 17 de b7 bb 09 61 50 3d
       0.039923456 -0.01873201 -0.005611192 0.05087379
000070 42 b8 a2 b7 d4 9d 03 bd e6 fe 83 3d a6 41 3a 3d
       -1.9397707e-05 -0.03213294 0.064451024 0.045472763
000080 d4 2b b7 3c f9 e6 53 bd 29 7f 59 bd 6b 32 2b bc
       0.022359766 -0.051733945 -0.053099785 -0.010449032
000090 1a d9 28 3c 8e a2 62 3d 26 c6 8e 3c f3 07 4d 3b
       0.010305667 0.055330805 0.017428469 0.0031285256
0000a0 1d a5 eb 3c ef f4 8c bd 2d db c3 ba a9 70 0a 3d
       0.028765256 -0.06882655 -0.0014942639 0.033798847
0000b0 ce 01 a7 bc 60 7b c4 3c 10 12 83 bc 40 e6 93 bd
       -0.020386603 0.023984611 -0.015999824 -0.07221651
