第二章-回归模型/model_weight/mlp_tanh_norm.pth (torch, 146853 bytes, 10 tensors)

linear1.weight f4 [128, 96]
0	0xbd94c00e	-0.07263194
1	0xbc0b8d25	-0.008517538
2	0xbda76b93	-0.08174815
3	0x3d97807d	0.07397554
4	0x3d5769c8	0.052591115
5	0x3dba55b7	0.0909838
6	0xbcb0b366	-0.021569919
7	0x3d7dc9e7	0.061960127
8	0xbda71f49	-0.08160264
9	0x3cfa0359	0.030519174
10	0x3d5ed1d4	0.054399326
11	0x3c1d95a4	0.009618197
12	0xbd21ab58	-0.039470047
13	0xbd433738	-0.047660083
14	0xbcf3600e	-0.029708888
15	0x3da86d69	0.08223993
16	0x3d18e68f	0.037329253
17	0xbd14f5d9	-0.03636727
18	0xbcd3e35b	-0.025865247
19	0x3bcf8116	0.006332527
20	0x3d329f0c	0.04360871
21	0x3dc027e2	0.09382607
22	0x3d93764f	0.072003
23	0x3db24240	0.087040424
24	0xbd14575a	-0.036216117
25	0x3ceacdc9	0.02866258
26	0x3d91f0dd	0.07126019
27	0x3daaa842	0.08332874
28	0x3c8cece0	0.017202795
29	0x3dbac6e9	0.0911997
30	0xbd642dab	-0.055707615
31	0xbdc7201d	-0.09722922
32	0x3d0ae7d4	0.033912495
33	0x3d844313	0.06458106
34	0x3d716860	0.05893743
35	0xbd9658bd	-0.07341144
36	0x3db1ebf7	0.08687585
37	0xbda9d539	-0.08292622
38	0x3da37674	0.079815775
39	0xbcec9f68	-0.028884605
40	0x3dbd91f7	0.09256356
41	0x3d64c15c	0.055848464
42	0x3d8146f4	0.06312361
43	0x3c3b11a6	0.011417782
44	0xbdcbcc51	-0.0995108
45	0xbda69067	-0.08133011
46	0xbdb45851	-0.088059075
47	0xbd004f9e	-0.03132593
48	0xbd126e31	-0.035749618
49	0x3d05a97e	0.032632343
50	0xbdc1f370	-0.0947026
51	0xbd949c0a	-0.072563246
52	0xbc6b7976	-0.01437222
53	0xbc89063b	-0.016726604
54	0xbc932808	-0.017963424
55	0xbda37aa7	-0.079823785
56	0xbdbb81ac	-0.09155592
57	0xbda0693e	-0.07832573
58	0xbd44f6ef	-0.048087057
59	0xbb3a9aca	-0.002847361
60	0xbd9b75da	-0.07590838
61	0xbdb1f0a4	-0.08688477
62	0xbc320db9	-0.01086753
63	0x3dd82b5a	0.10555144
64	0x3d95206d	0.07281575
65	0xbc0ed192	-0.008716958
66	0xbd93db74	-0.07219592
67	0x3ca93a06	0.02065755
68	0xbdb22590	-0.08698571
69	0xbd8edc8a	-0.06975658
70	0x3c4b3070	0.012401685
71	0x3cd6d82c	0.026226126
72	0xbd3d9343	-0.046283018
73	0x3b8fa706	0.0043839244
74	0xbb8ef8d4	-0.0043631587
75	0xbc52938a	-0.012852559
76	0x3ccba16b	0.024857244
77	0x3d5ae3bb	0.053439837
78	0xbd712a08	-0.058877975
79	0xbb904ffb	-0.0044040657
80	0xbdab7c6c	-0.08373341
81	0xbd48e808	-0.049049407
82	0xbdd35382	-0.10318662
83	0xbd88bc0d	-0.06676493
84	0xbd913483	-0.07090094
85	0x3c02fe83	0.007995251
86	0xbbcc059b	-0.006226254
87	0x3c93faa0	0.018063843
88	0x3d8c8e4f	0.06863081
89	0x3cd66d20	0.026175082
90	0xbb66bd59	-0.0035208075
91	0x3d37ce38	0.0448744
92	0xbd5c2b3d	-0.053752173
93	0x3bf62138	0.007511284
94	0x3c8b867f	0.017031906
95	0x3dc1fcc4	0.09472039
96	0x3da91fe5	0.082580365
97	0xbdb2874d	-0.08717213
98	0xba8eabcd	-0.0010884941
99	0x3dbde1bd	0.09271572
100	0x3c5ae554	0.01336034
101	0xbdc3826c	-0.095463604
102	0x3d946a37	0.072468214
103	0xbd998c14	-0.07497421
104	0xbd913de8	-0.07091886
105	0xbd9e4b0f	-0.0772916
106	0x3dc7cffe	0.09756468
107	0x3da52212	0.08063139
108	0xbcf14acf	-0.029454617
109	0x3ce48d8b	0.027899524
110	0x3d0cd3f9	0.03438184
111	0xbdec4eb6	-0.115384504
112	0xbd4aa0a9	-0.049469624
113	0xbd72afc0	-0.05924964
114	0x3c5b337b	0.013378973
115	0xbd312ec3	-0.043257486
116	0x3da85b24	0.08220509
117	0xbda530f2	-0.08065976
118	0xbd355089	-0.044266257
119	0xbc358764	-0.011079643
120	0x3b3d01a0	0.002884008
121	0xbd1c4b48	-0.03815773
122	0xbd20b298	-0.03923282
123	0x3d257707	0.040396716
124	0x3d883b4f	0.06651937
125	0xbc281dbe	-0.010260997
126	0x3bb0b5b4	0.0053927545
127	0x3d9d7cc6	0.07689814
128	0x3c592387	0.013253099
129	0xbd50cd21	-0.050976876
130	0xbd64207d	-0.055695046
131	0x3d23fd40	0.04003644
132	0xbd5c118f	-0.053727683
133	0x3c97c344	0.018525727
134	0xbcb6e9fa	-0.022328366
135	0x3ce97ce9	0.028501945
136	0x3d535f5b	0.05160461
137	0x3d71678b	0.058936637
138	0xbb22e846	-0.0024857684
139	0xbd6a8c2d	-0.05726259
140	0x3cb10327	0.021607948
141	0xbd457bdb	-0.04821382
142	0x3d2f36b9	0.042776797
143	0xbc40d792	-0.011770146
144	0x3b2a993c	0.0026031276
145	0x3db1b152	0.08676399
146	0xbd8ac8c6	-0.06776576
147	0x3d8e6a03	0.06953814
148	0x3d0ddbd7	0.034633484
149	0xbda2d3dd	-0.07950566
150	0x3da70ee0	0.08157134
151	0xbd357ad7	-0.044306602
152	0xbd9faed7	-0.0779702
153	0xbcf8bf89	-0.030364769
154	0x3c2c04e2	0.010499211
155	0xbdbf2256	-0.09332721
156	0x3c5c53f3	0.013447749
157	0x3d411ef1	0.04714865
158	0xbda7de35	-0.081966795
159	0x3d3f4a11	0.046701495
160	0x3d0815c2	0.033223875
161	0x3db87083	0.09005835
162	0x3dcfac62	0.10140301
163	0xbc6d4c08	-0.014483459
164	0xbcfd93f5	-0.03095434
165	0xbdd4d1a5	-0.10391549
166	0xbd579529	-0.052632485
167	0x3c53b073	0.012920487
168	0x3d7782df	0.060427543
169	0x3d90cbc3	0.070701145
170	0x3d3ac2df	0.045596
171	0xbcb91abb	-0.022595754
172	0x3ccc07e8	0.024906114
173	0x3d382d13	0.04496486
174	0x3d9f67f7	0.077835016
175	0x3d5b4f59	0.05354247
176	0xbd5fba9a	-0.054621316
177	0xbd745a66	-0.059656523
178	0xbc553216	-0.01301243
179	0xbca845cf	-0.0205411
180	0xbdb53f23	-0.08849933
181	0x3d869d5b	0.06572982
182	0x3d96cd54	0.07363382
183	0x3d9dbdb4	0.077021986
184	0x3d3282c1	0.043581728
185	0x3db7748f	0.08957779
186	0x3a9af2ff	0.0011821686
187	0xbcebfecd	-0.028808022
188	0x3c869edd	0.016433174
189	0x3c94bf0e	0.018157508
190	0x3d1d4e86	0.038404964
191	0xbc8d2a8b	-0.0172322
192	0x3b82d451	0.0039925952
193	0xbd7df1ec	-0.061998293
194	0x3ba332c7	0.0049804184
195	0x3d683ee4	0.056700602
196	0x3be31929	0.0069304896
197	0xbdc0a9ac	-0.09407362
198	0xbc217613	-0.009854811
199	0xbcf827f4	-0.030292489
200	0x3d955d21	0.072931536
201	0x3d8771c1	0.06613494
202	0xbd7072f8	-0.058703393
203	0x3d2c9122	0.042130597
204	0x3ce43436	0.027856927
205	0xbd8e0398	-0.06934279
206	0xbd0a49d0	-0.0337618
207	0x3bbed62b	0.0058238707
208	0x3d560ba3	0.05225719
209	0xbd21d3a4	-0.039508477
210	0x3cf56fec	0.029960595
211	0x3d027b86	0.031856082
212	0xbda8ff43	-0.08251812
213	0xbce3dfd7	-0.027816696
214	0x3cc9595e	0.024578746
215	0x3d2f67bf	0.04282355
216	0x3bedf8a4	0.0072623063
217	0xbd2c3c1a	-0.042049505
218	0xbd30e3b1	-0.043185893
219	0x3d0f52e4	0.03499116
220	0x3d17dd1c	0.0370761
221	0xbcbfaae5	-0.023396919
222	0x3dc9ced6	0.09853904
223	0x3c3d4580	0.011552215
224	0xbdb08572	-0.08619203
225	0xba96acfb	-0.0011495644
226	0xbc80eb39	-0.015737163
227	0xbccaf93c	-0.024777047
228	0xbb500d92	-0.003174637
229	0xbd0bf4e2	-0.034169085
230	0xbd5fab69	-0.05460683
231	0x3d79d73c	0.06099628
232	0x3d7287e3	0.059211623
233	0xbd889802	-0.06669618
234	0x3c232dd1	0.009959654
235	0x3cdf60c0	0.027267814
236	0xbc4fbbf9	-0.0126790935
237	0xbba59008	-0.0050525703
238	0xbcde5ec7	-0.027144803
239	0xbc03aaee	-0.008036358
240	0xbdb42713	-0.08796515
241	0x3dc7a0f9	0.097475
242	0x3dbc8408	0.092048705
243	0x3d691272	0.056902356
244	0xbd406656	-0.046972595
245	0xbd01248c	-0.031528994
246	0x3c9229c5	0.017842183
247	0x3d4fdcea	0.05074779
248	0xbc895fa1	-0.016769232
249	0xbc96ebe9	-0.018423038
250	0xbdbd3613	-0.092388295
251	0xbd99be5b	-0.075070105
252	0x3be183dd	0.0068821744
253	0xbb8fbceb	-0.0043865344
254	0xbc356bdd	-0.01107308
255	0x3db527ce	0.08845483

linear1.bias f4 [128]
0	0x3de2defa	0.11077686
1	0xbc81c3c6	-0.015840422
2	0x3ce04082	0.02737451
3	0xbda6c7a6	-0.08143549
4	0x3d449900	0.047997475
5	0x3d4e8501	0.05041981
6	0x3d6d7993	0.05797727
7	0x3d3a530a	0.04548935
8	0xbdce0292	-0.10059084
9	0x3cd551b2	0.026039932
10	0xbc1b45f5	-0.009477128
11	0x3d9a2048	0.075256884
12	0x3ded081f	0.115738146
13	0xbd8546fd	-0.065076806
14	0x3dd0c416	0.101936504
15	0xbc0f39ef	-0.00874184
16	0xbd56cc19	-0.052440736
17	0x3d3f166c	0.046652243
18	0x3d755adc	0.059901103
19	0xbc162f0e	-0.009166492
20	0xbdc5d215	-0.096592106
21	0x3d53a7d3	0.05167372
22	0x3da86aea	0.08223517
23	0x3d5d04b3	0.05395956
24	0x3a74afb5	0.0009334044
25	0xbd9fb867	-0.07798844
26	0x3db56e42	0.08858921
27	0x3d5597b9	0.052146647
28	0xbd047615	-0.032339174
29	0x3db3f0e9	0.08786184
30	0xbbdce979	-0.0067416993
31	0xbde73f5e	-0.11291383
32	0xbc8963c8	-0.016771212
33	0xbd780507	-0.06055167
34	0x3d87508f	0.06607162
35	0xbdc5a60f	-0.09650814
36	0x3def6372	0.116888896
37	0x3d105bc6	0.035243772
38	0xbd9b92f9	-0.07596392
39	0xbd82656f	-0.06367003
40	0x3d18716b	0.03721754
41	0x3d92d638	0.07169765
42	0xbdd5c6d1	-0.10438312
43	0xbdbf6273	-0.093449496
44	0xbdbf2930	-0.09334028
45	0xbdad5387	-0.08463197
46	0xbd6f4169	-0.05841199
47	0xbd543385	-0.051806945
48	0x3bd0403d	0.006355314
49	0xbd61ebef	-0.055156644
50	0x3cdb2acb	0.026753804
51	0xbddb5839	-0.107101865
52	0xbd86beb4	-0.065793425
53	0x3d4e7316	0.050402723
54	0xbdd5b134	-0.104341894
55	0xbd89793d	-0.067125775
56	0xbd8557dc	-0.065108985
57	0xbd5b76fa	-0.05358026
58	0x3d82826e	0.06372534
59	0x3de4c8b4	0.111710936
60	0xbb6d3124	-0.003619262
61	0x3d9e0094	0.07714954
62	0x3d4a7422	0.04942716
63	0xbdd708b4	-0.10499707
64	0xbd9826f1	-0.074293025
65	0x3d85e8c5	0.06538538
66	0x3d0d13f1	0.034442846
67	0x3cbfa2ff	0.023393152
68	0xbd51767c	-0.051138386
69	0x3dc5450b	0.096323095
70	0x3bb84a34	0.00562408
71	0x3c0e9032	0.008701371
72	0xbd382065	-0.04495277
73	0xbdbbdf61	-0.091734655
74	0xbde5005e	-0.11181711
75	0xbb43a7eb	-0.0029854726
76	0x3cd7cb18	0.02634196
77	0xbd7407b5	-0.059577662
78	0xbc64f905	-0.0139753865
79	0xbd998a7d	-0.07497118
80	0xbda803f0	-0.08203876
81	0x3d354606	0.044256233
82	0xbc456dd0	-0.012050107
83	0xbdb24868	-0.08705217
84	0xbdb9cf41	-0.09072734
85	0x3beeefba	0.007291761
86	0x3c324bb8	0.010882311
87	0xbd3500b2	-0.044190116
88	0xbd191d3f	-0.037381407
89	0x3c7ede63	0.015555951
90	0x3db8b53c	0.09018943
91	0xbd8514af	-0.06498086
92	0x3a5e3a3a	0.00084773044
93	0xbd289a17	-0.041162577
94	0xbd367f85	-0.044555206
95	0xbd6e8e39	-0.058241103
96	0x3dadd714	0.084882885
97	0xbcf7c724	-0.030246325
98	0xbc30198a	-0.0107482765
99	0x3d99c227	0.07507735
100	0xbda9f722	-0.0829909
101	0x3e0008e4	0.12503392
102	0xbd95dccf	-0.073175065
103	0x3c33f72d	0.010984224
104	0xbb531baf	-0.0032212546
105	0x3c7dd57e	0.015492795
106	0xbc482a36	-0.012217095
107	0xbdcc3bfc	-0.099723786
108	0xbb22159c	-0.0024732118
109	0xbddbc377	-0.10730641
110	0xbdd272d0	-0.10275805
111	0x3da8fa4d	0.08250866
112	0x3d20c9a8	0.039254814
113	0x3d9eead8	0.07759637
114	0xbdb2aeac	-0.08724722
115	0xbd14ebf8	-0.03635785
116	0x3cd532b3	0.026025152
117	0xbdfdf271	-0.12399758
118	0xbd752e4a	-0.059858598
119	0xbcfe9ed4	-0.031081595
120	0x3d037940	0.032098055
121	0x3dbe0ead	0.09280143
122	0x3d91a1ce	0.0711094
123	0xbdf38821	-0.11891199
124	0xbdb5e72b	-0.088819824
125	0x3cec0451	0.028810652
126	0xbd1edbfd	-0.038784016
127	0x3dcc1275	0.09964458

norm1.weight f4 [128]
0	0x3f7e5165	0.9934295
1	0x3f7c0849	0.9845014
2	0x3f7d0fc7	0.988522
3	0x3f80b1c8	1.0054255
4	0x3f81430e	1.0098588
5	0x3f8061b7	1.002982
6	0x3f819127	1.0122422
7	0x3f7f9892	0.9984218
8	0x3f80f8b5	1.0075899
9	0x3f8063cc	1.0030456
10	0x3f7d19a0	0.98867226
11	0x3f7cb9ad	0.9872082
12	0x3f7ebcf4	0.9950707
13	0x3f7df308	0.9919896
14	0x3f804a4e	1.0022676
15	0x3f7cb838	0.98718596
16	0x3f7d7d23	0.9901907
17	0x3f802681	1.001175
18	0x3f8050f1	1.0024701
19	0x3f7bb09f	0.9831638
20	0x3f810578	1.0079794
21	0x3f7dbee7	0.9911942
22	0x3f7f57a6	0.99743116
23	0x3f7e0d7c	0.99239326
24	0x3f803433	1.001593
25	0x3f800618	1.000186
26	0x3f7fb01c	0.99878097
27	0x3f7f0937	0.99623436
28	0x3f804739	1.0021735
29	0x3f7dde76	0.99167573
30	0x3f7f4301	0.99711615
31	0x3f810ec1	1.0082628
32	0x3f7dfba9	0.9921213
33	0x3f80478d	1.0021836
34	0x3f8139d0	1.0095768
35	0x3f81864c	1.0119109
36	0x3f80040f	1.0001239
37	0x3f807fc6	1.0038993
38	0x3f822ab7	1.0169286
39	0x3f809e7b	1.0048364
40	0x3f7cb22d	0.98709375
41	0x3f7eb9cf	0.9950227
42	0x3f7fdc25	0.9994529
43	0x3f80dd78	1.0067587
44	0x3f7d292e	0.9889096
45	0x3f81027e	1.0078886
46	0x3f7e969c	0.9944856
47	0x3f811d8e	1.0087144
48	0x3f8087ed	1.0041481
49	0x3f7ffcfc	0.999954
50	0x3f7f290f	0.99672025
51	0x3f80070d	1.0002152
52	0x3f7dbdda	0.99117815
53	0x3f7cb313	0.98710746
54	0x3f7eb791	0.9949885
55	0x3f7cb769	0.9871736
56	0x3f7fedc0	0.9997215
57	0x3f7f101a	0.99633944
58	0x3f802fd4	1.0014596
59	0x3f832b54	1.0247598
60	0x3f7de0b1	0.99170977
61	0x3f81531a	1.0103486
62	0x3f80d348	1.0064478
63	0x3f810901	1.0080873
64	0x3f7f5705	0.99742156
65	0x3f7e64b3	0.99372405
66	0x3f7d12c4	0.9885676
67	0x3f7c8116	0.9863447
68	0x3f7df500	0.99201965
69	0x3f804a5f	1.0022696
70	0x3f7e90b4	0.9943955
71	0x3f7fe952	0.99965394
72	0x3f7f5531	0.99739367
73	0x3f8071f1	1.0034772
74	0x3f802cb3	1.0013641
75	0x3f7e13df	0.9924907
76	0x3f805998	1.0027342
77	0x3f7d8f13	0.9904644
78	0x3f7f667e	0.99765766
79	0x3f7b8ed2	0.982648
80	0x3f7f1fa1	0.99657637
81	0x3f7f3f14	0.99705625
82	0x3f8074c9	1.003564
83	0x3f81044b	1.0079435
84	0x3f8028da	1.0012467
85	0x3f80c02f	1.005865
86	0x3f7bba9b	0.9833161
87	0x3f80dce2	1.0067408
88	0x3f7f2be2	0.99676335
89	0x3f7e963e	0.99448
90	0x3f8040a1	1.0019723
91	0x3f80766b	1.0036138
92	0x3f7f4a5f	0.99722856
93	0x3f80a6bc	1.0050883
94	0x3f7eb90a	0.995011
95	0x3f8005ac	1.0001731
96	0x3f808a95	1.0042292
97	0x3f80bb60	1.0057182
98	0x3f806547	1.0030907
99	0x3f7fa52b	0.998614
100	0x3f7efbf8	0.99603224
101	0x3f834a20	1.0256996
102	0x3f7ff048	0.99976015
103	0x3f7d8374	0.99028707
104	0x3f80858d	1.0040756
105	0x3f7e2e1a	0.99289095
106	0x3f7b75d2	0.98226655
107	0x3f7f1867	0.9964661
108	0x3f7c8ea8	0.98655176
109	0x3f80549b	1.002582
110	0x3f80b484	1.0055089
111	0x3f7bf5a8	0.98421717
112	0x3f81ad75	1.013106
113	0x3f8208ee	1.0158975
114	0x3f809978	1.0046835
115	0x3f801906	1.0007637
116	0x3f7f96ff	0.99839777
117	0x3f82c7ba	1.0217202
118	0x3f7beb76	0.9840616
119	0x3f7d4a1f	0.98941225
120	0x3f7c8da9	0.98653656
121	0x3f7e6c1f	0.9938373
122	0x3f81cf86	1.0141456
123	0x3f831985	1.0242163
124	0x3f80b7ff	1.0056151
125	0x3f7e0327	0.9922356
126	0x3f814722	1.0099833
127	0x3f818745	1.0119406

norm1.bias f4 [128]
0	0x3c202f80	0.00977695
1	0xbb55b201	-0.003260732
2	0x3bd3b3c4	0.0064606387
3	0xbbd35901	-0.006449819
4	0x3bfb8c5b	0.007676644
5	0x3b4052d9	0.0029346256
6	0x3bfae90b	0.0076571754
7	0xba9ab1ce	-0.0011802258
8	0xbc2e91bd	-0.010654864
9	0x3bdedb39	0.0068010357
10	0x3b6ae119	0.0035839735
11	0x3b8f9c63	0.0043826564
12	0xb93f2258	-0.00018227973
13	0xbb5119bd	-0.003190621
14	0x3b9daa24	0.004811542
15	0xbb6142cf	-0.0034372096
16	0xbaba1ea4	-0.0014199805
17	0x3b242345	0.0025045436
18	0x3c1db11d	0.009624747
19	0x3be6dc20	0.007045284
20	0xbbf74eba	-0.0075472267
21	0x3c1f5a64	0.009726141
22	0x3c1514e1	0.009099216
23	0xbadee44e	-0.0017005296
24	0x3b215c1e	0.0024621557
25	0xbc023592	-0.0079473425
26	0x3bb83c2f	0.005622409
27	0x3c07f47f	0.0082980385
28	0xbbc3944e	-0.005968607
29	0x3b8091fe	0.0039236536
30	0xbb02f0bc	-0.0019979915
31	0xbb83676a	-0.0040101307
32	0x3a440dc0	0.00074788556
33	0xbaf34e1d	-0.0018562708
34	0x3c10f7d3	0.008848148
35	0xbc3603f0	-0.011109337
36	0xbc374276	-0.011185279
37	0x3c05d779	0.0081690485
38	0xbbc9fc67	-0.006164122
39	0x3b68b447	0.0035507844
40	0xba590b4d	-0.0008279577
41	0x3be73220	0.007055536
42	0xbc001616	-0.007817766
43	0xbc063ca3	-0.008193168
44	0xbc094264	-0.008377645
45	0xbb8c3845	-0.004279169
46	0x3b13aca4	0.0022533322
47	0xb9a8e386	-0.00032212975
48	0xbc2617ee	-0.010137541
49	0x3a8e061a	0.0010835559
50	0xba281587	-0.0006411899
51	0xbb809cd2	-0.0039249444
52	0xbb9b4603	-0.0047385707
53	0x3b87155a	0.0041224184
54	0x3b8f5c5d	0.0043750242
55	0x3ba3667c	0.0049865823
56	0x3a049d20	0.0005058814
57	0xbc4f1b44	-0.012640778
58	0xb94b08bb	-0.00019362841
59	0x3c668a05	0.014070992
60	0x391cd06c	0.00014954963
61	0x3bbc2a7c	0.005742369
62	0x3bba6136	0.005687858
63	0xbaf8ce8d	-0.0018982455
64	0xbc2a9a2b	-0.010412733
65	0x3b69786c	0.0035624756
66	0x3b407ff5	0.0029373143
67	0x3bb54ad2	0.005532601
68	0xbb2fab2a	-0.0026804903
69	0x3968e188	0.00022209261
70	0xbc0c0af0	-0.00854753
71	0x3c0265a9	0.007958808
72	0xb984fa55	-0.00025363514
73	0x381667d0	3.585947e-05
74	0xbbb5f529	-0.005552907
75	0xbc1367be	-0.008996902
76	0x3bc9f356	0.006163041
77	0xba03bffc	-0.00050258613
78	0x3a082d17	0.0005194707
79	0xbc182d90	-0.009288207
80	0xba1ea4bf	-0.0006051771
81	0xbb1b6304	-0.002371014
82	0x3b2f17e4	0.002671712
83	0xbc90ccc6	-0.017675769
84	0xba40e14b	-0.000735779
85	0x3bf69e8b	0.007526224
86	0xbbca694d	-0.0061771036
87	0xbc2b0d8c	-0.010440242
88	0xbabdd641	-0.0014483408
89	0x3bbed488	0.0058236755
90	0x3bc9d92d	0.0061599226
91	0xbb855cb9	-0.0040698913
92	0xb9468128	-0.00018930866
93	0xbb5c55bc	-0.0033620438
94	0x3a57b69d	0.00082288106
95	0xbba1311d	-0.004919185
96	0x3be32821	0.006932274
97	0xbaf9987e	-0.0019042639
98	0x3bc6d2a7	0.006067592
99	0x3c094821	0.008379013
100	0xb9e2276c	-0.0004313545
101	0x3c87ef81	0.016593697
102	0x3b4b0c6b	0.0030982743
103	0x3bac9e38	0.0052678846
104	0x3b61409f	0.0034370793
105	0x3bc1b4a6	0.0059114276
106	0x3b65c621	0.003506072
107	0xbc41a4b6	-0.011819055
108	0xbaf11954	-0.0018394389
109	0xbbd7793a	-0.0065757306
110	0xbc6b7695	-0.014371534
111	0x3b7df831	0.003875267
112	0x3c8897af	0.01667389
113	0x3bc373c8	0.00596473
114	0xbc0226a7	-0.007943786
115	0x3ad9ed68	0.0016626539
116	0x3b7af464	0.003829264
117	0xbb2041ab	-0.0024453204
118	0xbbd6a81b	-0.0065508015
119	0xbc046edb	-0.008083071
120	0x39912149	0.00027681355
121	0xbb59f490	-0.0033257343
122	0x3b24ff28	0.00251765
123	0xbad5496a	-0.001627249
124	0xbba695d4	-0.005083779
125	0x3c218c95	0.0098601775
126	0xbb8a25e2	-0.0042159418
127	0x3bb57b6a	0.0055383937

linear2.weight f4 [128, 128]
0	0x3a629c68	0.0008644522
1	0xbc900627	-0.017581059
2	0xbd741f37	-0.05960008
3	0x3d1f475e	0.03888642
4	0x3d9cfb4f	0.07665121
5	0x3b7a437d	0.0038187199
6	0xbd2419e2	-0.040063746
7	0x3da6183a	0.081100896
8	0x3dacfd46	0.084467456
9	0xbd9b681d	-0.075882174
10	0xbcc109e3	-0.023564285
11	0xbd756fe7	-0.05992117
12	0x3da5f7ca	0.08103903
13	0x3d19ec95	0.037579138
14	0xbda687b6	-0.081313536
15	0xbd0dd612	-0.03462798
16	0xbce282c5	-0.027650246
17	0xbd190bb8	-0.03736469
18	0x3d295c32	0.04134769
19	0x3d4e9ee6	0.050444506
20	0xbd40f940	-0.047112703
21	0x3c17b6f4	0.009259928
22	0x3d96f28b	0.0737048
23	0x3c7774d6	0.015103539
24	0x3cef1eba	0.029189456
25	0xbd8a0615	-0.06739441
26	0xbce81848	-0.02833189
27	0x3d5a9e68	0.053373724
28	0x3d8d917e	0.06912516
29	0x3daa42b7	0.08313506
30	0x3d90e13b	0.07074209
31	0xbd15b154	-0.036546066
32	0x3d59b5f1	0.05315203
33	0x3c0a429b	0.008438732
34	0xbd4f4c17	-0.050609674
35	0x3d069b68	0.03286305
36	0x3d837e71	0.06420601
37	0xbc22d222	-0.009937795
38	0x3dad1e03	0.0845299
39	0xbd55b071	-0.05217022
40	0x3da65378	0.08121389
41	0x3d271af1	0.040797178
42	0xbd8baf22	-0.06820513
43	0x3d143e1c	0.036192045
44	0x3d3e5e13	0.046476435
45	0x3c8f960e	0.017527606
46	0x3cf25cad	0.029585207
47	0x3cf47595	0.029841224
48	0xbd52ea3a	-0.051492907
49	0x3dbf1c9f	0.09331631
50	0xbd5034dc	-0.05083166
51	0x3d69b21e	0.05705463
52	0x3cdf3c92	0.027250562
53	0x3c322dd3	0.010875183
54	0xbd585d4c	-0.05282335
55	0x3db6eddf	0.08932089
56	0x39c72c16	0.00037989084
57	0x3c5df83c	0.013547953
58	0x3d96a856	0.07356326
59	0x3d1aeabb	0.037821513
60	0x3c890609	0.01672651
61	0x3ca06eb9	0.019584047
62	0xbb1e12da	-0.0024120123
63	0xbd8249f5	-0.063617624
64	0xbd350071	-0.044189874
65	0xbdab86eb	-0.08375343
66	0xbd181446	-0.03712871
67	0xbc9fcdfa	-0.019507397
68	0x3d8cffac	0.06884703
69	0x3c921e82	0.017836813
70	0x3d993d68	0.074824154
71	0x3da19644	0.07889989
72	0x3d3f61d4	0.046724156
73	0x3d4d1c9b	0.05007611
74	0xbd2c1d1a	-0.04201994
75	0xbd52973a	-0.051413752
76	0x3bf95e7e	0.0076101413
77	0xbd7c8d97	-0.061658468
78	0x3d55e93b	0.05222438
79	0x3c243338	0.010021977
80	0x3cd9e400	0.026597977
81	0xbb19f372	-0.0023491052
82	0xb91e5c83	-0.00015102518
83	0xbcfa5877	-0.030559761
84	0xbdad86e4	-0.08472994
85	0xbcbc2909	-0.022968786
86	0x3d490079	0.049072716
87	0x3da17d60	0.078852415
88	0x3c8d3718	0.017238185
89	0x3d65fe64	0.05615081
90	0xbb9b05a0	-0.004730895
91	0xbd309ddf	-0.043119308
92	0x3db50cef	0.088403575
93	0x3d88b3a6	0.0667489
94	0x3cb01a46	0.021496903
95	0xbc3ec078	-0.011642568
96	0x3d17ad24	0.037030354
97	0xbd980c16	-0.0742418
98	0xbd5a58aa	-0.053307213
99	0xbd146418	-0.03622827
100	0x3cae5f2b	0.021285614
101	0x3d782d5b	0.06059013
102	0x3d1ac676	0.037786923
103	0x3bf151cb	0.007364487
104	0xbd59209f	-0.053009626
105	0xbcb14eb7	-0.02164398
106	0x3dce6638	0.100780904
107	0x3bc994f2	0.006151789
108	0x3dba5fce	0.091003045
109	0x3d7cbede	0.061705463
110	0x3beceed1	0.0072306176
111	0x3d1e2be7	0.038616087
112	0xbac94c00	-0.0015357733
113	0xbd45e48d	-0.048313666
114	0xbc599db9	-0.013282233
115	0x3bbf98a6	0.0058470545
116	0xbd9d044b	-0.076668344
117	0x3dabc233	0.0838665
118	0x3d15f215	0.03660782
119	0x3d2daacd	0.042399216
120	0x3cd156a0	0.025554001
121	0x3d50fbfe	0.05102157
122	0xbd1c75a6	-0.038198136
123	0xbd87fc10	-0.06639874
124	0xbd94b499	-0.07261009
125	0xbb818b7b	-0.003953395
126	0x3cbde4e5	0.023180434
127	0xbd3930e5	-0.045212645
128	0x3d4e0832	0.050300784
129	0x3cf1ae7c	0.029502146
130	0xbc3ee2db	-0.011650766
131	0x3d697c8c	0.057003543
132	0xbd8f4190	-0.06994927
133	0xbd7cb0cc	-0.061692044
134	0x3cfcf981	0.030880691
135	0xbcc5231f	-0.024064599
136	0x3d860549	0.06543977
137	0x3c54194d	0.012945485
138	0xbc98fee0	-0.018676221
139	0xbd8edd28	-0.06975776
140	0xbd9695e3	-0.073528074
141	0x3d101abb	0.035181742
142	0x3d5af44e	0.053455643
143	0x3d527f52	0.051390953
144	0xbd34d36e	-0.044146948
145	0xbd73c427	-0.059513237
146	0xbd671e36	-0.056425296
147	0xbda3fab3	-0.080068015
148	0x3d017050	0.03160125
149	0x3cbf2530	0.023333162
150	0x3d7c4b4a	0.06159524
151	0x3ca20d22	0.019781653
152	0xbc865197	-0.016396327
153	0xbca933e2	-0.020654622
154	0xbc2c327a	-0.010510081
155	0x3d148710	0.03626162
156	0xbd9f3181	-0.07773114
157	0x3d716e71	0.058943216
158	0x3d3d3055	0.04618867
159	0xbd18ab24	-0.037272587
160	0x3d031447	0.03200176
161	0x3bb0bdce	0.00539372
162	0xbc0f42b2	-0.008743929
163	0xbd5fc8ef	-0.054634985
164	0xbd2eb71c	-0.042655095
165	0xbd1ce7ac	-0.038306877
166	0x3daa92f4	0.0832881
167	0xbd998ca2	-0.07497527
168	0x3d1419ac	0.036157295
169	0xbce13bed	-0.027494395
170	0x3d26bc57	0.04070696
171	0xbd6ca2a9	-0.057772312
172	0xbd660d15	-0.05616482
173	0x3d08f701	0.033438686
174	0xbc47834f	-0.0121773025
175	0xbca4e589	-0.020128982
176	0xbb9db15e	-0.0048124036
177	0xbd89e724	-0.0673354
178	0x3d9dce48	0.07705361
179	0xbd11907a	-0.035538174
180	0x3d8ea58b	0.069651686
181	0x3cbbc4b5	0.022920946
182	0xbbead9c2	-0.007167072
183	0x3c557ce7	0.013030267
184	0x3ca8c208	0.020600334
185	0xbd856910	-0.0651418
186	0xbd7e2f53	-0.06205685
187	0x3d95d48f	0.07315933
188	0xbd273719	-0.04082403
189	0xbceb91fe	-0.028756138
190	0x3c39ed4b	0.011348079
191	0x3c852a70	0.016255587
192	0xbd115d2a	-0.03548924
193	0xbce0f725	-0.027461598
194	0x3c148c51	0.009066657
195	0xbd950f99	-0.07278366
196	0x3cfb8a52	0.030705605
197	0x3ced27c3	0.028949624
198	0xbcafc6ce	-0.021457102
199	0x3d88a4b3	0.06672039
200	0xbd8875ba	-0.066630796
201	0xbb8326b8	-0.0040024184
202	0x3d7168c6	0.05893781
203	0xbd7d15b7	-0.061788287
204	0xbc624820	-0.013811141
205	0x3cfe936a	0.031076152
206	0xbd47b123	-0.048752915
207	0xbdb2ac59	-0.08724279
208	0xbd2f5986	-0.042809986
209	0xbd98d340	-0.07462168
210	0x3d55347e	0.052052014
211	0xbd1e30de	-0.038620822
212	0x3ce9283b	0.028461566
213	0x3cf5f8ad	0.030025804
214	0xbc30dc6e	-0.010794742
215	0x3db4d9be	0.088305935
216	0x3d81afcc	0.06332359
217	0xbda56028	-0.08074981
218	0xbd9f8943	-0.077898525
219	0xbc26257e	-0.010140775
220	0x3d6edc28	0.058315426
221	0x3d9e6023	0.077331804
222	0xbd8ddaa7	-0.0692647
223	0x3db35601	0.08756638
224	0x3d9cc870	0.07655418
225	0xbd8b2517	-0.06794184
226	0xbd02e304	-0.03195478
227	0x3cde2d60	0.027121246
228	0xbce6adfd	-0.028159136
229	0xbdb7ecc6	-0.08980708
230	0xbc86a596	-0.01643638
231	0xbd0d58e0	-0.034508586
232	0x3c13dceb	0.009024839
233	0xbbf17ff6	-0.0073699905
234	0xbc75cc08	-0.015002258
235	0x3da87c73	0.08226862
236	0x3d93d9c5	0.072192706
237	0xbd2c5d89	-0.04208139
238	0x3c11fbc4	0.008910123
239	0x3b4e08cd	0.003143835
240	0xbce6f9db	-0.028195312
241	0x3d68bb5a	0.056819297
242	0x3d5079ee	0.05089753
243	0xbd8c764d	-0.068585016
244	0xbcf9abc8	-0.03047742
245	0xbc2eb7af	-0.010663911
246	0x3d344aea	0.044016756
247	0xbcb523d9	-0.02211182
248	0xbc8adbfd	-0.016950602
249	0x3c18fcbf	0.009337603
250	0xbda217b2	-0.07914676
251	0x3d9ed42a	0.07755311
252	0x3d520905	0.051278133
253	0x3d155cdb	0.036465507
254	0x3d5be3a2	0.053683884
255	0x3cb6ba8f	0.022305755

linear2.bias f4 [128]
0	0x3d8ee78b	0.06977757
1	0xbcf61a64	-0.03004188
2	0x3d474d9d	0.048658002
3	0x3cd31ade	0.025769647
4	0x3d87e9c4	0.06636384
5	0x3d39e79a	0.045386888
6	0xbd8c0516	-0.068369076
7	0xbcdc4c8b	-0.026891967
8	0x3da70e00	0.08156967
9	0xbd2ce80c	-0.042213485
10	0x3d5b0781	0.053473953
11	0xbc42df1a	-0.011894012
12	0x3c8427de	0.016132291
13	0xbcd3f15a	-0.025871921
14	0xbd79e799	-0.061011884
15	0xbc933a2a	-0.01797207
16	0xbdb6e460	-0.08930278
17	0xbd8c7752	-0.06858696
18	0x3d8b9cdc	0.06817028
19	0xbd1e67e8	-0.03867331
20	0x3da32772	0.07966508
21	0xbca181f8	-0.019715294
22	0x3cac3a64	0.021023937
23	0x3d60d8d0	0.05489427
24	0xbc198aae	-0.009371443
25	0xbd5d39a0	-0.054010034
26	0x3dbe09b3	0.09279194
27	0x3c6f2c67	0.014597989
28	0x3c7334a4	0.0148440935
29	0xbd931dba	-0.07183404
30	0x3d9aff29	0.07568199
31	0x3adae648	0.0016700709
32	0xbd04f05e	-0.032455795
33	0x3dbf8882	0.09352209
34	0xbd551b8e	-0.05202823
35	0xbd9a9c38	-0.075493276
36	0x3c75676b	0.01497827
37	0x3dafe771	0.08589066
38	0xbce92cb3	-0.028463697
39	0xbd985680	-0.074383736
40	0x3d95d8ab	0.07316717
41	0xbdcdd0d9	-0.100496
42	0x3da569be	0.08076809
43	0x3d938c82	0.07204534
44	0x3d64165f	0.055685397
45	0xbcc709a4	-0.02429659
46	0xbd60d6f1	-0.054892484
47	0xbd0e85c7	-0.03479555
48	0xbcf4ec3d	-0.029897803
49	0x3d6f71d7	0.058458176
50	0xbdb07e68	-0.0861786
51	0xbd88af43	-0.066740535
52	0x3cc21dc6	0.023695838
53	0xbd435943	-0.04769255
54	0xbd5bba50	-0.05364448
55	0x3db4c005	0.08825687
56	0x3bfdbfff	0.007743835
57	0x3c7a18fa	0.015264744
58	0x3c42317b	0.011852617
59	0x3cafc6b3	0.021457052
60	0xbd9d330e	-0.076757535
61	0x3c8c4bbb	0.017125955
62	0x3d097e23	0.03356756
63	0x3da8e487	0.08246713
64	0x3dadfffb	0.0849609
65	0x3d0c0584	0.034184948
66	0xbc98912e	-0.018623915
67	0xbce590c7	-0.028023137
68	0x3d3173fb	0.0433235
69	0xbd905abc	-0.07048556
70	0xbd55e978	-0.052224606
71	0x3ce19d19	0.02754073
72	0x3ce1f71d	0.027583653
73	0xbd545e62	-0.051847823
74	0xbd1b86b1	-0.03797025
75	0xbcef7ccf	-0.029234318
76	0xbd537608	-0.051626235
77	0xbc203e8f	-0.00978054
78	0x3c7c7845	0.015409534
79	0x3cd601f7	0.026123984
80	0xbd9ee9dc	-0.07759449
81	0xbd927117	-0.071504764
82	0xbda13c8d	-0.07872877
83	0xbd149d09	-0.036282573
84	0xbd813cdc	-0.06310436
85	0x3d6d2f25	0.05790629
86	0x3d349004	0.044082657
87	0xbc7ddcc4	-0.015494529
88	0xbbc6a6ce	-0.006062365
89	0x3bac2742	0.0052537033
90	0xbd6b004a	-0.057373323
91	0x3d947283	0.07248404
92	0x3c3494c1	0.011021794
93	0xbca6b8f5	-0.020351866
94	0x3d9384fb	0.072030984
95	0xbd5db5bf	-0.054128405
96	0x3ce55628	0.027995184
97	0x3c4e907c	0.01260769
98	0xbd677a89	-0.056513343
99	0xbc7d4ab1	-0.015459702
100	0x3d23f5e0	0.040029407
101	0x3d8fb705	0.0701733
102	0x3bf81e95	0.007572005
103	0x3d4c57e5	0.04988851
104	0x3d9fc7e1	0.07801796
105	0xbc3b93be	-0.011448799
106	0x3c1f3235	0.00971656
107	0xbdaf5df8	-0.08562845
108	0xbd96cf21	-0.073637255
109	0x3cc7716f	0.024346082
110	0x3d706f78	0.058700055
111	0xbd1b0b5b	-0.037852626
112	0xbdb95e68	-0.0905121
113	0x3d158038	0.036499232
114	0x3a9f9827	0.0012176082
115	0x3d5e276d	0.054236818
116	0x3dbb572d	0.09147487
117	0xbc62f6ca	-0.013852784
118	0x3db63fc5	0.08898882
119	0xbd0bfe06	-0.034177803
120	0x3d643820	0.055717587
121	0xbd0d4aee	-0.034495287
122	0xbda47832	-0.08030738
123	0xbd575d21	-0.05257905
124	0x3c483322	0.012219222
125	0xbcfad634	-0.030619718
126	0xbd569a10	-0.05239302
127	0xbd939403	-0.07205965

norm2.weight f4 [128]
0	0x3f7e787e	0.99402606
1	0x3f806f07	1.0033883
2	0x3f80f3dd	1.0074421
3	0x3f802eb6	1.0014255
4	0x3f7bbc82	0.98334515
5	0x3f80dca4	1.0067334
6	0x3f817091	1.0112478
7	0x3f81124e	1.0083711
8	0x3f802cb4	1.0013642
9	0x3f7bb06f	0.9831609
10	0x3f81416f	1.0098094
11	0x3f80a9cc	1.0051818
12	0x3f7a881d	0.9786394
13	0x3f7ea9d2	0.99477875
14	0x3f7f71bb	0.99782914
15	0x3f7b2283	0.98099536
16	0x3f8117dd	1.0085407
17	0x3f8040be	1.0019758
18	0x3f7e0dfa	0.99240077
19	0x3f7d72a3	0.99003047
20	0x3f7e4380	0.99321747
21	0x3f822cd2	1.0169928
22	0x3f7fd072	0.9992744
23	0x3f7c62d7	0.9858832
24	0x3f80a2a7	1.0049638
25	0x3f7dc2e3	0.991255
26	0x3f7d6896	0.9898771
27	0x3f806c7a	1.0033104
28	0x3f80f76b	1.0075506
29	0x3f7f6a68	0.9977174
30	0x3f7c34a9	0.98517853
31	0x3f7cc56c	0.9873874
32	0x3f7da5c9	0.99081093
33	0x3f7e9f18	0.9946151
34	0x3f8136c8	1.0094843
35	0x3f80b0a1	1.0053903
36	0x3f7f16f5	0.99644405
37	0x3f806cf2	1.0033247
38	0x3f7d0519	0.98835903
39	0x3f7ebb52	0.9950458
40	0x3f7f485d	0.9971979
41	0x3f7ebb6f	0.9950475
42	0x3f806e40	1.0033646
43	0x3f7f8f52	0.99828064
44	0x3f812b6b	1.0091375
45	0x3f7f4d43	0.9972727
46	0x3f7a9948	0.9789014
47	0x3f808126	1.0039413
48	0x3f7f5d0b	0.9975135
49	0x3f8197cf	1.0124453
50	0x3f81186b	1.0085577
51	0x3f801171	1.0005323
52	0x3f81fbc6	1.015496
53	0x3f7c5948	0.9857373
54	0x3f7fd9aa	0.99941504
55	0x3f7db1c0	0.9909935
56	0x3f80c309	1.005952
57	0x3f7e83e4	0.9942
58	0x3f7d126c	0.98856235
59	0x3f7ba2aa	0.9829508
60	0x3f7df2ce	0.99198616
61	0x3f782bf6	0.9694208
62	0x3f7d8934	0.9903748
63	0x3f7ed208	0.9953923
64	0x3f80f50d	1.0074784
65	0x3f7e5998	0.9935546
66	0x3f7b2528	0.9810357
67	0x3f7aeeca	0.98020613
68	0x3f7f6db0	0.99776745
69	0x3f7ef46f	0.99591726
70	0x3f7e2d55	0.9928792
71	0x3f815298	1.0103331
72	0x3f7f2bc7	0.99676174
73	0x3f812eb6	1.009238
74	0x3f7da8bb	0.9908559
75	0x3f7fdc98	0.99945974
76	0x3f80ffec	1.0078101
77	0x3f810357	1.0079144
78	0x3f812e9d	1.009235
79	0x3f7e0b60	0.99236107
80	0x3f7dbf3e	0.9911994
81	0x3f805047	1.0024499
82	0x3f7cbb4d	0.987233
83	0x3f7ec9e9	0.9952684
84	0x3f7f08aa	0.99622595
85	0x3f7cd720	0.98765755
86	0x3f7c3904	0.985245
87	0x3f7e1ed5	0.99265796
88	0x3f8030c1	1.0014879
89	0x3f7efe80	0.99607086
90	0x3f80bc3e	1.0057447
91	0x3f7d00a9	0.9882913
92	0x3f8296a3	1.0202221
93	0x3f7fa1ad	0.9985607
94	0x3f8089eb	1.0042089
95	0x3f804907	1.0022286
96	0x3f810d88	1.0082254
97	0x3f7d6c4b	0.98993367
98	0x3f7d73a1	0.9900456
99	0x3f812035	1.0087954
100	0x3f80541b	1.0025667
101	0x3f7ca826	0.98694074
102	0x3f8034aa	1.0016072
103	0x3f7f6ef4	0.99778676
104	0x3f809937	1.0046757
105	0x3f7d55cb	0.98959035
106	0x3f7aaefb	0.9792325
107	0x3f7ecbbd	0.9952963
108	0x3f7fc703	0.9991304
109	0x3f7ea996	0.9947752
110	0x3f7ba7d0	0.98302937
111	0x3f80b69f	1.0055732
112	0x3f7fa222	0.9985677
113	0x3f7fecb6	0.9997057
114	0x3f7f20e8	0.99659586
115	0x3f80c60c	1.0060439
116	0x3f7f7613	0.9978954
117	0x3f7e3550	0.993001
118	0x3f805bd4	1.0028024
119	0x3f8184fc	1.0118709
120	0x3f7ff1c6	0.9997829
121	0x3f803911	1.0017415
122	0x3f7e9d90	0.9945917
123	0x3f81424e	1.009836
124	0x3f7fe825	0.999636
125	0x3f7d110a	0.98854125
126	0x3f7fc35f	0.9990749
127	0x3f811688	1.0085001

norm2.bias f4 [128]
0	0xbb53f442	-0.0032341634
1	0xbb4621b3	-0.0030232489
2	0xbbcf06de	-0.0063179573
3	0x3bd89333	0.0066093444
4	0xbb1e6860	-0.00241711
5	0xbb949e75	-0.004535491
6	0x3b92c81e	0.0044794222
7	0xbb66ea75	-0.0035234962
8	0xbba66498	-0.0050779097
9	0xbc1aeb22	-0.009455474
10	0x3c0b863f	0.0085158935
11	0xbb31171b	-0.0027021829
12	0x37d33349	2.5177042e-05
13	0xbc3520b4	-0.01105516
14	0x3bb9f16c	0.0056745317
15	0xb9b1f0b3	-0.00033939406
16	0xbbcf7a22	-0.006331698
17	0xbc389dbd	-0.0112680765
18	0x3ab175f7	0.0013539185
19	0xba8a8478	-0.0010568043
20	0xbbe4c6e4	-0.0069817174
21	0xbc00643c	-0.007836398
22	0xbb7d8f86	-0.0038690283
23	0xbbedc52b	-0.0072561703
24	0xbb116488	-0.0022185165
25	0xbb478c42	-0.003044859
26	0x3b4737de	0.003039829
27	0xbbcd6a01	-0.00626874
28	0x3baf357c	0.005346952
29	0x3a951d1f	0.0011376477
30	0xbafd7e44	-0.0019339998
31	0xbbd42b9b	-0.0064749247
32	0xbbefb950	-0.007315792
33	0xb84fa356	-4.9504764e-05
34	0x3b921712	0.0044583166
35	0xbbef776d	-0.007307938
36	0xbb01b60a	-0.0019792342
37	0xba80dde2	-0.0009831751
38	0x3bf873fa	0.007582185
39	0xb914e18d	-0.00014198404
40	0x39da3115	0.0004161677
41	0xbc33f62a	-0.010983983
42	0x3bd2cb4a	0.0064329254
43	0x3bb0fbc9	0.005401109
44	0xba0d59d1	-0.0005392107
45	0xb936fcd2	-0.00017451055
46	0xbb29cbda	-0.0025908859
47	0xbc10e884	-0.008844499
48	0x398fbf15	0.00027417453
49	0xbbbfa991	-0.0058490713
50	0xbc013140	-0.007885277
51	0xbc07acd8	-0.008280955
52	0xb9ac7bf6	-0.00032898755
53	0x3bbe4f5f	0.0058078016
54	0x39ff615d	0.0004870993
55	0x3ba3a264	0.0049937237
56	0x3a450dd0	0.0007517012
57	0x3b85e7dc	0.0040864777
58	0x3b0ffda3	0.0021971248
59	0xb8b3b2a5	-8.56866e-05
60	0xbba22fcc	-0.0049495455
61	0x3b778c00	0.0037772655
62	0x3b3e7278	0.0029059928
63	0xba90dfc3	-0.0011053014
64	0x3bd2290e	0.0064135855
65	0x3b2b6221	0.0026151019
66	0x3c0481d1	0.008087591
67	0xba946b4d	-0.0011323482
68	0x3b5afe20	0.003341563
69	0xbbe6a594	-0.0070387814
70	0x39e3b420	0.00043431018
71	0x3b5598a0	0.0032592192
72	0xbbf06484	-0.007336201
73	0x3bd1026c	0.0063784625
74	0x3b7613dc	0.0037548458
75	0xbb6b91de	-0.0035945098
76	0x3b9bb5dc	0.004751904
77	0xbb4278ca	-0.0029674047
78	0xbb89c977	-0.0042049247
79	0x3a9ce100	0.0011968911
80	0xbb3796ec	-0.002801354
81	0xbb8f3c1c	-0.0043711793
82	0x3b4cd4e9	0.0031254834
83	0xbc1e8546	-0.00967533
84	0xbb5f115c	-0.0034037447
85	0x3b569429	0.003274212
86	0xba6d2533	-0.00090463756
87	0x3bea528e	0.0071509546
88	0xbbdba0d5	-0.0067025223
89	0x3bc8dd8c	0.006129926
90	0xbb4a400e	-0.0030860933
91	0xbb6a0062	-0.0035705795
92	0x3bd04a4c	0.006356513
93	0x3baa698d	0.005200571
94	0xbb7c4f1a	-0.0038499297
95	0xbbe85b63	-0.0070909723
96	0xbbec08b7	-0.0072031873
97	0xbc28dedc	-0.01030704
98	0xb93227e3	-0.00016990262
99	0xbc294abe	-0.010332761
100	0xbbab6601	-0.0052306657
101	0xbb8ade37	-0.004237916
102	0x3a000004	0.0004882815
103	0xbc0fbfb2	-0.008773731
104	0xba92923c	-0.0011182497
105	0xbbc5f87c	-0.0060415845
106	0xbadf0143	-0.0017013926
107	0x3ba1bc40	0.004935771
108	0xbb2e22e4	-0.002657109
109	0x3bd129bd	0.0063831494
110	0xbb55e8f3	-0.003264007
111	0x3aa06916	0.0012238349
112	0xbbc4ce83	-0.0060060634
113	0x3b9e6032	0.0048332447
114	0x3b929695	0.004473517
115	0xbabc30bb	-0.0014357785
116	0x3c2e8a24	0.0106530525
117	0xbbd346ee	-0.0064476645
118	0x3bcbd465	0.0062203878
119	0x3bf11849	0.0073576313
120	0x3be8087d	0.00708109
121	0x3b22c487	0.0024836378
122	0xbc31a78c	-0.010843169
123	0x39f8b7e8	0.00047439267
124	0xbaa6d246	-0.0012727461
125	0x3c2e0c02	0.01062298
126	0xb882ff62	-6.246452e-05
127	0x3a07072b	0.00051509094

linear3.weight f4 [48, 128]
0	0x3c7c207e	0.015388606
1	0xbd2c7ef0	-0.042113245
2	0xbc96767a	-0.01836704
3	0xbd1d6cc8	-0.03843382
4	0xbd9daf0c	-0.07699403
5	0x3c740694	0.0148941465
6	0xbbce1490	-0.0062890723
7	0x3c99003d	0.018676871
8	0xbc0b485f	-0.008501141
9	0x3d8db63f	0.06919526
10	0x3d4e49dd	0.05036341
11	0x3d997ef6	0.07494919
12	0xbd658077	-0.056030717
13	0xbda2c52e	-0.07947765
14	0x3dc6492a	0.09681924
15	0xbccc925f	-0.024972139
16	0x3c7e9f42	0.0155409
17	0x3cea9344	0.028634675
18	0xbbb91185	-0.0056478404
19	0xbda3b126	-0.07992773
20	0xbcd407d9	-0.025882648
21	0xbca289b4	-0.019841053
22	0x3d3477d4	0.04405959
23	0x3cb75c2c	0.022382818
24	0xbd923ad4	-0.07140127
25	0x3dd2cd7a	0.10293098
26	0xbd5da84b	-0.054115575
27	0xbd99e997	-0.07515257
28	0xbd5cd4dd	-0.05391394
29	0x3d4cc5f3	0.049993467
30	0x3c9cec82	0.019155744
31	0x3d667908	0.05626777
32	0x3bcd3c9c	0.0062633287
33	0x3d8de14f	0.0692774
34	0xbda4f0c0	-0.08053732
35	0x3cf237f2	0.029567692
36	0xbd75cd72	-0.06001038
37	0xbc708c50	-0.014681891
38	0xbdac9361	-0.08426548
39	0xbd92c0f3	-0.071657084
40	0x3d1ba590	0.03799969
41	0x3d51efba	0.05125401
42	0xbd4a0d47	-0.04932907
43	0x3c87fe9d	0.016600901
44	0x3dadff17	0.0849592
45	0x3d56ec1e	0.052471273
46	0xbcf8a128	-0.030350283
47	0xbda27f10	-0.079343915
48	0xbc34b43a	-0.0110292975
49	0x3d46e383	0.048556816
50	0x3c907306	0.017632972
51	0xbcf422b2	-0.0298017
52	0xbd8fd0d5	-0.070222534
53	0x3d71862b	0.058965843
54	0x3da7323e	0.0816388
55	0xbc2a3f17	-0.010391018
56	0x3d060a21	0.032724503
57	0xbc8b365a	-0.01699369
58	0xbd0ec900	-0.034859657
59	0x3cdf0aca	0.027226824
60	0xbd1b6911	-0.037941996
61	0x3d450b6a	0.04810659
62	0x3d27c9be	0.04096388
63	0xbc489ea9	-0.012244859
64	0x3d0027be	0.0312879
65	0x3c561bf2	0.013068186
66	0x3d9bd7a1	0.07609487
67	0xbd884273	-0.06653299
68	0x3d9bdd3e	0.07610558
69	0xbd0a0b2e	-0.033702068
70	0x3dafac69	0.085778065
71	0x3db6b392	0.08920969
72	0xbd736919	-0.0594264
73	0x3d849c65	0.064751424
74	0x3d0e4a94	0.034739092
75	0x3ca2e843	0.019886142
76	0xbd3e1cf1	-0.04641432
77	0xbd682c6c	-0.05668299
78	0xbba2dab2	-0.004969918
79	0x3d36f2ca	0.044665135
80	0xbd799492	-0.060932703
81	0xbd173a5a	-0.036920883
82	0xbc104ec0	-0.008807838
83	0x3d22cb58	0.039744705
84	0xbd0902ae	-0.03344982
85	0x3c81cf31	0.015845867
86	0x3d14c24c	0.03631811
87	0xbd97bd90	-0.07409203
88	0x3d97601a	0.07391377
89	0xbc2c6a0e	-0.010523332
90	0xbd0dbf68	-0.034606367
91	0xbd70070e	-0.058600478
92	0x3c9b2233	0.018937206
93	0xbda480ad	-0.080323555
94	0x3d9e2bd7	0.077232055
95	0xbd4da9be	-0.050210707
96	0xbd18bea2	-0.037291177
97	0xbd0c4453	-0.034244847
98	0xbd1ab47c	-0.03776978
99	0x3cd14374	0.02554486
100	0xbcd272bd	-0.025689477
101	0x3da1008c	0.078614324
102	0xbb91d926	-0.004450935
103	0xbd0c0768	-0.03418675
104	0x3db7d1db	0.08975574
105	0x3da29832	0.07939185
106	0x3b47ffa3	0.0030517362
107	0x3c6b7374	0.014370788
108	0xbdcde5d1	-0.100535996
109	0x3d563374	0.052295163
110	0x3c40acc3	0.01175994
111	0xbdc61d5c	-0.096735686
112	0x3cacc9e5	0.021092365
113	0xbcb5d388	-0.022195593
114	0xbd922304	-0.07135585
115	0xbd91ce35	-0.07119409
116	0x3c1e9000	0.009677887
117	0xbd25656a	-0.04037992
118	0xbd705785	-0.058677215
119	0xbd4c7ab4	-0.049921706
120	0x3ccd49b9	0.025059568
121	0x3d5436ab	0.051809948
122	0x3cfc0ca1	0.03076774
123	0xbaabeaa0	-0.0013116188
124	0x3d97fa3c	0.07420775
125	0x3d924879	0.07142729
126	0x3d3848c1	0.04499126
127	0xbce9a69c	-0.028521828
128	0xbcd63110	-0.026146442
129	0xbd394eb9	-0.04524109
130	0x3d1f438e	0.038882785
131	0x3d89e786	0.06733613
132	0xbc91d75c	-0.017802887
133	0x3c97bcde	0.018522676
134	0x3d8d520d	0.069004156
135	0x3d908e35	0.07058374
136	0xbd8a7f24	-0.067625314
137	0x3da7cc1c	0.08193228
138	0x3d8f46e7	0.069959454
139	0x3d8cd702	0.06876947
140	0x3d90633b	0.07050177
141	0xbdb393cf	-0.087684266
142	0x3d803ae4	0.062612325
143	0x3d337ce4	0.043820277
144	0xbd282106	-0.04104712
145	0xbd837a0e	-0.064197645
146	0x3d75759a	0.059926607
147	0xbd04d38c	-0.03242831
148	0x3d42738f	0.047473487
149	0xbccfc568	-0.025362685
150	0x3d00e1da	0.03146539
151	0xbb9729cd	-0.0046131373
152	0x3d93f7ad	0.07224975
153	0x3dc0d18b	0.09414967
154	0x3d4530e6	0.048142336
155	0x3d59662f	0.053075965
156	0xbd902c9f	-0.07039761
157	0xbd0b82c7	-0.034060266
158	0x3bb1056f	0.005402259
159	0x3d69b66c	0.057058737
160	0xbcddd37f	-0.027078388
161	0xbd5192ed	-0.05116551
162	0xbd8b0041	-0.06787158
163	0x3cd98368	0.026551917
164	0xbd9f5fcb	-0.07781943
165	0x3ab23067	0.0013594747
166	0xbd0c2ab6	-0.03422042
167	0x3daa5342	0.083166614
168	0xbd915efe	-0.070981964
169	0x3dc1503a	0.0943913
170	0xbd9d0982	-0.07667829
171	0xbdad50c8	-0.084626734
172	0x3d82dbb9	0.06389565
173	0x3d834bb8	0.064109266
174	0x3c334b1a	0.010943199
175	0xbce07f45	-0.027404437
176	0x3ab74471	0.0013982189
177	0x3bfd62d4	0.0077327285
178	0xbc4719ef	-0.012152179
179	0x3d034ffb	0.032058697
180	0xbdc420a9	-0.09576542
181	0xbd40fd7d	-0.047116745
182	0x3d9cb150	0.07651007
183	0x3d01a759	0.031653736
184	0xbd58f2cf	-0.052965935
185	0x3d7fa0f5	0.06240936
186	0xbd9e7e1a	-0.07738896
187	0x3bba6331	0.005688094
188	0xbcce554d	-0.025187159
189	0xbd016446	-0.03158977
190	0x3d2a1900	0.041527748
191	0xbc693df4	-0.014235962
192	0x3db196bc	0.086713284
193	0xbd490811	-0.04907996
194	0x3d9c4ee0	0.07632232
195	0x3d401ef3	0.046904515
196	0x3d81bcf1	0.06334866
197	0xbd1c2723	-0.03812326
198	0x3d3be53c	0.04587291
199	0x3d38b864	0.045097724
200	0xbd4e3707	-0.050345447
201	0xbd4175a0	-0.047231317
202	0x3ccbc95c	0.02487629
203	0xbbdb20ce	-0.0066872602
204	0x3d458cf0	0.04823011
205	0x3d779721	0.060446862
206	0xbd3d8d1f	-0.04627716
207	0x3cd10204	0.025513656
208	0xbd9e7f6e	-0.07739149
209	0x3b525869	0.0032096154
210	0xbc5d6c8f	-0.013514652
211	0xbd3a83b6	-0.045535766
212	0x3cf81ce4	0.030287214
213	0xbd4ea609	-0.050451312
214	0x3ca26d32	0.019827459
215	0x3cf88885	0.030338535
216	0x3d4d4e76	0.050123654
217	0xbb8d885e	-0.0043192348
218	0xbc4bdb62	-0.012442442
219	0xbd487ca3	-0.048946988
220	0x3d5ed3a1	0.054401044
221	0x3d56a4f1	0.052403394
222	0xbd7ad393	-0.06123693
223	0xbd72f558	-0.05931601
224	0x3d5890d6	0.0528725
225	0xbce0547f	-0.02738404
226	0xbd08e282	-0.03341914
227	0xbd2261f8	-0.03964421
228	0xbd91f9d8	-0.07127732
229	0xbc8905f3	-0.01672647
230	0x3cd3b34d	0.025842333
231	0x3d175a6e	0.036951475
232	0x396efd3e	0.00022791789
233	0x38c3dec4	9.339818e-05
234	0x3d143e2d	0.036192108
235	0xbc4ba152	-0.0124285985
236	0xbd3ae45d	-0.04562794
237	0x3da33148	0.07968384
238	0x3d458672	0.04822392
239	0xbc925027	-0.017860485
240	0xbd73e32e	-0.059542827
241	0x3ccad2b8	0.024758682
242	0xbd3bf564	-0.04588832
243	0xbd0a10d2	-0.033707447
244	0xbc982f0e	-0.018577125
245	0xbd0938e6	-0.03350153
246	0x3cf0f617	0.02941422
247	0x3d9070b2	0.07052745
248	0xbd692a49	-0.056925092
249	0xbb770633	-0.0037692904
250	0x3c84ed1c	0.016226344
251	0x3d5be7d6	0.053687893
252	0xbd6eda37	-0.058313575
253	0x3d16ce9f	0.036818143
254	0x3d0f7ba8	0.035030037
255	0xbd93d6fd	-0.0721874

linear3.bias f4 [48]
0	0x3cdf5bcc	0.027265452
1	0xbd904df8	-0.07046121
2	0x3d0774f2	0.033070512
3	0x3d7c81e0	0.061647296
4	0xbd293d60	-0.041318297
5	0x3d6f7093	0.05845697
6	0xbda92f2c	-0.082609504
7	0xbca3b9ff	-0.01998615
8	0xbcc91a7d	-0.024548763
9	0x3d204888	0.03913167
10	0x3d1425af	0.03616875
11	0x3d870b8a	0.06593998
12	0xbca1c98d	-0.019749427
13	0xbce1535d	-0.027505571
14	0x3d96ac64	0.073571
15	0xbd8369b4	-0.06416646
16	0x3d2fcb1c	0.04291831
17	0x3d9f1255	0.077671684
18	0xbb0a4e4d	-0.00211038
19	0x3d649fcd	0.05581646
20	0x3cbf3f81	0.02334571
21	0x3d9d3d7c	0.07677743
22	0x3cd33607	0.025782598
23	0xbda46eeb	-0.080289684
24	0x3d2fd512	0.04292781
25	0xbca3d5c0	-0.019999385
26	0xbd5e17a0	-0.05422175
27	0x3d97cb78	0.074118555
28	0x3da02cc4	0.07821038
29	0x3d2b0fe3	0.041763198
30	0xbd41c735	-0.04730912
31	0xbd4b00eb	-0.049561422
32	0x3d16de2f	0.036832985
33	0x3db12f79	0.08651633
34	0xbcdd5b36	-0.027021032
35	0x3d709862	0.058739074
36	0x3c1a9e37	0.009437135
37	0x3d5bb819	0.053642366
38	0xbd908bc4	-0.07057908
39	0x3da24f64	0.07925299
40	0xbd74a80b	-0.05973057
41	0xbd18763c	-0.037222132
42	0x3d2e5957	0.04256567
43	0x3c04e7a0	0.008111864
44	0x3dae2309	0.08502776
45	0x3d098aa0	0.03357947
46	0x3cdce8b5	0.026966432
47	0x3d81a414	0.063301235
