第二章-回归模型/model_weight/RNN.pth (torch, 212589 bytes, 11 tensors)

rnn.weight_ih_l0 f4 [128, 2]
0.013509201 0.07072669 -0.043184508 0.1042279 0.009225965 0.026316691 -0.065470904 0.05590326
-0.0798035 0.11304522 0.063599534 -0.039674707 -0.039550867 0.03932727 -0.023399657 -0.10621678
-0.069336705 -0.08569724 0.01401509 -0.05612519 0.0717121 0.055324648 -0.017794453 0.038162
0.0023549749 -0.017342666 -0.025904916 -0.113472454 0.0060933074 -0.077940226 0.0021183633 -0.08778162
-0.02571727 0.08027178 0.078885116 0.06756249 -0.05741279 -0.11264722 -0.046486177 -0.08295779
-0.07071645 0.00037636972 -0.020932376 -0.0014115947 0.08483558 -0.09426773 -0.06806367 0.055796362
-0.07362391 0.006176921 -0.019924851 0.012391363 0.050592758 -0.077856824 0.042349614 -0.090125985
-0.037108023 -0.03487952 -0.034061577 -0.015478148 0.047292598 -0.10174444 -0.024439417 -0.07092974
-0.091603704 0.04746493 -0.026811743 0.011517522 -0.0019304721 -0.095739886 -0.043576207 0.061658572
-0.05109648 0.08173133 -0.021875096 -0.08523845 0.05557367 0.049596503 -0.033112813 -0.046272494
0.041372206 -0.09806383 -0.08882408 -0.07120806 0.059648436 -0.06081209 0.012658943 0.052962344
0.07612381 0.04264126 0.013413813 0.026747476 0.030647099 -0.05758134 0.006807707 0.07873414
-0.0783674 -0.06782551 -0.06995765 -0.083375804 -0.073198795 -0.13489676 0.038294695 0.012036618
0.08781121 0.09841428 -0.08994806 0.0005557248 -0.063866965 0.06469262 0.02471773 -0.08815088
0.0030981142 -0.006808448 0.0016137856 -0.04979321 0.07336597 0.06528674 -0.0013561022 -0.060260788
0.021647118 -0.04997274 0.017550167 -0.0055178893 0.042759754 0.0023713724 -0.07276758 -0.003832941
0.082822174 0.04941343 -0.047715496 -0.008135208 0.03324719 0.06275418 -0.020647824 -0.049334973
-0.05860075 0.039493512 0.02924812 -0.07213184 0.011577928 0.12534098 0.03365839 0.07059889
-0.05929736 0.08355414 0.029613163 -0.0383049 -0.048845008 -0.054190066 0.08506731 -0.034022894
-0.048735734 0.086685926 -0.08504681 -0.11095851 0.04189832 -0.09880377 -0.04086215 -0.09929186
-0.040429875 0.06163802 0.0470397 0.006659229 -0.07320709 0.07663264 0.094206095 0.0829203
-0.037816267 0.024940858 -0.07427396 -0.0048354743 -0.054272313 0.037853923 -0.07623145 -0.0912145
0.060633093 -0.015766962 -0.057540502 -0.08873599 0.050449174 0.067570955 0.0015028394 -0.08105718
0.035307802 -0.100577064 0.01672607 -0.112519294 0.050160974 -0.11234842 -0.0333386 -0.09866832
0.016971797 -0.07583421 0.0103409765 -0.0165098 -0.016039575 -0.044252146 0.046333615 -0.027789125
0.0502383 0.08814568 -0.025155295 0.0074480264 0.06363736 0.09525275 0.08870982 0.120358855
-0.07289757 -0.07786084 0.062195968 0.087192714 0.039996743 -0.09033077 0.04124605 0.006653946
-0.08763737 -0.045559164 -0.002451356 -0.09975219 -0.0070254365 -0.07139314 0.039273527 -0.097312674
0.04659258 -0.10522759 -0.06345811 -0.053603824 0.016948275 -0.053507823 0.04201064 -0.11734096
-0.009260132 0.0021842981 0.08076241 -0.048713572 0.044818446 -0.08659114 0.094189376 0.003744723
-0.0225534 0.08412357 -0.09344648 -0.05129633 -0.05916711 0.055729028 -0.05397105 0.11018835
-0.015732089 0.041857485 -0.05157131 -0.023199426 -0.09320866 0.03503045 0.0017282339 -0.05165875
00000000: b255 5d3c 28d9 903d 3de2 30bd 7075 d53d
00000010: 8028 173c 1a96 d73c 9c15 86bd d1fa 643d
00000020: 0470 a3bd 4184 e73d 7940 823d f281 22bd
00000030: 1700 22bd a215 213d a3b0 bfbc 2f88 d9bd
00000040: 6700 8ebd 0982 afbd 8c9f 653c 87e3 65bd
00000050: cbdd 923d 199c 623d acc5 91bc c24f 1c3d
00000060: ec55 1a3b 3512 8ebc 8c36 d4bc 3f64 e8bd
00000070: 5eaa c73b 209f 9fbd 3dd4 0a3b dac6 b3bd
00000080: 06ad d2bc 8865 a43d 858e a13d 345e 8a3d
00000090: ac29 6bbd 96b3 e6bd 4a68 3ebd c6e5 a9bd
000000a0: c9d3 90bd 7d53 c539 607a abbc 4205 b9ba
000000b0: 47be ad3d 710f c1bd f764 8bbd ba8a 643d
000000c0: 22c8 96bd c567 ca3b 7139 a3bc 2505 4b3c
000000d0: 5a3a 4f3d 6673 9fbd ca76 2d3d f993 b8bd
000000e0: 95fe 17bd d4dd 0ebd 2784 0bbd 0f98 7dbc
000000f0: e2b5 413d 645f d0bd 2c35 c8bc 9d43 91bd
00000100: b99a bbbd 966a 423d 4da4 dbbc fdb3 3c3c
00000110: e507 fdba 4613 c4bd f77c 32bd b38d 7c3d
00000120: 8b4a 51bd c162 a73d 6733 b3bc 7f91 aebd
00000130: 37a1 633d b425 4b3d 4da1 07bd 3a88 3dbd
00000140: e775 293d b0d5 c8bd 66e9 b5bd 88d5 91bd
00000150: eb51 743d 1916 79bd 7567 4f3c 0bef 583d
00000160: cde6 9b3d 9aa8 2e3d 9cc5 5b3c 861d db3c
00000170: a00f fb3c 69da 6bbd 2f13 df3b 5d3f a13d
00000180: 167f a0bd 1ae8 8abd f545 8fbd efc0 aabd
00000190: 40e9 95bd 6022 0abe e6da 1c3d 3c35 453c
000001a0: 5dd6 b33d 6d8d c93d b036 b8bd 0fae 113a
000001b0: afcc 82bd 907d 843d d67c ca3c 7388 b4bd
000001c0: bb09 4b3b 6719 dfbb a985 d33a f7f3 4bbd
000001d0: e640 963d 0eb5 853d 3dbf b1ba 04d4 76bd
000001e0: 4c55 b13c 37b0 4cbd 5ec5 8f3c 69cf b4bb
000001f0: da24 2f3d 0769 1b3b 2b07 95bd 1432 7bbb
00000200: ac9e a93d bd65 4a3d 5371 43bd 8949 05bc
00000210: 352e 083d 4385 803d a025 a9bc 7813 4abd
00000220: 5707 70bd f3c3 213d c199 ef3c dcb9 93bd
00000230: 5ab1 3d3c 6359 003e 61dd 093d 2796 903d
00000240: cae1 72bd 6f1e ab3d 4e97 f23c 99e5 1cbd
00000250: b411 48bd 67f6 5dbd c537 ae3d 975b 0bbd
00000260: 1f9f 47bd 6488 b13d 062d aebd 373e e3bd
00000270: 939d 2b3d a259 cabd 125f 27bd 8859 cbbd
00000280: cc99 25bd 2678 7c3d b3ac 403d a935 da3b
00000290: 99ed 95bd 93f1 9c3d 20ef c03d 1ed2 a93d
000002a0: 3be5 1abd c550 cc3c f21c 98bd e672 9ebb
000002b0: a54c 5ebd b70c 1b3d 3c1f 9cbd abce babd
000002c0: 685a 783d b729 81bc 97af 6bbd 37bb b5bd
000002d0: cba3 4e3d a462 8a3d ecfa c43a 4f01 a6bd
000002e0: ea9e 103d 59fb cdbd 1c05 893c 8470 e6bd
000002f0: 9875 4d3d ee16 e6bd 0e8e 08bd 9e12 cabd
00000300: 7008 8b3c f74e 9bbd 336d 293c 8f3f 87bc
00000310: 6d65 83bc bd41 35bd 51c8 3d3d 05a6 e3bc
00000320: adc6 4d3d b985 b43d 7a12 cebc 930e f43b
00000330: 4e54 823d e013 c33d 7ead b53d b47e f63d
00000340: 524b 95bd 8175 9fbd 33c1 7e3d 1892 b23d
00000350: a0d3 233d 57ff b8bd 9ef1 283d 5809 da3b
00000360: 397b b3bd 3f9c 3abd eea6 20bb e04a ccbd
00000370: a235 e6bb 9136 92bd 47dd 203d de4b c7bd
00000380: dcd7 3e3d 9081 d7bd 53f6 81bd af8f 5bbd
00000390: 1cd7 8a3c 052b 5bbd 5913 2c3d 7550 f0bd
000003a0: cfb7 17bc 7126 0f3b c366 a53d e287 47bd
000003b0: 8c93 373d b256 b1bd 5ce6 c03d 076a 753b
000003c0: e8c1 b8bc fa48 ac3d de60 bfbd 1a1c 52bd
000003d0: 3659 72bd 1f44 643d bf10 5dbd 6eaa e13d
000003e0: 95e0 80bc c172 2b3d 703c 53bd b90c bebc
000003f0: 2fe4 bebd 177c 0f3d e885 e23a 2098 53bd

rnn.weight_hh_l0 f4 [128, 128]
-0.009325734 0.046006892 -0.036866162 0.00726989 -0.036717296 0.057235453 -0.0738881 -0.008863166
-0.0011551447 -0.021216273 0.019357407 0.07931183 -0.06572922 0.027802717 -0.05292162 -0.018422969
-0.037472904 -0.018844659 0.053945884 -0.07820752 0.010561935 0.08189618 -0.03222442 0.0027304753
0.027903382 -0.0064190137 -0.009766571 0.06910807 0.053948194 -0.023365516 0.016383698 -0.011501483
0.044005055 0.0055246893 0.071950056 0.019003449 0.030014915 0.059284825 0.045568924 -0.012294916
0.067146085 -0.06383992 -0.07524116 -0.010494326 -0.03191386 0.07153335 -0.027454274 0.07286168
-0.08617598 0.03984458 -0.01399552 -0.03463398 0.020336533 -0.07938422 0.049127482 0.042514462
-0.057397116 0.01985277 0.0893172 0.03448707 0.033431362 -0.010323896 -0.07815656 -0.021667764
-0.052979313 0.080245554 -0.009951868 -0.03535349 0.08571318 1.080859e-05 -0.037861314 -0.026466066
0.0051165544 -0.048013657 -0.0005915435 -0.08035484 -0.014594253 0.030355021 -0.048096772 0.031340614
0.08176501 0.0023885635 -0.022396725 0.085605174 0.08096852 -0.06813221 0.05180725 -0.06304801
0.07380444 -0.053213865 -0.031170841 -0.072063126 0.0129125975 -0.047124427 -0.031641074 -0.04459948
0.0035994234 0.03597042 0.07480383 -0.0050189896 0.053030062 -0.008805419 -0.074101195 -0.0064383033
-0.08228404 0.016134942 0.02637455 -0.028781025 0.0732198 -0.026167741 0.05400719 -0.024157297
0.01486648 0.08246324 0.036813624 0.03915319 0.08998308 0.023993356 -0.026502587 0.033652037
0.06200091 -0.06406024 0.043563947 0.021355523 -0.07835523 0.0065040877 -0.025970807 -0.04206815
0.020616017 -0.08881362 0.0045650722 -0.080051154 -0.0027245034 -0.08219122 0.039145496 0.026866809
0.046675123 -0.01403555 0.029841123 0.06849305 -0.089547336 0.050966036 -0.09090342 0.035856236
-0.065811105 -0.01824602 -0.0075093876 -0.095826425 0.04157216 -0.026927795 0.051662274 -0.036623556
0.0009832747 0.049181443 0.026947064 -0.050615795 -0.06344098 0.028014345 -0.01846696 0.0606663
0.060934845 -0.046964493 -0.09107105 -0.023476604 0.033356242 -0.052615352 -0.041348375 -0.019523848
0.01620682 0.0823578 0.06243666 -0.046287287 -0.008835758 -0.03644824 -0.037827812 -0.005120905
-0.042651124 -0.08983732 0.01529714 -0.03824787 0.07075777 -0.03365923 -0.06206728 0.013085364
0.08413694 -0.0049680136 -0.026080886 -0.0002452696 0.06523745 0.05028879 -0.014761803 -0.08142737
0.01181596 -0.041373428 -0.08393807 0.039011013 0.026585726 -0.03323685 -0.05864675 -0.060674895
-0.064207435 0.010482675 -0.08179057 0.027376726 -0.009754623 -0.062057994 0.035630397 0.06315347
0.062021796 0.009572714 0.022550764 -0.08494229 -0.033064738 -0.04228822 -0.035403576 0.02661588
-0.08569098 -0.014190459 0.013700486 -0.031360485 -0.07813774 0.06469892 0.06760684 0.03979835
0.0069073974 -0.0052873893 0.007907466 0.02464374 0.017619384 0.04589426 -0.022771752 0.049519457
-0.07955667 -0.07494192 -0.016371615 -0.032629974 0.0020418689 -0.0015699617 0.0051487954 -0.039777067
0.06347959 -0.07794947 0.028696647 -0.0069655846 -0.019872546 0.06698272 0.06595247 -0.0789841
0.08051406 -0.07996428 0.0010056165 -0.0228417 -0.0016673153 -0.038867526 0.08202916 0.08860922
00000000: f7ca 18bc b971 3c3d f900 17bd 4238 ee3b
00000010: e064 16bd b96f 6a3d a552 97bd d036 11bc
00000020: 3968 97ba c0cd adbc 6d93 9e3c 3e6e a23d
00000030: 0b9d 86bd 86c2 e33c 57c4 58bd c4eb 96bc
00000040: 307d 19bd 1d60 9abc 5cf6 5c3d 442b a0bd
00000050: f70b 2d3c 2fb9 a73d c1fd 03bd c6f1 323b
00000060: a295 e43c 9756 d2bb f803 20bc 8888 8d3d
00000070: c8f8 5c3d 0a69 bfbc 1b37 863c b770 3cbc
00000080: a53e 343d 7408 b53b 8d5a 933d 1fad 9b3c
00000090: d7e1 f53c a5d4 723d 7ba6 3a3d 9e70 49bc
000000a0: e383 893d 81be 82bd 0a18 9abd 65f0 2bbc
000000b0: 1cb8 02bd 1480 923d c9e7 e0bc 8138 953d
000000c0: 087d b0bd 1234 233d 774d 65bc 5cdc 0dbd
000000d0: cd98 a63c 3294 a2bd e639 493d a523 2e3d
000000e0: 3d19 6bbd 47a2 a23c f0eb b63d 5042 0d3d
000000f0: 53ef 083d 8f25 29bc 8c10 a0bd 9880 b1bc
00000100: d600 59bd c857 a43d 290d 23bc d2ce 10bd
00000110: 648a af3d 8a56 3537 7714 1bbd 5dcf d8bc
00000120: c5a8 a73b f8a9 44bd d011 1bba 1491 a4bd
00000130: bc1c 6fbc 18ab f83c 1f01 45bd 045f 003d
00000140: 6a74 a73d 7289 1c3b 5679 b7bc c451 af3d
00000150: d3d2 a53d e688 8bbd d733 543d 511f 81bd
00000160: c826 973d c8f6 59bd fe59 ffbc d595 93bd
00000170: 5c8f 533c 8b05 41bd 129a 01bd f2ad 36bd
00000180: 4ee4 6b3b b855 133d c032 993d 5676 a4bb
00000190: 0d36 593d 9b44 10bc 5ec2 97bd 67f8 d2bb
000001a0: 8984 a8bd 6d2d 843c 710f d83c 2fc6 ebbc
000001b0: 43f4 953d bb5d d6bc a536 5d3d 86e5 c5bc
000001c0: 8992 733c 7de2 a83d e2c9 163d 185f 203d
000001d0: 0d49 b83d b78d c43c f41b d9bc b8d6 093d
000001e0: abf4 7d3d 0432 83bd 1c70 323d c7f1 ae3c
000001f0: b578 a0bd 3e20 d53b bbc0 d4bc a74f 2cbd
00000200: ece2 a83c eae3 b5bd 9a96 953b dcf1 a3bd
00000210: 958d 32bb df53 a8bd 0757 203d c817 dc3c
00000220: 6a2e 3f3d 5df5 65bc 5f75 f43c 1646 8c3d
00000230: 9864 b7bd c3c1 503d 922b babd fddd 123d
00000240: f9c7 86bd ad78 95bc 4f11 f6bb a540 c4bd
00000250: 9247 2a3d ae97 dcbc d29b 533d 9502 16bd
00000260: 39e1 803a 7b72 493d 17c0 dc3c 8252 4fbd
00000270: 58ed 81bd 577e e53c 0648 97bc 3a7d 783d
00000280: d196 793d d75d 40bd 7583 babd 0252 c0bc
00000290: 8ea0 083d 3283 57bd ea5c 29bd 7af0 9fbc
000002a0: 2ac4 843c 35ab a83d 95bd 7f3d bd97 3dbd
000002b0: dbc3 10bc c04a 15bd 56f1 1abd 44cd a7bb
000002c0: f2b2 2ebd a1fc b7bd dba0 7a3c cca9 1cbd
000002d0: 73e9 903d 43de 09bd 433a 7ebd ff63 563c
000002e0: fd4f ac3d b8ca a2bb 95a7 d5bc 8797 80b9
000002f0: 369b 853d 9efb 4d3d 7ddb 71bc 65c3 a6bd
00000300: ba97 413c 2f77 29bd b9e7 abbd 03ca 1f3d
00000310: 4fca d93c 5d23 08bd 9337 70bd 3d86 78bd
00000320: 307f 83bd 87bf 2b3c d081 a7bd 2845 e03c
00000330: dbd1 1fbc 8630 7ebd 2ef1 113d 9b56 813d
00000340: 910a 7e3d dfd6 1c3c 61bc b83c 39f6 adbd
00000350: e46e 07bd 6a36 2dbd 5703 11bd 8c09 da3c
00000360: c17e afbd 197f 68bc 0178 603c da73 00bd
00000370: ae06 a0bd de80 843d 7475 8a3d 9803 233d
00000380: 7357 e23b d641 adbb 518e 013c abe1 c93c
00000390: 8756 903c 9ffb 3b3d d38b babc ead4 4a3d
000003a0: 9bee a2bd 267b 99bd c41d 86bc 02a7 05bd
000003b0: e0d0 053b 2cc7 cdba 3ab7 a83b 47ed 22bd
000003c0: 9601 823d f9a3 9fbd 3b15 eb3c 8f3f e4bb
000003d0: c0cb a2bc 3c2e 893d 1712 873d 6ac2 a1bd
000003e0: 8ee4 a43d 50c4 a3bd e4ce 833a 841e bbbc
000003f0: d189 daba 8e33 1fbd e7fe a73d c078 b53d

rnn.bias_ih_l0 f4 [128]
-0.08421516 0.032782912 -0.006386873 0.0603288 -0.049021702 0.06846855 -0.017951837 -0.014406359
-0.05145896 -0.041877884 -0.08363418 -0.08343702 0.03083481 -0.060139976 -0.0018112011 -0.0660709
-0.0709535 0.06961746 0.08027024 -0.033292223 0.07082264 0.023441216 0.08173149 -0.0511496
0.07840759 -0.014194204 -0.08230519 0.078412294 0.042393338 0.055431247 -0.003318213 -0.044828005
0.065989904 -0.046329886 0.06809553 0.079691544 -0.072499454 -0.053464025 0.06940915 -0.04757887
0.059700966 -0.07512769 0.02584733 0.06551618 -0.067223735 0.010064891 0.07855327 0.08159354
0.079026066 0.0012438234 0.01944633 0.056922708 -0.023831833 0.006831685 0.041227933 -0.03689305
-0.06641339 0.08683463 -0.0025059395 0.05966575 -0.01138098 -0.06525477 -0.051638108 -0.065683216
0.015893321 0.066023014 0.021714805 -0.015055264 -0.078174435 -0.012820992 0.018535165 0.03198231
0.042098302 -0.052566957 -0.088692 0.055183996 0.09019859 -0.049956836 -0.040997352 -0.0325281
-0.0063416446 -0.010694817 0.057122763 0.030088529 -0.080902584 0.025219498 0.051844455 -0.038727526
0.06687189 -0.066639796 0.008833449 0.028719855 -0.021177305 -0.015603552 -0.01597379 0.0625628
0.0022847855 0.03031924 -0.045714315 -0.0647712 0.002870016 -0.05404857 -0.053435456 -0.036861703
-0.079509065 -0.050888974 -0.028034342 -0.07380719 -0.0118339285 0.08798847 -0.059979152 0.07345107
-0.051867574 -0.04061827 0.033112124 -0.052560046 -0.04514847 -0.07048756 -0.059334956 -0.01603974
0.07384674 -0.046885718 0.06234868 -0.03458801 0.06923487 0.024210155 -0.030708814 0.018629964
00000000: ff78 acbd 6047 063d f948 d1bb 551b 773d
00000010: fbca 48bd 3d39 8c3d bb0f 93bc a608 6cbc
00000020: a1c6 52bd 2588 2bbd 6648 abbd 07e1 aabd
00000030: 4999 fc3c 5655 76bd d365 edba 2e50 87bd
00000040: 1250 91bd 9993 8e3d b964 a43d 6d5d 08bd
00000050: 760b 913d cb07 c03c d762 a73d 3e82 51bd
00000060: 2994 a03d ce8e 68bc a08f a8bd a096 a03d
00000070: a3a4 2d3d e00b 633d 6076 59bb 929d 37bd
00000080: b725 873d 68c4 3dbd ab75 8b3d 5235 a33d
00000090: 987a 94bd 18fd 5abd 6226 8e3d 10e2 42bd
000000a0: 0089 743d 8cdc 99bd c8bd d33c 592d 863d
000000b0: 99ac 89bd 36e7 243c 89e0 a03d 841a a73d
000000c0: 6bd8 a13d ca07 a33a e94d 9f3c c927 693d
000000d0: fa3a c3bc 54dc df3b 9fde 283d 2b1d 17bd
000000e0: be03 88bd 5bd6 b13d b03a 24bb 1364 743d
000000f0: 4a77 3abc 4ba4 85bd 7b82 53bd ec84 86bd
00000100: b632 823c 1337 873d 3fe3 b13c 5baa 76bc
00000110: eb19 a0bd 230f 52bc 0fd7 973c e2ff 023d
00000120: 456f 2c3d 7350 57bd 27a4 b5bd 9d08 623d
00000130: 0aba b83d 8a9f 4cbd d7ec 27bd 2f3c 05bd
00000140: 92cd cfbb 5039 2fbc 8ff9 693d 387c f63c
00000150: 41b0 a5bd 1f99 ce3c da5a 543d c1a0 1ebd
00000160: 21f4 883d 727a 88bd 2cba 103c e745 eb3c
00000170: 077c adbc 0aa6 7fbc 77db 82bc ed20 803d
00000180: 57bc 153b 0e60 f83c ef3e 3bbd c3a6 84bd
00000190: e116 3c3b 0962 5dbd 23df 5abd 4cfc 16bd
000001a0: a6d5 a2bd f570 50bd 47a8 e5bc 3928 97bd
000001b0: 18e3 41bc 4d33 b43d b3ac 75bd 846d 963d
000001c0: 1873 54bd 585f 26bd 94a0 073d 3449 57bd
000001d0: 9aed 38bd c85b 90bd 3609 73bd c665 83bc
000001e0: f63c 973d 3d0b 40bd 5461 7f3d 28ac 0dbd
000001f0: 03cb 8d3d 6054 c63c 0d91 fbbc de9d 983c

rnn.bias_hh_l0 f4 [128]
-0.073440984 0.05886952 0.022119949 0.038672823 0.025463376 -0.065533206 0.035760913 -0.010214819
0.017903121 0.048705895 0.013199566 -0.023564627 0.03982059 -0.013382447 -0.074987635 0.0834811
-0.073059805 -0.005385869 0.04526012 0.07515986 -0.035942174 -0.055672485 -0.043852977 0.020383244
0.057850134 -0.08766359 -0.052831035 0.0030405347 0.0101268245 -0.062552765 -0.08325334 0.012533603
0.044256262 -0.019779248 -0.0086480575 -0.0055632805 -0.048836652 0.049683187 -0.0411488 -0.07623374
-0.03693379 -0.06765511 -0.07889394 0.059438042 -0.064212516 -0.029262334 0.0329534 0.05205403
-0.06931491 0.053337622 0.005547101 0.05249213 0.061877996 -0.020289294 0.04157893 0.03941818
-0.06895637 0.055089705 0.0012955898 0.043460708 0.042647835 -0.06504823 -0.036994375 0.06583949
-0.034114517 0.040522937 -0.025311207 0.019668251 -0.013213099 0.048617475 0.0018906383 -0.034698468
-0.08475969 0.04765225 -0.014409971 -0.06328391 -0.0651978 -0.07977062 -0.01822179 0.07915722
-0.08035599 0.079068124 -0.06830243 0.049524497 0.068853505 0.0488667 0.03542479 -0.027131712
0.020780493 -0.04498903 -0.07136689 0.085758455 -0.05079261 -0.06371424 -0.07382526 0.01515966
0.053635027 0.088373475 -0.054936152 -0.051589914 -0.06619889 -0.057649504 -0.08604371 -0.04279274
-0.049572412 -0.07647219 0.036307268 -0.05403028 -0.07737708 0.03637495 -0.05747314 -0.044900246
-0.06329625 -0.04972319 0.067142844 0.0817144 -0.027523946 -0.06703248 0.082880065 -0.047222357
0.07238251 0.08336123 0.07369993 0.02381556 0.061337635 0.017406031 -0.06617214 -0.070710994
00000000: 3a68 96bd 2a21 713d e534 b53c 6567 1e3d
00000010: 9298 d03c 4636 86bd 097a 123d 0e5c 27bc
00000020: 91a9 923c d57f 473d fe42 583c 9b0a c1bc
00000030: ea1a 233d 0d42 5bbc 1e93 99bd 24f8 aa3d
00000040: 61a0 95bd f27b b0bb ad62 393d 6aed 993d
00000050: 1a38 13bd d508 64bd 2e9f 33bd c3fa a63c
00000060: 43f4 6c3d f888 b3bd 5b65 58bd b543 473b
00000070: fbea 253c aa1b 80bd ba80 aabd be59 4d3c
00000080: 0e46 353d 1708 a2bc 95b0 0dbc 2e4c b6bb
00000090: f108 48bd 9980 4b3d a58b 28bd 6f20 9cbd
000000a0: e347 17bd c38e 8abd 2593 a1bd 4e75 733d
000000b0: da81 83bd 90b7 efbc 25fa 063d 9b36 553d
000000c0: faf4 8dbd 8d78 5a3d 75c4 b53b fd01 573d
000000d0: c873 7d3d bc35 a6bc ab4e 2a3d f574 213d
000000e0: ff38 8dbd bea5 613d c8d0 a93a db03 323d
000000f0: 7faf 2e3d 0238 85bd 6a87 17bd dbd6 863d
00000100: aabb 0bbd 61fb 253d 7359 cfbc 501f a13c
00000110: c17b 58bc 1e23 473d 4bcf f73a fb1f 0ebd
00000120: 7d96 adbd 012f 433d cd17 6cbc ff9a 81bd
00000130: 6d86 85bd c75e a3bd dd45 95bc 2e1d a23d
00000140: ae91 a4bd 78ee a13d 25e2 8bbd 33da 4a3d
00000150: 1103 8d3d 7328 483d 9619 113d 5343 debc
00000160: da3b aa3c 6b46 38bd ce28 92bd 21a2 af3d
00000170: e90b 50bd 9d7c 82bd b331 97bd 3960 783c
00000180: 67b0 5b3d 27fd b43d bb04 61bd f24f 53bd
00000190: 4993 87bd e321 6cbd af37 b0bd 7147 2fbd
000001a0: 710c 4bbd 749d 9cbd eeb6 143d db4e 5dbd
000001b0: e077 9ebd e6fd 143d f568 6bbd 52e9 37bd
000001c0: 77a1 81bd 8baa 4bbd 3082 893d e159 a73d
000001d0: e679 e1bc 5348 89bd 06bd a93d 3b6c 41bd
000001e0: 483d 943d 4bb9 aa3d fdef 963d d918 c33c
000001f0: 2c3d 7b3d 1897 8e3c 4285 87bd edd0 90bd

rnn.weight_ih_l1 f4 [128, 128]
-0.08857846 -0.059412997 0.02357688 0.022723084 0.03177126 0.0064049056 -0.081312515 0.036835983
0.028184202 0.08803862 0.0038725205 0.02568183 0.09539206 0.08185351 0.036060024 0.012665178
0.0028768308 -0.082335964 0.06290978 -0.034078956 -0.08391507 0.070333496 -0.010884053 -0.04163544
-0.039447352 -0.052142214 0.09165265 -0.009331293 0.07896254 0.05788843 0.10223173 -0.020455621
-0.07133405 0.054520614 -0.044300694 0.022669828 0.042098336 0.105152406 -0.07231245 0.102340765
0.017426461 -0.07146192 -0.017070048 0.035405997 -0.10192691 0.0569119 0.047781926 -0.101079516
0.0757969 0.007953258 -0.03821908 0.07265033 0.03970588 -0.039785463 -0.029991798 0.11771405
0.011984565 -0.049711235 -0.12700106 -0.03509904 0.034974277 0.05690021 -0.01491127 0.07304744
-0.053811293 -0.015629513 -0.0074661993 -0.049009565 0.030353898 0.027813299 -0.054360256 0.0067198407
0.0329359 0.07221309 0.059332475 0.0048414683 -0.04776198 0.09295034 0.043378226 0.046002492
-0.08910303 -0.010370216 -0.09823804 0.03365136 -0.057408117 0.055912934 0.04047172 -0.029062517
-0.07604685 0.09593981 -0.10695002 -0.022878276 -0.001760928 -0.018721694 0.07141887 -0.026248962
0.008935516 0.08958333 -0.026210718 -0.0582813 -0.1183256 -0.06775968 -0.059782576 -0.076209545
-0.06804715 -0.08106007 0.063547105 0.029399622 -0.04446118 0.0734696 0.02788887 0.03939053
0.027407037 0.061999008 0.046286147 0.10490347 -0.057330668 0.11284704 0.00452527 -0.00617608
0.006886379 0.060139008 0.050820492 -0.1137141 -0.092804804 -0.015067174 -0.07620673 0.12452812
0.025504304 -0.031518888 0.041309316 -0.02639942 -0.04987062 -0.00486745 -0.07562619 -0.021486249
-0.02442609 -0.056708187 0.07945352 0.080952615 -0.017740352 -0.05719052 -0.08908542 -0.068713635
0.07605048 -0.06361392 0.01983691 0.008573072 0.015360922 0.070333295 0.052492276 0.05399368
0.025206674 0.07126577 -0.08539045 0.0006350719 0.039350647 0.02025187 -0.04362669 0.016253745
0.022374012 -0.0064777154 0.058712833 0.07489194 -0.022474341 0.03498942 0.09279669 -0.018872615
-0.053861957 0.0008873893 0.057819366 -0.03756928 0.02619667 -0.012381323 -0.07875411 0.040902182
0.0042654746 -0.06735374 0.040352628 0.013669316 -0.07603683 0.058163747 -0.02954296 -0.0049530356
-0.051278803 -0.07733678 -0.0075715235 0.06359473 -0.019180909 0.004096074 -0.02560693 -0.024016554
-0.030958064 -0.067703016 0.09447573 -0.016322799 -0.045513276 -0.06868169 -0.024359213 0.010199259
0.03954047 0.010585781 0.02672156 -0.040672906 0.049354244 -0.02912016 0.047610812 -0.014460218
0.060278807 0.03538947 -0.07159003 -0.04353702 0.050511535 -0.00530114 -0.041581262 0.07091306
0.02480882 0.015486533 0.012882528 0.023085821 0.028185673 -0.026845349 -0.075230934 0.079887524
0.011150408 0.014912299 0.036740366 -0.08841255 0.02386199 0.020338332 0.047768097 -0.032109782
0.06757753 0.059128717 -0.035981365 0.05618763 0.051580966 0.047532976 -0.0010203375 -0.091985844
0.01762198 -0.031595316 0.0031011873 -0.0968857 0.04740596 -0.010635092 0.050170176 0.09431251
-0.05119496 -0.03075038 -0.05565176 -0.001467504 0.06467554 -0.064897045 -0.083952874 0.0026276272
00000000: a068 b5bd 0b5b 73bd 4d24 c13c c325 ba3c
00000010: 9522 023d 3ee0 d13b 2d87 a6bd 54e1 163d
00000020: 8ee2 e63c 984d b43d 1dca 7d3b b362 d23c
00000030: ea5c c33d d0a2 a73d adb3 133d 9b81 4f3c
00000040: 3689 3c3b c29f a8bd d8d6 803d 6096 0bbd
00000050: aadb abbd 020b 903d 0753 32bc ec89 2abd
00000060: 8c93 21bd 1393 55bd 62b4 bb3d 48e2 18bc
00000070: 1db7 a13d 6b1c 6d3d df5e d13d 8c92 a7bc
00000080: 9617 92bd 0251 5f3d a574 35bd 13b6 b93c
00000090: 4e6f 2c3d 255a d73d 8d18 94bd 0998 d13d
000000a0: f0c1 8e3c a15a 92bd 7cd6 8bbc e105 113d
000000b0: 0ebf d0bd 741c 693d fbb6 433d c702 cfbd
000000c0: 683b 9b3d 624e 023c 9c8b 1cbd b2c9 943d
000000d0: a2a2 223d 15f6 22bd 5cb1 f5bc 1014 f13d
000000e0: e95a 443c 029e 4bbd 910c 02be 03c4 0fbd
000000f0: 3041 0f3d 3210 693d 664e 74bc e599 953d
00000100: 3b69 5cbd 7709 80bc 05a7 f4bb 41be 48bd
00000110: bda8 f83c b7d8 e33c dca8 5ebd 1c32 dc3b
00000120: cbe7 063d 75e4 933d 9c06 733d 2ea5 9e3b
00000130: 11a2 43bd bf5c be3d 5ead 313d 1c6d 3c3d
00000140: a67b b6bd d7e7 29bc 0731 c9bd 02d6 093d
00000150: c624 6bbd f604 653d adc5 253d 8414 eebc
00000160: 73be 9bbd 177c c43d 9d08 dbbd 396b bbbc
00000170: f0ce e6ba 3d5e 99bc 0e44 923d 1008 d7bc
00000180: 4566 123c 7777 b73d dcb7 d6bc 5fb8 6ebd
00000190: b154 f2bd 96c5 8abd 93de 74bd c013 9cbd
000001a0: 4e5c 8bbd d202 a6bd fc24 823d 7ad7 f03c
000001b0: ed1c 36bd 3b77 963d 3377 e43c f757 213d
000001c0: b984 e03c acf2 7d3d 8b96 3d3d a1d7 d63d
000001d0: 90d3 6abd 591c e73d b748 943b b760 cabb
000001e0: 22a7 e13b 5254 763d 2629 503d f0e2 e8bd
000001f0: 7210 bebd 4fdc 76bc 4612 9cbd 9908 ff3d
00000200: 67ee d03c f319 01bd f533 293d 9943 d8bc
00000210: 2345 4cbd 217f 9fbb e7e1 9abd ee03 b0bc
00000220: 3919 c8bc d846 68bd 87b8 a23d 7cca a53d
00000230: 3754 91bc 9b40 6abd 6b72 b6bd bcb9 8cbd
00000240: 5bc0 9b3d 0448 82bd 0481 a23c 1276 0c3c
00000250: 60ac 7b3c e70a 903d 2402 573d 7a28 5d3d
00000260: 3a7e ce3c caf3 913d 30e1 aebd f47a 263a
00000270: 252e 213d 40e7 a53c e6b1 32bd 9326 853c
00000280: b449 b73c 0443 d4bb de7c 703d f260 993d
00000290: 1c1c b8bc 1151 0f3d 310c be3d be9a 9abc
000002a0: 5b9e 5cbd b09f 683a 00d4 6c3d 3fe2 19bd
000002b0: 669a d63c 08db 4abc d649 a1bd 0c89 273d
000002c0: 65c5 8b3b c2f0 89bd cc48 253d 44f5 5f3c
000002d0: 33b9 9bbd 1c3d 6e3d 1404 f2bc 134d a2bb
000002e0: b909 52bd bf62 9ebd 8b1a f8bb f43d 823d
000002f0: 4821 9dbc 5c38 863b a0c5 d1bc 5dbe c4bc
00000300: c49b fdbc e1a7 8abd 7e7c c13d 64b7 85bc
00000310: 216c 3abd fca8 8cbd f98c c7bc cb1a 273c
00000320: 30f5 213d fc6f 2d3c 2ce7 da3c a298 26bd
00000330: ad27 4a3d 678d eebc 8e03 433d 8dea 6cbc
00000340: e9e6 763d 8df4 103d cb9d 92bd e053 32bd
00000350: 2fe5 4e3d 2fb5 adbb 1d51 2abd de3a 913d
00000360: de3b cb3c 3abb 7d3c 3d11 533c 7a1e bd3c
00000370: a4e5 e63c c7ea dbbc ad12 9abd 129c a33d
00000380: 33b0 363c b752 743c 117d 163d a411 b5bd
00000390: 387a c33c 939c a63c 7ba8 433d 8c85 03bd
000003a0: 1766 8a3d f430 723d 3261 13bd 0025 663d
000003b0: 9046 533d f0b1 423d d8bc 85ba 1363 bcbd
000003c0: f85b 903c 176a 01bd 4a3d 4b3b 036c c6bd
000003d0: c02c 423d cf3e 2ebc 3e7f 4d3d eb26 c13d
000003e0: ceb1 51bd 39e8 fbbc 1af3 63bd 4359 c0ba
000003f0: 9c74 843d bee8 84bd 7cef abbd 4534 2c3b

rnn.weight_hh_l1 f4 [128, 128]
0.04316584 -0.066377126 0.0050533246 -0.061709356 0.07724083 -0.0032852443 0.06619467 0.060729165
0.075446755 -0.038035598 0.030302472 0.06105526 -0.0038110223 -0.05848295 -0.06247447 0.026299197
-0.04961535 0.033378698 -0.007498672 0.030279221 0.060740598 0.027220458 0.06273273 -0.020661643
-0.03648099 -0.019617608 0.07446595 0.08769594 -0.05873583 -0.039548345 -0.025421387 0.018007038
-0.079164 0.08639526 0.031903952 0.061721202 -0.047615968 0.061009955 -0.021881593 -0.059600413
-0.06804267 0.017435063 -0.0079092 -0.031554077 -0.0859872 0.04199722 0.077884525 -0.057637997
0.0012122933 0.059150953 -0.03513316 -0.03565068 -0.002558148 -0.027918477 -0.05206386 -0.07243028
-0.059861176 0.015989022 -0.03254781 -0.03407603 -0.011061586 -0.012882949 0.08763179 0.030024488
0.0502578 0.040964447 0.08731397 -0.076629296 -0.07286504 -0.026640054 -0.018213253 0.0890614
0.016787326 0.08303642 -0.033943538 0.033453003 -0.05779777 -0.03693741 -0.043521244 0.0026205552
-0.05391868 -0.06702422 0.094593406 0.0444165 -0.08910021 0.0038650578 -0.051012285 0.029901773
-0.07834943 0.0036065553 0.073358394 0.0041053724 0.04415184 0.034005746 0.026173938 0.01726752
-0.06276111 -0.033730585 -0.045471948 0.021001177 -0.06670377 -0.07139837 0.08076474 -0.03685305
-0.02167016 -0.041868523 0.054690327 -0.069978274 0.016264282 -0.04523786 0.07129742 0.012304281
-0.022225754 -0.0032718324 0.011330818 -0.045269765 0.0322889 0.08934612 0.019827517 0.03198751
-0.07647544 -0.03676772 0.082722194 -0.0833985 -0.06760559 0.033391375 0.050053027 -0.005716972
0.050209604 0.060946338 -0.032503217 -0.009650589 -0.08057464 -0.014682489 0.088659525 0.040164616
-0.00049211766 -0.08592822 -0.029291373 -0.09235726 0.04444957 0.0077466206 -0.06999495 0.016009644
-0.069427356 0.07539854 0.021004733 0.025408013 0.059170507 -0.025450474 -0.0009226748 -0.058247715
-0.08238971 0.082016386 0.038223628 -0.051007356 -0.060950365 0.07659102 0.071742505 -1.6707215e-06
0.08992247 0.0673223 0.080381416 -0.08842622 0.00824636 0.04136076 0.030648503 -0.027036855
-0.06035204 0.009231396 0.004275155 0.022658166 0.0011705016 -0.08421117 0.012862317 -0.07048522
0.0071818987 0.05928931 -0.021054896 -0.08618792 0.00543292 -0.06833897 -0.02255382 -0.04528318
0.07588357 0.037267514 0.035551943 -0.021496413 0.040266793 -0.054853268 0.035141874 0.016684059
0.08053382 -0.07869701 -0.06747966 0.03075845 -0.008120898 0.04750476 -0.07381366 -0.05495517
-0.0773613 -0.051880904 0.008525402 -0.031669237 -0.013706273 0.055796064 0.08419572 -0.081593744
0.034776546 -0.07469565 0.07952408 -0.025206387 -0.0056414083 -0.029175546 0.057016157 -0.054599464
0.05265179 0.05238047 -0.061318424 0.034108054 0.06478334 0.026588319 0.07253105 -0.06478053
0.0658235 -0.032459434 0.021713853 -0.0047752894 -0.0182621 -0.045651697 0.066365115 0.06904307
0.065150194 -0.047174238 0.08120399 -0.0132533675 -0.061594807 0.09406211 -0.080796264 -0.03485465
0.08543386 0.02419389 -0.021844974 -0.07987243 0.0013310023 0.03520357 -0.051480394 -0.007926851
0.06723388 0.027716652 -0.053293683 0.05134233 -0.0592269 -0.06655407 0.0220312 0.06762677
00000000: aace 303d bbf0 87bd 5c96 a53b f3c2 7cbd
00000010: 7130 9e3d 414d 57bb 1291 873d 25bf 783d
00000020: d483 9a3d 37cb 1bbd e43c f83c 1515 7a3d
00000030: 58c2 79bb d18b 6fbd 3be5 7fbd 6a71 d73c
00000040: 7739 4bbd 1ab8 083d 6cb7 f5bb 210c f83c
00000050: 22cb 783d 70fd de3c 047a 803d 9b42 a9bc
00000060: 176d 15bd 1bb5 a0bc 9b81 983d ee99 b33d
00000070: fb94 70bd 72fd 21bd 8340 d0bc 7f83 933c
00000080: bc20 a2bd 00f0 b03d b8ad 023d 5fcf 7c3d
00000090: f608 43bd 93e5 793d 0741 b3bc 901f 74bd
000000a0: f559 8bbd fad3 8e3c 9795 01bc d93e 01bd
000000b0: 0f1a b0bd 4705 2c3d ec81 9f3d d215 6cbd
000000c0: d0e5 9e3a 4548 723d cae7 0fbd 7306 12bd
000000d0: 9aa6 27bb 4ab5 e4bc ea40 55bd 5456 94bd
000000e0: fe30 75bd 69fb 823c da50 05bd 4f93 0bbd
000000f0: a83b 35bc 0113 53bc 4c78 b33d eaf5 f53c
00000100: 1fdb 4d3d 56ca 273d abd1 b23d d2ef 9cbd
00000110: 443a 95bd 3e3c dabc f633 95bc d365 b63d
00000120: 9385 893c 000f aa3d 6108 0bbd 0406 093d
00000130: 5bbd 6cbd ae4b 17bd 5543 32bd 9fbd 2b3b
00000140: d5d9 5cbd ff43 89bd 30ba c13d 13ee 353d
00000150: 2c7a b6bd e94c 7d3b 42f2 50bd 90f4 f43c
00000160: aa75 a0bd f55b 6c3b ed3c 963d 5c86 863b
00000170: 8fd8 343d 9c49 0b3d ba6a d63c 9d74 8d3c
00000180: e688 80bd 1529 0abd cb40 3abd a90a ac3c
00000190: fc9b 88bd 4f39 92bd fc67 a53d 39f3 16bd
000001a0: 9f85 b1bc 547e 2bbd f702 603d c550 8fbd
000001b0: ac3c 853c 564b 39bd 6204 923d e597 493c
000001c0: c912 b6bc 3d6c 56bb e5a4 393c ca6c 39bd
000001d0: 5e41 043d 19fb b63d 516d a23c 5605 033d
000001e0: 289f 9cbd c099 16bd 416a a93d d5cc aabd
000001f0: cd74 8abd 65c5 083d 6704 4d3d 7055 bbbb
00000200: 96a8 4d3d dea2 793d 1822 05bd 811d 1ebc
00000210: 5104 a5bd d38e 70bc 2093 b53d a783 243d
00000220: 7501 01ba 22fb afbd 76f4 efbc ce25 bdbd
00000230: c110 363d 5dd7 fd3b 8359 8fbd a826 833c
00000240: ee2f 8ebd 8d6a 9a3d 1e12 ac3c 7724 d03c
00000250: c65c 723d 837d d0bc a8df 71ba 2895 6ebd
00000260: f0bb a8bd 35f8 a73d 6190 1c3d 17ed 50bd
00000270: 17a7 79bd c1db 9c3d bced 923d 8e3d e0b5
00000280: 4629 b83d 46e0 893d 039f a43d ce18 b5bd
00000290: be1b 073c e669 293d 9212 fb3c 657c ddbc
000002a0: b333 77bd 483f 173c 9916 8c3b 9e9d b93c
000002b0: 846b 993a e876 acbd 78bc 523c 8e5a 90bd
000002c0: 2256 eb3b 59d9 723d 517b acbc 4b83 b0bd
000002d0: a306 b23b 4df5 8bbd cac2 b8bc db7a 39bd
000002e0: d868 9b3d d2a5 183d ea9e 113d 3f19 b0bc
000002f0: cbee 243d d2ad 60bd edf0 0f3d 02ad 883c
00000300: eaee a43d e62b a1bd c732 8abd 25f9 fb3c
00000310: 840d 05bc 5a94 423d 9e2b 97bd ac18 61bd
00000320: 9a6f 9ebd 1281 54bd 21ae 0b3c 9ab7 01bd
00000330: 4790 60bc 6a8a 643d ce6e ac3d 9f1a a7bd
00000340: da71 0e3d 08fa 98bd 85dd a23d a07d cebc
00000350: 90db b8bb 8e01 efbc c689 693d b0a3 5fbd
00000360: 67a9 573d e78c 563d 0729 7bbd e3b4 0b3d
00000370: 21ad 843d bfcf d93c 298b 943d a8ab 84bd
00000380: 79ce 863d 2ff4 04bd 40e1 b13c 087a 9cbb
00000390: 669a 95bc 46fd 3abd 6fea 873d 7466 8d3d
000003a0: 776d 853d c639 41bd 474e a63d a724 59bc
000003b0: d64a 7cbd a3a3 c03d 8378 a5bd c0c3 0ebd
000003c0: f3f7 ae3d 4432 c63c 3bf4 b2bc 2894 a3bd
000003d0: 0775 ae3a 9e31 103d 1bdd 52bd 9fdf 01bc
000003e0: ebb1 893d 080e e33c 7a4a 5abd 564c 523d
000003f0: e897 72bd 804d 88bd c67a b43c e77f 8a3d

rnn.bias_ih_l1 f4 [128]
0.054558903 0.022430094 -0.057290506 -0.019931698 -0.06574017 0.06909925 -0.06281409 0.018454429
0.026650997 -0.06213593 -0.011254843 0.022182595 -0.003396835 0.08415335 -0.06817244 0.05605178
0.018043844 0.07313172 0.014878218 -0.047786426 -0.042920858 0.0011786437 -0.014794381 -0.07785791
0.048519723 0.07723716 -0.07051634 0.049807794 -0.034161173 -0.016098427 0.06780506 -0.03452158
0.08141382 0.03560362 0.07146246 0.089837246 -0.08841381 -0.020870712 0.08343032 0.08303736
-0.078639135 0.04934968 0.01609151 -0.049689442 0.08257743 -0.013774839 0.06692593 0.079105064
0.050481185 0.052808188 0.08529892 -0.07134085 0.050722513 -0.06429218 -0.028042704 0.0031900841
0.040839244 0.0047410075 -0.07933676 0.017966058 0.077409096 0.038576804 -0.08014983 0.04610896
0.07947986 0.002693329 -0.07739871 -0.054313738 0.030388061 0.047800653 0.059941635 -0.03888548
0.06347405 -0.0020051904 -0.05070433 -0.029957261 -0.06650075 0.032796144 0.027286382 -0.068642095
-0.0070249033 -0.070929036 -0.05898105 0.03864518 0.022424474 -0.02422076 -0.008477854 -0.052144274
0.0010049934 0.03560493 0.047565278 0.011234855 0.052728873 0.047451843 0.08165631 0.07001939
-0.045964487 -0.024250476 -0.040963363 0.08291811 -0.05059243 0.015238622 -0.026376907 -0.028615594
0.06237913 -0.010170951 0.03966845 -0.028469048 -0.04246627 0.028110068 -0.06225214 0.04338623
0.017598774 0.032183632 0.05660543 -0.04189866 0.08543387 0.0746568 -0.030041406 -0.043415807
-0.0016033528 0.039046764 -0.07186423 -0.07665238 0.062231787 0.07121249 0.059567474 -0.05317157
00000000: 2879 5f3d 51bf b73c 73a9 6abd cd47 a3bc
00000010: c8a2 86bd e883 8d3d aca4 80bd be2d 973c
00000020: 3153 da3c 3f82 7ebd 3c66 38bc 46b8 b53c
00000030: 6f9d 5ebb 9758 ac3d fe9d 8bbd 8d96 653d
00000040: afd0 933c 15c6 953d c5c3 733c b3bb 43bd
00000050: c8cd 2fbd b87c 9a3a 2264 72bc f873 9fbd
00000060: 9ebc 463d 842e 9e3d df6a 90bd 4203 4c3d
00000070: 96ec 0bbd d9e0 83bc 61dd 8a3d 8066 0dbd
00000080: 4abc a63d 1ad5 113d e95a 923d 97fc b73d
00000090: 4d12 b5bd 0ef9 aabc 84dd aa3d 7e0f aa3d
000000a0: 8e0d a1bd e422 4a3d 58d2 833c 2887 4bbd
000000b0: 5b1e a93d ddaf 61bc 7610 893d d601 a23d
000000c0: 5cc5 4e3d 664d 583d 33b1 ae3d 271b 92bd
000000d0: 69c2 4f3d 9eab 83bd d0b9 e5bc bb10 513b
000000e0: 0d47 273d 745a 9b3b 507b a2bd 8e2d 933c
000000f0: a988 9e3d b602 1e3d 9825 a4bd c0dc 3c3d
00000100: 56c6 a23d 9082 303b 3783 9ebd 1578 5ebd
00000110: 62f0 f83c 9eca 433d 5c85 753d 6246 1fbd
00000120: affe 813d 8369 03bb 58af 4fbd ee68 f5bc
00000130: 8c31 88bd 4055 063d b187 df3c 3a94 8cbd
00000140: 2931 e6bb 3e43 91bd 1d96 71bd 694a 1e3d
00000150: 88b3 b73c 9e6a c6bc b2e6 0abc 3c95 55bd
00000160: fcb9 833a 7ad6 113d cfd3 423d 6612 383c
00000170: 3bfa 573d dd5c 423d 6c3b a73d 5366 8f3d
00000180: 4245 3cbd efa8 c6bc 33c9 27bd f8d0 a93d
00000190: 023a 4fbd 6aab 793c 6214 d8bc 406b eabc
000001a0: 4281 7f3d 0fa4 26bc 627b 223d ec37 e9bc
000001b0: 1df1 2dbd 1647 e63c 1afc 7ebd c2b5 313d
000001c0: 4e2b 903c fcd2 033d 18db 673d ee9d 2bbd
000001d0: f4f7 ae3d aae5 983d 6519 f6bc c6d4 31bd
000001e0: 9827 d2ba 80ef 1f3d 8e2d 93bd ecfb 9cbd
000001f0: c2e6 7e3d dbd7 913d 06fd 733d 6fca 59bd

rnn.bias_hh_l1 f4 [128]
-0.012668913 -0.013842412 -0.04983929 0.013745973 0.02190937 -0.032491583 0.07501875 -0.009269601
0.07797086 0.08167504 -0.012408908 0.005609964 0.0617568 -0.04564705 -0.043901492 0.016458003
-0.06367335 0.058612023 0.008668448 0.058586974 0.04943397 0.08388233 0.034937937 -0.087614916
0.061793827 -0.0076372474 0.049439266 0.010856323 0.08580433 -0.013192158 0.082726784 -0.020371214
0.016239736 0.07713816 0.035206664 -0.0615113 -0.013839975 0.030979006 -0.018352931 -0.057460465
0.08260488 0.045692965 0.041052397 0.05615285 -0.047694404 -0.05340727 0.0019564966 -0.025184728
-0.00048957 0.0051110866 0.07265375 -0.061657976 -0.0063519287 -0.074407354 0.07421454 0.083092
-0.047952317 0.07990144 -0.039890286 -0.0877412 -0.03982514 0.009200693 -0.0047214828 -0.06347612
0.08748649 0.008087303 -0.08297504 0.038675327 0.042843428 -0.009466953 0.035059273 0.07018156
-0.058701217 -0.040066455 0.02001601 0.033837132 0.013340088 -0.047148485 0.0009513308 -0.079790905
-0.040245008 -0.060617432 0.09198699 0.07974865 -0.034548126 -0.025583949 0.058824304 -0.069904886
0.068896815 -0.062864445 0.05701631 -0.07238922 -0.015722368 -0.02410732 -0.043026697 -0.031780347
-0.055341434 -0.021340033 0.09120206 0.050545733 0.03189702 -0.016837085 -0.023330431 0.016634516
-0.007998967 0.0019126133 -0.037691284 0.01542133 0.03238969 -0.037354153 -0.08638182 -0.027087197
0.06944939 -0.039562628 -0.072315566 -0.069785066 -0.024231486 0.063820854 -0.0709258 -0.05669985
-0.084098734 0.07871892 0.02514321 0.011642917 -0.044672936 -0.04620273 -0.07155826 0.015892114
00000000: 4691 4fbc 49cb 62bc 4924 4cbd ca36 613c
00000010: 477b b33c e515 05bd 6ea3 993d 86df 17bc
00000020: 30af 9f3d 3e45 a73d bc4e 4bbc cad3 b73b
00000030: b3f4 7c3d 67f8 3abd 0dd2 33bd efd2 863c
00000040: 2c67 82bd 2913 703d 1b06 0e3c e5f8 6f3d
00000050: 467b 4a3d 80ca ab3d 151b 0f3d 736f b3bd
00000060: 861b 7d3d e041 fabb d480 4a3d b8de 313c
00000070: 2eba af3d ec23 58bc a96c a93d 88e1 a6bc
00000080: 3209 853c 9dfa 9d3d dd34 103d 46f3 7bbd
00000090: 10c1 62bc afc7 fd3c e358 96bc aa5b 6bbd
000000a0: bf2c a93d 8c28 3b3d 8f26 283d 8800 663d
000000b0: 355b 43bd 95c1 5abd 9138 003b 3450 cebc
000000c0: 7d56 00ba e77a a73b 7dcb 943d 138d 7cbd
000000d0: d723 d0bb e262 98bd cbfd 973d 232c aa3d
000000e0: a669 44bd 5ea3 a33d ff63 23bd a9b1 b3bd
000000f0: b01f 23bd 81be 163c abb6 9abb c5ff 81bd
00000100: 1e2c b33d 9b80 043c d1ee a9bd 056a 1e3d
00000110: 977c 2f3d 471b 1bbc 509a 0f3d 5abb 8f3d
00000120: b070 70bd b91c 24bd 9ef8 a33c ce98 0a3d
00000130: 6290 5a3c c51e 41bd bb62 793a 6a69 a3bd
00000140: f3d7 24bd fc49 78bd ad63 bc3d 4353 a33d
00000150: 5682 0dbd 6e95 d1bc c1f1 703d 4b2a 8fbd
00000160: c619 8d3d 13bf 80bd ef89 693d cd40 94bd
00000170: 32cc 80bc b77c c5bc c33c 30bd 1c2c 02bd
00000180: b3ad 62bd 4bd1 aebc 25c8 ba3d 0b09 4f3d
00000190: 73a6 023d eded 89bc 761f bfbc 1c45 883c
000001a0: 190e 03bc a7b0 fa3a 2d62 1abd bfa9 7c3c
000001b0: 0dab 043d ab00 19bd f4e8 b0bd f8e5 ddbc
000001c0: 7b3b 8e3d 6c0c 22bd 2f1a 94bd 79eb 8ebd
000001d0: 1c81 c6bc 82b4 823d 8c41 91bd 1a3e 68bd
000001e0: f53b acbd 6337 a13d 22f9 cd3c efc1 3e3c
000001f0: f8fa 36bd 133f 3dbd 238d 92bd 2e30 823c

fc.weight f4 [1, 128]
-0.051908605 0.05139849 -0.10446063 -0.059067115 0.002673467 0.011881962 0.05309489 -0.042975377
-0.0024609314 -0.005581648 0.04158979 -0.03723498 -0.029203126 -0.09093099 -0.05156835 0.027107479
0.03610268 -0.02079738 -0.013322989 0.099056095 0.03668862 0.078025684 -0.07104266 -0.076110885
0.06184639 0.030802116 -0.024079992 0.058528144 -0.031170521 -0.03668963 -0.057581875 0.0905265
0.107191384 -0.08083543 -0.0051461654 0.07457625 -0.091181576 0.06893178 -0.08156769 0.11708874
-0.070498265 0.1267601 -0.10771193 0.00024946107 0.08001611 0.06914424 0.043445118 0.033258826
0.018916763 0.029765658 0.0019042429 -0.05759537 0.01670698 0.07469244 -0.083835766 -0.07082477
0.0073053646 -0.057340577 -0.0052885497 -0.06482079 -0.016386557 -0.08124911 0.0108010145 -0.033884946
0.093703054 0.076554276 0.058904115 0.031300608 0.09378522 0.08140695 0.009632929 0.00028063776
-0.059689075 -0.03264865 0.047064584 -0.1001178 -0.0185458 0.002298068 -0.008568376 -0.036754124
0.07620315 0.010960188 0.04698509 0.018979497 0.09066805 -0.030492563 0.040975 -0.05966292
0.04466169 0.013714863 0.006587107 0.05864674 0.052772306 0.058505654 0.07353532 -0.051145714
-0.06196849 -0.07834681 0.038633257 0.08788508 -0.001386929 0.0590155 -0.07598471 -0.039698727
-0.007698232 0.0906976 -0.06195123 0.00012685164 -0.0066865315 0.038114194 -0.056108158 -0.08437447
-0.047627024 0.031156795 -0.076045014 -0.086046234 -0.022164987 0.04966381 -0.024910955 -0.018435441
0.016574312 0.05736447 0.033883695 -0.057132512 -0.026213765 0.019635359 0.04923858 0.027580027
00000000: 1e9e 54bd 3987 523d 74ef d5bd 5cf0 71bd
00000010: 5535 2f3b 90ac 423c 077a 593d f306 30bd
00000020: 9447 21bb 42e6 b6bb 0e5a 2a3d b583 18bd
00000030: 653b efbc 073a babd 5639 53bd 8110 de3c
00000040: 67e0 133d 445f aabc ab48 5abc ecdd ca3d
00000050: ce46 163d eecb 9f3d d07e 91bd 06e0 9bbd
00000060: a452 7d3d b854 fc3c 6743 c5bc 35bb 6f3d
00000070: 5259 ffbc de47 16bd f9da 6bbd f565 b93d
00000080: 2887 db3d 0c8d a5bd 2aa1 a8bb 6fbb 983d
00000090: 68bd babd 1b2c 8d3d f60c a7bd 39cc ef3d
000000a0: 6561 90bd 66cd 013e 1398 dcbd 19ca 8239
000000b0: 7cdf a33d 7f9b 8d3d 82f3 313d 683a 083d
000000c0: 54f7 9a3c 1cd7 f33c ca97 f93a 1fe9 6bbd
000000d0: 14dd 883c 5af8 983d 16b2 abbd 940c 91bd
000000e0: d761 ef3b f4dd 6abd 924b adbb c3c0 84bd
000000f0: 1a3d 86bc ef65 a6bd bdf6 303c f1ca 0abd
00000100: 63e7 bf3d 7dc8 9c3d 7145 713d 1135 003d
00000110: 7712 c03d b0b8 a63d 6fd3 1d3c 9022 9339
00000120: 887c 74bd 97ba 05bd cbc6 403d 900a cdbd
00000130: 5ded 97bc 2f9b 163b 6062 0cbc 7e8b 16bd
00000140: 6610 9c3d 5c92 333c 7073 403d e47a 9b3c
00000150: 2cb0 b93d 8acb f9bc 67d5 273d 1b61 74bd
00000160: 2def 363d 4eb4 603c a9d8 d73b 9037 703d
00000170: c627 583d a0a3 6f3d b099 963d 2b7e 51bd
00000180: acd2 7dbd 4b74 a0bd e83d 1e3d 18fd b33d
00000190: 9dc9 b5ba 3dba 713d df9d 9bbd 229b 22bd
000001a0: 7341 fcbb aabf b93d 93c0 7dbd 7a03 0539
000001b0: b11a dbbb a11d 1c3d abd1 65bd 86cc acbd
000001c0: 8e14 43bd 893c ff3c 7dbd 9bbd 0239 b0bd
000001d0: 5993 b5bc 476c 4b3d 0f12 ccbc ec05 97bc
000001e0: dac6 873c 02f7 6a3d a1c9 0a3d c803 6abd
000001f0: 40be d6bc 55da a03c 65ae 493d 82ef e13c

len_adjust.weight f4 [48, 48]
0.04617469 0.015333444 -0.039944783 0.1012069 -0.10184315 -0.009181276 -0.107865274 -0.12395621
-0.08353083 -0.093262345 0.055595577 -0.13394201 -0.13089329 -0.046008825 0.09353575 -0.120884776
0.09700541 0.09915686 0.14243025 0.02234906 -0.07568812 0.037240192 -0.121965624 -0.094524905
0.03435667 0.070270866 0.035816804 -0.070367135 -0.092112556 0.028836668 0.102113605 0.06345673
0.12876484 0.052571297 0.13042873 -0.027099878 0.0638663 -0.09451634 -0.05855959 0.14403015
0.023831397 0.06648357 -0.13265406 0.0663656 -0.025588483 -0.039811365 0.07685216 -0.06452027
-0.03383228 -0.104798235 -0.08324492 0.06603359 -0.026616566 0.087963685 -0.0011155009 -0.027808808
-0.030586451 0.10347028 0.07774775 0.050713032 -0.045308918 -0.07996384 0.13878253 -0.116887026
0.01609841 -0.13974014 0.13180992 0.023231685 0.045494735 0.024245635 -0.1363851 0.10583758
0.07145427 0.07031149 -0.09211705 0.084164456 0.10577029 0.0343291 -0.034352377 0.11763829
-0.05186162 -0.13480027 0.12901166 0.027152598 0.05496925 0.09777635 0.14377466 -0.01508598
0.074386925 0.0039186478 -0.04445684 0.0826927 -0.12622263 -0.011526033 -0.13747963 0.1336757
0.044025287 0.05201663 -0.11362939 0.021285906 0.010808587 -0.046552427 -0.063142955 -0.09351461
0.006704718 0.0033459514 0.032778114 0.107114434 -0.051912405 0.06344588 -0.063392356 0.13347355
-0.11018602 -0.1150012 -0.083341934 0.04619491 0.0066144764 -0.047027186 0.03694038 0.022335112
-0.005131021 0.122478634 -0.0029971153 -0.0379057 0.10702574 -0.09561524 -0.14033249 0.103041545
0.11259732 0.12331948 -0.08900653 -0.0663979 -0.123353615 0.11132598 -0.077989355 -0.11457141
0.01651986 -0.11797184 -0.12557045 0.027903304 -0.106212035 0.058913603 0.04116811 0.08818436
0.023979306 -0.022952877 -0.021987379 -0.042110905 0.13879165 -0.016402155 0.011515334 -0.07944421
0.14257807 -0.05203765 -0.09015687 0.09240615 -0.04295753 0.07512364 0.099184915 0.10360086
-0.116415516 -0.0044078976 0.06674895 -0.05482518 0.09375386 0.067265004 0.01710774 -0.028068766
-0.13250591 0.108110875 0.13020569 0.007859662 -0.09027108 0.043072924 0.011307642 -0.09816469
0.08292098 0.04599355 -0.112510085 -0.068069555 0.02071777 -0.09115222 0.11881107 0.06429745
0.030804023 -0.09161304 0.10502565 -0.115829766 -0.07262504 -0.11650542 0.052116975 -0.03976661
-0.05749341 -0.11069235 0.048766226 0.12663648 -0.069786556 0.13031808 -0.031264022 0.007842913
-0.09989903 -6.8962574e-05 -0.03539531 0.073468864 0.019068629 0.117786884 0.1347172 -0.05898823
-0.12119428 0.1385777 0.09056102 0.10712743 0.14072081 -0.12659414 -0.0635705 0.0803283
0.11734003 -0.053924635 -0.04343547 0.102724716 -0.1285619 -0.048148215 -0.04695242 0.122692585
0.07158831 0.07924892 -0.014692843 -0.0005733669 -0.09718653 -0.040870123 -0.081765726 -0.14427523
-0.052372344 0.026007429 0.0539729 0.043675184 -0.14132926 0.11783457 -0.0391983 -0.056703553
-0.09245999 -0.1119468 0.015547991 -0.08179252 -0.0049932003 0.14164767 -0.12277768 0.039043784
-0.013988748 -0.039434887 -0.10557482 -0.14270447 0.032118678 -0.025887996 -0.09416592 0.04244286
00000000: ac21 3d3d 2039 7b3c 249d 23bd 9045 cf3d
00000010: 2493 d0bd 106d 16bc 78e8 dcbd c1dc fdbd
00000020: 3612 abbd 5400 bfbd 30b8 633d 1828 09be
00000030: e408 06be c073 3cbd ac8f bf3d 7092 f7bd
00000040: c6aa c63d c012 cb3d 3cd9 113e 6015 b73c
00000050: 6002 9bbd 2c89 183d 1dc9 f9bd 4696 c1bd
00000060: 94b9 0c3d 2cea 8f3d a4b4 123d a51c 90bd
00000070: 82a5 bcbd e03a ec3c f020 d13d 9af5 813d
00000080: eeda 033e 0055 573d 1c8f 053e 9000 debc
00000090: 56cc 823d c891 c1bd 2edc 6fbd a47c 133e
000000a0: 103a c33c 8a28 883d 77d6 07be b0ea 873d
000000b0: f09e d1bc 3e11 23bd aa64 9d3d 3423 84bd
000000c0: b893 0abd 75a0 d6bd 507c aabd 9e3c 873d
000000d0: fc0a dabc 4e26 b43d 0036 92ba 4ccf e3bc
000000e0: 7090 fabc 3ae8 d33d 363a 9f3d 78b8 4f3d
000000f0: d895 39bd 15c4 a3bd 021d 0e3e 7762 efbd
00000100: d0e0 833c 0a18 0fbe 2ef9 063e 6050 be3c
00000110: b058 3a3d c89e c63c 89a8 0bbe 60c1 d83d
00000120: 9e56 923d 78ff 8f3d dda7 bcbd 6a5e ac3d
00000130: 189e d83d ac9c 0c3d 14b5 0cbd 58ec f03d
00000140: da6c 54bd 1509 0abe a21b 043e 206f de3c
00000150: 7027 613d f83e c83d aa39 133e 302b 77bc
00000160: 2c58 983d 0068 803b 6018 36bd ca5a a93d
00000170: 8140 01be b0d7 3cbc 76c7 0cbe 48e2 083e
00000180: dc53 343d 640f 553d 87b6 e8bd c85f ae3c
00000190: 8016 313c c2ad 3ebd 1851 81bd 9684 bfbd
000001a0: 40b3 db3b c047 5b3b 5842 063d d05e db3d
000001b0: 1aa2 54bd eaef 813d dad3 81bd 4aad 083e
000001c0: 35a9 e1bd c085 ebbd 2daf aabd e036 3d3d
000001d0: 40be d83b 949f 40bd cc4e 173d 20f8 b63c
000001e0: 2022 a8bb 14d6 fa3d 406b 44bb 0243 1bbd
000001f0: 5030 db3d ecd1 c3bd 52b3 0fbe 7207 d33d
00000200: 6c99 e63d ec8e fc3d 0e49 b6bd 9ffb 87bd
00000210: d2a0 fcbd e0fe e33d e2b8 9fbd 6aa4 eabd
00000220: a854 873c 389b f1bd 8a95 00be 7895 e43c
00000230: b285 d9bd 644f 713d e49f 283d 009a b43d
00000240: 4070 c43c ac07 bcbc e01e b4bc 7c7c 2cbd
00000250: 661f 0e3e d05d 86bc d0aa 3c3c a5b3 a2bd
00000260: fcff 113e 6e25 55bd 2aa4 b8bd 703f bd3d
00000270: 3cf4 2fbd 6cda 993d 7621 cb3d b02c d43d
00000280: 426b eebd 2070 90bb acb3 883d 5e90 60bd
00000290: 0602 c03d 3cc2 893d 8825 8c3c 78f0 e5bc
000002a0: a1af 07be 3c69 dd3d a454 053e d0c5 003c
000002b0: 0be0 b8bd 3c6d 303d b043 393c 920a c9bd
000002c0: 7ad2 a93d bc63 3c3d b06b e6bd 0d68 8bbd
000002d0: 50b8 a93c 04ae babd 3853 f33d 62ae 833d
000002e0: b858 fc3c 9e9f bbbd b017 d73d 2838 edbd
000002f0: 70bc 94bd 659a eebd 9c78 553d 50e2 22bd
00000300: 367e 6bbd acb2 e2bd 18bf 473d feac 013e
00000310: 41ec 8ebd 1a72 053e b40e 00bd 907f 003c
00000320: dd97 ccbd 00a0 90b8 acfa 10bd d876 963d
00000330: d035 9c3c 403a f13d 4ef3 093e a49d 71bd
00000340: b534 f8bd 50e7 0d3e 0e78 b93d a065 db3d
00000350: 1e19 103e e5a1 01be 4031 82bd 2a83 a43d
00000360: f84f f03d 14e0 5cbd 64e9 31bd 5661 d23d
00000370: bba5 03be 1037 45bd 2e51 40bd 4046 fb3d
00000380: e49c 923d 424d a23d 40ba 70bc 004e 16ba
00000390: bb09 c7bd 6e67 27bd ca74 a7bd e3bc 13be
000003a0: 6284 56bd 880d d53c b012 5d3d c0e4 323d
000003b0: 9eb8 10be 4053 f13d 668e 20bd fc41 68bd
000003c0: aa5b bdbd 5d44 e5bd 00bd 7e3c d682 a7bd
000003d0: 009e a3bb 160c 113e dd72 fbbd 60ec 1f3d
000003e0: 1031 65bc 7a86 21bd 9c37 d8bd 1f21 12be
000003f0: e08e 033d 1013 d4bc 10da c0bd 90d8 2d3d

len_adjust.bias f4 [48]
0.1108067 -0.11372728 -0.05698801 0.02187854 -0.029342726 0.05741793 -0.13321076 -0.100982845
-0.12555176 -0.11772883 -0.067335926 0.115802884 0.13304248 0.06634322 -0.08641636 0.04303059
-0.07975187 -0.12830701 0.050626516 0.115755856 0.08930957 0.020937532 0.054099247 -0.08970089
0.074467674 0.029014543 0.041392848 0.13899285 0.13460916 -0.060442083 -0.0894232 -0.107888296
-0.020756572 0.096440196 0.07343462 0.03223908 -0.12302333 0.0052066892 0.08980492 0.0881618
0.12129733 0.12971327 -0.019099697 0.012870133 0.08505227 -0.09781574 0.06256075 0.05447355
00000000: a0ee e23d d9e9 e8bd 426c 69bd a03a b33c
00000010: 2860 f0bc 102f 6b3d 6768 08be 18d0 cebd
00000020: a490 00be d01b f1bd 6be7 89bd 102a ed3d
00000030: 4a3c 083e f4de 873d 10fb b0bd d840 303d
00000040: f354 a3bd ea62 03be c05d 4f3d 6811 ed3d
00000050: f0e7 b63d 3085 ab3c 2c97 5d3d 1ab5 b7bd
00000060: 8282 983d e8af ed3c 8c8b 293d 2454 0e3e
00000070: fcd6 093e 1e92 77bd 8323 b7bd 8af4 dcbd
00000080: b009 aabc 7082 c53d e464 963d 200d 043d
00000090: a8f3 fbbd e09c aa3b a4eb b73d 2c8e b43d
000000a0: bc6a f83d 8ed3 043e f876 9cbc 40dd 523c
000000b0: e22f ae3d 9e53 c8bd da1f 803d a81f 5f3d
