第四章-分类模型/model_weight/LogisticRegressionModel.pth (torch, 297061 bytes, 2 tensors)

linear.weight f4 [6, 12288]
00000000: 3473 49bb 98ce bcbb d6c4 c43b 251e f23b
00000010: cbff 343c 10f8 d3b8 c63a 60bb 8987 38ba
00000020: 5f65 23bc ef73 5dbb f45e aebb 5fe8 b73b
00000030: 009f c1bb 4872 83ba 73ca 30ba 1aa9 f7bb
00000040: 5e20 49bb 663c e9bb 8221 823c ad08 05bb
00000050: 5e9c 763c 34be 823c d885 3c3c f911 8d3c
00000060: 70d9 523c 641a 7c3c 2b35 ea3b 06ba 5fbb
00000070: 324d 873a 9014 9cba a85c 193c a4cd 273c
00000080: b702 283c 9e93 773b 912c 143c 5f6a a73b
00000090: 2ecd 433c 33d9 023c 0a8e ce3b 6aa7 833c
000000a0: 4374 113c d93a 883c b5aa af3a 5e0b 9f3b
000000b0: 1158 e53a 2e9b 78bb 5d77 0d3b e37a 7ebb
000000c0: fe58 6e3b 4edf 30bc b9c5 f0ba 9efb 07bc
000000d0: c980 4ebb 323a 19bb 896f 503c 4916 803b
000000e0: 476f ba3b c7cf 433b c56a 3c3c 9874 27ba
000000f0: 512a fa3a e33c 66bc c4d4 80bc 3c41 89bc
00000100: fbb4 d3b9 0304 263c ece4 4f3c 6376 533c
00000110: bfc2 143b 3628 a73b 1951 843c eff0 c33b
00000120: 0527 723c 19be 193b b474 9a3a 64a6 83bb
00000130: 1e8d ac39 4a88 c93b ca84 b73b bce3 93bb
00000140: d81b be39 ba2f f43b c11e da3a ad0d b33b
00000150: fd5d a33c e852 7a3c 5aa3 b73c d8af e53b
00000160: 1a36 0a3c ed52 9e3c d4d1 2d3c 92f2 a3bb
00000170: 0ba1 f7bb 25a8 16bc 5625 ecb9 beab 8839
00000180: 3b96 eabb 9577 d13a 2222 993c 4232 353c
00000190: 7638 8f3c a8b1 c73b 2600 393c e70b 7e3c
000001a0: 3027 9b3c 180b f7ba 7b8e 4ebb 1bd9 09bc
000001b0: 665e 7abb 1c40 cbbb 0edc 13bc d4c2 3fbc
000001c0: 4b41 44bb dc4b 93bb 80fe 2dbb fb66 11bc
000001d0: f985 3f3b c290 7cbb 02b5 293c 90ce e33a
000001e0: ff83 d4bb 0046 393b e725 b8bb 1047 ceba
000001f0: 2bc4 5bbb 74c8 48bb 123e d23b b3dd 65bb
00000200: 719c 373c 3944 38ba 78e3 2a3c e059 d239
00000210: 36df 213c d265 7a3c 35f5 943c 1c94 bd3c
00000220: 6f54 bb3c e923 123a 3f79 de3b 4cd1 873b
00000230: f61d acba d6eb dcbb b553 253c f6a7 5abb
00000240: c1e8 563b cb3b ec3a d3a0 f03b 4f2d 943b
00000250: a13b 7d3c b60e 883c 39ca b63c eb62 113c
00000260: 3708 a93c 1efd 963c e210 de3b 53d5 f43b
00000270: f0aa b8bb babd 3bbc f172 80bb 1a74 f23b
00000280: 0f19 783c 252a a5ba 2cc7 2abb c559 e139
00000290: d25a 02bb f01f b63b a506 623c bed7 853a
000002a0: a53d 4f3c 63a4 d73b c2ac fdb9 89de 3dbc
000002b0: ce62 83bb 95b5 85b9 f492 d1bb 8f61 08bc
000002c0: fd6e 4abb 5e31 f83b 1bcd 003c c867 4638
000002d0: d36e ec3b 3c78 243b 2022 d7bb cd41 e8bb
000002e0: e466 04bb e046 41bb 2fd3 f33a 1ed9 de3b
000002f0: d70d 0e3b bc87 403c 594f af3c 8abd 903c
00000300: 97e8 0d3c c07e 543b 1703 9c39 306d ef3a
00000310: 35a7 4e3c f2d5 b23c 8e51 c73c 7183 c23c
00000320: 2b8e db3b c21c 003c 7a6d e13b 6d37 883c
00000330: cc79 223c aa72 353c 76ec 053c 5fce eab9
00000340: 2639 51bb 1844 5b3c bb35 c83b 4fb1 383c
00000350: 99b8 90ba f793 923c 0d7c b93c 2893 943c
00000360: eaf0 053c 5522 023b 454e 613b 0e47 633c
00000370: d90a dc3b b043 193c 412d c13a d935 7b3b
00000380: cf44 363b 953f f5bb 7f76 cdbb 000b 4cb6
00000390: 47b9 1c3c ecfc bf3b d6f4 0e3c 2da0 813a
000003a0: 0718 fa3b 8e9a 8c3a 18bb b2b9 5937 793b
000003b0: c7e8 17bb 6ccd 033c e5f7 8cba 05d2 3cbb
000003c0: 1b8a c63a 2b5f 8dbb a1e6 f73a 1843 10bc
000003d0: d2d9 973b d93f e4bb ff86 b13b dc37 533b
000003e0: 292b 823b 5f6e 1fbc 9acb b33b e4d2 9bbb
000003f0: e96a 0d3c 1240 b43c eef4 7c3c 5732 943c
-0.0030738832 -0.0057619326 0.00600491 0.0073888474 0.011047314 -0.00010107469 -0.003421472 -0.0007039239
-0.009972899 -0.0033791026 -0.005321378 0.0056124176 -0.005908847 -0.0010028565 -0.00067440345 -0.0075580003
-0.0030689458 -0.0071177958 0.015885118 -0.002029936 0.015051929 0.015959837 0.01150652 0.017220484
0.012869224 0.015387151 0.0071474514 -0.0034137978 0.0010322689 -0.0011907984 0.00936047 0.0102419
0.0102545535 0.0037777196 0.009043829 0.005109116 0.011950774 0.007986355 0.0063035535 0.01607104
0.008877817 0.016629623 0.0013402315 0.00485365 0.0017497559 -0.0037934291 0.0021586039 -0.003883057
0.0036368961 -0.0107954275 -0.0018369473 -0.008299736 -0.0031509867 -0.0023380634 0.012721905 0.0039089066
0.005689535 0.0029878484 0.011500065 -0.0006387918 0.0019086098 -0.014052602 -0.015726455 -0.016754739
-0.00040379897 0.010132792 0.012688857 0.012906644 0.0022699086 0.005101229 0.016151952 0.0059796493
0.014779811 0.0023459254 0.0011784048 -0.004017638 0.00032911537 0.00615028 0.0056005465 -0.004513232
0.0003626037 0.0074519785 0.0016641245 0.0054642768 0.019942278 0.015278555 0.02241676 0.0070094876
0.00843575 0.019326651 0.010609109 -0.005003282 -0.0075570396 -0.009195362 -0.00045041245 0.000260679
-0.007159022 0.0015981073 0.018693034 0.011059346 0.017482977 0.0060941763 0.011291539 0.015505767
0.018939584 -0.0018847911 -0.003151803 -0.008413578 -0.0038203239 -0.006202711 -0.009024633 -0.0117041655
-0.0029946144 -0.004495127 -0.00265494 -0.00887465 0.002922414 -0.003853843 0.010358097 0.0017380286
-0.0064854617 0.0028270483 -0.0056197527 -0.0015737731 -0.0033533673 -0.0030637057 0.0064160908 -0.003507477
0.011206732 -0.0007029209 0.010430209 0.00040121283 0.009879878 0.015283065 0.01818333 0.023141913
0.02286741 0.0005574809 0.006789356 0.004144823 -0.0013131488 -0.006741981 0.010090758 -0.0033364273
0.003279254 0.0018023191 0.0073433905 0.004522003 0.015456111 0.016608577 0.022313224 0.008873682
0.0206338 0.018431243 0.006776915 0.0074717193 -0.0056356117 -0.011458809 -0.003919952 0.0073990943
0.015142693 -0.0012601061 -0.0026058657 0.00042982228 -0.001989056 0.0055580065 0.0137955295 0.0010211391
0.012648975 0.0065808757 -0.00048384635 -0.011588701 -0.004009581 -0.00025503026 -0.006395692 -0.008324041
-0.0030888908 0.0075742444 0.007861401 4.7303532e-05 0.0072153597 0.002509608 -0.0065653473 -0.007087922
-0.002020293 -0.0029491708 0.0018602366 0.0068007847 0.002167573 0.011751112 0.02140014 0.017668504
0.008661411 0.0032424182 0.0002975694 0.0018266793 0.012613107 0.021830533 0.02433088 0.023744317
0.0067002974 0.007819356 0.0068795057 0.016627992 0.009916734 0.011074701 0.008174052 -0.00044785716
-0.0031924932 0.013382934 0.006109921 0.011272742 -0.0011041343 0.01789282 0.02264216 0.018136576
0.008175114 0.001985689 0.0034378928 0.013871921 0.0067151603 0.009354517 0.0014738218 0.0038331656
0.002781201 -0.007484386 -0.0062702294 -3.0404772e-06 0.009565658 0.005859008 0.008725366 0.0009889655
0.007632259 0.0010727213 -0.000340902 0.0038027375 -0.0023179518 0.008044582 -0.0010755031 -0.0028811705
0.001514736 -0.0043143234 0.0018913337 -0.008805059 0.0046341205 -0.006965619 0.005417704 0.003222934
0.0039724302 -0.009730904 0.0054869177 -0.0047553647 0.008631446 0.022003207 0.015439255 0.01809041

linear.bias f4 [6]
00000000: 7282 813c af2e 36bd 18f8 6e3d a9dc 91bc
00000010: c8f4 84bc 3e57 83bc
0.015809271 -0.044478115 0.05834207 -0.017805414 -0.016230002 -0.016032811
