第四章-分类模型/model_weight/LogisticRegressionModel.pth (torch, 297125 bytes, 2 tensors)

linear.weight f4 [6, 12288]
-0.017531319 -0.009066956 -0.00015692752 0.014499604 0.016105277 -0.005180708 0.012849791 0.00097273325
0.0009082992 -0.0018014857 0.0020818815 0.0008819558 0.006921309 -0.004767508 -0.0033838772 0.0028561114
-0.011546726 0.0022922207 0.010608548 0.016882636 0.004485336 0.022771932 0.028706795 0.0065062926
0.022028316 0.011812829 0.02526924 -0.005601579 0.0073293988 0.004880288 0.0069756205 0.007877477
0.017254835 0.022007521 0.013391353 0.010340754 0.023647228 0.027266908 0.038448963 0.050439242
0.03749218 0.017325863 0.006170791 0.0066419616 0.0025537978 -0.007428355 -0.018320365 0.007990063
0.0020381736 0.004028806 0.00033356316 8.3661194e-05 -0.0028618698 0.0049269977 0.0213925 0.015580856
0.028586758 0.020188017 0.014355748 -0.013432852 -0.013925955 -0.018511573 -0.014310707 -0.03489002
0.0035838769 0.0056546945 0.021886108 0.0019095853 0.017961921 0.015030621 0.015339941 0.0161086
0.014843871 0.011694028 -0.002562416 0.015640553 0.00065088226 -0.012336819 0.010757271 -0.0035936057
-0.0020060309 0.0009960153 0.019273536 0.007786606 0.01382173 0.038173664 0.060373206 0.018390354
0.03237466 0.04499249 0.021104837 -0.00026799153 -0.008667292 -0.0063669747 0.014945988 0.005708144
0.004127619 0.014703203 0.019898275 0.015344207 0.028978998 0.02127759 0.027277088 0.031969316
0.02382631 0.0057935724 0.013213067 0.002751067 -0.0025141044 -0.008421965 -0.023314167 -0.010310711
0.010219436 -0.0007686051 0.0021142538 -0.0040856074 -0.005423687 -0.0016925036 0.0074638813 -0.01129053
-0.009069265 -0.011778248 -0.010026194 -0.010352837 0.010688568 0.011071409 0.01330293 -0.00072054775
0.0018477966 0.019131808 0.0050785453 0.0014956305 0.013957808 0.020871945 0.035313524 0.032161925
0.031417612 0.006336002 0.014260699 0.011827182 -0.0019394902 -0.004454404 0.00917632 0.018186927
0.0072568525 -0.009010714 0.012081641 0.013689412 0.011595866 0.024444055 0.053235486 0.016285693
0.032539975 0.04155956 0.025921972 -0.0072831158 -0.011748495 -0.010213584 -0.0008524901 0.007974651
0.025868235 -0.0035764007 -0.00017533886 0.0137060825 0.006572657 -0.008374682 0.0071333232 0.017148359
0.022341486 -0.0019243537 -0.006847991 -0.015861876 -0.023658931 -0.0015118492 -0.012252218 -0.017429417
0.004872275 0.019529687 0.020561932 -0.0029673139 -0.002310212 -0.012790534 -0.013315865 -0.019447122
-0.013892767 -0.0037745822 0.0012038233 0.004060359 0.022005279 0.038637057 0.023951309 0.025622873
0.010470611 0.012000583 0.011183593 0.0113917105 0.018396916 0.031530734 0.041426662 0.035921134
0.02127627 0.012373859 0.009121363 0.009781395 0.009316991 0.013155646 0.012179987 0.011950245
-0.0050015487 0.0063343565 0.0194077 0.03385368 0.018213646 0.024013437 0.03695512 0.017708411
0.022344884 0.029040646 0.019140847 0.013652658 -0.008328319 0.0075856396 0.00046508588 0.00503546
-0.00019527298 -0.013520721 -0.0052233683 0.021441422 0.011234088 0.01849863 0.022748657 0.013501234
0.018415608 0.0062548327 0.0075812386 -0.0016944554 0.0068708225 0.0036422685 -0.0021980035 -0.0057946425
-0.0043869624 -0.019272802 -0.010498169 -0.010040475 -0.011282351 0.003945265 0.0017285768 -0.005619704
-0.005848595 -0.0080220895 -0.0033616968 -0.012683174 0.012840326 0.016944192 0.0323367 0.03277554
00000000: d79d 8fbc 928d 14bc e98c 24b9 bf8f 6d3c
00000010: 37ef 833c eec2 a9bb ee87 523c 06ff 7e3a
00000020: ed1a 6e3a d41f ecba 2d70 083b 0d33 673a
00000030: 26cc e23b c138 9cbb 0ac4 5dbb 992d 3b3b
00000040: 7b2e 3dbc 1539 163b 7acf 2d3c 744d 8a3c
00000050: baf9 923b 348c ba3c 832a eb3c bd32 d53b
00000060: ba74 b43c 998a 413c 7001 cf3c 738d b7bb
00000070: 742b f03b d3ea 9f3b bf93 e43b 8910 013c
00000080: 035a 8d3c 1e49 b43c 6867 5b3c 446c 293c
00000090: d5b7 c13c da5e df3c a97c 1d3d 6199 4e3d
000000a0: 6691 193d f8ee 8d3c 5934 ca3b d0a4 d93b
000000b0: 9e5d 273b 8f69 f3bb 9714 96bc c1e8 023c
000000c0: e192 053b 1304 843b 17e2 ae39 4373 af38
000000d0: 358e 3bbb a772 a13b 533f af3c d946 7f3c
000000e0: c72e ea3c 5761 a53c 5f34 6b3c 7715 5cbc
000000f0: b029 64bc 95a5 97bc 7577 6abc d6e8 0ebd
00000100: 7adf 6a3b 044b b93b 7f4a b33c 0d4b fa3a
00000110: e124 933c fe42 763c 6054 7b3c 2ff6 833c
00000120: b533 733c 4f98 3f3c 35ee 27bb 9e20 803c
00000130: f89f 2a3a 5f20 4abc 443f 303c b382 6bbb
00000140: 9d77 03bb ba8c 823a 89e3 9d3c c926 ff3b
00000150: 8a74 623c fd5b 1c3d e549 773d 5ea7 963c
00000160: 4b9b 043d 0c4a 383d 0de4 ac3c 3781 8cb9
00000170: 4201 0ebc 0ea2 d0bb 04e0 743c 620b bb3b
00000180: fa40 873b b4e5 703c b501 a33c 4566 7b3c
00000190: 5d65 ed3c 574e ae3c 3374 df3c 42f2 023d
000001a0: 652f c33c 02d8 bd3b 9f7b 583c 3f4b 343b
000001b0: acc3 24bb 48fc 09bc 5afd bebc 42ee 28bc
000001c0: 6c6f 273c 377c 49ba 4b8f 0a3b 8fe0 85bb
000001d0: 2fb9 b1bb ffd6 ddba 9393 f43b eafb 38bc
000001e0: 4197 14bc 8df9 40bc e844 24bc f29e 29bc
000001f0: 1b1f 2f3c db64 353c 88f4 593c 24e3 3cba
00000200: c431 f23a 4fba 9c3c ed69 a63b 0809 c43a
00000210: 4aaf 643c a4fb aa3c eaa4 103d 39bc 033d
00000220: c1af 003d 3d9e cf3b b5a5 693c ccc6 413c
00000230: 7e36 feba 40f6 91bb 4758 163c c0fc 943c
00000240: e4ca ed3b aca1 13bc 13f2 453c 8e49 603c
00000250: 96fc 3d3c e63e c83c 740d 5a3d 9369 853c
00000260: a348 053d 5b3a 2a3d 515a d43c 34a7 eebb
00000270: c27c 40bc e056 27bc a479 5fba 1ca8 023c
00000280: 9fe9 d33c 0c62 6abb 2bdb 37b9 7a8f 603c
00000290: 715f d73b f635 09bc a7be e93b b77a 8c3c
000002a0: 7e05 b73c 983a fcba 1d65 e0bb c4f0 81bc
000002b0: 60d0 c1bc 3e29 c6ba 87bd 48bc 23c8 8ebc
000002c0: 9ba7 9f3b b9fc 9f3c 7f71 a83c 4477 42bb
000002d0: ed66 17bb 638f 51bc c92a 5abc 924f 9fbc
000002e0: 7d9e 63bc fb5e 77bb 9bc9 9d3a c30c 853b
000002f0: 6a44 b43c e441 1e3d 8935 c43c 0fe7 d13c
00000300: ed8c 2b3c 189e 443c 643b 373c 4ca4 3a3c
00000310: 21b5 963c 5f26 013d 01af 293d 0a22 133d
00000320: 924b ae3c babb 4a3c c571 153c 2542 203c
00000330: 4ba6 183c c78a 573c 918e 473c f6ca 433c
00000340: 08e4 a3bb 6f90 cf3b e6fc 9e3c 28aa 0a3d
00000350: c934 953c d4b7 c43c 405e 173d 3b11 913c
00000360: 9e0c b73c a6e6 ed3c 44cd 9c3c 66af 5f3c
00000370: 8073 08bc f590 f83b c5d6 f339 8000 a53b
00000380: 31c2 4cb9 0486 5dbc ca28 abbb eca5 af3c
00000390: 2e0f 383c 708a 973c 645b ba3c 4834 5d3c
000003a0: 54dc 963c 57f5 cc3b 0a6c f83b 7d18 deba
000003b0: a324 e13b 20b3 6e3b 610c 10bb fce0 bdbb
000003c0: 82c0 8fbb ffe1 9dbc 8300 2cbc ce80 24bc
000003d0: 9cd9 38bc 4847 813b 6a91 e23a 7e25 b8bb
000003e0: 92a5 bfbb 156f 03bc ea4f 5cbb 16cd 4fbc
000003f0: 3b60 523c 8cce 8a3c 7d73 043d a53f 063d

linear.bias f4 [6]
0.013045616 -0.064838104 0.0982926 -0.005824223 -0.01972533 -0.033968754
00000000: 48bd 553c d7c9 84bd a14d c93d 20d9 bebb
00000010: 0497 a1bc d222 0bbd
