第四章-分类模型/model_weight/ResNet18.pth (torch, 14253 bytes, 2 tensors)

fc.weight f4 [6, 512]
00000000: 34e2 8a3d efe9 793d 870e c9bd 8e16 1dbd
00000010: 1991 4dbd 6aac 8ebc 69da ca3c 57c7 f8b9
00000020: 76ee adbd 6a5b afbb d8fb 143e 9ccf 9fbd
00000030: b9c2 ae3d 16be 8ebd 2ab3 cbbc ee9f f2bc
00000040: 4520 2fbd 3775 c53d 6255 b0bc 55db 863d
00000050: d477 16bd 91c6 1b3d 34dd a3bc be36 a43c
00000060: 9283 02be 2a34 8ebd 2115 533e e46e a7bd
00000070: 9bc3 783b 36e3 073d 13ab 09bd 4d9d 573c
00000080: cd0e 6c3c 5276 aa3d 0471 dfbd 7617 97bc
00000090: fe67 debd 0fbc 1d3d 2679 9fbc d386 67bc
000000a0: 94d5 56bd 9d0e 33bc 2219 96bd 1c09 493d
000000b0: 62e2 6d3d 3742 c23c 503f 143d cb51 a0bd
000000c0: ebf7 e03c eec7 423d 6b7d c9bc cf7a 58bd
000000d0: 7c00 5f3d b962 bf3c a98b 683b d253 da3d
000000e0: 0b76 5b3d 719e 2f3d fdd7 fbbc bd54 1dbd
000000f0: 1993 f3bd 24dc d13c 7ebb a03c 3aa4 07be
00000100: 70ee 9f3a 003d 263d 1ea8 b5bd c8fe ee3c
00000110: 5ffc 903d 6232 83bd 0101 edbc 8e10 39b9
00000120: ab46 123d 45ca 14bd 5f92 b53c c9e3 44bd
00000130: 7ccb 45bd d2cf aebb 90c6 1abd c00b 253c
00000140: 3a81 f8bd a727 d9bc 54ef 413e 49de 9fbc
00000150: 7f7d a43d 9ef6 71bb 10c7 85bd de18 993d
00000160: 0d94 3d3d 6b08 95bc ccd2 a33d 43bb 7a3d
00000170: 5d62 e33d fde2 7fbd d68f 38bd e820 a13c
00000180: 4104 a63c fc8a 62bd 9f84 cdbc 5073 f2bd
00000190: fad9 853c f15b 0d3e 6415 b4bd 63e9 efbc
000001a0: 4313 18be ee19 caba e718 b8bc 83a1 30bd
000001b0: 7fe8 46bd 8f00 9dbd 5447 873d 34f2 ae3d
000001c0: 9dcf fa3d 4888 363d 08a3 bbbc f5f0 6f3d
000001d0: 9c11 54bd b5e7 9dbd 0438 063e 1d7c a43d
000001e0: 85de 37bd 8228 693c 3b37 fcbc 3982 cb3c
000001f0: 81a2 4b3d a256 48bd e0f8 15bc dfe0 57bd
00000200: 3884 2f3d 8c75 e3bd 89e4 18bd b4b5 1f3c
00000210: 7d12 283d 9ea0 90bd 6e77 e2bc 51a2 a03d
00000220: 4dbe a6bb 26ff 9a3c e792 87bd 5d87 febb
00000230: 4d87 253d ba6a 453e 855c 5ebd fd7b 4a3d
00000240: a362 27bd ad27 663d 7312 acbd e3a6 c6bc
00000250: 2338 e73c ab6a 09bd 2383 143d 7d8c e8bd
00000260: baf7 683d 6e59 94bc 4a79 b03d ebd2 b63d
00000270: d06c 3dbd 9f4e 6ebd 6d3f 923d 3805 183c
00000280: 46b8 f6bb 3361 bc3c a266 dbbd 2233 53bd
00000290: 6bca 503d 8a7f 53bd e4ad 57bd f672 fdbc
000002a0: 890a abbd 88c6 91bd 2ba4 95bd c097 a53c
000002b0: 398d 93bd cb9e 31bd e108 923d aa7c b6bc
000002c0: 4225 bb3b 1ee6 ccbd d63f 013d 1c6c 0d3c
000002d0: 70cc dabc a221 353c 73cc 113d 6838 2a3e
000002e0: 5239 043d 6ee5 2bbd 7f07 5dbd 1bbf f93c
000002f0: 1086 553d 73bc 1ebd 47da 4f3b da4c d9bd
00000300: 0e75 3abe 0982 0abe 2d89 a3bd d252 503d
00000310: 0e78 1f3e 5e06 8fbc f78b e2bc 4b6d 023d
00000320: 5a7c 6fbd 14be a5bc feda 7ebd 8401 9cbc
00000330: f750 acbd f4ed e2bb 47a1 ce3d bab2 a53c
00000340: 6991 1cbd 81db 023d 770a f7bd c388 9e3d
00000350: 5b0f 493d 495f 063b a534 c73d e394 033d
00000360: c112 353d 86f6 363b c3f8 02be a1a0 3b3d
00000370: b103 f4bd 3c10 3bba 8d1e a53d be0b 9c3d
00000380: e4bf 6d3d e73c f43c 3370 03bd 70b9 353e
00000390: 8627 0d3b 0749 2e3d df05 a3bd 9014 aa3c
000003a0: a2f8 2c3d 5dcc 88bd d54f 81bd 4abe 273e
000003b0: 4401 2cbd 08db cbbd aaec dbbd f572 413d
000003c0: 4f28 b2bd 47e7 bc3c 35e7 063b 29b8 9abd
000003d0: 68b0 c1bd 7876 93bd 21ed d93c be8d 5dbd
000003e0: 4581 203d ecac 793d 8a07 a0bd 602f 7b3d
000003f0: 587c e43d 2786 0b3d f4b9 153d a99a 9dbc
0.06781426 0.061014112 -0.09817224 -0.038351588 -0.050187204 -0.017416198 0.02476235 -0.00047450766
-0.084927484 -0.0053514736 0.14549196 -0.0780327 0.08533234 -0.0696985 -0.024865706 -0.029617276
-0.042755384 0.096414976 -0.021525089 0.06584803 -0.03673537 0.038031165 -0.020002939 0.020045634
-0.12745503 -0.06943543 0.20613529 -0.081754476 0.0037958387 0.03317567 -0.033610415 0.013160062
0.014407826 0.08323349 -0.10910228 -0.018443804 -0.10859679 0.038509425 -0.019466948 -0.014131266
-0.052449778 -0.010928777 -0.073290125 0.049080953 0.058077224 0.023713214 0.036193192 -0.07828101
0.027461966 0.04755395 -0.024595937 -0.052851494 0.05444382 0.023362504 0.0035483635 0.10660519
0.05357937 0.04287571 -0.03074264 -0.03841089 -0.11893291 0.025617667 0.019620653 -0.13246241
0.0012201797 0.040585518 -0.088699564 0.029174224 0.07079386 -0.06406094 -0.028931143 -0.00017649142
0.035711925 -0.03632571 0.022164522 -0.048068795 -0.04828976 -0.0053348327 -0.03778702 0.010073602
-0.12134023 -0.026508166 0.18938953 -0.019515174 0.08031749 -0.0036920677 -0.06532109 0.07475446
0.04628377 -0.01819249 0.07999191 0.061213743 0.11102746 -0.062472332 -0.045059048 0.019669011
0.0202657 -0.055308327 -0.025087653 -0.118384 0.01633929 0.13804604 -0.087931424 -0.029286092
-0.14851098 -0.0015419105 -0.022472812 -0.04312278 -0.04856157 -0.07666122 0.06605402 0.0854229
0.1224663 0.04456356 -0.022904888 0.058579404 -0.051774606 -0.0771021 0.13107306 0.08031485
-0.044889946 0.014230849 -0.030788055 0.024842368 0.049715523 -0.048910744 -0.009153575 -0.05270469
0.042850703 -0.11106405 -0.037327323 0.009747911 0.041033257 -0.07061885 -0.02764484 0.078434594
-0.0050886036 0.018920492 -0.06619816 -0.0077676014 0.040412236 0.19278994 -0.054287452 0.04943465
-0.04086555 0.05619018 -0.084019564 -0.0242495 0.02822501 -0.033548992 0.036257874 -0.11354921
0.056876875 -0.01810905 0.08616884 0.08926948 -0.04624635 -0.058180448 0.07141004 0.009278588
-0.0075292913 0.022995567 -0.10712935 -0.051562436 0.05097429 -0.051635303 -0.05265607 -0.030938607
-0.08351619 -0.07117945 -0.07306703 0.020213962 -0.072046705 -0.043364327 0.071306 -0.022276241
0.0057112286 -0.10004829 0.03155502 0.008631732 -0.026708812 0.011055382 0.03559537 0.1662308
0.032281227 -0.041966848 -0.053962227 0.030486634 0.052129805 -0.038753938 0.0031715797 -0.106103614
-0.18208715 -0.13526167 -0.079851486 0.050860234 0.15573141 -0.01745909 -0.027654631 0.03184251
-0.0584682 -0.020232238 -0.062220566 -0.019043691 -0.0841388 -0.006925339 0.10089355 0.020226825
-0.03822461 0.031947616 -0.12062543 0.07740929 0.04908691 0.0020503572 0.09726838 0.03212441
0.04420734 0.0027917936 -0.12790208 0.045807485 -0.119147666 -0.0007135903 0.08062468 0.07619427
0.05804433 0.029814197 -0.032089423 0.1774652 0.002153845 0.042550113 -0.07960104 0.020761758
0.042229302 -0.06679604 -0.06314055 0.16381183 -0.041993394 -0.09953886 -0.107384995 0.047228772
-0.086990945 0.0230595 0.0020584587 -0.07554657 -0.09457475 -0.072003305 0.02660233 -0.054090254
0.03918578 0.060955927 -0.07813938 0.061324477 0.11156529 0.034063485 0.03655429 -0.019238787

fc.bias f4 [6]
00000000: 0b62 b53c 4fed 30bd 0f0a 6dbc 1154 bdbc
00000010: 45d9 383d a2f6 4abd
0.022141477 -0.043195065 -0.01446773 -0.023111375 0.04512908 -0.049551614
